FedProx/cli1_model_parameters.pth (torch, 767010 bytes, 51 tensors)

conv1.weight f4 [32, 2, 3]
000000 df 6e 01 bd 50 bc 3e bc a0 20 fa 3c 3e 9a 51 3e
       -0.031599876 -0.011641577 0.030533135 0.20468995
000010 90 a8 a0 bc 93 52 1d 3e bf 45 0f be 59 95 82 3e
       -0.019611627 0.15363531 -0.1399145 0.25504568
000020 f1 76 32 be d6 d0 3a be 72 df de bd cb ab 81 3e
       -0.17428185 -0.18243727 -0.108824626 0.2532638
000030 19 f3 06 bc 2b b2 83 3d 7f d1 f2 ba 85 05 97 be
       -0.00823667 0.06430467 -0.001852557 -0.294964
000040 db 5f 9f 3e 72 43 71 be 14 29 49 3e 12 2e 67 3d
       0.3112782 -0.23560885 0.19644576 0.05644042
000050 ab 4b 98 3e 04 b8 45 be e8 b8 60 3d 48 82 92 be
       0.2974523 -0.19308478 0.05486384 -0.28615022
000060 b8 7c 97 3e b3 cd 1b 3e f4 c8 32 3d 58 8b c4 bd
       0.2958734 0.15215187 0.043648675 -0.0959689
000070 08 22 88 bd 84 73 be bd b5 a8 52 bc 39 f3 04 3e
       -0.06647116 -0.092993766 -0.012857606 0.12983407
000080 d2 33 5a 3e f8 50 0a 3e 40 9d 12 3c d7 49 af bd
       0.2130883 0.1350745 0.008948624 -0.08559006
000090 38 45 81 3e ba bf 3a be e1 b6 c9 3d b8 47 dc bc
       0.25248122 -0.182372 0.098493345 -0.026889667
0000a0 79 f3 aa 3e f9 b5 a6 3e 2c b9 a0 bd cb 18 70 3e
       0.3338888 0.3256071 -0.07847819 0.23446958
0000b0 e1 dd 7a bd 06 d5 06 3d b6 09 cf 3d d8 60 30 be
       -0.061246756 0.032918 0.10109274 -0.17224443
0000c0 6b d8 66 3d 55 da 97 bc 42 ce 4d be 16 c1 ea bd
       0.056358736 -0.018536726 -0.20098212 -0.114626095
0000d0 45 80 5a be 60 c5 9e bc 6e 6e 8b be 88 ca 75 be
       -0.21337993 -0.019381225 -0.2723269 -0.24003041
0000e0 14 af 30 be 60 37 3e bb 61 fe 7b be d8 b5 a0 3e
       -0.17254287 -0.0029024705 -0.24608757 0.31388736
0000f0 16 8d cb bd c6 31 45 be fa fa ec 3c 54 f1 18 3d
       -0.099390194 -0.19257268 0.028928269 0.037339523
000100 ea 47 e3 3d 8c 27 6c 3d f6 f7 81 bd ca 9f cc 3c
       0.11097701 0.057654902 -0.06346123 0.024978537
000110 4c 50 06 3d 98 6a 70 bd ca 35 e4 3d a0 49 a8 3d
       0.03279142 -0.058695406 0.11143072 0.08217168
000120 80 09 13 3d b9 7d 03 3e 1c a8 14 be 52 e7 40 3e
       0.03589773 0.12840928 -0.14517254 0.18838242
000130 7f ca be be 84 a1 80 3d 0b 9d 9c 3c 9f 61 86 be
       -0.37263867 0.06280807 0.019117853 -0.26246354
000140 db ad 7a 3e 30 55 3a 3c d4 c9 69 be e8 c6 27 3d
       0.24480383 0.011372849 -0.22830898 0.040961176
000150 b9 e7 79 bc bb bb 89 bd 2a 33 b0 3d 57 6a 9a be
       -0.015253001 -0.0672526 0.08603509 -0.30159256
000160 1e a7 c0 bd bc 7b 98 3e 2b 0e 49 3d ed b6 87 be
       -0.09406875 0.29781902 0.049085777 -0.2650675
000170 ec 0b 3b 3c c0 9b 0b bb a0 1b a8 be 58 e0 c2 3c
       0.011416417 -0.002130255 -0.32833576 0.023788616
000180 95 c8 b0 3e 78 e8 4e 3e 0e f8 68 bd 03 b0 89 3d
       0.34528032 0.20205867 -0.05687719 0.06723025
000190 12 72 a7 bd ff d9 be 3e a0 d7 4f bd 59 82 3b be
       -0.08176054 0.37275693 -0.050742745 -0.18311442
0001a0 c0 68 05 ba 52 48 3a be 3b a2 fd bd 6c 0a 9a be
       -0.00050891563 -0.1819165 -0.12384459 -0.30086076
0001b0 60 93 0a 3c 24 21 7f bd a4 84 65 3c 12 43 95 be
       0.0084579885 -0.062287465 0.014008675 -0.29152733
0001c0 e6 43 8d be 2f 0f 0e be 1e d6 0d 3d bc 76 d6 bd
       -0.27590865 -0.1387298 0.034628026 -0.104718655
0001d0 91 18 8f 3e b2 2c f3 bd 94 02 97 bd 9c 6d 12 3d
       0.2794843 -0.11873759 -0.073735386 0.035749063
0001e0 d4 c1 7e be 92 18 9c 3e f6 3e d2 bd ea 3c b2 be
       -0.24878627 0.30487496 -0.10265915 -0.348121
0001f0 64 cd c2 bd 17 c8 95 be 1c ff 11 be f2 7f 3a be
       -0.095118314 -0.2925422 -0.14257473 -0.1821287
000200 b1 61 90 3d 00 80 15 bc 90 f2 c5 3d e0 7e 26 be
       0.07049883 -0.009124756 0.09665406 -0.16259336
000210 3d 87 40 be 62 94 68 3e 32 bc 7b 3d a8 37 9a bc
       -0.1880159 0.22712854 0.061458774 -0.018825367
000220 00 77 b5 bc f2 b9 8e bd 87 2d 8d be 28 e4 69 3e
       -0.02215147 -0.0696906 -0.27573797 0.22840941
000230 10 18 70 bd 04 b8 b4 bd 08 93 0f bd 32 1b 89 3e
       -0.058616698 -0.08824161 -0.03505233 0.2677856
000240 cc 81 4c 3e 47 8c 39 3e 17 60 67 3e 54 e2 d7 bd
       0.19971389 0.18119918 0.22595249 -0.105412155
000250 81 fa 06 3e fc c7 79 be 4f 82 a8 bd a8 96 11 3c
       0.13181497 -0.24392694 -0.082279794 0.008886017
000260 9e c1 59 bd 2c 3e 4e 3e 50 93 93 3e 6c 3e b6 3d
       -0.053163163 0.20140904 0.28823328 0.08898625
000270 45 79 75 be 42 19 42 bd 0b 3e 40 be fc 5b 03 3d
       -0.23972042 -0.04738737 -0.18773668 0.032070145
000280 18 0b 47 3d 24 e1 ba be ba bb 4e bd 6a e2 a6 bd
       0.048594564 -0.36499894 -0.050472 -0.08148654
000290 ae c2 8e 3e 4c 91 f0 3d 26 d8 89 3d b7 9c 03 be
       0.27882904 0.11746463 0.0673068 -0.1285275
0002a0 ea bd 73 be d0 0e 35 be 2b 15 a3 3e 3c ab cf bd
       -0.23802915 -0.17681432 0.31852087 -0.10140082
0002b0 73 42 14 3e d4 4b be 3d 16 4b 70 3e ec 30 41 3e
       0.14478473 0.09291807 0.23466143 0.18866318
0002c0 19 c9 51 bd 18 71 91 bc 48 c9 1d bd 8a 43 59 3e
       -0.051217172 -0.017754123 -0.038522035 0.2121717
0002d0 f3 df 04 bc 12 8e bd 3e 8c 04 47 3e 3c 10 36 3e
       -0.008110034 0.37022454 0.19435328 0.1777963
0002e0 c4 77 10 bd e0 5a a0 be 98 27 34 3e 30 9a 03 3e
       -0.035270467 -0.31319332 0.17593229 0.12851787
0002f0 34 30 70 3e 9e ca 1a 3e c2 55 d0 3d 87 09 03 3e
       0.23455888 0.15116355 0.10172607 0.12796603

conv1.bias f4 [32]
000000 d2 36 30 bd c3 08 9a 3d 9d 7e c2 3d 3c 4b 7c bc
       -0.04302103 0.075212024 0.09496806 -0.015398797
000010 62 d5 d7 3d 38 cf 25 3e a1 6f 50 3d ca 9a 27 be
       0.105387464 0.16192329 0.050887708 -0.16367641
000020 d4 c5 3c 3a 12 17 1e bd e4 68 93 3d e6 ae ae 3d
       0.00072011095 -0.03859622 0.07197741 0.08529453
000030 b9 06 ee bd c9 d8 82 bd 68 ad ab 3d 22 8f 43 3e
       -0.11622376 -0.06389005 0.08382684 0.1909757
000040 8a a6 53 3d 9e 06 1d 3e 8f f3 ad bd 9f a5 0f be
       0.051672496 0.15334556 -0.08493721 -0.14028023
000050 96 e5 74 bd 44 0e c6 bd 4d d8 32 3e 84 ef 3c be
       -0.059789263 -0.0967069 0.17465325 -0.18450743
000060 1b 6b 06 bd ee ba 42 be eb b0 97 3e 57 76 2f be
       -0.032816987 -0.1901662 0.29627165 -0.17134987
000070 1f 38 ce 3c 1b 05 5a 3e 8a 09 fb bc 10 96 4b bd
       0.025173245 0.2129101 -0.030644197 -0.049703658

conv2.weight f4 [32, 32, 3]
000000 fc be f0 3b 98 1b a7 3d 9e a0 9a bd df 3c ca 3c
       0.007346986 0.0815956 -0.075501665 0.024687229
000010 69 93 2b 3c 00 d7 86 3d 87 c8 88 3b f0 a0 01 3d
       0.010472157 0.06583977 0.0041742953 0.031647623
000020 df 21 08 bd af f7 2e 3c 50 e5 fe bc c6 99 8b bb
       -0.033235427 0.01067917 -0.031115204 -0.0042602746
000030 d9 77 a6 bc 76 30 16 bc 60 3e a7 3c c8 57 7d 3d
       -0.02032082 -0.009166827 0.020415485 0.061851293
000040 29 1b 5a bd cd 92 32 bc ee b3 61 3d cc 05 95 bb
       -0.05324856 -0.010899258 0.055103235 -0.00454781
000050 7d b1 85 3b 28 c5 83 bc ef bf 06 bc 06 ed 3e 3d
       0.004079996 -0.016085222 -0.0082244715 0.046612762
000060 12 5e 8b bc ed 87 fc bb 35 07 a1 b9 50 3e c2 bc
       -0.01701263 -0.0077066333 -0.00030713683 -0.023711354
000070 87 0c 5b 3d 58 08 45 3c 70 3f 8b bc ce 64 90 3d
       0.053478744 0.012025915 -0.016998023 0.07050477
000080 1b a7 04 3c 46 f1 68 bc ec 7d 87 bd f6 d9 a5 3c
       0.008096482 -0.01421768 -0.066158146 0.020245533
000090 16 4c 71 bc 9e 23 87 bd 7e 4f 1e bd 9d 47 d4 3c
       -0.014727613 -0.0659859 -0.03865003 0.025913054
0000a0 a4 cd 7d 3c 61 fe e3 3c 4b 55 34 bd 3c 9e 6a bc
       0.015490923 0.027831258 -0.044026654 -0.014319953
0000b0 e7 3c 80 3d 60 25 2a 3d 22 15 9c bd cb c9 4f 3d
       0.06261616 0.04153955 -0.07621218 0.050729554
0000c0 15 c9 39 3d f6 e9 dd 3c 82 39 11 3c 6f aa 25 bd
       0.045357782 0.0270891 0.008863809 -0.04044574
0000d0 40 9b 2a bc 01 f5 bf bc 56 0f 61 bd a2 0a 02 3d
       -0.010412991 -0.023432257 -0.054946266 0.03174842
0000e0 bd c8 b4 3d 4a 8f ca 3b 4c 44 8d bd 45 6d f7 3c
       0.0882735 0.006181632 -0.06897792 0.030203471
0000f0 3c 37 8f 3d 46 14 0b 3b 13 3c 73 bd b4 c2 1f 3d
       0.06992957 0.00212218 -0.059383463 0.039004043
000100 d8 ca be bc 44 92 ca 3d d6 5c 19 3d 5a 6d 0c 3d
       -0.023290083 0.09891179 0.03744205 0.034283973
000110 03 39 11 bd f4 7c 28 bb e4 5f 9a bd 44 18 49 3d
       -0.03545476 -0.0025709243 -0.07537821 0.049095407
000120 d2 01 22 3d 99 ef 4b bd 82 4c 6c bd cb 21 80 3b
       0.039552517 -0.049789045 -0.05769015 0.0039102784
000130 b2 b0 6c bd 89 89 43 bc 94 a4 06 bd ad 8c 36 bd
       -0.057785697 -0.011934646 -0.032871798 -0.044567753
000140 12 50 17 3d d6 6d d0 3c 63 c5 de 3b 06 28 6e bd
       0.036941595 0.025442999 0.0067984327 -0.058143638
000150 9d 29 2d 3c 96 ca 7b 3c e8 a0 a0 bd 6e df 82 3d
       0.010569003 0.0153681245 -0.078431904 0.06390272
000160 04 d5 8d 3d e6 f0 64 bd 69 13 a6 3d b2 9d 5f 3d
       0.06925395 -0.0558938 0.08109171 0.05459375
000170 5f 88 0a bd 3f a8 dd bc 2a 5f d3 bb 50 50 96 bd
       -0.03382146 -0.027057765 -0.0064505534 -0.07339537
000180 1a 77 d2 3c 94 1f 95 bd 08 52 80 3c d1 f6 8f bc
       0.025691558 -0.07281414 0.015664116 -0.017573746
000190 fa 0e 7b bc a7 7e 36 bd 42 ca 1e 3d 5b 62 bd 3c
       -0.015323395 -0.04455438 0.038767107 0.023118189
0001a0 25 a6 c2 bc b2 41 1a 3c 17 c9 1d 3c c7 fe ca 3c
       -0.023760865 0.009415077 0.009630463 0.02477969
0001b0 21 14 24 bc 4c c7 08 3d 68 1d b2 bc 02 d2 3d bb
       -0.010014565 0.03339319 -0.021742538 -0.0028964286
0001c0 cd fc 6d 3d 5f 55 24 3d bd 6b eb bc 71 cc 8d bc
       0.058102418 0.04012048 -0.028737897 -0.0173094
0001d0 94 a9 02 bd 6f d5 3c 3d a8 6a 6c 3c 5b 0c 8a 3d
       -0.031900004 0.046101984 0.014429726 0.06740638
0001e0 47 29 9e bc 91 e7 6d 3d ac fe 85 3c 64 f5 e4 bc
       -0.019306792 0.058082167 0.016356789 -0.027949043
0001f0 16 90 1e 3d da 51 28 3c 76 34 60 3a 28 61 0b 3d
       0.03871163 0.010273421 0.0008552739 0.034028202
000200 31 8e b1 3d 95 07 9b 3c 1f 96 00 3d 7c d5 c0 3c
       0.08669699 0.018924514 0.031393167 0.023539297
000210 87 b0 8a bc ce 2e 7d bc da 95 09 bd 65 b9 32 3d
       -0.016929878 -0.015453054 -0.033590175 0.043633837
000220 f2 9b 5b 3a 6c 29 a0 bb 87 d2 97 3d 94 4f 66 3c
       0.00083774247 -0.0048877504 0.07413202 0.014057059
000230 f5 60 3b 3d 36 7a 99 bc 6b 51 2e bc a0 c6 01 3d
       0.045746762 -0.018735033 -0.010639529 0.031683564
000240 60 cd cd 39 10 3c 40 bd f4 b7 19 3c 36 1a 50 3d
       0.00039253663 -0.04693228 0.009382237 0.050806247
000250 4d 07 8b 3c 92 f7 c8 bc b8 5d 13 bd eb 1c 70 3b
       0.016971255 -0.024532113 -0.03597805 0.003663833
000260 42 76 9b bd 51 cd c9 3c 26 56 d7 bc 16 05 c9 3c
       -0.07590915 0.024634035 -0.026286196 0.024538558
000270 3a 0a 9f 3d aa f2 52 3a 14 ef ea bb 09 dc c8 3b
       0.077656224 0.0008047024 -0.0071696136 0.006129746
000280 68 1b 3f bd 06 16 32 3d d0 a1 04 3d 49 47 e1 3c
       -0.046656996 0.043478034 0.03238088 0.027499812
000290 af 50 cf bc 34 34 9a bd ba 98 77 3d c4 d8 0f 3d
       -0.025307028 -0.07529488 0.060448386 0.035118833
0002a0 c4 b6 5e bd 66 be be bd bb 83 12 bc 72 c5 37 bd
       -0.054373518 -0.09313659 -0.00894254 -0.044866033
0002b0 d6 92 9f 3b 1e 63 9e bd 7e e0 43 3d 82 23 89 3d
       0.004869799 -0.07733749 0.047821514 0.06696226
0002c0 82 fe 62 3d 63 b2 c3 bc b3 0c 01 3d a4 b6 a8 bc
       0.0554185 -0.023888772 0.03150625 -0.020594902
0002d0 48 39 56 bc 27 b4 44 3c 7f e9 fd 3c 28 b9 7a bd
       -0.01307518 0.012005842 0.030995129 -0.061211735
0002e0 77 16 98 bc 20 0e 70 3d b2 3a 21 3c 55 71 13 bd
       -0.0185654 0.05860722 0.009840654 -0.035996754
0002f0 27 28 a2 3a 7c 40 35 3d 5a 4c d2 bc 62 5d 1a 3a
       0.0012371585 0.04425095 -0.025671173 0.0005888549
000300 5d 9a 88 bd 25 97 cf 3c 24 7f c2 3d 8e 32 20 bd
       -0.066700675 0.025340626 0.094969064 -0.039110713
000310 32 b2 71 bd 11 2f 14 bd d7 00 19 39 ad ca 96 3b
       -0.05900783 -0.0361777 0.0001459153 0.0046017976
000320 75 f2 9b 3d 3a 42 fc bc ea 93 f4 3c ea eb 55 bc
       0.076146044 -0.030793298 0.029855687 -0.013056735
000330 c5 15 7f bd 68 de 84 3b f7 23 9d bd a8 d1 4d bc
       -0.06227662 0.004054833 -0.076728754 -0.012562193
000340 2c 02 60 3d 1e 19 ba 3d 47 b7 b3 bc ca 8b 6f bd
       0.05468957 0.09086822 -0.02193798 -0.058482923
000350 69 3b 91 bc 4e e7 d0 bc 4b 3c 7a 3d c0 ac de 3c
       -0.017728524 -0.02550092 0.061092656 0.027181983
000360 13 a8 0a bc 07 b5 a2 3b fc 55 cf 3c 44 11 83 3c
       -0.008462924 0.004965428 0.025309555 0.015999444
000370 80 2f d4 3c 6c 7a 2d 3a 20 01 a2 3c 7d dd e1 bc
       0.025901556 0.00066176686 0.019775927 -0.027571434
000380 42 63 8f bd 5d 38 21 3d 4d eb e9 3a b6 89 36 3b
       -0.07001354 0.039360393 0.0017846614 0.0027853078
000390 e6 a1 31 bc 29 54 20 3d b0 74 07 bc 9d 5f b6 3d
       -0.010841822 0.03914276 -0.008267567 0.089049555
0003a0 fc 7c 2e 3d 81 81 cb 3a de 0e a1 3d 84 33 44 bc
       0.042599663 0.0015526266 0.07864164 -0.011975173
0003b0 d7 c3 33 3d 0c 74 7b bb f2 4c 28 3d ba 9d 86 bd
       0.04388794 -0.003836873 0.041089006 -0.06573053
0003c0 c6 50 94 bc 0b ea 9d bd 61 84 69 3d a8 7a 08 bc
       -0.018104922 -0.07710656 0.057011012 -0.008330025
0003d0 39 d5 56 3d 8d 4b 17 bd 46 e9 28 3d eb 33 12 3c
       0.05244944 -0.036937285 0.041238092 0.008923511
0003e0 72 74 49 bd cc d5 da bb 06 97 35 3c e1 32 32 3c
       -0.049183317 -0.0066783186 0.01108337 0.010876388
0003f0 a7 dd ab 3d 82 eb 6b bb b8 50 02 3d ae 7a f4 bc
       0.08391886 -0.0035998528 0.03181526 -0.029843654

conv2.bias f4 [32]
000000 92 ee 02 bc 83 e6 1b 3d d8 e7 e2 39 9e 80 ac b9
       -0.00799145 0.03806163 0.00043278816 -0.00032902224
000010 ba fe 08 bd c2 5c 4d bd b2 f2 08 bd dc 00 a0 3c
       -0.03344605 -0.05013729 -0.033434577 0.01953166
000020 e0 13 24 3d f3 fc ce bc cc 7c 8c bc 16 55 ec 3c
       0.040058017 -0.0252671 -0.017149352 0.028849166
000030 18 2a bb 3d 55 61 94 bd e4 1a 91 3d e9 80 9e 3d
       0.09138888 -0.07245127 0.07085207 0.077394314
000040 d8 48 44 bc 53 16 fa bb a6 47 80 bd 98 c0 d7 bc
       -0.011980258 -0.007632056 -0.06263666 -0.026336953
000050 ff 3a 34 bd ae 0e 9c bb 2d 92 c2 3c f2 61 fd bc
       -0.044001576 -0.004762492 0.023751343 -0.030930493
000060 e3 c2 ed 3c 2a 37 e7 bc f1 cf 33 3c f4 1d 9d bc
       0.029023593 -0.028224546 0.01097487 -0.019179322
000070 9c 9b d2 3b e5 43 3e 3d 92 fa a5 3d cd 80 82 bd
       0.0064272415 0.046451468 0.08104433 -0.06372223

conv3.weight f4 [32, 32, 3]
000000 b3 df e4 bc 3b a5 56 3d 00 cb 1b bd f5 fb ff 3b
       -0.0279387 0.05240367 -0.038035393 0.007812018
000010 d6 e0 84 bd 28 79 42 bc 93 6e 01 3b 70 f5 bb 3c
       -0.064881966 -0.011869706 0.0019749745 0.022944182
000020 ca f2 4d 3c f1 5d 88 3d 2f 31 9d bc 03 cd a3 3c
       0.012570092 0.06658543 -0.019188492 0.019995218
000030 22 d9 ab 3d 97 72 75 bc fb aa 1c 3d a9 ab b9 bd
       0.08391024 -0.014980934 0.038248997 -0.09065945
000040 1a 01 75 3d 84 24 18 3d 35 28 2a bd 8c 00 4f bd
       0.059815504 0.0371442 -0.04154225 -0.05053763
000050 2d 1f e6 3c dd 0e 6a 3c 36 f3 4d 3d e6 74 b4 bd
       0.028091038 0.01428577 0.050280772 -0.08811359
000060 18 85 9b 3c 64 03 01 3d 4f 96 39 bc 30 83 8a 3c
       0.018984362 0.031497374 -0.01132734 0.016908258
000070 72 fe 59 bd 48 b9 4b 3d b6 61 b4 bc 15 54 7f bc
       -0.053221174 0.049737245 -0.022019248 -0.015584012
000080 1e 67 c1 3c 51 b2 19 bd b8 06 9b bb d4 95 1a 3d
       0.02360874 -0.03752357 -0.0047310255 0.037740543
000090 08 d2 dd 3c b0 10 d6 3c c7 26 ef bc 91 64 0f bd
       0.02707769 0.026131004 -0.029193295 -0.035008017
0000a0 60 8c 95 bd f6 e3 3c bc 63 16 2e bd ee 41 08 bd
       -0.07302165 -0.0115289595 -0.04250182 -0.033266
0000b0 b2 1b de 3c 0c 0c a5 3d 7f ee 1f bc d7 75 2d bd
       0.027112816 0.080589384 -0.009761452 -0.04234871
0000c0 d1 07 61 bd c1 38 4b bd bb ff 5a 3d e1 83 68 bd
       -0.054939095 -0.04961467 0.05346654 -0.056766395
0000d0 40 43 90 3c 96 04 65 bd 79 1f a2 3c e9 4e 74 bd
       0.017610192 -0.055912577 0.019790398 -0.059645567
0000e0 f9 3f 1e bd 6c d7 40 3d b5 76 fc 3c 72 88 31 bc
       -0.038635228 0.047080442 0.030818323 -0.010835754
0000f0 c9 5e 24 3c 1c 6c f5 bc a3 05 bc 3c 02 ae d4 bc
       0.010032364 -0.029958777 0.022951907 -0.02596188
000100 79 48 31 bd eb ad 76 bd ad 78 9f bc 84 ca c5 3c
       -0.043282006 -0.060224455 -0.019466722 0.024144419
000110 fa dd 12 bd 7c 83 63 bd ff 62 13 bc fc 2d 57 bc
       -0.035856225 -0.055545315 -0.0089957705 -0.013133522
000120 5c e5 4e bd ba 37 f1 bb 59 d7 b5 3d 36 ea e0 bc
       -0.050511703 -0.0073613795 0.08878965 -0.02745543
000130 0f 83 35 bd e5 ed 05 3d 91 b7 1a bb ac 6b 15 bc
       -0.04431444 0.032697577 -0.002360795 -0.009119909
000140 55 ed 44 3d a1 42 53 bd 2c 75 a9 3c ad 5f e5 3c
       0.0480779 -0.051577214 0.020685755 0.027999723
000150 7b 96 a0 3c ab 12 86 ba 7b 5c 0d 3d 44 72 3a 3d
       0.019603005 -0.0010228952 0.034512024 0.04551913
000160 13 4d ff bc 11 21 4f 3b 61 2b 72 bc a3 63 d7 bc
       -0.031164682 0.0031605402 -0.01478085 -0.026292628
000170 6a 61 f5 3c db 65 53 bd fb 24 40 3d b0 0a 2b 3d
       0.029953677 -0.05161081 0.046910267 0.04175824
000180 1c 85 34 3c 7e f2 27 3d 69 09 36 bd c1 d1 b6 3d
       0.011018064 0.041002743 -0.044442568 0.08926726
000190 f9 c3 70 bd e6 fe 86 3b b6 56 34 bd b5 78 f7 3c
       -0.058780644 0.0041197417 -0.044028006 0.030208925
0001a0 a4 64 bb bc 5f fa 79 3b 4d 03 67 bd d0 7c ba 3d
       -0.022875138 0.0038143618 -0.056399632 0.09105837
0001b0 96 3a 64 bb 8b 58 08 bd 85 56 24 3d 33 55 b8 bc
       -0.003482496 -0.033287566 0.040121574 -0.022501564
0001c0 e8 41 05 3d 70 c6 c8 bd a5 53 48 bd 72 59 32 bb
       0.032533556 -0.09803474 -0.048907895 -0.0027213958
0001d0 97 a9 3b 3c cf ea 2c bd 09 a2 15 bd fb 60 ba 3c
       0.011454008 -0.04221612 -0.036531482 0.022751322
0001e0 e3 62 0e 3d 30 36 58 3d 8e 29 64 3c d9 70 05 bd
       0.034762274 0.052786052 0.013925923 -0.032578323
0001f0 f2 ea b3 3c c6 9c 41 3d 1e c2 0f bc 25 cf 9b 3c
       0.021962617 0.04726865 -0.0087743085 0.019019673
000200 db ca 39 3c 36 e3 d2 3b c4 f4 f8 3c 03 3b 86 3b
       0.011339868 0.006435777 0.03039015 0.00409639
000210 68 46 4a 3d e3 fe f4 bc 65 f3 e3 3b d4 71 8f 3c
       0.04938355 -0.029906696 0.006956505 0.017510332
000220 35 df 07 bd c7 e0 6d bd 5a 03 e3 bc b5 76 04 bc
       -0.03317185 -0.058075693 -0.02771156 -0.008084943
000230 b8 12 e8 bc 32 72 98 3c d7 7e 91 3b 42 f6 26 bb
       -0.028329238 0.01860914 0.0044401693 -0.002547637
000240 db 44 76 3c 37 46 82 bd fb c1 95 3d ca 5d c1 bb
       0.015031065 -0.06361049 0.073123895 -0.005901073
000250 33 70 32 bd 02 df 05 3d 46 c8 39 3d 30 7b cc 3d
       -0.043564033 0.03268338 0.04535701 0.09984434
000260 a6 b4 59 bd c3 c8 8f bc bc e1 ca bc ff 16 0c 3d
       -0.053150795 -0.017551785 -0.024765842 0.03420162
000270 de f0 62 bb d6 11 59 bd 54 8c 05 3d de b0 f1 3c
       -0.0034628431 -0.052995525 0.03260453 0.029503282
000280 a4 aa de 3c 15 9a db 3b 16 b5 df 3c ce d4 bf 3c
       0.027180977 0.0067017176 0.027308028 0.023416903
000290 05 5e 9e bd 80 60 5c bd b2 ef 46 3d f8 60 80 bd
       -0.077327766 -0.053802967 0.048568435 -0.06268495
0002a0 a6 ed fd bb 50 75 95 3c 36 76 5c bd 98 9d e2 3c
       -0.007749277 0.018244416 -0.053823672 0.027663037
0002b0 a3 88 56 3c 76 77 8b bd c5 81 b4 3c 93 64 14 3d
       0.0130941 -0.06809895 0.022034535 0.036228728
0002c0 d1 e5 a9 bd 2c 0a 37 3c 19 bc 69 3d df 5c 49 bd
       -0.08295787 0.011171859 0.05706415 -0.049160834
0002d0 47 39 7c 3d a1 30 7c bd 91 ee 49 bd 91 f2 ee bc
       0.06157806 -0.061569814 -0.04929978 -0.029168399
0002e0 da 1b 84 bd 6e 01 17 3b 34 9b 40 3c fe cf c9 bd
       -0.06450625 0.0023041624 0.011755753 -0.098541245
0002f0 8a 64 e0 3c f9 70 85 bd 47 c3 f4 bc ae 4d de bc
       0.02739169 -0.065156884 -0.029878272 -0.02713665
000300 f5 4e 8f 3d 53 f1 8c 3b 2f 38 08 3d 35 80 6b bd
       0.06997482 0.004301229 0.033256706 -0.057495315
000310 6c 6d af bc 28 1a 73 3d e6 ef 2f bd 69 ed 56 3b
       -0.021414481 0.059351116 -0.042953394 0.0032795316
000320 0d ac 7d bc 89 38 89 bc 35 3b 45 3c 35 ae 08 bd
       -0.015482915 -0.01675059 0.012038042 -0.03336926
000330 1c 44 e5 3b c0 ca ac bd 28 61 95 bb 15 f5 a2 bd
       0.0069966447 -0.08437109 -0.004558701 -0.07956902
000340 f7 ae ab bd a4 71 dd 3d 35 df a1 bd 3b d8 dd bb
       -0.08382981 0.10812691 -0.079039015 -0.0067701614
000350 53 fd 45 3d 6a 79 a9 bc cf f3 dd 3c f5 ef 4c bd
       0.048337292 -0.020687778 0.027093796 -0.05003353
000360 f4 a1 7e 3d 1d de a2 bc 48 bd d6 bb e0 e9 36 3d
       0.06216617 -0.019881302 -0.006553326 0.044656634
000370 e4 49 24 bd 89 88 0f 3c 6f ec eb bc 51 3d 8f 3b
       -0.04010953 0.00876058 -0.028799264 0.004371323
000380 7f 64 cf bc 85 f4 91 3d a2 e1 4e bc d0 f7 77 3d
       -0.025316475 0.071267165 -0.012627037 0.060539067
000390 93 01 b7 bd 13 cb 67 bd c7 56 81 3b b9 a7 34 3d
       -0.08935847 -0.05659015 0.0039471122 0.044105265
0003a0 2d 0c e3 bb 7c 4f 89 3d b1 08 1b bd 25 d0 14 3d
       -0.0069289417 0.067046136 -0.037850086 0.036331315
0003b0 c3 7d 4f 3d 30 e8 26 3d 0d d9 20 bc da 49 20 bd
       0.050657045 0.040748775 -0.009817374 -0.03913293
0003c0 dc bb 40 bd 5e bc 08 3d 53 26 5b 3d e9 7f 11 3d
       -0.047054157 0.033382766 0.053503346 0.035522375
0003d0 82 2a c6 bc 01 27 19 bd 20 71 ac bc bd 58 bd bc
       -0.024190191 -0.037390713 -0.021050036 -0.023113603
0003e0 95 2e 9a bc 40 a8 84 bd 1a 3e cb 3a d3 87 22 bc
       -0.01882104 -0.06477404 0.0015506179 -0.009920078
0003f0 62 ba af 3d 57 99 c7 bc 39 79 a8 3d d9 b7 12 3d
       0.085804716 -0.02436511 0.082262464 0.035819862

conv3.bias f4 [32]
000000 74 0b 18 bd cb 3f 13 bd cf ca 6c bc 59 db 81 3d
       -0.037120298 -0.03594951 -0.01445265 0.06340665
000010 43 2a 26 bd 5a 6d b1 3c 2c e0 3f bd 4e 9a 89 3d
       -0.040567648 0.021658588 -0.046844646 0.067188844
000020 e8 1c f8 bb ad ad 50 3c a6 fa 97 bb 3b 69 76 bc
       -0.0075718053 0.01273672 -0.004638034 -0.015039737
000030 51 bd a1 bd 34 26 5a 3d 18 e8 ac bb 35 0c 9d 3c
       -0.07897437 0.05325909 -0.005276691 0.01917086
000040 60 71 62 3d 1d b1 84 bd ed f2 41 3d cd 55 41 bc
       0.055283904 -0.06479094 0.047350813 -0.011800242
000050 15 d5 76 3d ae 38 0f ba 87 16 97 bd a0 ea 42 bd
       0.060261805 -0.0005463463 -0.073773436 -0.047587037
000060 5d 51 ad bb 0e 45 20 3c a5 5c 81 3c ae 60 9f bc
       -0.0052892403 0.009782089 0.015791247 -0.01945528
000070 ce e5 9b 3d 03 e2 30 3d b9 ae 83 3d 15 b0 bd 3c
       0.07612191 0.04318429 0.0642981 0.023155252

conv4.weight f4 [32, 32, 3]
000000 10 8c f1 bc 4f 9c 64 3d 88 90 7c bb 95 4a f0 bc
       -0.029485732 0.05581313 -0.0038538296 -0.029332438
000010 23 de b6 bc 4c 89 b3 3c 61 b3 c5 3d a2 71 47 3d
       -0.02232272 0.021916054 0.096533544 0.048692353
000020 96 b3 56 bc 5e 5a 4a 3d 3c 83 05 bc 7c 74 33 3d
       -0.01310434 0.049402587 -0.0081489645 0.04381226
000030 d0 6c 25 3d 6a 14 d2 bb 2b 04 05 bd 93 a7 03 3c
       0.040386975 -0.006411125 -0.032474678 0.008035558
000040 35 d9 c1 bb 02 68 06 3d a6 db 01 3d 46 e2 08 3c
       -0.0059157857 0.032814033 0.031703614 0.008354729
000050 12 ac 49 bd 15 50 d2 3b 3c 46 8c bd 75 a1 33 3c
       -0.049236365 0.006418238 -0.06849334 0.010963787
000060 60 27 cb 3c 5d 5f 36 3c 9f 62 06 3c 25 ba ce bc
       0.024799049 0.011131135 0.008202224 -0.025235245
000070 65 89 24 3d 53 c4 dc 3a 40 e6 d6 3c 60 d1 b8 3b
       0.040170092 0.0016843177 0.026232839 0.005640194
000080 fb 14 cb bb ea b0 61 bd 4a 0d 39 3c e9 a2 65 3c
       -0.0061975694 -0.05510036 0.011294672 0.014015892
000090 6e 98 87 bc 31 32 ae 3c ff e2 e5 bc 65 4d 76 bc
       -0.016552176 0.021264168 -0.028062342 -0.015033101
0000a0 13 6b 19 3b 42 94 8f 3d 01 1e e5 bc 0b 8d c1 bc
       0.0023409768 0.070107 -0.027968409 -0.023626825
0000b0 d9 09 8f bc e5 85 56 bd 17 6d 10 ba 58 83 05 3c
       -0.01746075 -0.052373786 -0.000550942 0.008148991
0000c0 b3 24 21 3d ba 4c 75 bd 20 d7 53 bc 07 23 61 bd
       0.03934164 -0.059887625 -0.012929708 -0.054965045
0000d0 ec 4d 57 ba 85 f5 90 bd ca a1 86 bb 40 8e bd 3a
       -0.00082132104 -0.07078079 -0.004108642 0.001446195
0000e0 ea 00 85 3d c3 70 06 3d 1b 9a de 3b 7f df ec 3c
       0.06494315 0.03282238 0.006793273 0.028915165
0000f0 4e 8b 93 bd 3c 7a c0 3b 84 0b 15 bd e4 78 88 3c
       -0.07204305 0.0058739465 -0.036387935 0.016659208
000100 7c a4 10 bd 55 fb 43 3b fe a0 0c 3c b5 d1 b1 3c
       -0.035313115 0.0029904444 0.008583305 0.021706441
000110 92 8e 9a bb b2 fa 38 bc 2c a0 3d bd 97 31 a3 bd
       -0.0047167027 -0.011290239 -0.04629533 -0.07968443
000120 d5 6e 12 3c 16 37 47 3c 2b a7 db 3c 84 6d 5e 3c
       0.008937557 0.01215913 0.02681311 0.013575915
000130 72 8a ba bc 12 70 47 bc 44 cc 69 bd d9 74 c3 3d
       -0.022771094 -0.012172716 -0.05707957 0.09543771
000140 92 fe 76 bd b3 94 53 3d 20 f3 97 3c 1b 17 26 3b
       -0.06030137 0.051655483 0.018548548 0.0025343362
000150 8f 50 1b bd 82 b0 c8 3c 7d e0 59 3d c5 43 ad bc
       -0.037918624 0.024498228 0.053192604 -0.02115048
000160 11 85 ab 3c 84 f3 82 bd 79 49 a3 3d 38 eb ae 3b
       0.020937474 -0.06394103 0.07972998 0.005338099
000170 1f 74 fe 3c dc 5c b9 ba 30 a8 c9 3a ab c1 bf bc
       0.03106123 -0.0014142054 0.0015385207 -0.023407778
000180 22 24 97 3a d2 d1 f1 3c 85 36 a8 bc 63 87 f3 3c
       0.0011531154 0.029518995 -0.02053381 0.029727643
000190 a7 91 51 bd 13 76 1f bd fd f4 0e 3d 95 fc 85 bc
       -0.051164296 -0.038930964 0.034901608 -0.016355792
0001a0 a1 ee fa bb bf a4 07 3c 75 13 9a 3d 2f 8b 81 bd
       -0.0076578413 0.008279025 0.075232424 -0.06325375
0001b0 83 65 97 3c 17 8d 17 3d 92 7d b7 bd 06 49 d3 bb
       0.018481022 0.036999788 -0.089594975 -0.006447914
0001c0 e9 25 eb bb 4e 34 07 3d 4c 53 17 bd 4f 18 99 bd
       -0.00717615 0.033008866 -0.036944672 -0.074753396
0001d0 2e 97 84 bd d6 ef ac 3c e6 3c ab bc 0e 8c 3d bd
       -0.06474148 0.021110456 -0.020903062 -0.046276145
0001e0 6b 23 94 bd 72 f3 3c bd 06 bb 54 bc f4 d6 01 3a
       -0.07233318 -0.046130605 -0.012984043 0.000495299
0001f0 b1 17 71 3c 4c fa 3a 3c 6a 34 8c bd be 6a a1 bc
       0.014715121 0.0114122145 -0.06845935 -0.019704219
000200 7e f1 57 bc d9 5d 3f 3a 54 ac 00 3d a2 91 19 3c
       -0.013180135 0.0007300056 0.031414345 0.0093731005
000210 74 22 a6 3c d7 49 72 3c 43 95 f6 bb f6 a8 ed ba
       0.0202801 0.014788113 -0.0075251176 -0.0018132019
000220 a0 f1 12 bd 0f c3 24 3d 13 b7 9f bc 40 53 23 3d
       -0.035874963 0.040225085 -0.019496476 0.039874315
000230 3a 95 80 ba 5c b2 d0 3a ed b5 de bc 85 0f 7b bd
       -0.0009810098 0.0015922296 -0.027186358 -0.061294097
000240 81 09 23 bd eb f3 d3 3c 8c 23 13 3d d5 00 36 bd
       -0.039803986 0.025873145 0.035922572 -0.044434387
000250 2b 05 a0 3d 9a a1 3e bd ef ff e7 bb 52 89 41 bc
       0.07813486 -0.046540834 -0.00708007 -0.011812525
000260 54 87 be 3b 9d 70 b0 3d 56 ac 12 3d 9b 87 12 3c
       0.005814472 0.08615229 0.035808884 0.008943464
000270 0a 7c 86 3c eb 57 f5 bb f1 57 a6 3d 1b a6 1a 3d
       0.016416568 -0.0074872873 0.08122242 0.037756067
000280 b3 0a 03 3d 7b 1d 62 bd d4 34 3a 3d 29 72 c8 3c
       0.031992625 -0.055203896 0.045460537 0.024468498
000290 7d 85 df 3b c0 10 1f 3d 62 bc 35 3b 5e 4f 7e b9
       0.006821333 0.038834333 0.0027730693 -0.00024252894
0002a0 84 38 1e bd 9d 77 33 bd 59 bc bc 3d 7d 90 e0 3c
       -0.038628116 -0.043815244 0.09215612 0.027412647
0002b0 ec 82 2b 3b 0c 7a 14 bc 12 85 30 bd f5 2d cb bc
       0.0026170565 -0.009062301 -0.043095656 -0.024802187
0002c0 e7 fd 3c bc 7e 13 9e bd 4b d0 b0 bb 2c e0 62 bb
       -0.011535144 -0.077185616 -0.005395924 -0.003461848
0002d0 6b c3 de bc 06 29 41 3b a9 2c 35 3d bd 9e 06 3d
       -0.027192792 0.0029473915 0.044232044 0.03286623
0002e0 82 98 7a 3c b9 68 2f bc 9b 1b 00 3d 51 07 e6 bc
       0.01529515 -0.01070612 0.031276327 -0.02807966
0002f0 1c f0 56 bd 1b 69 5e 3c 65 74 c2 3c a4 2b 62 3a
       -0.05247508 0.013574864 0.023737142 0.0008627719
000300 5a e5 36 bd 4a d5 a9 3d ca aa 5a 39 07 b7 e5 3c
       -0.04465232 0.08292635 0.00020853724 0.028041376
000310 6f f5 6a bc a5 c3 6e bc f5 d7 ae 3c 3e b4 49 3d
       -0.0143407425 -0.0145730125 0.02134321 0.049244158
000320 b9 14 3f 3c 32 71 09 3d 38 6b fe 3c e4 fd 98 3c
       0.0116626555 0.033555217 0.031056985 0.018675752
000330 b8 a6 8d b9 02 5f c2 bc 41 57 ca bc 1a 89 ce 3c
       -0.0002701783 -0.023726944 -0.024699809 0.02521186
000340 16 53 9e bc d2 6e b2 3c 6c 8b 82 3d 85 fb 84 bc
       -0.019326728 0.021781359 0.06374249 -0.016233215
000350 7a c2 d9 3c 39 8e 03 bd 3e 20 60 3c d4 d1 67 bd
       0.026581991 -0.032118056 0.013679562 -0.056596592
000360 8a d9 7b 3c 82 1c 7b 3c 18 24 80 bd 2e 9d c3 3c
       0.01537169 0.015326621 -0.06256884 0.02387866
000370 ae e0 10 bd 62 e7 10 bd cd 90 bc 3c c2 6f 62 3d
       -0.03537052 -0.035376914 0.023018265 0.05528236
000380 71 fe 44 3c 69 78 15 bd cd 68 65 3d fd 8c d3 3c
       0.012023554 -0.036491785 0.05600815 0.025824064
000390 af 86 9a 3b ba bd 69 bc c1 61 1f bc 2a 43 b0 3c
       0.0047157626 -0.014266426 -0.009727896 0.021516401
0003a0 72 f3 05 3d 51 ed 35 bc d6 21 9d 3c e2 3b 04 3d
       0.03270287 -0.011103944 0.019181173 0.03228367
0003b0 b9 0d 3a 3d cd e8 ab 3c 32 83 fa ba 57 39 d0 3b
       0.045423243 0.020985032 -0.0019112586 0.0063544917
0003c0 c1 a0 95 3d 73 b6 e8 3c f5 c5 b1 3c 76 47 96 bc
       0.07306052 0.028407311 0.021700839 -0.018344622
0003d0 77 e7 46 3c 8e fb 97 bd ad ec d6 bd 9d dc 72 3d
       0.012140146 -0.07421027 -0.10494361 0.059292424
0003e0 c7 3d 18 bc 13 ee 80 3d 69 e6 96 bd a5 73 98 3d
       -0.009292073 0.06295409 -0.07368166 0.074439324
0003f0 ed 81 0a bd 63 ef 77 3d 04 80 89 3b 82 72 b6 bd
       -0.033815313 0.06053103 0.004196169 -0.089085594

conv4.bias f4 [32]
000000 fd 8b 32 bd fa f3 d6 3b ad 1b d7 bc e9 bd 9b 3d
       -0.043590534 0.006559846 -0.026258314 0.07604582
000010 f5 e9 b9 3d c3 86 88 3d 88 40 f2 3c f1 62 7e 3c
       0.09077827 0.06666329 0.029571787 0.015526519
000020 39 66 fc bb 7b 0e cb 3c db 2e 34 bd d9 ef af bb
       -0.0077026156 0.024787178 -0.043989997 -0.0053691682
000030 8e 5f 3b 3d 32 90 40 3d 76 c8 ab 3c b6 f0 8d bc
       0.045745425 0.047012515 0.02096961 -0.017326694
000040 d1 de a8 3c 2a c2 44 3d a4 eb 49 3d da 00 46 3b
       0.02061406 0.04803673 0.04929699 0.003021291
000050 9a cb ba bd 8c f1 fb 3c 39 97 7c bb 46 ed 59 bd
       -0.09120865 0.030754827 -0.0038542284 -0.053204797
000060 57 d2 69 3d 85 7e 81 3d 7f 9a ef 3c 6b f1 54 3d
       0.05708536 0.0632296 0.029248474 0.051988047
000070 5f 72 e4 3b ba 37 88 3d 7b 50 08 ba 44 48 dd 3c
       0.006971642 0.06651254 -0.0005199981 0.027011998

conv5.weight f4 [32, 32, 3]
000000 78 2c 92 bd 43 9d 91 bc 89 b1 e5 3c e1 e5 a8 3c
       -0.07137388 -0.017775184 0.028038757 0.020617427
000010 9a 16 91 bd 14 ad af 3c 52 c2 12 bd fa a0 ee 3b
       -0.07084389 0.021444835 -0.03582985 0.0072823735
000020 43 c0 61 3d ce 0f ab bc 00 06 ca 3b 80 7b 2b bc
       0.055114996 -0.02088156 0.006165266 -0.010466456
000030 ce 1c c1 3c af d9 7e bd 8f c6 02 3d 26 7e 17 bd
       0.023573305 -0.062219318 0.03192764 -0.03698554
000040 f9 f9 86 3d 7f a5 b7 3b ed cc 72 bd ad d2 96 3d
       0.06590647 0.0056044455 -0.059277464 0.07364402
000050 12 fa e0 bc 0f 11 de 3b fc 8c 06 3d 6b c1 7a bd
       -0.027462993 0.006776936 0.032849297 -0.061219614
000060 48 0a 88 ba fa 18 a9 3c 5b f7 44 bd 68 fc ae bc
       -0.0010379041 0.020641793 -0.04808746 -0.021360591
000070 06 cc 76 3b c8 da d5 3b 26 8d 67 bd b6 71 20 3d
       0.0037658229 0.006526325 -0.056531094 0.039170943
000080 22 34 bd 3c 91 67 ad bd 73 c4 33 bd 48 65 9b 3c
       0.023096148 -0.08467019 -0.04388852 0.018969193
000090 39 53 6e bd 9f cf 32 3d f2 c7 9c 3d 03 8b ec bc
       -0.058184836 0.043655034 0.07655324 -0.02887488
0000a0 89 44 75 bd 74 d6 9e bd 83 3f 92 3d c0 8e 14 3c
       -0.059879813 -0.077557474 0.0714102 0.009067237
0000b0 40 9b 7d bd 0d a8 98 3b cc b2 8d 3d fd 08 04 3d
       -0.061915636 0.004658705 0.069188684 0.032235134
0000c0 44 cf 4d 3d c0 55 a7 3b f0 9b 37 39 48 13 41 bd
       0.050246492 0.0051066577 0.00017510331 -0.04713753
0000d0 0a 19 b7 3b fd 4d 72 bd 01 c5 e2 3b 42 9f 10 3d
       0.0055877017 -0.059156407 0.0069204574 0.03530813
0000e0 73 5e 6c 3d 79 6c 77 bd a8 cd a2 39 54 20 84 bd
       0.05770726 -0.060406182 0.00031052274 -0.064514786
0000f0 99 82 cc ba 37 0e c9 3c b3 04 cd 3b ba 70 45 3d
       -0.0015602886 0.024542911 0.0062566637 0.048203208
000100 34 4c 46 bc 8e 44 96 3d 04 f2 10 3c d2 f9 5f 3b
       -0.012103129 0.073372945 0.0088467635 0.0034176004
000110 19 6f 28 3c e8 b6 de bb 5e 63 17 3d d7 62 82 bc
       0.010280394 -0.0067967065 0.03696 -0.015916271
000120 e7 40 65 3d b8 4d a1 bd f4 96 65 bc e9 7c 3c 3b
       0.0559701 -0.07876152 -0.014013041 0.0028760976
000130 d6 b2 20 ba d4 2d 35 3d dc 1f 4e bd 6c 61 e0 bc
       -0.0006130164 0.04423316 -0.050323352 -0.027390204
000140 e1 a0 86 3b 56 52 17 3c df 84 55 3c 23 e9 ac bd
       0.0041085337 0.009235939 0.013032167 -0.08442905
000150 3b 96 f2 3a 4d d5 39 3d 83 cc d9 3c d6 dc e3 3c
       0.0018507907 0.045369435 0.026586777 0.027815264
000160 e5 98 42 3c 0a 4d bf bd 6d 27 b6 3c 81 16 99 3c
       0.011877273 -0.09340866 0.022235597 0.018687489
000170 db 90 4d bd 65 05 37 bc de ba d5 ba ea 1c 21 3d
       -0.050186973 -0.01117072 -0.0016306301 0.039334215
000180 3d 59 d8 bc fe 1c 6d 3c 9d b6 47 bc 70 fd 86 bd
       -0.02640974 0.014472244 -0.0121895345 -0.06591308
000190 81 ab 9a 3c 67 7c 32 3c 90 29 07 bd 4b b1 86 3d
       0.018880608 0.010893918 -0.03299862 0.06576785
0001a0 54 97 ac 3c c4 c3 97 bc 72 44 3a bc cb 00 67 3d
       0.021068253 -0.018525966 -0.011368858 0.05639724
0001b0 5b f3 c1 bc bd b4 d7 bc a3 8d e7 3a 45 f4 84 3c
       -0.023675611 -0.0263313 0.0017666112 0.016229758
0001c0 79 d1 58 bd 7b 93 df 3b 8c 0f 32 3d b1 28 e1 3c
       -0.052934144 0.006823001 0.043471858 0.027485223
0001d0 94 74 4e 3c 68 c9 93 bd 8b 4d 13 bd 02 03 59 bd
       0.012601037 -0.072161496 -0.035962623 -0.052981384
0001e0 75 05 38 bc 94 03 de bc b7 70 45 3d c9 19 8f bc
       -0.01123177 -0.027101316 0.048203196 -0.01746835
0001f0 d0 9a b1 bb 3c 25 a7 3d 14 08 c6 bc 70 a5 b0 bd
       -0.0054200664 0.08161399 -0.024173774 -0.08625305
000200 5d 70 93 bd 2f b4 ee 3c d8 82 8d 3d dc c4 ac 3d
       -0.07199166 0.029138653 0.06909722 0.084359854
000210 17 12 1c bc ee 1c 45 3d c1 10 60 bb 2e d0 e9 bc
       -0.009525797 0.048123293 -0.0034189674 -0.02854165
000220 bb 1b 39 bd bd 75 e4 bb f7 a2 00 bd 85 c7 61 3b
       -0.04519246 -0.0069720433 -0.031405415 0.0034451198
000230 64 90 0d bb 8c 70 04 3c 36 21 c3 bc 66 cd 08 bd
       -0.0021600956 0.008083474 -0.023819547 -0.03339901
000240 d7 61 93 3d 66 f5 2c 3d dd a2 b2 bc c5 e5 a6 3d
       0.07196396 0.042226218 -0.021806175 0.08149294
000250 5c d1 00 3d 3b bb 8c bc 48 9e 60 3d b4 e6 22 bd
       0.03144966 -0.017179122 0.05483845 -0.039770797
000260 62 97 a0 3d 8c 2f 9b bc 7b f5 05 3d e6 fa 7c bd
       0.07841374 -0.01894357 0.03270481 -0.061762713
000270 4b 19 8d 3d 16 17 07 3d d0 7f 85 bc 20 8c 8b 3d
       0.0688959 0.032981 -0.016296297 0.06813836
000280 8a f8 f4 3c c4 bd c7 3b 45 ff 0d bd f9 e7 0c 3b
       0.029903669 0.00609562 -0.034667272 0.0021500571
000290 c3 ab 97 bd db a6 22 3d fd 4b 3e bd a9 63 a2 bd
       -0.07405808 0.039709907 -0.046459187 -0.07929165
0002a0 0e 56 1e 3c 99 71 28 bd a4 62 12 3c ff 32 7c bd
       0.009664072 -0.04112396 0.008934651 -0.06157207
0002b0 48 a5 4b bc 76 09 b9 3c d2 50 91 3b fe ca 26 bc
       -0.012429543 0.02258752 0.0044346834 -0.010180233
0002c0 7d db 41 3d f5 6f c9 bc 15 d4 a7 3c 50 3c 88 bd
       0.04732846 -0.024589518 0.02048687 -0.06652129
0002d0 ef 03 88 bc e3 07 f6 bb 76 10 87 3c 9c 3c f2 3c
       -0.016603438 -0.0075082644 0.016487341 0.029569916
0002e0 57 3f ff bb c4 e8 1d 3c 05 da 2a 3b cf 68 8e bb
       -0.007789533 0.009638015 0.0026069891 -0.0043459903
0002f0 06 c4 df bc d1 7e b2 3d 43 f6 85 3c f9 4a fa b9
       -0.027315151 0.087155946 0.016352778 -0.00047739575
000300 b1 27 d9 3c b6 57 87 bd f0 90 60 3d 27 4b 3d 3c
       0.026508184 -0.066085264 0.054825723 0.011553562
000310 39 78 2d bd d5 3e 33 bc 30 09 4e bd a6 ac 0c 3d
       -0.04235098 -0.010940273 -0.05030173 0.034344338
000320 7b ed b1 3c ee 06 d6 3a 25 6f 7c 3d 07 1e aa bb
       0.021719685 0.001632897 0.061629433 -0.005191568
000330 5f 2c 25 bd 3c 4a 5a ba 90 17 a3 3b 20 b9 67 3d
       -0.04032552 -0.0008327102 0.004977174 0.056573033
000340 93 34 07 3c 06 df 49 ba b7 0a 03 bd f8 ad c9 3c
       0.008252281 -0.00077007746 -0.03199264 0.024619088
000350 3b 34 b9 bc 72 ba 3a 3d dc 9f 61 bd 57 97 e2 3c
       -0.022607913 0.045587964 -0.055084094 0.027660055
000360 df b4 25 bd f9 75 96 bc 2b 14 68 3c d8 77 cc 3c
       -0.040455695 -0.0183668 0.014164965 0.02495949
000370 15 ff a0 3d 92 e0 20 3d 38 7f 38 3c 8f 6a f3 3b
       0.07861153 0.039276667 0.0112608 0.0074284743
000380 1f 05 d9 b9 63 05 7e 3d 5c cf 7d 3c 7b 21 4f 3d
       -0.0004139328 0.062016856 0.015491333 0.05056904
000390 75 d4 69 bd d8 3a a6 3c 7b 1b 0d bd 2e 6a 8d 3c
       -0.05708738 0.02029173 -0.034450036 0.017262544
0003a0 e0 2a 8e bd 20 29 d3 bc 98 71 9e 3c 73 32 b4 bc
       -0.069417715 -0.025776446 0.019341275 -0.021996712
0003b0 0d 44 f3 bc 9e 72 3f bd 8c 6c 19 bb 9a 77 83 bc
       -0.029695535 -0.046740167 -0.0023410646 -0.016048241
0003c0 32 b4 80 3b 43 ba fe bc 61 41 96 bd 88 d2 bd bb
       0.003927731 -0.031094676 -0.07336689 -0.0057929195
0003d0 de 6d 17 bc 87 5c 9f 3d 6b af 63 bc da 00 93 3d
       -0.009242503 0.0778132 -0.013896803 0.07177897
0003e0 14 a5 05 3c d1 6b aa bc 64 3a 19 bd 0a 9c c2 bd
       0.0081570335 -0.020803364 -0.0374092 -0.09502418
0003f0 a0 df 1b 3c fe a8 09 bd 4c 5e 4f bd 92 92 2d 3d
       0.009513766 -0.03360843 -0.050627038 0.04237611

conv5.bias f4 [32]
000000 5c 9f 25 3d f4 21 0d 3d 40 2c 06 3d 10 15 9a bd
       0.04043518 0.03445621 0.032757044 -0.075235486
000010 69 f0 e6 3c 4b c8 8f bd 4a 9c 1e 3d c6 64 88 bd
       0.028190808 -0.07020625 0.038723268 -0.06659846
000020 5a 61 2a ba c1 55 16 bc c8 5f 0b bb 68 44 c9 bc
       -0.0006499492 -0.009175719 -0.0021266807 -0.024568751
000030 39 f3 38 3d 00 a8 53 bd 3d d8 29 3d c9 6a 26 3b
       0.04515383 -0.05167389 0.041465987 0.0025393239
000040 e7 3a b7 3b 91 37 42 bd 20 01 a6 bc 9b 94 1a 3d
       0.0055917385 -0.047416274 -0.020264208 0.037739377
000050 b5 24 87 3b e7 10 db 3c b6 c1 67 bd 0e ee 90 bd
       0.004124249 0.026741458 -0.05658122 -0.07076655
000060 36 b9 11 3d e9 c6 82 bd 93 5e 81 bd 5a 9c 43 bb
       0.03557702 -0.06385595 -0.06316867 -0.0029847831
000070 26 64 20 3b c9 e0 0b bd e8 c8 5d 3d 2b f4 9e 3c
       0.0024473756 -0.03414992 0.054146677 0.019403538

conv6.weight f4 [32, 32, 3]
000000 b3 87 89 3d 05 f7 5e 3d 73 ae b7 3d 58 60 ba 3d
       0.06715336 0.054434795 0.089688204 0.09100407
000010 fc 89 c6 bb d0 d2 b9 bb c0 e2 17 3d 6f 2d b7 bb
       -0.0060589295 -0.0056708828 0.03708148 -0.005590133
000020 b2 0c 16 bd e6 5a c1 3c 13 4c 84 3c 4b 1a d7 bc
       -0.0366332 0.023602914 0.016149556 -0.026257655
000030 25 18 5e bd 39 c1 ce bc b9 f0 3a 3d 27 60 c0 3d
       -0.054222245 -0.02523862 0.045639727 0.093933396
000040 0d 50 75 3d 43 65 a0 3d 53 21 78 3c a1 b1 48 bd
       0.059890795 0.07831814 0.015144664 -0.048997525
000050 ef 48 c5 ba f4 81 2d 3c a7 b4 00 bd 1d 87 97 bd
       -0.0015051643 0.010590065 -0.031422284 -0.07398818
000060 62 56 d5 bc 15 9f 23 bd 63 07 52 bd 41 18 a0 3c
       -0.026042167 -0.039946634 -0.051276576 0.019542815
000070 14 d3 1c 3d aa 0c 7e 3d 4f 56 e6 bc 87 95 24 bd
       0.038287237 0.062023796 -0.028117327 -0.040181663
000080 47 20 19 bb 9e b6 5e bd 75 40 6f bd 35 8b 3a 3c
       -0.0023365186 -0.054373376 -0.05841108 0.011385729
000090 24 10 27 3b 3a d8 7e 3d 4a 47 b3 bd fd ec ad 3c
       0.0025491798 0.06221793 -0.08753832 0.021231169
0000a0 12 bb cd bc dc 47 86 bc 85 fe 3e bd 13 10 d9 3c
       -0.025113616 -0.016391687 -0.046629447 0.026496923
0000b0 90 6c b1 3c e5 6c 6a 3d b3 45 4f 3d e6 59 19 bc
       0.021658212 0.057232756 0.05060358 -0.009359812
0000c0 df 4e 93 bd aa c0 01 bd d7 eb c3 bb 88 2a 70 bd
       -0.07192778 -0.03167788 -0.005979042 -0.05863431
0000d0 28 5c 8b 3d c1 7c 05 3d c0 1e 29 3d ca a8 80 bd
       0.06804687 0.032589678 0.04128909 -0.06282194
0000e0 67 35 05 bd 51 ec 87 3c 7b 8e 90 3c 5a 23 ae bc
       -0.03252163 0.016592177 0.017646065 -0.021257091
0000f0 8e 83 66 3c 9e f9 85 3d b4 dc ef bb 3e ee 52 3d
       0.014069451 0.06541751 -0.007320011 0.051496737
000100 1d 5b a7 bd 8a 36 ce 3c 8b dc e6 3c f6 d3 99 b9
       -0.08171675 0.02517249 0.028181335 -0.00029340357
000110 6d c1 25 b9 0c b9 58 bd 00 20 62 bd d0 fd b8 3c
       -0.00015807683 -0.05291085 -0.0552063 0.022581965
000120 ab 19 81 3d eb d8 15 3d 48 94 2b bd 82 05 3b bd
       0.06303724 0.036583822 -0.04188946 -0.04565955
000130 b9 ce 0f 3d 3d 21 19 3d ff 5f 1e 3d f6 7a 7c bd
       0.035109255 0.037385214 0.038665768 -0.061640702
000140 eb 80 f8 3b d4 f5 9d 3c 98 e5 5e b7 f2 77 79 3d
       0.0075837276 0.019282259 -1.3285688e-05 0.060905404
000150 c6 35 0f 3d cc dc a0 3c 8e 33 4b bd 40 97 f6 bc
       0.03496339 0.019636534 -0.049609713 -0.030101418
000160 da 5d 15 3d 19 ec 19 3d f8 d2 1b bd 56 1d 17 bc
       0.036466457 0.037578676 -0.038042992 -0.009223303
000170 e5 42 f7 3c 67 92 57 3c 2e 1d c4 3c 34 8b b7 bc
       0.030183265 0.013157464 0.023939695 -0.022405244
000180 47 75 ef 3c 33 0e f5 bb 31 b5 b0 3c 52 90 29 bd
       0.029230727 -0.0074784993 0.021570774 -0.0413974
000190 b4 0e 8e bd 4f 4e 32 3d 9b 91 99 bd 75 e3 17 3b
       -0.06936398 0.043531712 -0.07498475 0.0023176346
0001a0 8c cc e5 bc bb 43 d0 bd b3 10 8a 3a 04 f6 0e bd
       -0.028051637 -0.101691686 0.0010533541 -0.034902588
0001b0 42 51 12 3b b4 07 2a 3d 20 10 ad bc 3e f8 96 3d
       0.0022326265 0.041511253 -0.021125853 0.07371567
0001c0 21 db a6 bb a6 cc a0 3c fb da 84 bd bc 63 8b 3d
       -0.00509204 0.019628834 -0.0648708 0.06806132
0001d0 bf 22 dd bc f1 53 21 3c 06 31 97 3d e5 85 3c bd
       -0.026994107 0.009846673 0.07382397 -0.04602613
0001e0 9e 7a 04 bd 4f 89 29 3d 4b 6d 4d 3c 73 26 13 3d
       -0.0323435 0.041390713 0.0125382645 0.03592534
0001f0 41 75 c9 3b 43 a7 cd 3c 6b be e8 3b a0 60 9e bd
       0.006148011 0.02510417 0.0071027777 -0.077332735
000200 6a ff 1a 3d 59 b3 4a bb 10 ee 56 3c f3 b2 e4 3b
       0.037841238 -0.0030929653 0.013118282 0.00697934
000210 39 af 35 bd 1a b5 bb 3c 62 68 92 3c 3c 08 e1 3a
       -0.04435656 0.022913504 0.01787204 0.0017168592
000220 56 75 61 3d 04 75 78 bd ae 10 35 bc a2 58 17 bd
       0.05504354 -0.06065847 -0.01105134 -0.03694976
000230 8c b8 8e 3b e3 fb 35 bd b1 71 77 bd f8 b9 19 3d
       0.004355496 -0.04442967 -0.06041116 0.03753087
000240 f0 66 cd 3c ed bf 56 3c 2f d3 2b 3b 25 a5 01 bd
       0.025073498 0.013107282 0.0026218405 -0.031651635
000250 5e a9 07 3d 03 a9 ae 3c 5d 32 1e bd 08 d5 3a 3d
       0.033120506 0.021320825 -0.03862225 0.04561332
000260 c8 27 d5 3c 27 50 a9 bd bf dc 9b bd 36 48 e9 bc
       0.026019946 -0.08267241 -0.07610463 -0.028476816
000270 ca b6 95 bc ab b7 12 bd 78 b6 47 3d 9b 1c 42 bc
       -0.018275637 -0.03581969 0.048758 -0.01184764
000280 e2 7b 98 3d 03 58 4a 3d 76 87 1a bd 07 c4 4a bd
       0.07445504 0.04940034 -0.037726842 -0.049503352
000290 92 91 a5 ba a1 15 90 3d d1 59 96 3d 4b 32 4e bd
       -0.0012631884 0.070353754 0.0734135 -0.05034093
0002a0 2e 24 56 3c fa 9f 54 bd 17 ac 3c bb 45 9d c8 bc
       0.013070149 -0.051910378 -0.0028789097 -0.024489054
0002b0 b1 f7 5e bd 37 7f 15 3d 58 39 ab bc 6c 79 59 3c
       -0.054435436 0.036498275 -0.020901367 0.013273578
0002c0 9d 5c 51 3d 79 ab 1c 3d 8c e9 8c bc 5d e4 55 bd
       0.051113714 0.038249467 -0.017201208 -0.052219737
0002d0 97 13 63 bd d2 66 1a bd d2 e5 9e 3d 67 5e 08 bd
       -0.055438604 -0.037695713 0.077586785 -0.033293154
0002e0 bd 8e 1b bc df 11 be bc 07 a8 68 3d d8 e1 8b bc
       -0.009494481 -0.023201881 0.05680087 -0.017075464
0002f0 29 66 04 bd 08 9e 5d 3d 70 be 93 bd eb ab 9b 3d
       -0.03232399 0.05410579 -0.072140574 0.0760115
000300 d7 11 01 bd a0 ab 81 bc 53 15 81 3d 2b 12 54 bc
       -0.031511154 -0.015828907 0.063028954 -0.012943785
000310 ea ab 00 3d 40 2b 5d bd 7e 2e b4 bd a0 ef b9 bd
       0.03141395 -0.053996325 -0.0879793 -0.09078908
000320 5f 12 ae bb 25 c5 0a bd 62 bd c6 3c fd ca af 3c
       -0.0053122486 -0.033879418 0.024260227 0.021459097
000330 01 3a d2 3c dc 53 fc bb 32 ae 4c bd 6c 70 03 bd
       0.025662424 -0.0077004265 -0.049970813 -0.032089636
000340 95 34 4c bd 6e a1 94 ba 59 42 bf bb b3 41 d5 bc
       -0.049854834 -0.0011339614 -0.0058367667 -0.026032304
000350 ba c0 83 3c 26 bb cd bc 1a b5 af 3d 4d e1 1a 3c
       0.01608311 -0.025113653 0.08579464 0.00945313
000360 8d de a5 39 7d 08 75 bd ff 4d 2d 3d 9d 28 0e 3d
       0.00031637066 -0.05982255 0.04231071 0.0347067
000370 0e 47 34 3c 9d 82 09 bd 9c 4d ca ba 9a 55 fd bc
       0.011003269 -0.03357183 -0.0015434506 -0.030924607
000380 48 0e 31 3d 8b bb c3 3c 27 b0 81 bc 72 51 06 bd
       0.04322651 0.023893138 -0.015831066 -0.032792516
000390 6c 34 86 3c 9e f2 e9 3c 34 68 4c bc 2f 24 de bc
       0.016382419 0.028558072 -0.012476016 -0.027116863
0003a0 28 f6 c8 bc e1 e5 4e 3d e2 23 e9 3b 5a d7 fd bc
       -0.024531439 0.0505122 0.0071148733 -0.030986477
0003b0 f8 c7 59 3d 18 71 91 bd 4d b4 b2 bc be 90 c6 bc
       0.05316922 -0.07101649 -0.02181449 -0.02423894
0003c0 3f 2c 3c bd e4 db be 3c 3a c3 77 bc d3 54 ce bd
       -0.045940634 0.023298211 -0.015122229 -0.10074773
0003d0 71 1f 6b bd 43 4a fe 3b 26 88 04 3d cd 00 3f bd
       -0.05740303 0.0077603175 0.032356404 -0.046631623
0003e0 8a 83 66 3c 61 b8 30 bd 04 a6 5e bd 7c 53 c8 bd
       0.014069447 -0.043144587 -0.054357544 -0.097815484
0003f0 c7 58 03 bc a3 3d cc bc 0d 8b 05 3d 6f 1d 16 bd
       -0.008016772 -0.024931734 0.032603312 -0.036649164

conv6.bias f4 [32]
000000 e9 7d fc bb 9f 7e 05 bd 7f 0e c2 3b 39 6c 69 3d
       -0.0077054393 -0.03259146 0.005922138 0.056987975
000010 37 ee 25 bc 73 c7 44 bd fd 3c 45 bc d7 b1 a6 bd
       -0.010127596 -0.048041772 -0.0120384665 -0.08139389
000020 67 78 23 bc 5f f6 87 3b 6b 65 0d 3d 7b 6a 0e bb
       -0.009977437 0.004149243 0.034520548 -0.0021730948
000030 a1 fb 60 3a 05 11 23 bd 15 29 2c bd 93 99 80 bd
       0.00085824175 -0.039811153 -0.042031366 -0.06279292
000040 97 b0 94 bd 88 86 16 3d f9 60 92 3d f4 e5 8c bd
       -0.07260244 0.036749393 0.07147402 -0.068797976
000050 4d 58 f4 3c 14 3e 96 bd a0 d8 96 bc 99 ac 1e bd
       0.029827261 -0.07336059 -0.018413842 -0.03873882
000060 c2 b4 33 3c ea 7a 82 3d e7 10 cd 3c a3 84 f7 bc
       0.010968389 0.063711 0.025032474 -0.030214613
000070 17 bf ae bc 08 5a fd 3c 45 f0 32 3d d9 28 89 3d
       -0.021331353 0.03092672 0.04368617 0.06697244
