FedProx/cli2_model_parameters.pth (torch, 767010 bytes, 51 tensors)

conv1.weight f4 [32, 2, 3]
00000000: df6e 01bd 50bc 3ebc a020 fa3c 3e9a 513e
00000010: 90a8 a0bc 9352 1d3e 5911 0fbe 7a88 823e
00000020: 98cc 32be d6d0 3abe 72df debd cbab 813e
00000030: bdbe 06bc 85e8 843d 2fb3 80ba 8505 97be
00000040: db5f 9f3e 7243 71be 7641 493e e650 673d
00000050: cb41 983e 04b8 45be e8b8 603d 4882 92be
00000060: 298f 973e db9b 1b3e dfaa 323d 588b c4bd
00000070: 0822 88bd 8473 bebd bd98 4ebc 27ef 043e
00000080: 2b14 5a3e f850 0a3e 409d 123c d749 afbd
00000090: 433d 813e fe64 3bbe d697 c83d b847 dcbc
000000a0: 79f3 aa3e f9b5 a63e 78be a0bd 5210 703e
000000b0: d125 7bbd 06d5 063d b609 cf3d d860 30be
000000c0: ce62 6a3d 3c7e 93bc 0e33 4dbe 16c1 eabd
000000d0: 4580 5abe 60c5 9ebc 6e6e 8bbe 88ca 75be
000000e0: 14af 30be 6037 3ebb 61fe 7bbe d8b5 a03e
000000f0: bf67 ccbd 4993 45be 626b ea3c 54f1 183d
00000100: ea47 e33d 8c27 6c3d b094 7fbd 9272 d23c
00000110: 89aa 093d 986a 70bd ca35 e43d a049 a83d
00000120: 3391 133d a9a6 033e 1cb1 14be 52e7 403e
00000130: 7fca bebe 84a1 803d f281 943c 3c1b 87be
00000140: 1960 793e 3055 3a3c d4c9 69be e8c6 273d
00000150: 6c25 6cbc 129d 87bd d9e7 b13d 576a 9abe
00000160: 1ea7 c0bd bc7b 983e a75d 4d3d cb2b 87be
00000170: e450 4b3c c09b 0bbb a01b a8be 58e0 c23c
00000180: a5f9 b03e e18b 4e3e 25bc 68bd 03b0 893d
00000190: 1272 a7bd ffd9 be3e 330b 54bd 986d 3cbe
000001a0: ee7d b2ba 5248 3abe 3ba2 fdbd 6c0a 9abe
000001b0: 6093 0a3c 2421 7fbd a484 653c 1243 95be
000001c0: e643 8dbe 2f0f 0ebe 21c2 0c3d 9e44 d7bd
000001d0: 55c7 8e3e b22c f3bd 9402 97bd 9c6d 123d
000001e0: a34e 7ebe f05c 9c3e 4051 d1bd ea3c b2be
000001f0: 64cd c2bd 17c8 95be 1cff 11be f27f 3abe
00000200: b161 903d 0080 15bc 90f2 c53d e07e 26be
00000210: 768a 40be 4c8e 683e 6bc8 7b3d a837 9abc
00000220: 0077 b5bc f2b9 8ebd 872d 8dbe 28e4 693e
00000230: 1018 70bd 04b8 b4bd 0893 0fbd 321b 893e
00000240: d767 4c3e fa9e 393e f324 673e 54e2 d7bd
00000250: 81fa 063e fcc7 79be 4f82 a8bd a896 113c
00000260: 9ec1 59bd 2c3e 4e3e 5093 933e 6c3e b63d
00000270: ba9b 73be 18de 3abd 7260 3ebe fc5b 033d
00000280: 180b 473d 24e1 babe 2a21 50bd 01c8 a7bd
00000290: 4bd0 8e3e 4c91 f03d 26d8 893d b79c 03be
000002a0: 4255 74be e0db 35be 4c7a a23e 3cab cfbd
000002b0: 7342 143e d44b be3d fcfb 6f3e 7864 413e
000002c0: c15b 50bd 1871 91bc 48c9 1dbd 8a43 593e
000002d0: 0e3e 0cbc 3092 bd3e ede8 463e 3c10 363e
000002e0: c477 10bd e05a a0be 67b9 343e a63e 043e
000002f0: 9be4 703e 9eca 1a3e c255 d03d 8709 033e
-0.031599876 -0.011641577 0.030533135 0.20468995 -0.019611627 0.15363531 -0.13971461 0.25494748
-0.17460859 -0.18243727 -0.108824626 0.2532638 -0.0082241865 0.06489662 -0.0009819026 -0.294964
0.3112782 -0.23560885 0.19653878 0.056473635 0.29737696 -0.19308478 0.05486384 -0.28615022
0.2960141 0.15196173 0.043619987 -0.0959689 -0.06647116 -0.092993766 -0.012609658 0.12981854
0.21296756 0.1350745 0.008948624 -0.08559006 0.2524205 -0.18300244 0.097945854 -0.026889667
0.3338888 0.3256071 -0.07848829 0.23443726 -0.06131536 0.032918 0.10109274 -0.17224443
0.057223134 -0.01800453 -0.20039007 -0.114626095 -0.21337993 -0.019381225 -0.2723269 -0.24003041
-0.17254287 -0.0029024705 -0.24608757 0.31388736 -0.099807255 -0.19294466 0.028615657 0.037339523
0.11097701 0.057654902 -0.06239766 0.025689397 0.0336099 -0.058695406 0.11143072 0.08217168
0.036027145 0.12856545 -0.14520687 0.18838242 -0.37263867 0.06280807 0.018128369 -0.26387966
0.24353065 0.011372849 -0.22830898 0.040961176 -0.014413219 -0.06621756 0.086867996 -0.30159256
-0.09406875 0.29781902 0.050138142 -0.264006 0.012409423 -0.002130255 -0.32833576 0.023788616
0.34565464 0.20170547 -0.056820054 0.06723025 -0.08176054 0.37275693 -0.051768493 -0.18401182
-0.0013617852 -0.1819165 -0.12384459 -0.30086076 0.0084579885 -0.062287465 0.014008675 -0.29152733
-0.27590865 -0.1387298 0.034364823 -0.105111346 0.27886453 -0.11873759 -0.073735386 0.035749063
-0.24834685 0.30539656 -0.10220575 -0.348121 -0.095118314 -0.2925422 -0.14257473 -0.1821287
0.07049883 -0.009124756 0.09665406 -0.16259336 -0.18802819 0.22710532 0.06147043 -0.018825367
-0.02215147 -0.0696906 -0.27573797 0.22840941 -0.058616698 -0.08824161 -0.03505233 0.2677856
0.19961487 0.18127051 0.22572689 -0.105412155 0.13181497 -0.24392694 -0.082279794 0.008886017
-0.053163163 0.20140904 0.28823328 0.08898625 -0.23789874 -0.04562196 -0.18591478 0.032070145
0.048594564 -0.36499894 -0.050812878 -0.081924446 0.2789329 0.11746463 0.0673068 -0.1285275
-0.23860648 -0.17759657 0.3173393 -0.10140082 0.14478473 0.09291807 0.23435968 0.18885982
-0.050868753 -0.017754123 -0.038522035 0.2121717 -0.008559717 0.37025595 0.19424792 0.1777963
-0.035270467 -0.31319332 0.1764885 0.12914523 0.23524706 0.15116355 0.10172607 0.12796603

conv1.bias f4 [32]
00000000: d236 30bd 3128 963d a079 c23d e6b1 78bc
00000010: 11d3 d73d 1dd0 253e 5cdd 503d 32a4 27be
00000020: 7f31 223c 1217 1ebd 11cb 903d aab0 ae3d
00000030: 7ec8 edbd f33c 83bd d3ae ab3d ede7 443e
00000040: c2a8 533d e7f7 1b3e 8ff3 adbd 786d 10be
00000050: 148a 72bd 440e c6bd 8ed8 323e 84ef 3cbe
00000060: c0f7 06bd eeba 42be 4dce 983e 5130 2fbe
00000070: 6054 de3c 3006 5a3e 7583 ecbc c94d 4bbd
-0.04302103 0.07331885 0.094958544 -0.015179133 0.105383046 0.1619267 0.050992355 -0.1637123
0.009899496 -0.03859622 0.07069982 0.0852979 -0.116105065 -0.064081095 0.083829544 0.19229098
0.051674612 0.15231286 -0.08493721 -0.14104259 -0.059213713 -0.0967069 0.17465422 -0.18450743
-0.032951117 -0.1901662 0.29844895 -0.17108275 0.027139843 0.21291423 -0.028871277 -0.04963473

conv2.weight f4 [32, 32, 3]
00000000: d46d e93b 55a6 a63d e115 9bbd 2257 d23c
00000010: 50f8 573c de8d 923d f95d 283b 6895 e93c
00000020: 9515 1bbd 338f 153c c47b 0cbd e19a 18bc
00000030: a7d5 adbc 4637 43bc 31a9 843c cab6 743d
00000040: 9ea9 68bd ae2e 87bc b0a2 603d 21fa dfbb
00000050: 0b37 4839 50ff 83bc 923d 08bc 52ae 3e3d
00000060: a3ab 7bbc fa15 cfbb f361 b53a d7d9 c1bc
00000070: cd3e 5b3d 72d1 453c 3e93 aabc 6469 8a3d
00000080: 845e d63b aca4 96bc f095 8cbd 7e42 813c
00000090: 1ada 75bc 1096 87bd d29b 1fbd d74d cf3c
000000a0: 4611 703c 4dce e83c e574 46bd 8d66 91bc
000000b0: b302 603d 3126 323d 3d1e 95bd 5629 643d
000000c0: 1243 373d 8aec c83c 4125 a43b 2046 19bd
000000d0: 8409 b6bb e964 8cbc 8e17 60bd 3103 033d
000000e0: 0545 b53d 7153 363c e763 81bd f5dc 023d
000000f0: d82e 893d d91e 143a 517b 74bd 4263 1f3d
00000100: b88a bfbc 4c62 ca3d 3db5 073d b151 ef3c
00000110: 5395 2fbd c401 1fbb fe13 9abd 12b0 493d
00000120: 869f 1b3d edff 58bd f03a 80bd 7c38 823b
00000130: da6d 6cbd 307e 42bc 328c f5bc 24ed 22bd
00000140: 072f 313d 89cb cc3c 1f3c d53b 9faf 6ebd
00000150: c671 b23b 3239 3e3c 239b a7bd 746f 813d
00000160: a574 883d 60fe 74bd 4116 a23d 446f 513d
00000170: 1413 20bd a6b2 eebc 469c 25bc f03d a1bd
00000180: 307d d23c 8a1e 95bd 2f56 803c 599b 8cbc
00000190: c9d7 81bc ddfe 3dbd 5d05 223d c190 cb3c
000001a0: b3ef b5bc ed4c 243c 903d 383c 2110 d93c
000001b0: 25c0 20bc b14e 0e3d 934f a3bc 4c5a faba
000001c0: 1ab2 753d a606 2b3d 0f0e efbc 44d6 86bc
000001d0: a01a f5bc 26c7 3c3d 4db3 6a3c 3ffb 893d
000001e0: 7fe4 a6bc 5417 6a3d 7334 8b3c 43c2 e5bc
000001f0: 4a29 1e3d a9b6 263c ac35 f13a 047d 073d
00000200: c99a ae3d 5525 b33c beb9 063d cb83 ad3c
00000210: 056b 8bbc 11b7 7dbc a4f1 09bd e865 353d
00000220: f302 423b cd19 a7bb 83a9 9c3d d7a8 803c
00000230: c6d6 393d aa22 a1bc 9e15 4dbc fe3d f63c
00000240: d172 e539 2326 3bbd 8424 383c 41c9 4d3d
00000250: 75c1 7d3c 69c2 d3bc 1834 13bd bab9 723b
00000260: 5a61 9bbd e5b6 cf3c d4f0 c0bc 9e16 d83c
00000270: b994 a13d a412 d43a 13c7 e7bb 79d3 c73b
00000280: 3d3b 3fbd 31f6 313d 1c23 0f3d a9ff f83c
00000290: 521c c4bc 2e1e 9abd e8c3 773d f203 103d
000002a0: aa6a 5cbd 1976 bbbd 202e efbb 13c6 37bd
000002b0: d18c 9f3b 7d63 9ebd ac30 423d ad5f 863d
000002c0: b536 5d3d b5e5 c2bc e8f9 073d d487 a7bc
000002d0: ac27 02bc 6cd8 603c 6068 e43c 6d4d 7abd
000002e0: ea88 8dbc be92 773d e6d5 2f3c dcf0 0bbd
000002f0: 5c42 393b 638d 373d 34fd c5bc bce9 123b
00000300: bdc9 88bd 14d9 ce3c a04f c23d 44af 11bd
00000310: 3e3d 61bd 6b82 08bd c408 a1bb 5d11 a23a
00000320: 6b26 963d e5ff 11bd 9714 d73c 74c5 82bc
00000330: ba96 8abd 3c9d dc38 5973 a3bd 25c3 8cbc
00000340: c87e 523d bb6e b43d 5714 dfbc fee2 80bd
00000350: 7dd8 abbc d9c7 d1bc b89b 793d 04cf dd3c
00000360: 7396 2cbc ba34 803b b878 bb3c a6d3 813c
00000370: 1bf2 d23c c0cd 053a 04b3 cf3c dc54 c2bc
00000380: 13bb 89bd b6dc 2b3d 6c6a a33b 3b7f ad3b
00000390: 1f5d 35bc a2f9 1f3d ff2e 0bbc 7dce b73d
000003a0: 7557 213d 0f68 b73a 9f86 a43d 129b 4fbc
000003b0: db81 353d 2c04 9e3a fced 353d c414 81bd
000003c0: 794c c2bc 5045 a6bd eea3 5c3d 2d5d 85bb
000003d0: 7b07 613d 6c62 10bd 514d 293d 56c3 133c
000003e0: 9610 49bd a80d 4fbc 4626 a83b 027a e03b
000003f0: 7fd6 ab3d 6273 b2bb ab63 fc3c 55c9 f5bc
0.0071236882 0.08137194 -0.075725324 0.025676314 0.013181761 0.07155965 0.0025690778 0.028513625
-0.03786238 0.00912838 -0.03429772 -0.00931427 -0.021220041 -0.011915034 0.016193958 0.059744634
-0.056802385 -0.01650175 0.05484265 -0.0068352376 0.00019093991 -0.016112953 -0.008315461 0.046552964
-0.015360746 -0.0063197585 0.0013838395 -0.023663444 0.05352669 0.012073861 -0.020822164 0.06758383
0.006542029 -0.018389069 -0.06864536 0.015778776 -0.015005613 -0.06620419 -0.03896696 0.025305672
0.014652556 0.028418684 -0.048451323 -0.017749095 0.054690074 0.043493453 -0.07281158 0.055703484
0.044741698 0.024526853 0.005009324 -0.037420392 -0.0055553336 -0.017137961 -0.054709964 0.031985465
0.08851055 0.011128292 -0.06317883 0.031949002 0.06698388 0.00056503486 -0.059687916 0.03891302
-0.023381576 0.0988203 0.033131827 0.029213758 -0.042867016 -0.0024262527 -0.075233445 0.04924018
0.03799393 -0.052978445 -0.062612414 0.0039740186 -0.05772195 -0.011870906 -0.029974077 -0.039776936
0.04325774 0.024999397 0.006507411 -0.058272954 0.0054456918 0.011610316 -0.08183887 0.06320086
0.06662873 -0.059812903 0.07914401 0.0511315 -0.039080694 -0.02913792 -0.010108059 -0.07873142
0.02569446 -0.072812155 0.015666096 -0.01716392 -0.015849965 -0.046385635 0.039555896 0.024849297
-0.022209024 0.010028106 0.011245146 0.026496949 -0.009811436 0.034743015 -0.019935405 -0.0019100397
0.059984304 0.041754387 -0.029181508 -0.016459592 -0.029919922 0.04608836 0.014324975 0.067373745
-0.020372627 0.057151154 0.016992783 -0.028046733 0.038613595 0.0101753855 0.0018402836 0.03307821
0.08525617 0.021868387 0.03289198 0.021181008 -0.017018804 -0.015485541 -0.033677712 0.04428664
0.0029603809 -0.0050995112 0.07649519 0.01570551 0.04537084 -0.01966985 -0.012517361 0.030058857
0.0004376383 -0.045690667 0.011239175 0.05024076 0.015488018 -0.025849538 -0.035938352 0.0037036971
-0.07586928 0.025355766 -0.023552336 0.026377972 0.07889695 0.0016179872 -0.007073292 0.0060982076
-0.046687353 0.043447677 0.034945592 0.030395346 -0.023939285 -0.075252876 0.060489565 0.035160013
-0.05381266 -0.09153385 -0.0072991997 -0.044866633 0.0048690815 -0.0773382 0.0474097 0.065612175
0.05400725 -0.023791173 0.033197314 -0.02045051 -0.007944029 0.013723474 0.027881801 -0.061108995
-0.0172772 0.06044268 0.01073215 -0.03416525 0.0028268313 0.04481257 -0.024168588 0.0022417149
-0.066791035 0.025249995 0.094878435 -0.035567537 -0.054990046 -0.0333275 -0.004914375 0.0012364794
0.073315464 -0.03564443 0.026254935 -0.015963294 -0.0676703 0.00010519705 -0.07980985 -0.017182896
0.05139044 0.08810183 -0.027231378 -0.06293295 -0.020977253 -0.02560799 0.06093952 0.027076252
-0.010533917 0.0039125355 0.022884712 0.015847992 0.02575021 0.00051042065 0.025353916 -0.023722105
-0.06725135 0.041958533 0.0049870517 0.005294708 -0.011069565 0.039056428 -0.008495091 0.089749314
0.039390046 0.0013992804 0.080334894 -0.012671249 0.044313293 0.0012055687 0.044416413 -0.06302789
-0.023718106 -0.08118689 0.053867273 -0.0040699453 0.054938775 -0.035250112 0.0413335 0.00901874
-0.049088083 -0.012637533 0.0051315157 0.006850482 0.08390521 -0.0054458836 0.030809244 -0.03000323

conv2.bias f4 [32]
00000000: d0d9 d6bb 517f 1a3d dd24 0a3a a415 7539
00000010: f08f 0cbd 1086 58bd 7710 05bd f7c4 9d3c
00000020: 7ca6 223d 58a9 d2bc 6051 8abc 52ac e93c
00000030: 13e0 ba3d e106 94bd 475d 923d b25d 9e3d
00000040: bb7f 3cbc 7d3c 0cbc 0ee2 7cbd 11b5 d8bc
00000050: 1980 35bd 25b2 97bb 178b b93c 6a8c 00bd
00000060: 4cb5 eb3c 7acc e2bc 4e9a 2b3c 793d a2bc
00000070: c0db db3b 8c94 413d dee5 a73d f06d 7fbd
-0.006556727 0.037719075 0.0005269775 0.00023373083 -0.034316957 -0.052862227 -0.032486405 0.01925896
0.039709553 -0.025715515 -0.016884506 0.028524552 0.0912477 -0.072278745 0.071466975 0.07732715
-0.011505063 -0.008559343 -0.06173902 -0.026453527 -0.044311617 -0.004629391 0.022649331 -0.03138391
0.028772973 -0.027685393 0.010473801 -0.019804703 0.006709546 0.047260806 0.081981406 -0.062360704

conv3.weight f4 [32, 32, 3]
00000000: 190a ebbc b10d 553d bbd6 26bd 4e73 be3b
00000010: 5749 88bd d59e 60bc d565 733b 6e1e e03c
00000020: 127e b03c 4243 853d e000 a6bc db91 943c
00000030: 1821 a93d 99ab 6cbc f746 153d 9335 b3bd
00000040: 3926 8d3d 8f40 473d 8cac 30bd a87a 51bd
00000050: 0e79 e63c e290 9b3c dfc8 5c3d 32e8 adbd
00000060: eb77 863c 41d8 ea3c 2d5a 76bc 4586 ae3c
00000070: 22b2 43bd 3e1c 643d 175b babc 7ff4 84bc
00000080: e92e b23c 4761 12bd 6b83 edba 680d 133d
00000090: 4397 c03c 62e6 d43c f019 cbbc e13c 0dbd
000000a0: 5101 92bd 11ae 61bc 9184 32bd 58d0 0cbd
000000b0: 0298 ba3c 8b8b a13d 66d4 39bc 7fcc 36bd
000000c0: 618e 57bd 1483 42bd 8969 5b3d dba4 74bd
000000d0: 8741 8a3c da06 74bd c19c 9a3c 8699 77bd
000000e0: 4df2 26bd 736a 2f3d 0d84 f23c 084e 7cbb
000000f0: eebe ff3b f7a7 04bd 9c79 a93c 322b d6bc
00000100: c6f0 2cbd 3d85 67bd 1011 b4bc cb64 cd3c
00000110: 79f2 1bbd 0d1a 61bd a2b4 a7bb cf66 2fbb
00000120: 25bb 37bd b919 cbbb b188 b23d e567 ecbc
00000130: 0dd1 39bd 03c2 d73c cf10 d9bb d233 52bc
00000140: f503 2c3d 54e2 59bd db37 963c 5246 d53c
00000150: 8c8c 883c 687e 11bb 9c6f fc3c 9b23 3d3d
00000160: 7458 f0bc 182e e03b ee61 99bc 0479 e0bc
00000170: d250 f03c ed6f 3dbd da42 643d 09af 453d
00000180: f5c8 643c 18cf 243d 0aee 39bd 85b3 bc3d
00000190: ea05 6cbd ec51 4e3b 5755 15bd 48a5 1d3d
000001a0: 32cf 7ebc 8909 243c 668f 61bd c6b8 b93d
000001b0: ef04 a53a 3ed8 edbc eba6 283d 8cf2 aebc
000001c0: 216e 0d3d 783f c9bd 8e0f 4abd 605f a1bb
000001d0: d8c6 213c e26b 2dbd 957f 0cbd 6811 bd3c
000001e0: eaa3 193d 44e9 5c3d e1c9 893c 6f2b 0cbd
000001f0: 34ec b83c 5f38 483d daa2 d9bb f6d6 993c
00000200: 0027 423c 598c 613c 1ce7 093d 3b0d 943b
00000210: 5632 583d f15b d4bc 5ba9 143c 3408 7d3c
00000220: 3a5f dbbc 98d1 6cbd 834b 02bd 543a 8ebc
00000230: c9d9 0abd 8161 983c 9223 993b 2cc0 83bb
00000240: 7f1e 673c b763 83bd 8551 963d 7e7e 61bc
00000250: 8ddf 37bd 94f4 f83c 157a 403d 9a9c d23d
00000260: 1b24 5dbd 7420 76bc 390e b9bc f508 143d
00000270: b179 70bb cee0 53bd 03b6 fb3c 1a61 043d
00000280: b745 fc3c 4b91 413c fcd0 a93c 3901 b23c
00000290: 470a a3bd 2655 4cbd c726 5c3d 483c 6abd
000002a0: cb73 b7bb 39e8 6f3c 7f65 3cbd 3215 ea3c
000002b0: 2741 493c 5d63 89bd 49da b53c 3c38 1c3d
000002c0: ba26 aebd a95a 423c 02bf 633d 7b03 4fbd
000002d0: 7eb0 643d 731e 7abd a28c 50bd f443 d9bc
000002e0: 969c 7abd 21ea d53b 2148 483b 714a cbbd
000002f0: 19bc ad3c 7ccd 7ebd 55a5 dbbc e78f d6bc
00000300: 346e 8e3d 7db9 d03a d1b0 033d f32a 73bd
00000310: 3d33 bbbc 681a 6c3d 5703 4abd b98c f1b9
00000320: 6042 91bc 41cf 96bc 97ae 2a3c dd21 0fbd
00000330: a43e 803b d699 b0bd 9d05 08bc 4f17 b2bd
00000340: 15c1 b3bd 0f0f dc3d 0dfb a4bd 7e48 28bc
00000350: 3813 3d3d fb2c a6bc c5eb eb3c 9ab1 40bd
00000360: 85b2 813d 5a18 97bc a576 9fbb 1861 3e3d
00000370: 93fc 14bd 24c0 3c3c eee8 fbbc be29 223b
00000380: 868c e2bc 3ff6 8a3d e432 60bc f487 6f3d
00000390: df8a b9bd 9712 6fbd 7781 bf3a 9691 2c3d
000003a0: 8252 21bc 1e98 843d fd76 1cbd 8d3f fc3c
000003b0: 6118 413d 191d 213d 27fd 3bbc 8b80 2abd
000003c0: 52df 39bd 4c75 0c3d 634f 5a3d 122e 043d
000003d0: a334 ebbc 96dd 2fbd f090 b6bc 439c c9bc
000003e0: 6848 b1bc a097 87bd 4c0b 373a 4e7f 37bc
000003f0: 7485 ad3d 4269 e1bc 91ad a53d da94 173d
-0.028691338 0.05201501 -0.040732127 0.0058120852 -0.066546135 -0.0137097435 0.0037139554 0.02735826
0.02154449 0.06506969 -0.02026409 0.018135956 0.08258265 -0.014445209 0.03644463 -0.08750453
0.06892056 0.048645552 -0.043133304 -0.051142365 0.028133895 0.018989984 0.053902503 -0.08491553
0.016414603 0.028667571 -0.015036148 0.02130426 -0.047777303 0.055690996 -0.022748513 -0.016229866
0.021750884 -0.035737302 -0.0018120831 0.035901457 0.023509627 0.025988761 -0.024792641 -0.034481887
-0.07129157 -0.013774411 -0.043583456 -0.03437838 0.022777561 0.07887944 -0.011342144 -0.044628616
-0.052626017 -0.047488287 0.053567443 -0.05972753 0.016876949 -0.059576847 0.018873574 -0.060449146
-0.04075842 0.042826127 0.029603982 -0.0038498659 0.007804743 -0.032386746 0.02068787 -0.026143644
-0.042221807 -0.05652355 -0.021980792 0.025072476 -0.038073037 -0.054956485 -0.0051179687 -0.002676416
-0.04485621 -0.0061981347 0.08717478 -0.028858135 -0.045365382 0.02633763 -0.006624318 -0.012829738
0.04199596 -0.05319436 0.01833718 0.026034508 0.01666858 -0.0022200588 0.030814938 0.046176534
-0.029339053 0.0068414323 -0.018723454 -0.027401455 0.029335413 -0.04624932 0.055727817 0.04826263
0.0139639275 0.040236562 -0.045393027 0.09213928 -0.057622828 0.0031481935 -0.03645834 0.038487703
-0.015552329 0.010012039 -0.055068396 0.09068446 0.0012589971 -0.029033776 0.04117481 -0.02135589
0.034528855 -0.09826559 -0.04933124 -0.0049246997 0.009874068 -0.042339213 -0.03430136 0.023079589
0.037509836 0.053933397 0.016819896 -0.03422111 0.022573568 0.048881885 -0.006641728 0.01877926
0.011850119 0.013766372 0.03366767 0.0045181788 0.05278238 -0.025922747 0.009073581 0.01544385
-0.026778806 -0.05781707 -0.031810295 -0.017361797 -0.033899102 0.018601181 0.0046734298 -0.0040207114
0.014106392 -0.064155035 0.07339767 -0.013763068 -0.04489093 0.030390061 0.046991426 0.10283776
-0.05398951 -0.015022386 -0.02258979 0.036141355 -0.0036693627 -0.051728062 0.030726438 0.032319166
0.030794961 0.011814426 0.020729534 0.021729099 -0.079609446 -0.04988589 0.05374792 -0.057186395
-0.0055985204 0.014642769 -0.04599523 0.02857456 0.0122836 -0.06708405 0.022198813 0.038139567
-0.0850348 0.011862435 0.05560208 -0.05054043 0.05583238 -0.061064195 -0.050915368 -0.02652166
-0.06118449 0.0065281545 0.003056057 -0.09926308 0.021207856 -0.062207684 -0.026812235 -0.026191665
0.06954613 0.001592442 0.032151047 -0.05936713 -0.02285158 0.05764237 -0.04931959 -0.0004607195
-0.017731845 -0.018409373 0.010417602 -0.034944404 0.0039137173 -0.08623092 -0.00830212 -0.08695852
-0.08777062 0.1074506 -0.08055697 -0.01027119 0.046160907 -0.02028512 0.028798947 -0.047044374
0.06332878 -0.018444229 -0.0048664385 0.046479315 -0.036373686 0.011520419 -0.030750718 0.0024744119
-0.027654897 0.06785249 -0.013684008 0.058479264 -0.09059691 -0.058367338 0.0014610727 0.04213103
-0.009846332 0.064743266 -0.038199414 0.030792022 0.04714239 0.03933439 -0.01147393 -0.041626494
-0.04537899 0.03429155 0.053298365 0.0322705 -0.028711623 -0.04293593 -0.022285908 -0.024610644
-0.021640971 -0.06620717 0.00069825794 -0.011199785 0.0847272 -0.027516011 0.08089746 0.03700719

conv3.bias f4 [32]
00000000: 585f 16bd c6b5 14bd 6818 69bc 9890 813d
00000010: 7daa 25bd b14f b13c da7b 3ebd 52d5 893d
00000020: 40a3 f8bb a885 523c c8fd a1bb be27 7abc
00000030: f5ab a2bd bef3 583d d27c acbb 61c6 9f3c
00000040: b392 613d 0b64 85bd cb07 413d 06f7 41bc
00000050: 807d 763d 94e6 42b9 a604 97bd fa51 45bd
00000060: 779f acbb 555f 1f3c 5a95 823c 6684 9fbc
00000070: cef1 9b3d 085d 2f3d 4259 843d f9b3 bc3c
-0.03671202 -0.036306165 -0.01422701 0.06326407 -0.040445793 0.021644445 -0.046504833 0.06730141
-0.0075878203 0.012849249 -0.004943583 -0.015268264 -0.079429545 0.052966826 -0.005263903 0.019503774
0.055071544 -0.06513222 0.047126573 -0.01183868 0.06017828 -0.00018587179 -0.073739335 -0.048173882
-0.005268033 0.009727319 0.015940357 -0.019472312 0.0761448 0.04281333 0.06462337 0.023035036

conv4.weight f4 [32, 32, 3]
00000000: b5f6 fabc 1ba0 6a3d 9396 01bc fccd f5bc
00000010: 3dbc c4bc bc15 9b3c fd5c d23d 5659 533d
00000020: 3fc4 03bc 7773 3e3d 1e94 0dbc a538 243d
00000030: fcc3 0f3d 60df 23bc c708 1dbd a0bf b33b
00000040: cdf7 d5bb b21d f73c ca8b d43c c446 033c
00000050: 94b2 3dbd 8733 eb3b 0610 87bd d9e1 e73b
00000060: 8736 dc3c 83bd 653c 2120 083c f8e4 b8bc
00000070: a53c 1e3d 6d9f 9d3b a99a cb3c 7664 a13b
00000080: 77d3 babb 03f1 59bd 9045 6a3c c67c a43c
00000090: 36dd 8cbc e125 923c 22e8 efbc e04f 8dbc
000000a0: 03b2 773b 4296 943d 05bc f9bc a176 bfbc
000000b0: c779 9dbc be86 64bd 5f35 33bb 02be fd3b
000000c0: f37f 153d 1e33 80bd 19e6 6fbc 1f36 5dbd
000000d0: f9c7 f0ba 6b07 8ebd ac13 c6bb be9a 0abb
000000e0: af6c 7f3d b4bb ee3c 6cc9 083c 1d73 ea3c
000000f0: 7352 89bd bec9 1b3c 6bb4 07bd 4c39 473c
00000100: 8b78 1ebd 6025 973a 2532 213c 0ed8 9a3c
00000110: e64e d9bb bf40 63bc 491d 43bd a345 a9bd
00000120: 4083 003c 7897 213c 2a87 d23c c7b8 5d3c
00000130: b440 bfbc 6895 4fbc 7b5e 61bd 4f52 c73d
00000140: 1f5d 65bd 2aae 563d 0abb 983c e6c0 0d3b
00000150: cf11 14bd ee32 bc3c 0b34 523d 874d 9dbc
00000160: af85 c83c c071 82bd f8b4 ac3d d5d9 703c
00000170: eb9d 093d 0297 87ba 95b3 df3b 7f20 8ebc
00000180: 6b89 07bb b989 b63c c842 e6bc 711a 523c
00000190: 25e0 6cbd 907c 38bd 89a7 1f3d b0db 6bbc
000001a0: a99a 39bb 5507 583c 0028 a03d 46d4 8cbd
000001b0: cf78 553c 22f7 d43c 0d9d b8bd e295 83bc
000001c0: b791 5ebc b6e3 da3c 4fca fbbc 3e96 93bd
000001d0: c313 79bd 9870 6d3c 8b6a cbbc 238c 3abd
000001e0: 7f19 9dbd 8b1b 46bd acf4 60bc 19ea dc3a
000001f0: 0777 833c 53b7 683c 9a59 98bd 2a24 c6bc
00000200: c686 a9bc d92e 803b f6a5 133d c0a0 5c3c
00000210: 5a91 123c 49cc 203c 02fe 4fbc 2fa9 0d3c
00000220: 46a0 f3bc a5b5 3b3d 2c58 8ebc 3dcb 283d
00000230: 9df7 c0bb b29b 5c3a 6ca1 fbbc 180b 7fbd
00000240: 03cb 16bd 1b7b eb3c f96a 033d a320 49bd
00000250: b3d4 8f3d c26d 43bd fd99 0cbc 9aa5 60bc
00000260: ec3d 383b d8c7 a23d 7dc8 fc3c bd14 f93b
00000270: 58f2 853c 3906 ccbb 75ee ab3d eac4 fe3c
00000280: 3191 e73c a97c 6abd aff1 153d a4b5 983c
00000290: 3673 6a3b 2d17 fa3c 2a5a 05bb 984e deba
000002a0: 3ead 2fbd 09d9 37bd b335 b83d ed9c 083d
000002b0: ee52 093c 8398 78bb a1f2 47bd 8ef3 d2bc
000002c0: 83cb 67bc 61e7 9dbd 1eae 90bb 9564 57bb
000002d0: 5418 0ebd 5747 ffba e450 303d 6af2 e73c
000002e0: 0c9b a53b 5038 36bc 5f74 213d d6d9 dcbc
000002f0: 3721 4cbd 0cc6 803c 1c8a ec3c efaa b83b
00000300: 26c8 3ebd 24f8 af3d 65b0 933b afd0 ea3c
00000310: 2c7b 63bc 5af7 35bc 7500 c03c 96f8 513d
00000320: deec 8f3c 89c0 023d 5923 f43c d50d ab3c
00000330: 4bc1 6ebb ee05 c6bc cc54 afbc 9ba8 d73c
00000340: 568d 9bbc a6ab bd3c c1d3 843d ad89 95bc
00000350: 8be4 ec3c aa42 0dbd cc24 8f3c e204 5bbd
00000360: a755 733c bf61 923c 7358 60bd 4de8 a23c
00000370: 0de0 1dbd 01dd 1cbd 2712 c03c df15 643d
00000380: 5484 773c 7af3 10bd 4a42 5a3d 606f df3c
00000390: 270d e03a 574c 59bc 1771 efbb 97bb 8f3c
000003a0: 964b 003d 9e9a 6dbc e366 9a3c 8150 043d
000003b0: 1a74 463d b16d a63c cac6 44bb b243 8f3b
000003c0: d4f7 943d ca6b df3c 8e61 bd3c f84b aebc
000003d0: d2c4 423c 234d 97bd b44b d9bd 0e07 703d
000003e0: 3226 08bc 10a3 893d d56d 99bd 9441 953d
000003f0: d489 0cbd 9984 803d bd51 253c 0240 b0bd
-0.030635217 0.057281595 -0.007909435 -0.030005448 -0.02401554 0.018931262 0.10271642 0.05159887
-0.008042394 0.046496835 -0.008641271 0.040093083 0.035099015 -0.010001987 -0.03833845 0.00548549
-0.0065297843 0.030165527 0.025945563 0.008012477 -0.046312883 0.0071777734 -0.06594853 0.0070764837
0.02688147 0.014022234 0.008308441 -0.022570118 0.038632054 0.004810265 0.024854021 0.004925306
-0.005701478 -0.053208362 0.014298812 0.020079028 -0.017195325 0.017840328 -0.029285494 -0.017250001
0.0037795312 0.07255222 -0.030485163 -0.023371996 -0.019223107 -0.055792563 -0.0027345044 0.007743598
0.036498975 -0.0625975 -0.014642262 -0.054006692 -0.0018370143 -0.069350086 -0.0060448255 -0.0021149362
0.062359508 0.029142238 0.008348804 0.028619343 -0.06705179 0.009508548 -0.033131044 0.012159657
-0.038689177 0.0011531524 0.009838616 0.018901851 -0.00663172 -0.013870417 -0.04763535 -0.08265235
0.007843792 0.009862773 0.025699217 0.013532824 -0.023346283 -0.012669899 -0.055021744 0.09732496
-0.05599701 0.05241219 0.018643875 0.002162987 -0.036149796 0.022973504 0.051319163 -0.019202007
0.024477808 -0.06369352 0.084329545 0.014700373 0.033597868 -0.0010344686 0.006826828 -0.01734948
-0.0020681273 0.022282468 -0.028108016 0.012823687 -0.05783095 -0.045040667 0.038978133 -0.014395639
-0.0028320944 0.013185342 0.078201294 -0.068764254 0.013029291 0.025996748 -0.0901433 -0.01606268
-0.013584546 0.02671991 -0.030736117 -0.07206391 -0.060809862 0.0144921765 -0.024831077 -0.0455438
-0.076708786 -0.04836611 -0.013730209 0.0016854435 0.016047968 0.014203864 -0.07438965 -0.024187166
-0.020694148 0.0039118347 0.036046945 0.01346606 0.008945787 0.00981433 -0.0126948375 0.008646294
-0.02973951 0.045827527 -0.017376028 0.041209448 -0.005888893 0.00084155344 -0.03071662 -0.06226644
-0.0368147 0.028745225 0.03208444 -0.04910339 0.07022991 -0.047712095 -0.008581636 -0.0137113575
0.002811308 0.079482734 0.030857319 0.007601349 0.01635091 -0.0062263277 0.083950914 0.031099755
0.028267475 -0.05724779 0.03660744 0.0186413 0.0035774237 0.03052863 -0.0020347931 -0.0016960679
-0.042889826 -0.044884715 0.08994617 0.03335278 0.008381588 -0.00379327 -0.048815373 -0.025750902
-0.014147642 -0.07710148 -0.0044152876 -0.0032866348 -0.03469117 -0.0019476217 0.043045893 0.028313834
0.0050538834 -0.011121824 0.03941762 -0.026959341 -0.049836364 0.015719436 0.02887445 0.0056356112
-0.046577595 0.08592251 0.004507112 0.028663961 -0.013884347 -0.0111063365 0.023437718 0.05126246
0.017569002 0.031921897 0.029802011 0.020880619 -0.003643113 -0.02417275 -0.021402739 0.026325515
-0.018988293 0.023153137 0.06485701 -0.018254125 0.028917572 -0.034487404 0.0174736 -0.053471453
0.014851964 0.017868875 -0.05477185 0.01988616 -0.03854375 -0.038296703 0.023446156 0.05568492
0.015107233 -0.035388447 0.053285874 0.027274787 0.0017093763 -0.01326283 -0.0073071825 0.017545504
0.031322084 -0.014502196 0.018847888 0.032303337 0.048450567 0.020315977 -0.0030025714 0.0043720836
0.07273832 0.027273078 0.023117807 -0.02127646 0.011887746 -0.073877595 -0.10610142 0.058600478
-0.008309888 0.06720555 -0.07491652 0.07287899 -0.03431113 0.06275291 0.010090289 -0.086059585

conv4.bias f4 [32]
00000000: e528 33bd 344e e73b 0075 d6bc 6e7d 9b3d
00000010: f6dd b93d 9f93 883d ab9d f23c f0b5 703c
00000020: 7fc4 08bc 4d70 cb3c 9675 34bd 93d6 a4bb
00000030: 73f0 3b3d 00f2 3f3d 1356 a63c ec82 8ebc
00000040: 051b a93c 963e 463d 0f9d 483d 21de 523b
00000050: ce79 babd 9c2d fb3c 8688 7fbb 41a1 5abd
00000060: e5f2 693d 0058 813d b248 f03c 3306 563d
00000070: 1fb4 e23b 84cb 883d 27b7 1cba bb29 dd3c
-0.043740172 0.007058883 -0.026178837 0.07592283 0.09075539 0.066687815 0.029616198 0.014691815
-0.00834763 0.024833823 -0.04405745 -0.005030462 0.045883607 0.04686165 0.020304715 -0.017396413
0.020642767 0.04839953 0.048977908 0.0032175856 -0.09105264 0.030661397 -0.0038991286 -0.05337644
0.057116408 0.06315613 0.029331539 0.052252006 0.0069184448 0.066794425 -0.00059782196 0.026997438

conv5.weight f4 [32, 32, 3]
00000000: 9ddd 91bd 6377 a1bc 3b5e df3c c032 893c
00000010: 47c9 8fbd 3b81 993c 5ecf 20bd 3e60 d63b
00000020: 8059 613d 5d43 b6bc 3461 b63b 5470 1dbc
00000030: 16ad c73c 63fa 82bd 5142 c43c 4ffd 15bd
00000040: 7662 863d 6fd9 82ba 5099 65bd fbea 9c3d
00000050: 33f0 dcbc 8911 973b 55e9 f63c d69a 85bd
00000060: 823d 82bb d3a9 b83c 777a 48bd ed1c d9bc
00000070: 2fd3 d43a 7f5b 193b dc7c 67bd e5de 1f3d
00000080: 10e1 b33c d7cf b5bd ce08 57bd 5bf8 903c
00000090: 5c97 63bd f488 3b3d 1dfc 9d3d baf4 0ebd
000000a0: bf81 82bd 8446 a5bd eb41 893d 4594 dc3b
000000b0: 2e6b 82bd 9b98 173c 656c 8e3d 2f65 f83c
000000c0: f6d8 463d 9afa 523b a764 78bb 87df 35bd
000000d0: b552 fc3b 3e5f 6bbd 5fe8 b83b a4be 163d
000000e0: e4e7 5f3d 35c5 7abd c33d 7239 6ee1 73bd
000000f0: 298f e2bb cbd3 9f3c 2066 ea3a aa5f 3f3d
00000100: 620a 12bc e858 993d 41eb 0d3c dbdf d83b
00000110: 3483 423c f6a2 abbb fbb9 173d 9e04 81bc
00000120: cfa9 633d ffb1 9dbd 0531 5fbc 2b61 4438
00000130: 000e 8ebb b467 303d 051f 3dbd f13d c5bc
00000140: e5a6 1f3b 0563 683c a0e2 813c 1231 adbd
00000150: b948 aabb 21d7 253d 6018 b83c ac80 d43c
00000160: 80f1 823c a372 bcbd 0c74 ae3c c150 843c
00000170: 56b7 61bd 87b1 84bc ec32 afbb 1afb 1f3d
00000180: 8ed6 e8bc b433 3d3c 63bf 18bc 3072 83bd
00000190: 3b6a bd3c e112 2f3c d656 11bd 7a73 8a3d
000001a0: 8e89 b13c d460 a5bc 3766 5fbc 5db7 533d
000001b0: e60a cebc fadc b4bc b687 403b 82b6 6e3c
000001c0: cae0 55bd eb52 ee3b f87a 3a3d 0262 e83c
000001d0: a085 803c 6bc6 96bd da1f 23bd 42f6 4fbd
000001e0: 8203 63bc 4432 ccbc f70d 473d 7956 98bc
000001f0: 069e feba 8b6f a63d 8e7e afbc 3c0f aebd
00000200: 0f35 9bbd 5965 fe3c f75e 8a3d f657 bb3d
00000210: 8df1 57bc dd3e 483d a3fa 073b 2714 d4bc
00000220: 2aeb 19bd 7902 f2bb 3cca ffbc 9458 fc3b
00000230: 19df 8dba 5e78 af3b 75fb dabc 7903 00bd
00000240: 04c3 943d 0ad0 3e3d 89b2 97bc 03c0 a93d
00000250: 1651 0b3d c943 6fbc 5c38 5a3d b548 17bd
00000260: 4a67 a53d 6166 a2bc 8e5f e83c e336 84bd
00000270: b104 863d a960 0c3d 4158 5abc 1041 833d
00000280: 9556 e33c a2bb 483b beed 10bd b3de e33b
00000290: e17a 8ebd 134a 153d 9bb1 42bd 4944 a2bd
000002a0: b857 0c3c 0361 1abd 9235 1b3c ec0d 83bd
000002b0: 0279 02bc b4a0 cd3c 0f5f 0f3a 90ca 2fbc
000002c0: 8322 563d 9c0c fdbc f2b5 a63c c502 84bd
000002d0: aa10 adbc 3291 a4bb 9ae5 9e3c f5bb ee3c
000002e0: 11ea cabb 1209 3a3c 2e4b 473b 1f08 89bb
000002f0: 6dbd c6bc f189 a83d d659 963c 25cb f53a
00000300: c455 dd3c 8641 7bbd 845e 6b3d bbfc 123c
00000310: 71a8 3ebd 8f1b 74bc 70ac 41bd 9008 0d3d
00000320: 57a0 b73c a085 55ba 88ce 763d 8b45 2abb
00000330: 140a 16bd 0c30 c0ba 2322 e83b b22a 583d
00000340: 1cc7 f83b 3941 ddb9 0e63 ffbc 77f8 e83c
00000350: 5514 a4bc c523 2a3d 8efc 60bd a4f7 f43c
00000360: e469 1bbd 0431 70bc 24f1 7c3c 5990 d43c
00000370: 3371 9b3d e37d 203d 1160 183c d155 af3b
00000380: 2722 49bb 596d 853d 59ca 9b3c da21 533d
00000390: b04b 67bd 5808 ad3c 07dd 10bd 7f9c 803c
000003a0: e895 92bd d26c efbc 9ee1 b33c 43a8 adbc
000003b0: c9ef f6bc a8cd 40bd 7977 4cbb 6bc3 91bc
000003c0: 9663 c03b f2f9 07bd b87b 9ebd f071 d6bb
000003d0: f4da 12bc 6e1b 9c3d b632 57bc 115c 953d
000003e0: e7d6 003c e785 b1bc 8ed3 1bbd 1d27 bebd
000003f0: 12f2 583c 84af f4bc fd25 48bd fc9b 283d
-0.071223475 -0.019710248 0.027266612 0.016747832 -0.070208125 0.01873838 -0.03926026 0.0065422347
0.055016994 -0.022248918 0.0055657867 -0.009609301 0.024374526 -0.06395414 0.023957403 -0.036618527
0.06561749 -0.0009983013 -0.056054413 0.076620065 -0.026970005 0.0046102447 0.030140558 -0.06523673
-0.0039746175 0.022541916 -0.048944917 -0.02650305 0.0016237254 0.0023400483 -0.05651556 0.03903093
0.021957904 -0.08877533 -0.05249863 0.01769655 -0.05556427 0.045784906 0.077141024 -0.03490136
-0.06372403 -0.080700904 0.06702026 0.0067315423 -0.06368099 0.009252693 0.06954268 0.030321686
0.048546754 0.0032192827 -0.003790179 -0.044402625 0.007700289 -0.057463877 0.005642935 0.036802903
0.054664508 -0.061223228 0.00023101926 -0.05954116 -0.0069140387 0.01951017 0.0017883219 0.04672209
-0.008913608 0.07487661 0.008662046 0.0066184825 0.011872102 -0.0052379323 0.0370426 -0.015749272
0.055581864 -0.07699966 -0.013622527 4.6820536e-05 -0.004335165 0.04306765 -0.04617216 -0.024077388
0.0024360952 0.014183764 0.015855134 -0.08456625 -0.0051966575 0.040488366 0.02247256 0.025940262
0.015984297 -0.09201553 0.02129557 0.016151788 -0.055106483 -0.016197933 -0.0053466465 0.03905783
-0.02842262 0.0115479715 -0.009322974 -0.06418264 0.023121944 0.010685653 -0.035483204 0.06760307
0.021672036 -0.020187773 -0.01363521 0.05168854 -0.025151681 -0.022078026 0.0029377765 0.01456988
-0.05221633 0.007273068 0.04552743 0.028367046 0.015688717 -0.07362064 -0.039825298 -0.05077196
-0.013855817 -0.024926312 0.048597302 -0.01859592 -0.0019425757 0.08126744 -0.02142265 -0.084989995
-0.075784795 0.031054186 0.06756394 0.091476366 -0.013180149 0.048888076 0.0020748756 -0.025888516
-0.037577786 -0.0073855487 -0.031224363 0.007700989 -0.0010823935 0.005354925 -0.026731232 -0.03125331
0.07263759 0.04658512 -0.01851775 0.082885765 0.034012876 -0.014603564 0.053276405 -0.036934573
0.080763415 -0.019824209 0.028365877 -0.06455781 0.065438636 0.03427187 -0.013326705 0.06408894
0.027751246 0.0030629416 -0.03538298 0.006954038 -0.06957031 0.036447596 -0.04753266 -0.079231806
0.008565836 -0.037690174 0.009473221 -0.0639914 -0.007963421 0.025101043 0.0005469182 -0.010729447
0.052279007 -0.030889802 0.02035043 -0.06445841 -0.02112611 -0.0050221914 0.019396592 0.02914236
-0.0061924537 0.011354702 0.00304098 -0.0041818763 -0.024260247 0.08229435 0.018353384 0.0018752558
0.027018435 -0.061341785 0.057463184 0.008971388 -0.046547357 -0.014899149 -0.04728359 0.034431994
0.022415323 -0.0008145217 0.060255557 -0.0025981392 -0.036630705 -0.0014662757 0.0070841475 0.052775092
0.007592095 -0.00042201 -0.031175163 0.02843879 -0.020029226 0.04153802 -0.054928355 0.02990324
-0.037942782 -0.014660124 0.015438352 0.025947737 0.075899504 0.039182555 0.009300248 0.0053508063
-0.0030690522 0.06514997 0.019017385 0.051545955 -0.056468666 0.021122143 -0.035367038 0.015699623
-0.071574986 -0.029226694 0.021958169 -0.021198398 -0.030143635 -0.04707113 -0.003119914 -0.017793378
0.0058712466 -0.03319735 -0.07738441 -0.006544344 -0.008963335 0.07622419 -0.013134649 0.07292951
0.007863737 -0.021670295 -0.03804355 -0.09284804 0.013241308 -0.029868849 -0.048864353 0.041164383

conv5.bias f4 [32]
00000000: 5616 243d 1ce6 0c3d 48b0 043d 79e1 99bd
00000010: d7c5 e63c ced5 8fbd db97 1d3d cf59 88bd
00000020: a7f0 24ba 979a 17bc d426 36bb d7f8 c5bc
00000030: 0cb3 373d 547b 53bd add2 2a3d aae9 273b
00000040: 07e2 b83b 948a 41bd 1267 a4bc 7eda 193d
00000050: ffaa 793b c000 dd3c 3cfe 67bd 7fe7 90bd
00000060: a215 123d a3c8 83bd 3c27 82bd 975c 4bbb
00000070: 8a9b 123b 24b4 0bbd 86bd 5c3d c716 a13c
0.040060364 0.034399137 0.032394677 -0.075137086 0.02817051 -0.07023202 0.0384749 -0.06657755
-0.00062919635 -0.009253166 -0.002779414 -0.024166508 0.044848487 -0.051631287 0.041704822 0.0025621452
0.005642179 -0.0472513 -0.020068679 0.037561886 0.0038096306 0.026977897 -0.05663894 -0.070754044
0.035665162 -0.06434753 -0.063551396 -0.003103053 0.002237054 -0.034107342 0.05389168 0.019664181

conv6.weight f4 [32, 32, 3]
00000000: 103d 8a3d dbbf 653d 9247 b93d 96c9 bc3d
00000010: 00c6 d1bb 7aa9 ebbb ef4b 123d 9a1e e4bb
00000020: 0c05 1dbd d26c cb3c d348 833c 73fc d8bc
00000030: a7d4 60bd 850c c4bc 295d 3b3d 3b66 c33d
00000040: 36e0 703d 605f 9c3d 10a7 5a3c 8e1a 48bd
00000050: dfc9 c8ba 020f 0d3c 64b1 09bd 82b4 9abd
00000060: c571 d6bc 21e6 24bd 867a 50bd 0d6b a03c
00000070: fe14 1a3d 6944 813d 0e67 e7bc 23f9 15bd
00000080: e8eb 53ba cb23 5dbd d48a 6abd e09f 253c
00000090: cea1 813b a011 823d 4c17 b5bd 68d6 ad3c
000000a0: 9df9 d7bc 1bf2 81bc 7c06 40bd f484 e03c
000000b0: bae8 be3c 907e 663d 1aa9 493d 3375 34bc
000000c0: 8f0a 92bd 7d5d fcbc 48c1 acbb 715a 68bd
000000d0: 52e8 913d 67cb 083d 480e 263d e41f 82bd
000000e0: 279c 00bd 263f 8e3c 0cbf 7b3c 18e5 b0bc
000000f0: 91e1 503c 86ca 823d 86e0 dfbb ed03 543d
00000100: c8c8 a3bd 138f d93c c1b4 ed3c 0773 fcba
00000110: 4c7e e6ba 70bd 56bd 2967 60bd 6867 b63c
00000120: 010a 813d bfbe 0d3d 66b7 34bd a204 3abd
00000130: 735c 153d a88c 1a3d 1107 203d b75c 81bd
00000140: 882e da3b e64b 973c e52e 823a 67ca 773d
00000150: 95c1 083d c429 9d3c 0b28 46bd 2af4 f3bc
00000160: 9986 173d 9aaf 123d 5f77 16bd d8fa 22bc
00000170: d554 e33c 6c11 4a3c 4217 b93c 8254 c1bc
00000180: d89d e03c 8cdb 25bc 682f b03c 492a 32bd
00000190: 91bb 8fbd f552 273d 4705 96bd ecd8 063b
000001a0: 252f e5bc a270 d0bd 1b0a 83ba ff0c 21bd
000001b0: efe3 423a dfbc 1e3d b64a b1bc 5636 903d
000001c0: bbf0 81bb e4b4 8a3c 56ee 87bd c4da 8b3d
000001d0: beb0 dcbc 21a0 423c 56b3 993d e93f 3abd
000001e0: 2bef 0bbd 3299 213d 1da9 3b3c d70c 063d
000001f0: 22e4 173b cbed c53c 49de 1c3c 757a 9fbd
00000200: 231c 123d 73ac c7bb 370c 563c 5b34 2f3c
00000210: 9187 34bd 1a70 ad3c 69ec 873c c2c8 b1ba
00000220: 204f 643d 89d0 7fbd 0199 5dbc b623 1bbd
00000230: d2f7 1d3b 2034 3ebd 144f 80bd 31f3 1f3d
00000240: 5cde b43c 47d8 323c da5e bcba cb48 0bbd
00000250: f23d ed3c a2e1 973c 770d 22bd 6019 393d
00000260: e509 be3c c74e aebd af21 9dbd 115b f9bc
00000270: 5f03 92bc c1fd 16bd 65e3 3d3d 241b 37bc
00000280: d595 9c3d 9051 473d 0d14 20bd 2fbd 4fbd
00000290: 2189 4eba 1f06 8d3d 1397 963d 9bf6 51bd
000002a0: 4601 453c 6f48 52bd 63bb 25bb d21b d1bc
000002b0: 7332 69bd 1328 0f3d e7af cdbc 84f5 353c
000002c0: 0a79 3d3d a002 143d b3a6 a1bc 202b 5dbd
000002d0: af0b 6ebd 9b84 1ebd f6d3 993d d951 16bd
000002e0: dbad 4fbc 0170 ccbc cae1 603d 0512 95bc
000002f0: ee53 08bd b1dd 513d ca48 98bd 063f 943d
00000300: 46b6 febc e5b7 85bc 7801 793d a8aa 6bbc
00000310: 16d1 fe3c 7956 73bd aa31 b3bd d4b3 b8bd
00000320: c5bc 97bb ad83 0dbd 02d3 c43c 418f ba3c
00000330: 256a c73c 316a 06bc b063 54bd 95d8 fdbc
00000340: dfa7 45bd f432 80bb 2e9d 21bb 2a1f c1bc
00000350: 5c4b 963c 5366 bfbc a12c b33d f512 e03b
00000360: d571 b9b9 2957 6ebd a0a0 2b3d 09dc 0f3d
00000370: 8490 3c3c c126 19bd 8c53 a0ba 3e0c fcbc
00000380: 2069 273d f5ff a73c 5463 72bc 4282 0bbd
00000390: 0262 913c b7e2 f23c f80e 59bc f4cc e3bc
000003a0: 2288 d1bc 84b6 4d3d 6c64 e13b 5511 f6bc
000003b0: 55a9 5b3d fece 8cbd 92df acbc 1173 b8bc
000003c0: 6dd6 35bd bfab cb3c c1a9 71bc c959 cebd
000003d0: 0798 6cbd a972 be3b 1089 0e3d 8253 2fbd
000003e0: 81f0 943c 4afc 37bd 6c96 61bd 2a78 cdbd
000003f0: 075a 91bb b8e1 b4bc b77a 093d ba90 1fbd
0.06749928 0.05609117 0.09046854 0.09218137 -0.0064017773 -0.007191834 0.035716947 -0.006961656
-0.03833489 0.024832163 0.016025936 -0.026487565 -0.0548903 -0.023931751 0.04574314 0.09540983
0.058807574 0.07635379 0.013345495 -0.04885345 -0.0015318951 0.008609535 -0.03361644 -0.075539604
-0.026177296 -0.04025853 -0.050898097 0.019582296 0.037617676 0.06311876 -0.028247382 -0.03661455
-0.0008084164 -0.053989213 -0.057261303 0.010108918 0.003956056 0.06351018 -0.08842334 0.0212204
-0.026364142 -0.015862515 -0.046881184 0.027407147 0.023304332 0.056273043 0.049233533 -0.011014271
-0.0713092 -0.030806297 -0.0052720644 -0.056726877 0.0712439 0.033397105 0.040540963 -0.06353739
-0.03139892 0.017364096 0.015365373 -0.021593615 0.012749092 0.063862845 -0.006832185 0.051761556
-0.0799728 0.02655748 0.029016854 -0.0019260355 -0.0017585247 -0.052426755 -0.05478588 0.022266105
0.06300736 0.034605738 -0.044120215 -0.045414574 0.03646512 0.037731797 0.03906924 -0.06316512
0.006658379 0.018468808 0.0009932189 0.06049576 0.03338774 0.019184954 -0.04837803 -0.029779512
0.036993597 0.035811998 -0.036734935 -0.009947501 0.027750412 0.012333255 0.022594098 -0.023599867
0.027419016 -0.010123145 0.02150698 -0.043497358 -0.07018197 0.0408506 -0.07325225 0.0020576073
-0.027976582 -0.10177733 -0.0009997519 -0.039319035 0.00074344774 0.03875434 -0.02164207 0.07041614
-0.003965465 0.016931958 -0.06637256 0.068288356 -0.026939746 0.011878998 0.07504909 -0.045471106
-0.034163635 0.03945274 0.011453894 0.03272709 0.002317675 0.02416124 0.009574481 -0.07787029
0.035671365 -0.0060935556 0.013064436 0.010693635 -0.0440746 0.021171618 0.016592221 -0.0013563859
0.055739522 -0.062454734 -0.0135252485 -0.037875853 0.0024104011 -0.04643643 -0.06265083 0.039050285
0.022078685 0.010915822 -0.001437153 -0.034004968 0.028960202 0.018540207 -0.039563622 0.045190215
0.023198077 -0.08511119 -0.0767244 -0.030438932 -0.017823873 -0.036863092 0.04635944 -0.011175904
0.07645766 0.04866177 -0.039081622 -0.05071753 -0.000787871 0.06885933 0.07353034 -0.051260572
0.012024229 -0.05133861 -0.0025288693 -0.025525961 -0.056932878 0.034950327 -0.02510829 0.011105899
0.04625801 0.036135316 -0.019732809 -0.053996205 -0.05811661 -0.03870068 0.075111315 -0.03669915
-0.012675728 -0.024955751 0.05490283 -0.018197069 -0.033283167 0.051236812 -0.074357584 0.07238583
-0.031092774 -0.01632304 0.060792416 -0.014383949 0.03110556 -0.05940864 -0.08749707 -0.090186745
-0.0046306574 -0.034549404 0.024026398 0.022773387 0.024342606 -0.008204029 -0.051852882 -0.030987063
-0.048255797 -0.003912324 -0.0024660337 -0.02357443 0.018346481 -0.023364222 0.08748747 0.0068381974
-0.0003537076 -0.05818859 0.04190123 0.03512195 0.011509065 -0.037390474 -0.001223193 -0.030767556
0.04087174 0.020507792 -0.0147941895 -0.03405977 0.01774693 0.029649122 -0.013248198 -0.02780769
-0.025577608 0.05022289 0.0068784263 -0.030037561 0.053628284 -0.06875418 -0.0211027 -0.022515805
-0.044393945 0.024862168 -0.014749945 -0.10075719 -0.057762172 0.0058120084 0.03479868 -0.04280425
0.018181087 -0.044918336 -0.055075094 -0.10032685 -0.004435781 -0.022080287 0.033564296 -0.03895638

conv6.bias f4 [32]
00000000: 9f11 f9bb 6d1e 05bd a1a7 ba3b 742c 6a3d
00000010: 363a 26bc e7b2 44bd 8f43 45bc 45c5 a6bd
00000020: 5ae5 23bc 2f6d 803b fc7d 0e3d 14bd 09bb
00000030: 24e6 6e3a 256d 23bd 53d9 2cbd e7ae 80bd
00000040: 53ae 94bd b5cd 163d cf7e 923d 3555 8cbd
00000050: 2c34 f53c 6250 96bd 306b 95bc 81d9 1fbd
00000060: 9ada 333c 4429 833d 4776 cc3c 29b7 f7bc
00000070: 412f adbc 380d fd3c 9e07 333d bf47 893d
-0.0076009776 -0.03249972 0.0056962525 0.0571713 -0.0101457145 -0.048022177 -0.012040033 -0.08143095
-0.010003412 0.0039192657 0.034788117 -0.002101724 0.0009113273 -0.03989901 -0.042199444 -0.0628336
-0.07259812 0.03681727 0.07153093 -0.068521895 0.029932104 -0.073395506 -0.018239588 -0.039025787
0.010977412 0.06404355 0.024958743 -0.030238705 -0.021140696 0.030890092 0.043708436 0.067031376

conv7.weight f4 [32, 32, 3]
00000000: 5160 033d 7b18 18bb 9d2a be3d a333 863c
00000010: b12f d63c 73aa 76bd 1cdb 30bd 5fbb 8f3d
00000020: 3a19 b9bc 1294 bb3c 041e 74bd dd9d 53bd
00000030: ed28 7b3d 58e2 34bc 1726 943b 8017 68bc
00000040: 582c 223d d1bf 8a3c db72 75bd a4c2 39ba
00000050: cc2a 9b3d 109b c0bd 6a7f 393d 4f4c 08bd
00000060: 24d5 38bd ef55 c93c bb90 ce3c 8024 023d
00000070: 10c8 e2bc ed1d 0a3d 4088 7bbb 691a 7f3c
00000080: b07c adbd 5c2b 08bc bba5 1dbd bd04 52bd
00000090: efe2 1b3d 928b 6c3d f271 64bc f6d1 a43c
000000a0: 718a 0f3d d7df adbd bf7b dabc 8a36 ab3d
000000b0: f8a8 b63c fd24 8dbd 0c79 003d 4d27 9d3a
000000c0: 18c2 923c 14f6 073d b66a 303d 63cc babc
000000d0: 316d bbbc 3559 b7bd 0d92 d4bc de3a 30bd
000000e0: 3f5e 91bb 8850 5fbd 49c3 3abd 55cb dfbc
000000f0: 88c0 f03c ec32 e7ba b634 ce3c 6dbf 80bd
00000100: 7985 823b b990 67bb 4fd9 8b3d e590 1a3d
00000110: c16c 4b3c fc92 c83c 6982 ccbb a0d2 2e3d
00000120: e706 b73a dd79 c6bc 80fb 1f3c d26f af3d
00000130: 51ed 1d3d f02b 413d 2576 11bd 3083 d639
00000140: 1c74 4bbc f404 2fba 4873 d23c f21d 093d
00000150: 250e afbc 7025 293d 4c6d 663d 6140 863c
00000160: 0a46 0c39 2b2a 8bbd bfc1 37bd b37f 5cbc
00000170: eaab 3a3c b9a1 343d 46cf 2abd af55 c53c
00000180: 692d 653b 29cf 94bd f3da 053c 7fa4 873c
00000190: e48e 013d 114b a33a 1b8e 273d aa07 ce3c
000001a0: 0dad acbd afd4 b3bc ae00 b23c 520f c3bc
000001b0: 50d8 aa3c 4a45 81bd 9736 0cb8 555a 003c
000001c0: d62a 9bbb c884 d8bc 36a4 cabc 40c3 663d
000001d0: a689 d13d 23ab 7abc ce0b d8bd 9cd1 433d
000001e0: 8b4e 313c b5da 1abd 7fd9 09bd cf24 dabb
000001f0: 018c 9b3d 920c 563a 2e4f 0e3d f41d 1d3d
00000200: 75fb 973d 5cc3 1dbd 27f1 743d 32e8 8abd
00000210: b763 0abc 7401 903d b3d5 e63c bd73 4a3c
00000220: d989 733d 5f9b 7fbd fffb 9bbc 41ce 5c3d
00000230: ee24 b53c a282 1ebd 78b8 a33c 5d40 a53c
00000240: f20d 273d e776 f3bc 6e4c 463d 3e49 b5ba
00000250: f3e1 6a3d 7d2a ccbb fdd5 793d 3dba e0bb
00000260: 1ea0 29bd 9150 56bd cd0d f33c fb35 d13b
00000270: 15ce d73c d7b1 123b ba2c 813d cbb7 cdbb
00000280: 0fbf adbc 8bcc 043d 5cce 393d 6107 a03d
00000290: 40c1 323d 400e c23b 4dd9 d13c e126 4dbd
000002a0: be18 fabb 7c24 0b3d 3469 83bd 4f71 52bc
000002b0: d1ca 323b 8170 38bd d19c 883c 6b94 c4bc
000002c0: 17b8 91bc f48b 943c 65fc dfbc fa4f 22bc
000002d0: 0f88 483d dbeb 8fbb 3e94 edbc 990e c4bc
000002e0: fc15 cd3c 9cbb e9bc 30e6 173d 2629 193d
000002f0: da43 c1bc 0df1 613d 87e8 23bb 99b2 673d
00000300: 859f 6f3d ff4e 923c 4116 12bd f73e a7bd
00000310: acc4 91bc 0028 b43c a671 033d c516 88bb
00000320: 6919 9bbc b7a4 b8bb dc6f 31bd 73b9 b33d
00000330: d14a 853c e3a0 6d3d 5ce8 4b3d 11f8 293c
00000340: 62ce a73b dc12 a93d aac6 81bd ef71 0d3d
00000350: 5c19 7b3b 57b0 143c 2f9a 433d ca11 393d
00000360: 1ce8 873c 7ac9 9fbc c7ff 88bd ba33 c5bd
00000370: e342 c3bd 2ed6 5fbc 0153 ee3c 3a62 cabc
00000380: 4f7a 303d 76c7 05bc 65aa d5bd 8afd 62bd
00000390: 3b85 713c 25d9 b1ba ef6f 52bc 674b b7bc
000003a0: 03f3 40bc 9bfb b6bc f02a c73c 056d 19bd
000003b0: 0654 eebc 8d49 84bd 518e 433c c5ad 9f3b
000003c0: 2c19 633c cbc8 55bd 8f3e fa3c 53dd f93a
000003d0: 38a0 893d 9d3a b0bc e08c 86bc 480b 053d
000003e0: 4997 8abd 3c39 343d 1efc 7c3c c435 b73d
000003f0: be47 adbd 2bc5 65bc bb53 6b3a a050 503c
0.032074276 -0.002320795 0.092854716 0.016382044 0.026145788 -0.060221147 -0.04317771 0.0701816
-0.022595037 0.022897754 -0.059598938 -0.051664222 0.061318327 -0.011040293 0.004521142 -0.014165759
0.03959307 0.016937168 -0.059923988 -0.00070861937 0.07576522 -0.09404576 0.045287527 -0.0332759
-0.04512514 0.02457711 0.025215497 0.03177309 -0.027683288 0.033719946 -0.0038380772 0.0155702615
-0.08471048 -0.008311119 -0.03848813 -0.05127405 0.038058218 0.057750292 -0.013943182 0.020119648
0.035044137 -0.0848996 -0.026670335 0.08360012 0.022297367 -0.068918206 0.03136544 0.0011989862
0.017914817 0.033193663 0.043070517 -0.022802537 -0.022879215 -0.08952562 -0.025948549 -0.04302489
-0.004436284 -0.05452016 -0.045596395 -0.027318636 0.029388681 -0.0017639077 0.025171619 -0.062865116
0.0039831963 -0.0035334064 0.06828558 0.03773584 0.012416066 0.02448415 -0.006241132 0.042681336
0.0013963849 -0.02422803 0.009764552 0.0856625 0.0385564 0.047161043 -0.035513062 0.00040915003
-0.012417819 -0.0006676458 0.025689736 0.033475824 -0.02136905 0.04129547 0.056256577 0.01638812
0.00013377532 -0.06795152 -0.044862505 -0.01345818 0.011393527 0.044099543 -0.041701578 0.024088709
0.0034969694 -0.07266075 0.008169877 0.01655793 0.03163041 0.0012458285 0.040907007 0.025150139
-0.08431444 -0.021952001 0.02172884 -0.023811016 0.020855099 -0.06312044 -3.3429442e-05 0.007834037
-0.004735331 -0.026430503 -0.024736505 0.05633855 0.102313325 -0.015299591 -0.105491266 0.04780732
0.010821949 -0.03780623 -0.033654686 -0.00665722 0.07595063 0.0008165325 0.03474348 0.038358644
0.074210085 -0.038516387 0.059800293 -0.06782569 -0.008446625 0.07031527 0.028178072 0.012356696
0.059457634 -0.062404033 -0.01904106 0.053907637 0.022112336 -0.0386988 0.019985422 0.020172292
0.040784784 -0.029719783 0.048412733 -0.0013831032 0.05734439 -0.006230651 0.06099509 -0.006858139
-0.041412465 -0.052322928 0.029669667 0.006384609 0.026343385 0.0022383833 0.06307359 -0.0062780133
-0.021209268 0.03242163 0.045362815 0.078139074 0.04364133 0.005922109 0.025616312 -0.050085906
-0.007632344 0.03397034 -0.0641655 -0.012844398 0.0027281533 -0.045029167 0.016676338 -0.023996552
-0.017787976 0.018133141 -0.02734203 -0.009906763 0.04895788 -0.00439213 -0.029001351 -0.023932742
0.025034897 -0.028531842 0.03708476 0.037392758 -0.023591924 0.055161525 -0.0025010423 0.05656681
0.05850174 0.017859934 -0.035665754 -0.081663065 -0.017793976 0.02199173 0.032090805 -0.004153105
-0.018933015 -0.00563487 -0.043319568 0.08775606 0.016271027 0.05801476 0.049782142 0.010374085
0.0051210383 0.0825555 -0.0633672 0.034532484 0.0038314676 0.009075246 0.047754463 0.04518298
0.01659017 -0.019505251 -0.06689411 -0.09629007 -0.09534242 -0.013661904 0.029092314 -0.024705041
0.043085393 -0.008165231 -0.10432891 -0.055417575 0.014741237 -0.0013568742 -0.01284407 -0.022374822
-0.0117766885 -0.022336772 0.024312466 -0.037457485 -0.0290928 -0.06459341 0.011935786 0.00487301
0.013860982 -0.052193444 0.030547408 0.0019063152 0.067200124 -0.021512324 -0.016424596 0.03248146
-0.067671366 0.043999895 0.015440969 0.08945802 -0.08460949 -0.014024059 0.00089770154 0.012714535

conv7.bias f4 [32]
00000000: b412 85bd b0a9 b5bb a314 993d 112e e63c
00000010: 02a1 71bb 4598 a13b 7bc8 e6bb 1a9d 98bd
00000020: e2c4 8d3c f6a9 9ebc 3bbc 95bd c0a0 5bbd
00000030: fd84 793d 139d 043d 1cb2 143d 3914 9b3b
00000040: ef03 873d 8aef 5abd fdc8 7c3b 96cc 8b3d
00000050: 6d14 8c3d 32a9 933d 9722 1a3d 3f1a 1cbd
00000060: 6cec 03bc 71d0 843d 2a29 29bd 6f87 5cbd
00000070: 10e0 d43c 5241 1dbc cdd0 15bd c33f cebc
-0.06497708 -0.00554391 0.07474639 0.028098138 -0.003686965 0.004931482 -0.007042942 -0.0745184
0.017305795 -0.019368153 -0.07311293 -0.0536201 0.060917843 0.03237636 0.03630267 0.0047326353
0.06592547 -0.0534511 0.0038571947 0.06826131 0.068398334 0.07210006 0.037630644 -0.038110968
-0.008051973 0.064850695 -0.041299023 -0.053840097 0.025985748 -0.009598093 -0.03657608 -0.025176888
