FedProx/server_model_parameters.pth (torch, 767202 bytes, 51 tensors)

conv1.weight f4 [32, 2, 3]
00000000: df6e 01bd 50bc 3ebc a020 fa3c 3e9a 513e
00000010: 90a8 a0bc 9352 1d3e 8c2b 0fbe ea8e 823e
00000020: c4a1 32be d6d0 3abe 72df debd cbab 813e
00000030: ebd8 06bc 584d 843d 57c2 b9ba 8505 97be
00000040: db5f 9f3e 7243 71be 4535 493e 7c3f 673d
00000050: bb46 983e 04b8 45be e8b8 603d 4882 92be
00000060: f085 973e c7b4 1b3e eab9 323d 588b c4bd
00000070: 0822 88bd 8473 bebd b9a0 50bc 30f1 043e
00000080: fe23 5a3e f850 0a3e 409d 123c d749 afbd
00000090: 3e41 813e 5c12 3bbe 5c27 c93d b847 dcbc
000000a0: 79f3 aa3e f9b5 a63e d2bb a0bd 8e14 703e
000000b0: d901 7bbd 06d5 063d b609 cf3d d860 30be
000000c0: 9c9d 683d 48ac 95bc a880 4dbe 16c1 eabd
000000d0: 4580 5abe 60c5 9ebc 6e6e 8bbe 88ca 75be
000000e0: 14af 30be 6037 3ebb 61fe 7bbe d8b5 a03e
000000f0: 6afa cbbd 8862 45be 2eb3 eb3c 54f1 183d
00000100: ea47 e33d 8c27 6c3d 27e1 80bd 2e89 cf3c
00000110: 6afd 073d 986a 70bd ca35 e43d a049 a83d
00000120: 5a4d 133d 3192 033e 9cac 14be 52e7 403e
00000130: 7fca bebe 84a1 803d 7e8f 983c 6ebe 86be
00000140: fa06 7a3e 3055 3a3c d4c9 69be e8c6 273d
00000150: 9206 73bc 66ac 88bd 820d b13d 576a 9abe
00000160: 1ea7 c0bd bc7b 983e e935 4b3d 5c71 87be
00000170: 682e 433c c09b 0bbb a01b a8be 58e0 c23c
00000180: 1de1 b03e 2cba 4e3e 1ada 68bd 03b0 893d
00000190: 1272 a7bd ffd9 be3e 6af1 51bd f8f7 3bbe
000001a0: 4e32 75ba 5248 3abe 3ba2 fdbd 6c0a 9abe
000001b0: 6093 0a3c 2421 7fbd a484 653c 1243 95be
000001c0: e643 8dbe 2f0f 0ebe 204c 0d3d addd d6bd
000001d0: f3ef 8e3e b22c f3bd 9402 97bd 9c6d 123d
000001e0: 3c88 7ebe c13a 9c3e 1bc8 d1bd ea3c b2be
000001f0: 64cd c2bd 17c8 95be 1cff 11be f27f 3abe
00000200: b161 903d 0080 15bc 90f2 c53d e07e 26be
00000210: da88 40be 5791 683e 4ec2 7b3d a837 9abc
00000220: 0077 b5bc f2b9 8ebd 872d 8dbe 28e4 693e
00000230: 1018 70bd 04b8 b4bd 0893 0fbd 321b 893e
00000240: d274 4c3e a095 393e 8542 673e 54e2 d7bd
00000250: 81fa 063e fcc7 79be 4f82 a8bd a896 113c
00000260: 9ec1 59bd 2c3e 4e3e 5093 933e 6c3e b63d
00000270: 808a 74be ad7b 3ebd 3e4f 3fbe fc5b 033d
00000280: 180b 473d 24e1 babe 726e 4fbd 3655 a7bd
00000290: 7cc9 8e3e 4c91 f03d 26d8 893d b79c 03be
000002a0: 9609 74be 5875 35be bcc7 a23e 3cab cfbd
000002b0: 7342 143e d44b be3d 8923 703e b24a 413e
000002c0: 6d12 51bd 1871 91bc 48c9 1dbd 8a43 593e
000002d0: 008f 08bc 2190 bd3e bcf6 463e 3c10 363e
000002e0: c477 10bd e05a a0be 8070 343e 6bec 033e
000002f0: 688a 703e 9eca 1a3e c255 d03d 8709 033e
-0.031599876 -0.011641577 0.030533135 0.20468995 -0.019611627 0.15363531 -0.13981456 0.2549966
-0.17444521 -0.18243727 -0.108824626 0.2532638 -0.008230428 0.06460065 -0.0014172298 -0.294964
0.3112782 -0.23560885 0.19649227 0.056457028 0.29741463 -0.19308478 0.05486384 -0.28615022
0.29594374 0.1520568 0.043634333 -0.0959689 -0.06647116 -0.092993766 -0.012733632 0.1298263
0.21302792 0.1350745 0.008948624 -0.08559006 0.25245088 -0.18268722 0.0982196 -0.026889667
0.3338888 0.3256071 -0.07848324 0.23445341 -0.06128106 0.032918 0.10109274 -0.17224443
0.056790933 -0.018270627 -0.2006861 -0.114626095 -0.21337993 -0.019381225 -0.2723269 -0.24003041
-0.17254287 -0.0029024705 -0.24608757 0.31388736 -0.09959872 -0.19275868 0.028771963 0.037339523
0.11097701 0.057654902 -0.062929444 0.025333967 0.03320066 -0.058695406 0.11143072 0.08217168
0.03596244 0.12848736 -0.1451897 0.18838242 -0.37263867 0.06280807 0.01862311 -0.2631716
0.24416724 0.011372849 -0.22830898 0.040961176 -0.014833109 -0.066735074 0.086451545 -0.30159256
-0.09406875 0.29781902 0.04961196 -0.26453674 0.01191292 -0.002130255 -0.32833576 0.023788616
0.34546748 0.20188206 -0.056848623 0.06723025 -0.08176054 0.37275693 -0.05125562 -0.18356311
-0.0009353504 -0.1819165 -0.12384459 -0.30086076 0.0084579885 -0.062287465 0.014008675 -0.29152733
-0.27590865 -0.1387298 0.034496427 -0.104915 0.27917442 -0.11873759 -0.073735386 0.035749063
-0.24856657 0.30513576 -0.10243245 -0.348121 -0.095118314 -0.2925422 -0.14257473 -0.1821287
0.07049883 -0.009124756 0.09665406 -0.16259336 -0.18802205 0.22711693 0.0614646 -0.018825367
-0.02215147 -0.0696906 -0.27573797 0.22840941 -0.058616698 -0.08824161 -0.03505233 0.2677856
0.19966438 0.18123484 0.22583969 -0.105412155 0.13181497 -0.24392694 -0.082279794 0.008886017
-0.053163163 0.20140904 0.28823328 0.08898625 -0.23880959 -0.046504665 -0.18682572 0.032070145
0.048594564 -0.36499894 -0.05064244 -0.081705496 0.27888095 0.11746463 0.0673068 -0.1285275
-0.23831782 -0.17720544 0.3179301 -0.10140082 0.14478473 0.09291807 0.23451056 0.1887615
-0.051042963 -0.017754123 -0.038522035 0.2121717 -0.008334875 0.37024024 0.19430059 0.1777963
-0.035270467 -0.31319332 0.1762104 0.12883155 0.23490298 0.15116355 0.10172607 0.12796603

conv1.bias f4 [32]
00000000: d236 30bd 7a18 983d 1e7c c23d 917e 7abc
00000010: 3ad4 d73d aacf 253e 7ea6 503d 7e9f 27be
00000020: dcfd ad3b 1217 1ebd fa19 923d c8af ae3d
00000030: 9ce7 edbd de0a 83bd 1eae ab3d 883b 443e
00000040: a6a7 533d 427f 1c3e 8ff3 adbd 8c09 10be
00000050: d5b7 73bd 440e c6bd 6ed8 323e 84ef 3cbe
00000060: 6eb1 06bd eeba 42be 9c3f 983e 5453 2fbe
00000070: 4046 d63c a605 5a3e 80c6 f3bc ec71 4bbd
-0.04302103 0.074265435 0.0949633 -0.015288965 0.10538526 0.16192499 0.05094003 -0.16369435
0.0053098034 -0.03859622 0.07133861 0.08529621 -0.116164416 -0.06398557 0.083828196 0.19163334
0.051673554 0.1528292 -0.08493721 -0.14066142 -0.059501488 -0.0967069 0.17465374 -0.18450743
-0.032884054 -0.1901662 0.2973603 -0.17121631 0.026156545 0.21291217 -0.029757738 -0.04966919

conv2.weight f4 [32, 32, 3]
00000000: 6816 ed3b f6e0 a63d 40db 9abd 004a ce3c
00000010: dcc5 413c 6fb2 8c3d 84f7 5c3b a46b f63c
00000020: ba9b 11bd 7143 223c 36f7 05bd c467 debb
00000030: c026 aabc deb3 2cbc c8f3 953c 4907 793d
00000040: 6462 61bd 1478 60bc 4f2b 613d f67f babb
00000050: 35f3 0b3b 3ce2 83bc c07e 07bc accd 3e3d
00000060: f299 84bc f4ce e5bb 2620 0d3a 140c c2bc
00000070: aa25 5b3d e56c 453c 57e9 9abc 1967 8d3d
00000080: 5dd6 ef3b a88e 85bc ee09 8abd 3a8e 933c
00000090: 1893 73bc d75c 87bd a8f5 1ebd baca d13c
000000a0: 75ef 763c 5766 e63c 1865 3dbd d65a 83bc
000000b0: 403e 703d c825 2e3d b099 98bd 90f9 593d
000000c0: 1486 383d 406b d33c 224c e33b 4878 1fbd
000000d0: 01d0 02bc f52c a6bc 7293 60bd ea86 023d
000000e0: e106 b53d 8bcd 0d3c 1a54 87bd 9893 fe3c
000000f0: 0a33 8c3d fc1b b03a b2db 73bd fb92 1f3d
00000100: c82a bfbc 487a ca3d 0a89 103d 190b 023d
00000110: 2b67 20bd 5cbf 23bb f139 9abd 2b64 493d
00000120: acd0 1e3d c377 52bd 3161 76bd 242d 813b
00000130: 468f 6cbd dc03 43bc 56b5 00bd e8bc 2cbd
00000140: 8c3f 243d b09c ce3c c100 da3b d26b 6ebd
00000150: 4031 033c e401 5d3c 061e a4bd 7127 823d
00000160: d424 8b3d a3f7 6cbd d514 a43d 7b86 583d
00000170: ba4d 15bd 722d e6bc eea5 07bc 20c7 9bbd
00000180: 257a d23c 0f1f 95bd 1c54 803c 1549 8ebc
00000190: 465f 7fbc c23e 3abd d067 203d 8e79 c43c
000001a0: ec4a bcbc 5047 1f3c 5403 2b3c 7407 d23c
000001b0: 236a 22bc fe8a 0b3d 7eb6 aabc 947f 1dbb
000001c0: 74d7 713d 02ae 273d e63c edbc 5a51 8abc
000001d0: e436 fdbc 4ace 3c3d fa8e 6b3c cd03 8a3d
000001e0: e386 a2bc 72ff 6b3d 9099 883c d45b e5bc
000001f0: b05c 1e3d 4284 273c f4a7 b03a 166f 093d
00000200: 7d14 b03d 7516 a73c eea7 033d a42c b73c
00000210: c60d 8bbc f072 7dbc bfc3 09bd a60f 343d
00000220: f0e9 f83a 9ca1 a3bb 053e 9a3d a1d0 733c
00000230: de9b 3a3d 704e 9dbc 84b3 3dbc 9fe5 fc3c
00000240: 18a0 d939 1ab1 3dbd 3cee 283c bcf1 4e3d
00000250: 04f4 843c fe5c cebc e848 13bd 526b 713b
00000260: ce6b 9bbd 1bc2 cc3c 7d23 ccbc da8d d03c
00000270: 7a4f a03d fcc5 9e3a 145b e9bb c157 c83b
00000280: 522b 3fbd 1c06 323d 76e2 093d 7923 ed3c
00000290: 80b6 c9bc 3129 9abd 51ae 773d 5bee 0f3d
000002a0: b790 5dbd 401a bdbd 660d 05bc c2c5 37bd
000002b0: d48f 9f3b 4e63 9ebd 9508 433d 98c1 873d
000002c0: 9c1a 603d 0c4c c3bc 4e83 043d 3c1f a8bc
000002d0: 7a30 2cbc 4ac6 523c f028 f13c 4a83 7abd
000002e0: b0cf 92bc 6fd0 733d 4c88 283c 18b1 0fbd
000002f0: 382b 053b f066 363d c724 ccbc 1481 b93a
00000300: 0db2 88bd 1c38 cf3c 6267 c23d e9f0 18bd
00000310: b877 69bd be58 0ebd bd40 1cbb 044f 3f3b
00000320: 700c 993d 8110 08bd 40d4 e53c 69bb 6dbc
00000330: ce10 85bd dd50 083b a84b a0bd f9ab 73bc
00000340: 7a40 593d ec43 b73d cf65 c9bc e3a8 78bd
00000350: f389 9ebc 9457 d1bc 02ec 793d e23d de3c
00000360: 439f 1bbc e074 913b 5a67 c53c 7572 823c
00000370: ce90 d33c 16a4 193a 12da b83c 2c19 d2bc
00000380: 2a8f 8cbd 8a8a 263d 3fe5 5d3b 0b62 843b
00000390: 827f 33bc e626 203d d851 09bc 0d17 b73d
000003a0: 38ea 273d c874 c13a beca a23d 4be7 49bc
000003b0: d9a2 343d f671 acba 771d 2f3d 3fd9 83bd
000003c0: a04e abbc ae17 a2bd 2814 633d 3e29 cbbb
000003d0: 5aee 5b3d fcd6 13bd 4c1b 293d a0fb 123c
000003e0: 8442 49bd 473c 1ebc 14d5 043c f137 113c
000003f0: 13da ab3d 9234 94bb 4741 003d 0222 f5bc
0.007235337 0.08148377 -0.0756135 0.02518177 0.0118269585 0.06869971 0.0033716867 0.030080624
-0.035548903 0.009903775 -0.03270646 -0.006787272 -0.02077043 -0.010540931 0.01830472 0.060797963
-0.055025473 -0.013700504 0.054972943 -0.0056915237 0.002135468 -0.016099088 -0.008269966 0.046582863
-0.016186688 -0.007013196 0.00053835136 -0.0236874 0.053502716 0.012049888 -0.018910093 0.0690443
0.0073192553 -0.016303375 -0.06740175 0.018012155 -0.014866613 -0.06609505 -0.038808495 0.025609363
0.015071739 0.028124971 -0.04623899 -0.016034525 0.058653116 0.0425165 -0.074511886 0.053216517
0.045049742 0.025807977 0.006936566 -0.03893307 -0.007984162 -0.020285109 -0.054828115 0.031866945
0.08839203 0.008654962 -0.06607838 0.031076238 0.068456724 0.0013436074 -0.05953569 0.03895853
-0.02333583 0.098866045 0.03528694 0.031748865 -0.03916089 -0.0024985885 -0.07530583 0.049167793
0.038773224 -0.051383745 -0.060151283 0.0039421488 -0.057753824 -0.011902776 -0.031422935 -0.042172343
0.040099666 0.025221199 0.006652922 -0.058208294 0.008007348 0.01348922 -0.08013539 0.06355179
0.06794134 -0.057853352 0.08011786 0.052862626 -0.03645108 -0.028097842 -0.008279307 -0.076063395
0.025693009 -0.072813146 0.015665106 -0.017368833 -0.01558668 -0.045470007 0.039161503 0.023983743
-0.022984944 0.009721592 0.010437805 0.02563832 -0.009913 0.0340681 -0.020838972 -0.0024032341
0.059043363 0.04093743 -0.028959703 -0.016884495 -0.030909963 0.04609517 0.01437735 0.06739006
-0.01983971 0.05761666 0.016674787 -0.027997889 0.038662612 0.010224404 0.0013477788 0.033553205
0.08597658 0.02039645 0.032142572 0.022360153 -0.016974341 -0.015469298 -0.033633944 0.043960236
0.0018990617 -0.0049936306 0.075313605 0.014881284 0.045558803 -0.019202441 -0.011578444 0.03087121
0.00041508744 -0.046311475 0.010310706 0.050523505 0.016229637 -0.025190827 -0.0359582 0.003683765
-0.075889215 0.0249949 -0.024919266 0.025458265 0.07827659 0.0012113447 -0.007121453 0.0061139767
-0.046672173 0.043462858 0.033663236 0.028947579 -0.024623156 -0.07527388 0.060468975 0.035139423
-0.05409309 -0.092335224 -0.00812087 -0.04486633 0.0048694406 -0.077337846 0.047615606 0.06628722
0.054712877 -0.023839973 0.032351784 -0.020522706 -0.010509605 0.012864659 0.029438466 -0.061160363
-0.017921299 0.05952495 0.010286402 -0.035081 0.002031995 0.044531763 -0.02491988 0.0014152848
-0.066745855 0.02529531 0.09492375 -0.037339125 -0.05699894 -0.0347526 -0.0023842298 0.0029191384
0.074730754 -0.033218864 0.02805531 -0.014510014 -0.06497346 0.0020800151 -0.0782693 -0.014872544
0.053040005 0.08948502 -0.024584679 -0.060707938 -0.019352889 -0.025554456 0.06101609 0.027129117
-0.00949842 0.0044389814 0.024097133 0.015923718 0.025825884 0.00058609375 0.022564922 -0.025646769
-0.06863244 0.040659465 0.0033858565 0.004040008 -0.010955693 0.039099596 -0.0083813295 0.089399435
0.040994853 0.0014759535 0.07948826 -0.012323211 0.044100616 -0.0013156522 0.04275271 -0.06437921
-0.020911515 -0.07914673 0.055439144 -0.006199985 0.053694107 -0.036093697 0.041285798 0.008971125
-0.0491357 -0.009657926 0.008107442 0.008863435 0.08391204 -0.0045228684 0.031312253 -0.029923443

conv2.bias f4 [32]
00000000: 7a5b eebb ea32 1b3d c998 fb39 30d7 47b8
00000010: 55c7 0abd 69f1 52bd 9401 07bd eae2 9e3c
00000020: 2e5d 233d 26d3 d0bc 1667 8bbc b400 eb3c
00000030: 1605 bb3d 1b34 94bd 16bc 913d 4e6f 9e3d
00000040: 4a64 40bc d3a3 04bc adb8 7ebd d43a d8bc
00000050: 8cdd 34bd 6ae0 99bb a20e be3c 633d ffbc
00000060: 18bc ec3c d201 e5bc 20b5 2f3c b6ad 9fbc
00000070: ae3b d73b 38ec 3f3d 38f0 a63d e21b 81bd
-0.0072740884 0.037890352 0.00047988284 -4.7645706e-05 -0.033881504 -0.051499758 -0.03296049 0.01939531
0.039883785 -0.025491308 -0.017016929 0.028686859 0.091318294 -0.07236501 0.07115953 0.077360734
-0.011742661 -0.008095699 -0.06218784 -0.026395239 -0.044156596 -0.0046959417 0.023200337 -0.031157201
0.028898284 -0.02795497 0.010724336 -0.019492012 0.0065683937 0.046856135 0.08151287 -0.06304146

conv3.weight f4 [32, 32, 3]
00000000: e6f4 e7bc 76d9 553d de50 21bd a237 df3b
00000010: 1695 86bd fe8b 51bc 346a 3a3b ef09 ce3c
00000020: bcbb 8b3c 9ad0 863d 0899 a1bc 6f2f 9c3c
00000030: 1d7d aa3d 180f 71bc f9f8 183d 9e70 b6bd
00000040: 63d3 833d 8ab2 2f3d 606a 2dbd 9a3d 50bd
00000050: 1e4c e63c 284c 883c 0a5e 553d 8c2e b1bd
00000060: 82fe 903c 846f f63c 3ef8 57bc ba84 9c3c
00000070: 4ad8 4ebd c3ea 573d 665e b7bc 454f 82bc
00000080: 04cb b93c cc09 16bd 9367 56bb 9ed1 163d
00000090: a634 cf3c 897b d53c 5c20 ddbc b950 0ebd
000000a0: d8c6 93bd 0449 4fbc 7a4d 30bd 2389 0abd
000000b0: da59 cc3c cc4b a33d 72e1 2cbc 2b21 32bd
000000c0: 194b 5cbd eadd 46bd a234 5b3d 5e94 6ebd
000000d0: 6442 8d3c b885 6cbd 1d5e 9e3c 38f4 75bd
000000e0: 2399 22bd f020 383d 617d f73c f49b f0bb
000000f0: 201f 123c 055e ffbc a0bf b23c 9a6c d5bc
00000100: a01c 2fbd 9419 6fbd dec4 a9bc a897 c93c
00000110: 3a68 17bd c44e 62bd 503d e7bb d883 01bc
00000120: 4050 43bd ba28 debb 0530 b43d 0ea9 e6bc
00000130: 0eaa 37bd e6ce f13c 4c36 93bb bfcf 33bc
00000140: a578 383d 7a92 56bd 84d6 9f3c 0053 dd3c
00000150: 8491 943c be87 d4ba 24ca 053d f0ca 3b3d
00000160: c4d2 f7bc 50df a33b cf3b 89bc 54ee dbbc
00000170: 1ed9 f23c e46a 48bd ea33 523d dc5c 383d
00000180: 08a7 4c3c cb60 263d bafb 37bd a3c2 b93d
00000190: f264 6ebd dc27 6e3b 06d6 24bd d1b0 0c3d
000001a0: 1e66 9dbc 2188 e23b 5a49 64bd cb1a ba3d
000001b0: 1eb8 91ba aa44 ffbc b87e 263d e0a3 b3bc
000001c0: 0458 093d f402 c9bd 9a31 49bd 198c 7abb
000001d0: 38b8 2e3c 582b 2dbd cf10 11bd 32b9 bb3c
000001e0: 6603 143d ba8f 5a3d a8de 7b3c 24ce 08bd
000001f0: 936b b63c 92ea 443d 8b93 fcbb 0ed3 9a3c
00000200: eef8 3d3c fa7e 253c bf30 033d 1f24 8d3b
00000210: 5f3c 513d 6aad e4bc 8751 033c f7fa 863c
00000220: d28e f5bc 3059 6dbd 30cd f3bc ae75 50bc
00000230: 25e3 febc da69 983c 3451 953b 4d3b 57bb
00000240: adb1 6e3c f7d4 82bd c009 963d b216 21bc
00000250: e027 35bd a62c 013d 2e21 3d3d e58b cf3d
00000260: 606c 5bbd 7e6c 85bc faf7 c1bc fa0f 103d
00000270: 48b5 69bb 5279 56bd abb3 013d 8939 fd3c
00000280: 2e78 ed3c 2baf 173c 09c3 c43c 04eb b83c
00000290: 26b4 a0bd d35a 54bd 3c8b 513d 1c7f 75bd
000002a0: b8b0 dabb b6b4 863c da6d 4cbd 6559 e63c
000002b0: e5e4 4f3c 6a6d 8abd 072e b53c 684e 183d
000002c0: 4606 acbd 6ab2 3c3c 8ebd 663d 2d30 4cbd
000002d0: e274 703d 8a27 7bbd 9a3d 4dbd 421b e4bc
000002e0: 12b5 80bd 6cb5 903b 3cad f23b 388d cabd
000002f0: 5210 c73c dc6b 82bd 4e34 e8bc ca6e dabc
00000300: 94de 8e3d b21f 413b 80f4 053d 9455 6fbd
00000310: 5450 b5bc 489a 6f3d 9ef9 3cbd d2bb b83a
00000320: 330c 88bc e503 90bc e6f4 373c 09e8 0bbd
00000330: 60c1 b23b 4bb2 aebd 31b6 d2bb 3286 aabd
00000340: 06b8 afbd 5ac0 dc3d 216d a3bd 4e9a 0bbc
00000350: 4688 413d 32d3 a7bc caef e43c c8d0 46bd
00000360: c081 803d 3cfb 9cbc f619 bbbb 7ca5 3a3d
00000370: 3ca3 1cbd 5624 263c aeea f3bc 3052 603b
00000380: 82f8 d8bc 6275 8e3d 438a 57bc e2bf 733d
00000390: 3946 b8bd d56e 6bbd 2537 313b a89c 303d
000003a0: 4c6c 09bc cdf3 863d d7bf 1bbd f677 093d
000003b0: 124b 483d a402 243d 1a6b 2ebc 3265 25bd
000003c0: 974d 3dbd d598 0a3d dbba 5a3d fed6 0a3d
000003d0: 92af d8bc 4c82 24bd 0881 b1bc 807a c3bc
000003e0: 7ebb a5bc f01f 86bd e061 933a 9003 2dbc
000003f0: eb9f ae3d 4c81 d4bc 6513 a73d 5a26 153d
-0.028315019 0.05220934 -0.03938376 0.006812052 -0.06571405 -0.012789724 0.002844465 0.025151221
0.017057292 0.06582756 -0.019726291 0.019065587 0.08324645 -0.014713071 0.037346814 -0.08908199
0.06436803 0.042894877 -0.042337775 -0.050839998 0.028112467 0.016637877 0.052091636 -0.08651456
0.017699484 0.030082472 -0.013181744 0.019106258 -0.050499238 0.05271412 -0.02238388 -0.01590694
0.022679813 -0.036630437 -0.0032715544 0.036821 0.02529366 0.026059883 -0.02699297 -0.034744952
-0.07215661 -0.012651686 -0.043042637 -0.03382219 0.024945188 0.079734415 -0.010551797 -0.043488663
-0.053782556 -0.048551477 0.05351699 -0.058246963 0.017243572 -0.05774471 0.019331986 -0.06004736
-0.039696824 0.044953287 0.030211153 -0.00734281 0.008918554 -0.031172762 0.02181989 -0.026052762
-0.04275191 -0.058374003 -0.020723756 0.024608448 -0.036964633 -0.055250898 -0.0070568696 -0.007904969
-0.047683954 -0.0067797573 0.087982215 -0.028156783 -0.04483991 0.029517602 -0.0044925567 -0.0109748235
0.04503693 -0.052385785 0.019511469 0.027017117 0.018135794 -0.0016214771 0.03266348 0.045847833
-0.030251868 0.005000986 -0.016752152 -0.026847042 0.029644545 -0.048930064 0.05131904 0.045010433
0.012490995 0.040619653 -0.0449178 0.09070327 -0.058201738 0.0036339676 -0.04024317 0.034348313
-0.019213732 0.0069132005 -0.055734016 0.090871416 -0.0011117493 -0.031160671 0.040648192 -0.021928728
0.033531204 -0.098150164 -0.04911957 -0.0038230477 0.010664038 -0.042277664 -0.03541642 0.022915456
0.036136054 0.053359725 0.01537291 -0.033399716 0.022268092 0.048075266 -0.007708018 0.018899467
0.011594994 0.010101074 0.03202891 0.0043072845 0.051082965 -0.027914722 0.008015043 0.016477091
-0.029975329 -0.057946384 -0.029760927 -0.0127233695 -0.03111417 0.018605161 0.0045567993 -0.0032841743
0.014568728 -0.06388276 0.073260784 -0.009832071 -0.04422748 0.03153672 0.04617422 0.10134105
-0.05357015 -0.016287085 -0.023677815 0.035171486 -0.003566103 -0.052361794 0.031665485 0.030911224
0.02898797 0.009258072 0.024018781 0.022573002 -0.078468606 -0.05184443 0.051158175 -0.059935674
-0.0066738985 0.016443592 -0.04990945 0.028118799 0.01268885 -0.0675915 0.022116674 0.03718415
-0.08399634 0.011517147 0.056333117 -0.04985063 0.058705218 -0.061317004 -0.050107576 -0.027845029
-0.062845364 0.0044161584 0.007405905 -0.098902166 0.024299774 -0.06368229 -0.028345253 -0.026664156
0.06976047 0.0029468355 0.032703876 -0.058431223 -0.02213303 0.058496743 -0.04613649 0.0014094061
-0.01660738 -0.017579982 0.011227822 -0.034156833 0.005455181 -0.085301004 -0.0064304103 -0.08326377
-0.085800216 0.10778876 -0.07979799 -0.008520676 0.0472491 -0.020486448 0.027946372 -0.048538953
0.06274748 -0.019162767 -0.005709882 0.045567974 -0.03824161 0.010140499 -0.02977499 0.0034228675
-0.026485685 0.06955983 -0.013155523 0.059509166 -0.08997769 -0.057478745 0.0027040925 0.04311815
-0.008387636 0.0658947 -0.03802475 0.03356167 0.048899718 0.04004158 -0.010645652 -0.04037971
-0.046216574 0.03383716 0.053400856 0.03389644 -0.026450906 -0.040163323 -0.021667972 -0.023862123
-0.020231005 -0.0654906 0.0011244379 -0.010559931 0.08526596 -0.02594056 0.08157996 0.036413528

conv3.bias f4 [32]
00000000: 6635 17bd c8fa 13bd 9cf1 6abc f8b5 813d
00000010: 60ea 25bd 865e b13c 032e 3fbd d0b7 893d
00000020: 1460 f8bb aa99 513c 37fc 9cbb 7c48 78bc
00000030: a334 a2bd f98c 593d 75b2 acbb 4b69 9e3c
00000040: 0a02 623d 940a 85bd 5c7d 413d 6aa6 41bc
00000050: 4aa9 763d 53f2 bfb9 960d 97bd 4d1e 44bd
00000060: 6af8 acbb 32d2 1f3c 00f9 813c 8a72 9fbc
00000070: ceeb 9b3d 861f 303d fe03 843d 0732 bd3c
-0.03691616 -0.036127836 -0.014339831 0.06333536 -0.04050672 0.021651518 -0.04667474 0.067245126
-0.007579813 0.012792984 -0.0047908085 -0.015154 -0.07920196 0.053112958 -0.005270297 0.019337317
0.055177726 -0.06496158 0.047238693 -0.011819461 0.06022004 -0.00036610904 -0.07375638 -0.04788046
-0.0052786367 0.009754704 0.015865803 -0.019463796 0.076133355 0.042998813 0.06446074 0.023095144

conv4.weight f4 [32, 32, 3]
00000000: 6241 f6bc 359e 673d b5ba c0bb 480c f3bc
00000010: 30cd bdbc 844f a73c 2f08 cc3d 7c65 4d3d
00000020: ea3b 2dbc ea66 443d ad8b 09bc 90d6 2b3d
00000030: 6698 1a3d ca74 06bc 7906 11bd 6387 dd3b
00000040: 81e8 cbbb 6efb 003d 8b21 ec3c 8514 063c
00000050: 53af 43bd cec1 de3b 21ab 89bd 31c9 133c
00000060: f4ae d33c 700e 4e3c 6041 073c 8ecf c3bc
00000070: 0563 213d 82d0 543b 7440 d13c eb1a ad3b
00000080: 39f4 c2bb f6d0 5dbd 6da9 513c 1da7 8b3c
00000090: d23a 8abc 092c a03c 90e5 eabc 493b 84bc
000000a0: 8b8e 483b 4215 923d 036d efbc d681 c0bc
000000b0: d041 96bc 5286 5dbd a550 d7ba 2c31 023c
000000c0: 5352 1b3d 7bd9 7abd 9cde 61bc 932c 5fbd
000000d0: 7837 aeba 787e 8fbd bb5a a6bb 784e afb9
000000e0: a15b 823d 9dce fd3c 7a16 f83b 4ea9 eb3c
000000f0: e06e 8ebd dc06 fc3b f85f 0ebd 8a15 6c3c
00000100: 848e 17bd 02c7 073b 92e9 163c e254 a63c
00000110: bcee b9bb b81d 4ebc ba5e 40bd 9d3b a6bd
00000120: 0a79 093c 4767 343c 2a17 d73c 2613 5e3c
00000130: 93e5 bcbc bd82 4bbc 6095 65bd 9463 c53d
00000140: d82d 6ebd 6e21 553d 1557 983c 00ec 193b
00000150: 2fb1 17bd b871 c23c 440a 563d a648 a5bc
00000160: 6005 ba3c a2b2 82bd 38ff a73d b827 243c
00000170: fd6b 043d ef79 a0ba d00e 893b 15f1 a6bc
00000180: 68dd efb9 c62d d43c a63c c7bc 4e4a ae3c
00000190: e638 5fbd 52f9 2bbd 434e 173d 6dea 7bbc
000001a0: fbdd abbb 0ad6 2f3c ba1d 9d3d ba2f 87bd
000001b0: f510 813c 5404 013d 500d b8bd 2468 38bc
000001c0: 5612 2abc 29a6 f43c 3a9c 0abd 4657 96bd
000001d0: 8890 80bd 11d4 913c b853 bbbc 180c 3cbd
000001e0: 759e 98bd 7e87 41bd d9d7 5abc caea 8e3a
000001f0: e002 7c3c d0d8 513c 0247 92bd 74c7 b3bc
00000200: c2bf 8abc 941a 183b 2529 0a3d 3119 3b3c
00000210: 216b 6f3c 108b 493c 52a4 25bc 20e8 5f3b
00000220: e260 06bd 5a3c 303d a007 97bc 3e0f 263d
00000230: ec1c 61bb 1a80 9f3a ac2b edbc 4e0d 7dbd
00000240: 42ea 1cbd 83b7 df3c 4247 0b3d bc90 3fbd
00000250: efec 973d ae07 41bd fa4c 00bc 7617 51bc
00000260: 2553 8d3b 3a9c a93d 4a88 083d fd88 073c
00000270: 3137 863c 12af e0bb 3323 a93d 4804 0d3d
00000280: 4cd3 f63c 124d 66bd 4213 283d e693 b03c
00000290: 8c5f aa3b 2b0e 0e3d e088 c139 8418 7eba
000002a0: e1f2 26bd 53a8 35bd 0679 ba3d 2ce5 f83c
000002b0: a933 b43b 2da0 d2bb da3b 3cbd c210 cfbc
000002c0: b564 52bc 70fd 9dbd 34bf a0bb 6022 5dbb
000002d0: 0a7a fdbc b50a 033a c6be 323d f297 fa3c
000002e0: 04b3 263c 84d0 32bc fdc7 103d 9470 e1bc
000002f0: aa88 51bd 9afa 6f3c 407f d73c 64f0 543b
00000300: c0d6 3abd b7e6 ac3d bb85 1a3b db43 e83c
00000310: 4e38 67bc 805d 52bc 356c b73c 6ad6 4d3d
00000320: 3a77 6f3c de18 063d 4847 f93c dc05 a23c
00000330: 113b 00bb 7832 c4bc 06d6 bcbc da18 d33c
00000340: 36f0 9cbc 3c0d b83c 96af 833d 9942 8dbc
00000350: 8253 e33c 7268 08bd eb34 7f3c 5b6b 61bd
00000360: 9897 773c 00f8 873c 5250 70bd be42 b33c
00000370: 5e60 17bd 32e2 16bd 7a51 be3c d042 633d
00000380: 6241 5e3c f235 13bd 8cd5 5f3d 2e7e d93c
00000390: f989 523b 0885 61bc 268d 0bbc 60ff 9f3c
000003a0: 841f 033d f8c3 51bc 5cc4 9b3c 3246 043d
000003b0: ea40 403d 3f2b a93c 3204 21bb 84be af3b
000003c0: 4a4c 953d 1e11 e43c c293 b73c b749 a2bc
000003d0: 24d6 443c 58a4 97bd 301c d8bd d671 713d
000003e0: fc31 10bc 9248 853d 1f2a 98bd 9cda 963d
000003f0: e085 0bbd 4a7c 7c3d bf11 ea3b 4259 b3bd
-0.030060474 0.056547362 -0.005881632 -0.029668942 -0.02316913 0.020423658 0.099624984 0.05014561
-0.010573367 0.04794971 -0.008395118 0.04195267 0.037742995 -0.008206556 -0.035406563 0.006760524
-0.006222785 0.031489782 0.028824588 0.008183603 -0.047774624 0.0067980057 -0.067220934 0.009020136
0.02584026 0.012576684 0.008255333 -0.02390268 0.039401073 0.0032472913 0.025543429 0.00528275
-0.0059495238 -0.05415436 0.012796742 0.01704746 -0.01687375 0.019552248 -0.028673917 -0.01614155
0.003060254 0.07132961 -0.029226786 -0.02349941 -0.018341929 -0.054083176 -0.0016427232 0.007946294
0.037920307 -0.06124256 -0.013785984 -0.05448587 -0.0013291677 -0.07006544 -0.005076734 -0.00033437065
0.06365133 0.03098231 0.007571039 0.028767254 -0.069547415 0.0076912474 -0.03475949 0.014409432
-0.037001148 0.0020717983 0.009210961 0.020304147 -0.0056742113 -0.012580328 -0.04696534 -0.08116839
0.008390674 0.011010951 0.026256163 0.01355437 -0.023058688 -0.012421307 -0.05605066 0.09638134
-0.05814919 0.052033834 0.018596211 0.0023486614 -0.03703421 0.023735866 0.052255884 -0.020176243
0.022707641 -0.06381728 0.08202976 0.010019235 0.03232955 -0.001224337 0.004182674 -0.020378629
-0.00045750593 0.025900733 -0.024320912 0.021275666 -0.054497622 -0.041985817 0.03693987 -0.015375716
-0.005244968 0.010732183 0.076716855 -0.066009 0.015755156 0.03149827 -0.08986914 -0.011255298
-0.010380348 0.029864388 -0.033840396 -0.07340865 -0.06277567 0.017801316 -0.022867069 -0.04590997
-0.07452098 -0.047248356 -0.013357126 0.0010903713 0.015381545 0.01280804 -0.0714245 -0.021945693
-0.01693714 0.0023209201 0.033730645 0.01141958 0.014612944 0.0123012215 -0.010109978 0.0034165457
-0.03280724 0.043026306 -0.018436253 0.04054188 -0.0034349514 0.0012168915 -0.028951488 -0.061780266
-0.038309343 0.027309185 0.034003504 -0.04676889 0.07418238 -0.047126465 -0.007830853 -0.012761941
0.00431289 0.08281751 0.0333331 0.008272407 0.01638374 -0.0068568075 0.08258667 0.03442791
0.030130051 -0.056225844 0.04103399 0.021554898 0.0051993784 0.03468148 0.00036913808 -0.0009692984
-0.04075897 -0.04434998 0.09105115 0.030382715 0.0054993224 -0.006427786 -0.045955516 -0.025276545
-0.012841393 -0.07714355 -0.0049056057 -0.0033742413 -0.030941982 0.0004998849 0.043638967 0.030590031
0.010174517 -0.010913972 0.035346974 -0.027519502 -0.051155724 0.01464715 0.026305795 0.0032491917
-0.045614958 0.08442443 0.0023578245 0.028352669 -0.014112545 -0.012839675 0.022390464 0.05025331
0.014615828 0.03273856 0.030429497 0.019778185 -0.0019566456 -0.023949847 -0.023051273 0.025768686
-0.01915751 0.022467248 0.06429975 -0.01724367 0.02774978 -0.03330273 0.0155765815 -0.055034023
0.015111826 0.016597748 -0.05867035 0.021882411 -0.036957137 -0.03683681 0.02323221 0.05548364
0.013565393 -0.035940118 0.054647014 0.026549425 0.0032125695 -0.013764627 -0.008517539 0.019530952
0.032012478 -0.01280307 0.01901453 0.032293506 0.046936907 0.020650504 -0.002456915 0.0053632874
0.072899416 0.027840193 0.022409324 -0.01981054 0.012013946 -0.07404393 -0.10552251 0.058946453
-0.00880098 0.06507982 -0.07429909 0.07365915 -0.03406322 0.06164197 0.007143229 -0.08757259

conv4.bias f4 [32]
00000000: 71da 32bd 1721 df3b 56c8 d6bc ac9d 9b3d
00000010: f6e3 b93d 318d 883d 1a6f f23c 708c 773c
00000020: ce7b 03bc 643f cb3c 3852 34bd 3663 aabb
00000030: 00a8 3b3d 1941 403d 440f a93c d139 8ebc
00000040: ebfc a83c 6080 453d 5a44 493d 7e6f 4c3b
00000050: b4a2 babd 948f fb3c e00f 7ebb 4447 5abd
00000060: 9ee2 693d 426b 813d 98f1 ef3c cf7b 553d
00000070: 3f93 e33b 9f81 883d d183 12ba 0039 dd3c
-0.043665353 0.0068093645 -0.026218574 0.07598433 0.09076683 0.06667555 0.029593993 0.0151091665
-0.008025123 0.0248105 -0.044023722 -0.005199815 0.045814514 0.046937082 0.020637162 -0.017361553
0.020628413 0.04821813 0.04913745 0.0031194384 -0.091130644 0.030708112 -0.0038766786 -0.05329062
0.057100885 0.06319286 0.029290006 0.052120026 0.0069450433 0.06665348 -0.00055891 0.027004719

conv5.weight f4 [32, 32, 3]
00000000: 0a05 92bd 538a 99bc e287 e23c 500c 993c
00000010: f06f 90bd 2897 a43c d8c8 19bd 9c80 e23b
00000020: e28c 613d 96a9 b0bc 9a33 c03b ea75 24bc
00000030: f264 c43c 9d33 81bd b8e7 e43c babd 16bd
00000040: 38ae 863d 23ef 163b 1e33 6cbd d4de 993d
00000050: 22f5 debc 4c91 ba3b d300 013d c67d 81bd
00000060: 1440 24bb 66e1 b03c e9b8 46bd aa0c c4bc
00000070: cf9a 303b 4444 913b 0185 67bd 4e28 203d
00000080: 998a b83c b49b b1bd a066 45bd d22e 963c
00000090: 4af5 68bd 4a2c 373d 0862 9d3d 1e9d 02bd
000000a0: 0424 7dbd 7c0e a2bd b7c0 8d3d 716c 013c
000000b0: 679c 80bd a2ec e33b 980f 8e3d ca1d 003d
000000c0: 1d54 4a3d 8669 883b e8ea ecba 6879 3bbd
000000d0: e0b5 d93b 9ed6 6ebd b0d6 cd3b f3ae 133d
000000e0: 2c23 663d d718 79bd 45f6 8d39 0b11 7ebd
000000f0: e8d7 8abb 0171 b43c 1ecf 833b 3268 423d
00000100: 4b2b 2cbc bbce 973d a26e 0f3c 626e a43b
00000110: 2679 353c ef2c c5bb ac8e 173d bab3 81bc
00000120: 5b75 643d dc7f 9fbd fc63 62bc 6e8e bf3a
00000130: 5b24 22bb c4ca 323d 709f 45bd aecf d2bc
00000140: 5474 563b aeda 3f3c 10a5 6c3c 1a0d adbd
00000150: 5446 dbba 37d6 2f3d 72f2 c83c c12e dc3c
00000160: f23d 643c d6df bdbd bc4d b23c a1b3 8e3c
00000170: 18a4 57bd 3a34 60bc a4a1 64bb 028c 203d
00000180: e697 e0bc 5928 553c 003b 30bc d037 85bd
00000190: de0a ac3c a4c7 303c 3340 0cbd 6292 883d
000001a0: 7110 af3c 4c92 9ebc 54d5 4cbc 145c 5d3d
000001b0: 20ff c7bc dc48 c6bc 4427 1a3b 864f 7c3c
000001c0: 2259 57bd 33f3 e63b 4245 363d 5ac5 e43c
000001d0: eabf 673c ea47 95bd b236 1bbd a27c 54bd
000001e0: 7c84 4dbc ec1a d5bc 573f 463d 21b8 93bc
000001f0: 5242 71bb 64ca a63d 51c3 babc 565a afbd
00000200: b652 97bd c48c f63c e8f0 8b3d 690e b43d
00000210: d201 3abc e6ad 463d 3c2c 30ba 2af2 debc
00000220: 7283 29bd 1b3c ebbb 0a44 00bd 2b9e b63b
00000230: f07f d4ba bb2c dc3b 560e cfbc 7068 04bd
00000240: 6e12 943d b8e2 353d b32a a5bc e452 a83d
00000250: 3911 063d 902e 82bc 526b 5d3d b417 1dbd
00000260: 56ff a23d f6ca 9ebc 4225 fa3c 2b5a 81bd
00000270: fe8e 893d e0bb 093d f0ab 72bc 9866 873d
00000280: 9027 ec3c ca0d 963b 8276 0fbd 5829 953b
00000290: 5213 93bd 77f8 1b3d cc7e 40bd f953 a2bd
000002a0: e356 153c 4e69 21bd 1bcc 163c b693 80bd
000002b0: 250f 27bc 1555 c33c b43c 233b c74a 2bbc
000002c0: 00ff 4b3d 483e e3bc 0445 a73c 8a1f 86bd
000002d0: 4c8a 9abc 8a4c cdbb 08fb 923c 487c f03c
000002e0: b414 e5bb ebf8 2b3c 9a12 393b 77b8 8bbb
000002f0: ba40 d3bc 6184 ad3d 0c28 8e3c 6738 373a
00000300: ba3e db3c 3c7c 82bd baf7 653d f123 283c
00000310: 5510 36bd 32ad 53bc d0da 47bd 9bda 0c3d
00000320: e9c6 b43c 3c88 d639 d69e 793d cc40 7fbb
00000330: 3a9b 1dbd 95aa 96ba da9c c53b e9f1 5f3d
00000340: 10cc 013c d13f 1cba 1f5e 01bd 3853 d93c
00000350: 48a4 aebc 1c6f 323d 354e 61bd 7ec7 eb3c
00000360: 628f 20bd 3e47 87bc a882 723c 1884 d03c
00000370: 2438 9e3d 3aaf 203d a46f 283c 3060 d13b
00000380: cb42 e4ba 0538 823d 0459 8d3c aa21 513d
00000390: 1290 68bd 98a1 a93c 41fc 0ebd 5603 873c
000003a0: 6460 90bd f94a e1bc 9b29 a93c 5bed b0bc
000003b0: eb19 f5bc 2320 40bd 02f2 32bb 829d 8abc
000003c0: e48b a03b 8aab 03bd 8c5e 9abd 3c22 cabb
000003d0: 6924 15bc fabb 9d3d 1071 5dbc 762e 943d
000003e0: fe3d 033c dcf8 adbc f986 1abd 9461 c0bd
000003f0: d968 3a3c 6000 02bd 24c2 4bbd 4717 2b3d
-0.071298674 -0.018742716 0.027652685 0.018682629 -0.070526004 0.020091608 -0.037545055 0.006912304
0.055065997 -0.02156524 0.0058655264 -0.0100378785 0.023973916 -0.063086726 0.027942523 -0.03680203
0.06576198 0.002303072 -0.057665937 0.07513204 -0.027216498 0.0056935903 0.031494927 -0.063228175
-0.0025062608 0.021591853 -0.048516188 -0.02393182 0.0026947742 0.0044331867 -0.056523327 0.039100938
0.022527026 -0.08672276 -0.048193574 0.018332873 -0.05687455 0.04471997 0.076847136 -0.03188812
-0.061801925 -0.07912919 0.06921523 0.00789939 -0.062798314 0.006955699 0.06936568 0.03127841
0.049396623 0.00416297 -0.0018075379 -0.04577008 0.0066439956 -0.058310144 0.0062816963 0.036055516
0.056185886 -0.060814705 0.000270771 -0.062027972 -0.004237164 0.02202654 0.004022493 0.04746265
-0.010508369 0.074124776 0.008754404 0.0050180415 0.011076247 -0.0060173194 0.037001297 -0.01583277
0.05577598 -0.07788059 -0.013817783 0.0014614591 -0.0024740908 0.043650404 -0.048247755 -0.025733795
0.0032723146 0.011709852 0.014443651 -0.084497645 -0.0016729333 0.0429289 0.02452967 0.026877763
0.013930785 -0.09271209 0.021765582 0.017419638 -0.052646726 -0.013684327 -0.0034886384 0.03919602
-0.02741618 0.013010108 -0.010756254 -0.06504786 0.021001276 0.0107897855 -0.034240913 0.06668545
0.021370145 -0.01935687 -0.012502033 0.05404289 -0.024413645 -0.024204664 0.002352194 0.015399819
-0.052575238 0.0070480346 0.044499643 0.027926136 0.014144877 -0.07289107 -0.03789396 -0.05187667
-0.012543794 -0.026013814 0.04840025 -0.018032135 -0.0036813212 0.08144072 -0.022798212 -0.08562152
-0.07388823 0.03009642 0.068330586 0.08791811 -0.011352973 0.048505686 -0.00067204586 -0.027215082
-0.04138512 -0.007178796 -0.031314887 0.0055730543 -0.0016212445 0.0067191995 -0.02527539 -0.03232616
0.07230078 0.04440567 -0.020161962 0.08218935 0.03273127 -0.015891343 0.054057427 -0.038352683
0.07958858 -0.019383889 0.030535344 -0.06316026 0.06716727 0.033626437 -0.014811501 0.06611365
0.028827459 0.0045792805 -0.035025127 0.0045520477 -0.071814194 0.03807875 -0.046995923 -0.07926173
0.009114954 -0.039407067 0.009203936 -0.062781736 -0.010196482 0.023844281 0.0024908008 -0.01045484
0.049803734 -0.027739659 0.020418651 -0.06548984 -0.018864773 -0.0062652277 0.017941967 0.029356137
-0.0069909934 0.010496358 0.0028239847 -0.0042639333 -0.0257877 0.08472515 0.01735308 0.00069893006
0.026763309 -0.06371352 0.056144454 0.010262475 -0.04444917 -0.012919711 -0.04879266 0.034388166
0.022067504 0.00040918763 0.060942493 -0.0038948534 -0.038478114 -0.0011494929 0.006030661 0.054674063
0.007922187 -0.0005960437 -0.0315839 0.02652894 -0.02131857 0.043562993 -0.055006225 0.028781649
-0.03919924 -0.016513463 0.014801659 0.025453612 0.07725552 0.03922961 0.010280523 0.0063896403
-0.0017414925 0.06358341 0.01725436 0.051057495 -0.05677802 0.020706937 -0.034908537 0.016481083
-0.07049635 -0.02750157 0.020649722 -0.021597555 -0.029919585 -0.046905648 -0.0027304892 -0.016920809
0.0048994888 -0.032146014 -0.07537565 -0.006168632 -0.009102919 0.07701869 -0.013515726 0.07235424
0.008010386 -0.02123683 -0.037726376 -0.093936116 0.011377537 -0.03173864 -0.049745694 0.041770246

conv5.bias f4 [32]
00000000: d9da 243d 0804 0d3d 446e 053d 44fb 99bd
00000010: 20db e63c 0ccf 8fbd 121a 1e3d 4a5f 88bd
00000020: 00a9 27ba 2cf8 16bc 4ec3 20bb a09e c7bc
00000030: 2253 383d aa91 53bd 7555 2a3d 3a2a 273b
00000040: 770e b83b 12e1 41bd 1934 a5bc 8c37 1a3d
00000050: 1afd 813b d408 dc3c f9df 67bd c6ea 90bd
00000060: 6ce7 113d c647 83bd e8c2 81bd 787c 47bb
00000070: d87f 193b 76ca 0bbd 3743 5d3d 7905 a03c
0.040247772 0.034427673 0.03257586 -0.07518628 0.028180659 -0.07021913 0.03859908 -0.066588
-0.00063957274 -0.009214442 -0.0024530473 -0.02436763 0.045001157 -0.051652588 0.041585404 0.0025507347
0.0056169587 -0.047333784 -0.020166444 0.03765063 0.0039669396 0.026859678 -0.05661008 -0.070760295
0.03562109 -0.06410174 -0.063360035 -0.003043918 0.0023422148 -0.03412863 0.05401918 0.01953386

conv6.weight f4 [32, 32, 3]
00000000: 62e2 893d 705b 623d 027b b83d f794 bb3d
00000010: fe27 ccbb 25be d2bb 5817 153d 04a6 cdbb
00000020: df88 19bd dc63 c63c 73ca 833c 5f0b d8bc
00000030: 6676 5fbd df66 c9bc f126 3b3d 31e3 c13d
00000040: 2218 733d 5262 9e3d 3264 693c 1866 48bd
00000050: 6709 c7ba 7b48 1d3c 0633 05bd d01d 99bd
00000060: 14e4 d5bc 9b42 24bd f440 51bd a741 a03c
00000070: 0974 1b3d 5f25 803d aede e6bc 5547 1dbd
00000080: 411b ceba 34ed 5dbd a4e5 6cbd 8a15 303c
00000090: e029 553b debe 803d 4b2f b4bd b2e1 ad3c
000000a0: 58da d2bc fc1c 84bc 8082 3fbd 84ca dc3c
000000b0: a52a b83c ba75 683d 6677 4c3d 8ce7 26bc
000000c0: b7ac 92bd 68ef ffbc 9056 b8bb 7c42 6cbd
000000d0: 3da2 8e3d 1424 073d 8496 273d 5764 81bd
000000e0: c7e8 02bd bc15 8b3c 0037 873c 3984 afbc
000000f0: 90b2 5b3c 1262 843d 9dde e7bb 1679 533d
00000100: f291 a5bd cee2 d33c a648 ea3c 0274 91ba
00000110: 7a36 7bba 3ebb 57bd 9443 61bd 9cb2 b73c
00000120: d611 813d d5cb 113d d725 30bd 1285 3abd
00000130: 9695 123d f2d6 193d 8833 1f3d 329a 7fbd
00000140: ba57 e93b dda0 9a3c 1a71 003a 2ca1 783d
00000150: aefb 0b3d 4803 9f3c ccad 48bd b545 f5bc
00000160: 3a72 163d da4d 163d 2c25 19bd 170c 1dbc
00000170: dd4b ed3c ead1 503c 389a be3c db6f bcbc
00000180: 9009 e83c 5331 10bc 4c72 b03c 4edd 2dbd
00000190: 22e5 8ebd a2d0 2c3d 71cb 97bd 305e 0f3b
000001a0: d87d e5bc 2e5a d0bd 00d3 e037 8201 18bd
000001b0: 3e0a c33a 4a62 243d 6b2d afbc 4a97 933d
000001c0: ee65 94bb c5c0 953c a864 86bd 409f 8b3d
000001d0: bee9 dcbc 09fa 313c 2e72 983d e762 3bbd
000001e0: e434 08bd 4091 253d 348b 443c a599 0c3d
000001f0: a9b3 8a3b 87ca c93c bf9e 083c 8aed 9ebd
00000200: c68d 163d 1083 96bb 247d 563c eac6 103c
00000210: 651b 35bd 9a92 b43c 662a 8d3c e8fd 3c39
00000220: 3be2 623d c622 7cbd d854 49bc 2c3e 19bd
00000230: 75b4 5d3b 0218 3abd ec07 7cbd 94d6 1c3d
00000240: a622 c13c 1acc 443c 8447 1b3a f876 06bd
00000250: 5748 fe3c 5245 a33c ea1f 20bd 34f7 393d
00000260: d698 c93c 77cf abbd 377f 9cbd a451 f1bc
00000270: 14dd 93bc b6da 14bd eecc 423d e09b 3cbc
00000280: dc88 9a3d cad4 483d c24d 1dbd 9b40 4dbd
00000290: 116b 86ba e08d 8e3d 7278 963d 7314 50bd
000002a0: ba92 4d3c 3474 53bd bd33 31bb 8cdc ccbc
000002b0: 1215 64bd a553 123d a074 bcbc 78b7 473c
000002c0: d46a 473d 0c57 183d 2048 97bc be87 59bd
000002d0: a38f 68bd b675 1cbd e45c 9c3d 2058 0fbd
000002e0: 4c9e 35bc f040 c5bc e8c4 643d ee79 90bc
000002f0: 0c5d 06bd dcbd 573d 9d03 96bd 78f5 973d
00000300: 7d36 00bd c2b1 83bc 0f96 7d3d 6ade 5fbc
00000310: 3a0a 003d dc40 68bd 14b0 b3bd ba51 b9bd
00000320: 92e7 a2bb 6924 0cbd 32c8 c53c 1f2d b53c
00000330: 13d2 cc3c 104a 02bc f188 50bd 5b2e 01bd
00000340: 3aee 48bd 505b 25bb 7808 88bb 6e30 cbbc
00000350: 0b06 8d3c bc90 c6bc de70 b13d 6475 053c
00000360: 409a 9cb7 d3af 71bd 5077 2c3d 5302 0f3d
00000370: c96b 383c af54 11bd 9450 b5ba ecb0 fcbc
00000380: b43b 2c3d c0dd b53c d1e1 7abc dae9 08bd
00000390: 37cb 8b3c aa6a ee3c 96bb 52bc 92f8 e0bc
000003a0: 253f cdbc 324e 4e3d 2744 e53b 58f4 f9bc
000003b0: a6b8 5a3d 0b20 8fbd f0c9 afbc e881 bfbc
000003c0: 5601 39bd d243 c53c 7eb6 74bc 4e57 cebd
000003d0: bcdb 6bbd 765e de3b 9b88 093d 282a 37bd
000003e0: 2319 843c 565a 34bd 381e 60bd d3e5 cabd
000003f0: ca05 ccbb ae8f c0bc e282 073d 14d7 1abd
0.06732632 0.055262983 0.09007837 0.09159272 -0.0062303534 -0.0064313584 0.036399215 -0.006275894
-0.037484046 0.024217539 0.016087746 -0.02637261 -0.054556273 -0.024585186 0.045691434 0.094671614
0.059349187 0.07733597 0.01424508 -0.04892549 -0.0015185297 0.0095998 -0.032519363 -0.074763894
-0.026109733 -0.040102582 -0.051087335 0.019562555 0.037952457 0.06257128 -0.028182354 -0.038398106
-0.0015724675 -0.054181293 -0.05783619 0.010747323 0.003252618 0.06286405 -0.08798083 0.021225784
-0.02573888 -0.016127102 -0.046755314 0.026952036 0.022481272 0.056752898 0.049918555 -0.010187041
-0.07161849 -0.031242087 -0.0056255534 -0.057680592 0.06964538 0.03299339 0.040915027 -0.063179664
-0.031960275 0.016978137 0.016505718 -0.021425353 0.013409272 0.06464018 -0.007076098 0.05162915
-0.080844775 0.025864985 0.028599095 -0.0011097195 -0.0009583008 -0.052668802 -0.05499609 0.022424035
0.0630223 0.03559478 -0.043004837 -0.045537062 0.035787188 0.037558503 0.038867503 -0.06240291
0.0071210535 0.018875534 0.0004899666 0.06070058 0.034175567 0.019410744 -0.04899387 -0.029940465
0.03673003 0.03669534 -0.037388965 -0.009585402 0.028966838 0.01274536 0.023266897 -0.023002556
0.028324872 -0.008800822 0.021538876 -0.04244738 -0.06977297 0.042191155 -0.0741185 0.0021876208
-0.028014109 -0.101734504 2.6801135e-05 -0.037110813 0.0014880372 0.0401328 -0.021383962 0.072065905
-0.0045287525 0.018280396 -0.065621674 0.06817484 -0.026966926 0.010862836 0.07443653 -0.045748618
-0.033253565 0.040421724 0.011996079 0.034326214 0.004232843 0.024632705 0.008338629 -0.07760151
0.0367563 -0.0045932606 0.013091359 0.008836487 -0.04421558 0.022042561 0.017232131 0.00018023665
0.05539153 -0.0615566 -0.012288295 -0.037412807 0.0033829485 -0.045433052 -0.061530992 0.038290575
0.023576092 0.012011552 0.00059234374 -0.0328283 0.031040354 0.019930515 -0.039092936 0.045401767
0.02460901 -0.0838918 -0.07641452 -0.029457875 -0.018049754 -0.03634139 0.047558717 -0.011511773
0.07545635 0.049031056 -0.038404234 -0.05011044 -0.0010255297 0.06960654 0.07347192 -0.050800752
0.012547189 -0.05162449 -0.0027038895 -0.025007509 -0.055684157 0.0357243 -0.02300483 0.012189738
0.048685864 0.03719239 -0.018467009 -0.05310797 -0.056777608 -0.038198195 0.07634905 -0.034996152
-0.011085104 -0.024078816 0.055851847 -0.017636266 -0.03280358 0.0526713 -0.07324908 0.07419866
-0.031301964 -0.016075972 0.061910685 -0.0136638675 0.031259753 -0.05670248 -0.087738186 -0.09048791
-0.004971453 -0.03421441 0.024143312 0.022116242 0.025002515 -0.007952228 -0.050911848 -0.03153835
-0.049055316 -0.0025231428 -0.0041514 -0.024803367 0.017214796 -0.024238937 0.08664106 0.008145664
-1.8668477e-05 -0.05900557 0.042105973 0.034914326 0.011256167 -0.03548115 -0.0013833218 -0.030846082
0.042049125 0.022200465 -0.015312628 -0.033426143 0.017064674 0.029103596 -0.012862107 -0.027462278
-0.025054524 0.05036754 0.00699665 -0.03051202 0.05339875 -0.069885336 -0.021458596 -0.023377374
-0.04516729 0.02408019 -0.014936088 -0.10075246 -0.057582602 0.006786163 0.033577543 -0.044717938
0.016125267 -0.044031464 -0.05471632 -0.09907117 -0.006226276 -0.023506012 0.033083804 -0.03780277

conv6.bias f4 [32]
00000000: c4c7 fabb 864e 05bd 105b be3b 56cc 693d
00000010: 3614 26bc 2dbd 44bd 4640 45bc 8ebb a6bd
00000020: e0ae 23bc c731 843b b4f1 0d3d c813 0cbb
00000030: e2f0 673a 153f 23bd 3481 2cbd 3da4 80bd
00000040: 75af 94bd 1eaa 163d e46f 923d 949d 8cbd
00000050: 3cc6 f43c 3b47 96bd e821 96bc 0d43 1fbd
00000060: aec7 333c 17d2 823d 97c3 cc3c e69d f7bc
00000070: 2cf7 adbc a033 fd3c f2fb 323d 4c38 893d
-0.0076532084 -0.03254559 0.0058091953 0.057079636 -0.010136655 -0.048031975 -0.01203925 -0.08141242
-0.009990424 0.0040342542 0.034654334 -0.0021374095 0.0008847845 -0.03985508 -0.042115405 -0.06281326
-0.07260028 0.03678333 0.07150248 -0.06865993 0.029879682 -0.07337805 -0.018326715 -0.038882304
0.0109729 0.06387728 0.024995608 -0.030226659 -0.021236025 0.030908406 0.043697305 0.06700191

conv7.weight f4 [32, 32, 3]
00000000: fc9e 043d 16fa f4ba 0424 c03d 8ae0 8c3c
00000010: 5f55 cb3c 1d11 74bd 66a6 2cbd aad9 8f3d
00000020: a945 b3bc 6681 bd3c cac5 77bd 2606 52bd
00000030: d9f9 783d 8fc7 49bc 7324 923b 293d 6bbc
00000040: 7be5 243d 6c7f 863c f721 79bd 7c44 9eba
00000050: 9f24 9a3d 4c4e bfbd de29 363d ae42 08bd
00000060: d4ab 37bd 4a22 c93c 3a94 c93c d999 003d
00000070: 465c e9bc 3cda 093d aedf 93bb d77a 6f3c
00000080: e6e7 acbd 92cf 12bc 4869 1ebd f920 54bd
00000090: 5ec9 1a3d e8f8 693d e140 70bc 685f aa3c
000000a0: b0df 0f3d 85e8 adbd 38dc dcbc 5a90 ac3d
000000b0: 81ae b23c d659 8dbd e04b 003d 4ffa 323a
000000c0: 6a49 913c 6cfe 033d bba1 313d 4d3e b9bc
000000d0: 92e7 bebc c2b9 b6bd 326e d6bc 823b 33bd
000000e0: 5654 85bb 8c0f 5bbd da6a 37bd 7f7a debc
000000f0: 1e5f f83c a630 86ba 924d c63c 0ae4 80bd
00000100: 546c 8e3b f7f8 9ebb fe66 8c3d 8967 1b3d
00000110: 4a65 473c a04f ca3c abb3 bfbb 4220 303d
00000120: 0cee 9e3a ec3c cabc 6ec5 113c fb31 b13d
00000130: 0b3e 1c3d 47d8 403d 5a49 0fbd c650 4539
00000140: 3afd 4dbc d146 e2b9 c02e d93c e641 0a3d
00000150: 6036 b1bc 948c 283d 0a03 653d 58b0 773c
00000160: dba1 49b9 f986 8cbd 326f 39bd 8bbf 62bc
00000170: 1912 3b3c 2eec 353d 3258 27bd a1e4 c33c
00000180: eb2a 803b 9ccc 94bd 3aaf 023c 06e0 7b3c
00000190: 4cde fc3c 0e99 0f39 a1b1 203d fab6 c93c
000001a0: 905b adbd 3499 aebc 4bc0 bd3c e08c c4bc
000001b0: 1716 ab3c 82c8 81bd 0fa2 a1b9 5425 0a3c
000001c0: 3217 a9bb a00a e0bc 7435 bcbc dd90 673d
000001d0: 5733 d13d f886 7dbc 862d d5bd 632a 433d
000001e0: fa9b 2d3c efca 1cbd 0a4d 0bbd 03b2 aabb
000001f0: fcad 9a3d 3410 0f3b 746b 133d 0089 203d
00000200: 4af0 9b3d cd7c 1cbd 1bf8 743d 97ef 8abd
00000210: 7e99 f2bb f216 903d e305 ea3c d497 5f3c
00000220: 562c 733d eb20 81bd 19cf 9cbc 9ae3 5b3d
00000230: a43e ad3c f209 22bd 58fb 963c 8134 a03c
00000240: c9ab 2b3d de4b f9bc 50c9 493d 8c1b ebba
00000250: d2be 693d 809c c6bb 0774 803d aacf c2bb
00000260: acca 23bd c7b0 55bd 2646 f73c 7799 ba3b
00000270: f7d8 d03c 0ee3 333a 2ca9 7f3d e455 abbb
00000280: 3e88 b0bc ae2d 063d 684a 383d e474 9e3d
00000290: 70b6 323d 7c03 c63b b0e6 d33c ebc5 4cbd
000002a0: 025d 1abc 37a6 083d 988f 85bd 1f38 50bc
000002b0: 365f 453b acd0 36bd 78b9 823c 2e6c c6bc
000002c0: cb07 92bc 03b5 963c ac2e e4bc 9067 2cbc
000002d0: 2eef 4b3d 0a66 aebb e6fa f3bc ddbf c8bc
000002e0: e00e cb3c d25e eabc ffd1 123d 4a24 183d
000002f0: 4db5 c8bc ff2f 583d f2cc 58bb a637 643d
00000300: f9c3 6f3d 66ae 963c 1ae5 10bd 66af a6bd
00000310: ac3d 96bc c41d ae3c ccc0 003d 598a b6bb
00000320: d025 9ebc 0420 a9bb 6e18 2cbd 7e18 b53d
00000330: 138f 903c 2e37 723d 5c74 4d3d d44a 2f3c
00000340: 5416 aa3b 14f0 a83d 0100 82bd fde5 113d
00000350: e818 6c3b 4406 1d3c 976f 493d c834 363d
00000360: 8bda 813c d496 99bc a0c2 8abd fa70 c1bd
00000370: ece4 c0bd 2479 3fbc 40cc f93c 10eb bcbc
00000380: b457 313d 305d 0cbc 4c05 d3bd b0c7 64bd
00000390: 4562 843c cc8f d3ba ecd0 4ebc d462 b5bc
000003a0: 76d7 37bc 96c2 b6bc 40a4 c53c 13fc 19bd
000003b0: 7c18 f1bc 8cba 81bd aec2 4c3c b9bd 603b
000003c0: 4318 743c f712 52bd 7532 013d 7488 ef3a
000003d0: fc80 893d ff75 b9bc 89d8 83bc 8682 063d
000003e0: 78cb 87bd cc9e 343d ac8a 833c 54a8 b93d
000003f0: 6493 adbd c5b2 51bc b1e0 87b9 5411 503c
0.03237818 -0.0018690254 0.093818694 0.017196912 0.024820982 -0.059586633 -0.042150877 0.07023938
-0.021883802 0.023132991 -0.06049136 -0.051275395 0.06078515 -0.012315645 0.0044599115 -0.014357843
0.040257912 0.016418181 -0.060823407 -0.0012074853 0.07526516 -0.09341106 0.04447352 -0.033266716
-0.044841602 0.024552483 0.024606813 0.03139672 -0.028486382 0.03365539 -0.0045127487 0.01461669
-0.084426686 -0.008960621 -0.038674623 -0.051789258 0.037789695 0.05712214 -0.014663906 0.020797446
0.035125434 -0.08491615 -0.026960477 0.084259704 0.021811726 -0.069019005 0.03132236 0.000682746
0.017735202 0.032225057 0.04336713 -0.022612715 -0.02330378 -0.08922149 -0.026175592 -0.043757923
-0.0040688915 -0.053481624 -0.044779636 -0.02715802 0.030318793 -0.0010237887 0.02420691 -0.06293495
0.00434641 -0.0048514563 0.06855582 0.037940536 0.012170145 0.024696171 -0.0058502755 0.042999513
0.0012125387 -0.024687253 0.008897169 0.08652111 0.038145106 0.04708126 -0.034982063 0.00018817474
-0.012572581 -0.0004315884 0.02651155 0.033754252 -0.021632373 0.04114969 0.0559111 0.015117727
-0.0001922915 -0.068616815 -0.04527206 -0.013839613 0.011417889 0.04441469 -0.040855594 0.02391273
0.003911366 -0.07265589 0.007976348 0.015373236 0.030867718 0.0001369456 0.0392319 0.024623383
-0.0846473 -0.021313287 0.023162981 -0.023992956 0.020884557 -0.06337072 -0.00030829056 0.008431751
-0.005160236 -0.027348816 -0.022974707 0.056534637 0.102148704 -0.015474074 -0.104090735 0.047647845
0.01059627 -0.03827947 -0.034009017 -0.005209209 0.07552716 0.0021829726 0.035991147 0.039193153
0.07614191 -0.038204957 0.059806924 -0.067839794 -0.0074035516 0.070356265 0.02856726 0.0136470385
0.059368454 -0.06305107 -0.01914172 0.053683855 0.021148033 -0.039560266 0.018430397 0.019556286
0.041911874 -0.030431684 0.049264252 -0.0017937287 0.057066746 -0.0060611367 0.062721305 -0.0059451656
-0.039988205 -0.05217054 0.030184817 0.005694564 0.025494082 0.0006862142 0.062417194 -0.005228745
-0.02154934 0.032758407 0.044992834 0.07737139 0.043631017 0.006042896 0.025866836 -0.049993437
-0.009421589 0.03336164 -0.06521529 -0.012708693 0.0030116565 -0.0446326 0.015957579 -0.024221506
-0.017825982 0.01839686 -0.027854286 -0.010522738 0.049788646 -0.0053222226 -0.029782724 -0.02450555
0.024787366 -0.028609667 0.0358448 0.037143983 -0.024500513 0.052780148 -0.0033081141 0.055717133
0.058536503 0.018393707 -0.03537474 -0.08138923 -0.018339954 0.021254428 0.031433865 -0.0055706915
-0.01930514 -0.0051612873 -0.042015485 0.08842562 0.017646348 0.059134655 0.050159797 0.010698993
0.00519065 0.08248916 -0.06347657 0.035619725 0.0036025587 0.009584013 0.049178686 0.04448393
0.01585128 -0.018748678 -0.06775403 -0.09445377 -0.094186634 -0.011686597 0.030492902 -0.023061305
0.04329653 -0.0085671395 -0.10303745 -0.0558545 0.01616014 -0.0016140877 -0.012623053 -0.022141851
-0.0112208035 -0.022309583 0.024126172 -0.037593912 -0.02943062 -0.06334409 0.012497587 0.003429277
0.014898363 -0.051287618 0.03154226 0.0018274919 0.06714055 -0.022639273 -0.016094463 0.03283932
-0.066306055 0.044096753 0.016057335 0.09065309 -0.08475378 -0.01279897 -0.00025916615 0.012699444

conv7.bias f4 [32]
00000000: 23f0 84bd 9a64 b6bb b50a 993d 1ccc e63c
00000010: 7cea 6dbb a04d a03b 4094 ebbb 56bf 98bd
00000020: 4bec 8d3c 0b5d 9ebc babd 95bd 21e7 5bbd
00000030: 8a8b 793d 858b 043d 54b9 143d 7c1d 9c3b
00000040: 96e4 863d 5605 5bbd 463a 7f3b f2e5 8b3d
00000050: 7428 8c3d 3c97 933d 8a4b 1a3d 3824 1cbd
00000060: 75bd 05bc dcdc 843d 8835 29bd ea60 5cbd
00000070: 368d d53c 0a0f 1ebc cf55 16bd 73c1 cebc
-0.06491115 -0.005566192 0.07472745 0.028173499 -0.0036303094 0.004892066 -0.0071893036 -0.074583694
0.017324587 -0.019331476 -0.07311578 -0.05368722 0.06092409 0.03235962 0.036309555 0.004764257
0.06586568 -0.053471886 0.0038944646 0.06830968 0.06843653 0.0720658 0.037669696 -0.03812048
-0.008162846 0.06487438 -0.041310817 -0.053803362 0.026068311 -0.00964714 -0.036702927 -0.025238728
