SCAFFOLD_3/cli1_model_parameters.pth (torch, 767010 bytes, 51 tensors)

conv1.weight f4 [32, 2, 3]
0	0xbdff73f7	-0.124732904
1	0x3e63906e	0.22223064
2	0xbe872099	-0.26392058
3	0x3e880694	0.2656752
4	0x3c0b9200	0.008518696
5	0x3d97d21a	0.074131206
6	0xbe1efdce	-0.15526506
7	0x3def13d5	0.116737045
8	0xbc7d7df9	-0.015471929
9	0x3dfcd220	0.12344766
10	0x3dd67afa	0.10472675
11	0x3e0847b6	0.13308606
12	0xbd3bb3e5	-0.045825858
13	0xbe17ec04	-0.14836127
14	0xbdb3967e	-0.087689385
15	0x3df32d4e	0.118738756
16	0x3e7052c2	0.2346907
17	0xbdc10b4a	-0.09425981
18	0x3e0a8885	0.1352864
19	0xbee26ca2	-0.44223505
20	0xbe247d5d	-0.16063447
21	0xbe438705	-0.19094475
22	0xbe1a76cf	-0.15084384
23	0xbd26f898	-0.04076442
24	0xbdc8ed58	-0.09810895
25	0x3e30967a	0.17244902
26	0xbe53f4ce	-0.20698854
27	0x3e89c296	0.2690627
28	0x3c34e1d0	0.011040166
29	0x3e9080f5	0.28223386
30	0x3e76d03f	0.24102877
31	0x3e8403aa	0.25784045
32	0x3e921871	0.28534272
33	0x3e0d5872	0.1380327
34	0x3c5cedf0	0.013484463
35	0xbdb24488	-0.087044775
36	0xbe01abf7	-0.12663256
37	0xbe99fbb6	-0.30074853
38	0xbeb751d8	-0.3580463
39	0xbd027c80	-0.031857014
40	0xbe6eaba6	-0.23307666
41	0xbd008838	-0.03137991
42	0xbe496f1b	-0.1967129
43	0x3da42fc1	0.08016921
44	0xbd3fd409	-0.04683307
45	0x3e8e0a2e	0.2774214
46	0x3dfa8274	0.12231913
47	0x3e72d264	0.2371307
48	0xbd81bb26	-0.06334524
49	0x3e897e07	0.26853964
50	0xbed2855e	-0.41117376
51	0x3dfda05a	0.123841
52	0x3c90b46c	0.017664157
53	0x3e37b88c	0.17941493
54	0x3cb814a8	0.022470787
55	0xbe049c1f	-0.1295018
56	0xbdebe23c	-0.1151776
57	0x3d284178	0.04107806
58	0xbd965478	-0.0734033
59	0x3d865ce3	0.065606855
60	0xbcc81ee7	-0.024428798
61	0xbe9fe2c5	-0.312277
62	0xbe40a1ec	-0.18811768
63	0x3d1c0cec	0.03809826
64	0x3e530fa0	0.20611429
65	0x3dcd08f2	0.10011472
66	0x3de2d192	0.110751286
67	0x3ec6e18a	0.38843948
68	0x3e8ede8a	0.2790416
69	0xbc2b4780	-0.010454059
70	0x3e6f9dfa	0.23400107
71	0xbe7661fe	-0.24060819
72	0xbe208d13	-0.15678816
73	0x3cb7e9e0	0.022450387
74	0xbe291984	-0.1651364
75	0x3cce4f40	0.025184274
76	0x3e2634bb	0.16231053
77	0x3c191f30	0.009345815
78	0xbde59fc4	-0.112121135
79	0x3e039934	0.12851411
80	0x3e5fee2e	0.21868202
81	0x3ddea346	0.10870986
82	0xbec610ba	-0.38684636
83	0xbd7d3a8c	-0.061823413
84	0xbe75cbf3	-0.24003582
85	0xbe117d5c	-0.14207977
86	0x3ee0dd7e	0.43918985
87	0xbe11513d	-0.14191146
88	0xbdae071c	-0.0849745
89	0xbb05adc0	-0.0020397753
90	0x3d342b7a	0.043986775
91	0xbe7f732a	-0.24946275
92	0x3ab62f0e	0.0013899521
93	0x3d85ef8c	0.065398306
94	0x3e434a4a	0.19071308
95	0x3d75a96c	0.059976026
96	0x3c4d2006	0.012519842
97	0x3ec9431a	0.39309007
98	0x3ce5193a	0.02796613
99	0x3e8726d6	0.26396817
100	0xbd21761c	-0.03941928
101	0xbe4880bf	-0.19580363
102	0x3e862278	0.26198173
103	0xbdeed7e9	-0.11662275
104	0xbe5d297d	-0.21597858
105	0x3e091226	0.1338583
106	0xbd84cb7c	-0.06484124
107	0x3d0b6500	0.034031868
108	0x3ec00997	0.37507316
109	0x3d24e4bd	0.040257204
110	0xbdd669be	-0.104693875
111	0x3d1b9d40	0.037991762
112	0xbc220f40	-0.009891331
113	0xbec33fac	-0.38134515
114	0xbdadedd5	-0.084926285
115	0xbe577634	-0.21041185
116	0xbe82bf8a	-0.25536758
117	0xbd94c0d7	-0.07263344
118	0xbd4eb8d8	-0.05046925
119	0x3e868855	0.26275888
120	0xbe1e0533	-0.15431671
121	0x3e2234cc	0.15840453
122	0xbc252204	-0.010078911
123	0x39eb6800	0.0004490018
124	0xbd35f240	-0.04442048
125	0x3e0fe7b8	0.14053237
126	0xbd377e42	-0.044798143
127	0x3e34b476	0.17646965
128	0x3e67d938	0.22641456
129	0x3e02cd73	0.12773685
130	0x3e181f8d	0.14855786
131	0xbe94c17a	-0.2905386
132	0x3d93041b	0.071785174
133	0x3bee9218	0.0072805993
134	0xbe814a84	-0.25252163
135	0x3e50901a	0.2036747
136	0x3e71930a	0.23591247
137	0x3d33bae0	0.04387939
138	0x3e3b4cdd	0.1829104
139	0xbc358ab7	-0.0110804355
140	0xbe6725f4	-0.22573072
141	0x3c982460	0.018572032
142	0x3e94e1e9	0.29078606
143	0x3d9cfbf6	0.07665245
144	0xbe513f14	-0.20434219
145	0x3e69ba8e	0.22825071
146	0x3e24f881	0.16110422
147	0x3b5bd100	0.0033541322
148	0xbe963957	-0.29340622
149	0x3ce11748	0.027476922
150	0xbdf7976c	-0.12089428
151	0x3e35833a	0.1772584
152	0x3e5f8a54	0.21830112
153	0xbd60f80c	-0.054924056
154	0xbda215e7	-0.07914334
155	0x3d113a60	0.03545606
156	0xbe91b343	-0.28457078
157	0x3e5e7381	0.21723749
158	0x3e032b86	0.12809572
159	0xbe116ddf	-0.14202069
160	0xbcccbc80	-0.024992228
161	0xbe5b7964	-0.21433026
162	0x3e5811f7	0.21100603
163	0xbdd15c85	-0.10222725
164	0x3e4e71b3	0.2016056
165	0x3dae90a8	0.08523685
166	0xbddedab7	-0.1088156
167	0xbdba9a62	-0.091114774
168	0x3dfba217	0.122867756
169	0x3d4dfbbc	0.0502889
170	0xbdefcfac	-0.11709532
171	0xbd190de8	-0.037366778
172	0xbe8013e0	-0.25015163
173	0x3df61588	0.120158255
174	0x3c7ab1bf	0.015301167
175	0x3e69b4ef	0.22822927
176	0xbdb8719f	-0.090060465
177	0x3dbc8464	0.09204939
178	0xbc89cf70	-0.016822547
179	0x3db4d0d2	0.08828892
180	0xbdf95317	-0.12174051
181	0xbe5e1737	-0.21688543
182	0x3e8521da	0.2600239
183	0x3b1f8480	0.002434045
184	0xbe25a9b7	-0.16178022
185	0x3e5c0b54	0.21488696
186	0xbda11da1	-0.078669794
187	0xbc5809b5	-0.013185908
188	0xbe1827f8	-0.14858997
189	0x3c80a390	0.015702993
190	0x3ca35b30	0.019940943
191	0x3eb613b4	0.35561907

conv1.bias f4 [32]
0	0x3e30d38e	0.17268202
1	0x3e0e225e	0.13880298
2	0x3eb9d607	0.36296102
3	0x3e8feb74	0.28109324
4	0xbddb87f0	-0.107192874
5	0x3cc1c434	0.023653127
6	0xbd02a077	-0.031891312
7	0xbe8471cb	-0.25868067
8	0xbda40d57	-0.08010357
9	0xbe52d91e	-0.20590636
10	0xbe1fe4a5	-0.15614565
11	0x3a1d1858	0.0005992702
12	0xbe10a260	-0.14124441
13	0x3d7560f2	0.059906907
14	0x3e9e5cd4	0.30930197
15	0x3e65ea94	0.22452766
16	0x3dd9a211	0.10626615
17	0x3e1a4a90	0.15067506
18	0xbbccab3e	-0.0062459996
19	0xbda4c692	-0.08045687
20	0xbe2700f8	-0.16308963
21	0x39ac88ce	0.00032908324
22	0xbe61c5e0	-0.2204814
23	0x3e2c82d6	0.16846785
24	0xb9d0739b	-0.00039758984
25	0x3dc68cbf	0.09694814
26	0x3e53c3cc	0.2068016
27	0x3dd16773	0.102248095
28	0xbeacc6c1	-0.33745387
29	0xbec1d338	-0.3785646
30	0xbe021b10	-0.12705636
31	0x3e4d30ec	0.20038193

conv2.weight f4 [32, 32, 3]
0	0x3e0b869d	0.1362557
1	0x3cd90de7	0.026495887
2	0x3d9d3d5d	0.0767772
3	0xbd4341e6	-0.047670268
4	0xbd84a2d8	-0.064763725
5	0xbca3022d	-0.019898498
6	0x3d5580d0	0.0521248
7	0x3d121a97	0.03566989
8	0xbd52a39a	-0.051425554
9	0xbd51565e	-0.051107757
10	0x3c58d094	0.013233323
11	0xbd7a52a4	-0.06111397
12	0x3d969a57	0.07353657
13	0x39b4f2c7	0.0003451316
14	0xbc8f89f8	-0.017521843
15	0x3d440d04	0.047863975
16	0x3d2256ee	0.039633684
17	0xbb16155e	-0.002290092
18	0xbd3c58ce	-0.04598313
19	0xbda0af12	-0.07845892
20	0x3cfb1436	0.030649286
21	0xbd866e8b	-0.06564053
22	0x3d5139f2	0.05108065
23	0xbc897d0e	-0.016783264
24	0xbd803490	-0.062600255
25	0xbbd0aac2	-0.006368012
26	0xbd5a6fd0	-0.05332929
27	0x3cfd11d5	0.030892292
28	0xbba54ecb	-0.0050447932
29	0xbc7ce86f	-0.015436276
30	0xbd4c8d8a	-0.04993967
31	0xbd214c09	-0.039379153
32	0xbdae332e	-0.085058555
33	0xbd1a04bd	-0.037602175
34	0x3cd18542	0.025576238
35	0x3c539890	0.012914792
36	0xbbd70b11	-0.0065625985
37	0x3cc611b3	0.024178362
38	0x3d410ff4	0.047134355
39	0x3df066ce	0.117383584
40	0xbd08308b	-0.03324942
41	0x3d38b16a	0.04509107
42	0x3b0d08b6	0.0021520085
43	0x3d14c07e	0.036316387
44	0x3d849555	0.06473795
45	0xbced2a47	-0.028950823
46	0xbd25f321	-0.04051507
47	0xbc9f22fc	-0.019425862
48	0x3d6b4a4f	0.057443913
49	0x3c196215	0.0093617635
50	0xbd8a0f89	-0.06741244
51	0xbd391d0e	-0.045193724
52	0x3dcea44b	0.1008993
53	0xbbeb11c9	-0.007173751
54	0x3c61c8f0	0.013780817
55	0x3c88b6c9	0.016688721
56	0xbd48b024	-0.048996106
57	0xb90dad90	-0.00013511465
58	0x3d9bdddc	0.07610676
59	0x3daab17d	0.083346345
60	0x3cdfac04	0.027303703
61	0xbcba69bd	-0.022755498
62	0x3d7b590d	0.061364222
63	0xbd51c65d	-0.051214565
64	0xbd669fe2	-0.05630482
65	0xbdb25f20	-0.0870955
66	0xbd1b552d	-0.037923027
67	0xbd25eddf	-0.040510055
68	0x3d2e115c	0.042497024
69	0x3cc52b8e	0.02406862
70	0x3d87171e	0.06596206
71	0x3b99b7f5	0.004691119
72	0x3cecf6a8	0.028926209
73	0x3c032dbf	0.008006512
74	0x3b90e4bb	0.004421798
75	0x3b4f0586	0.0031588986
76	0xbd54f685	-0.05199291
77	0xbd4df590	-0.050283015
78	0xbd04e47e	-0.03244447
79	0xbd938d2a	-0.07204659
80	0xbb9f426f	-0.0048602144
81	0xbdc30051	-0.09521545
82	0xbdc66882	-0.09687902
83	0xbd9230ee	-0.07138239
84	0x3d2769f0	0.040872514
85	0xbcf2d8ff	-0.029644487
86	0x3cca6a7a	0.024708975
87	0xbd8148b9	-0.06312699
88	0x3d3acc28	0.045604855
89	0x3cbe7265	0.023247907
90	0x3db60cde	0.08889173
91	0x3c8cd474	0.01719115
92	0xbd76baa3	-0.060236584
93	0x3d70621e	0.05868732
94	0x3de3d9f9	0.11125559
95	0x3d0ce720	0.034400105
96	0xbcc58573	-0.024111485
97	0x3ce6b888	0.028164163
98	0xbce28e93	-0.027655875
99	0x3c975139	0.018471347
100	0xbd6020da	-0.05471883
101	0x3d493e72	0.049131818
102	0xbcdeb365	-0.027185151
103	0xbdf20745	-0.11817793
104	0xbd67b72c	-0.05657117
105	0xbcb67402	-0.022272114
106	0xba0f5f1e	-0.00054691907
107	0x3ca13203	0.019677168
108	0xbbf1728d	-0.007368392
109	0x3d4fc666	0.050726317
110	0xbca51e97	-0.020156188
111	0x3d2e4f0a	0.042555846
112	0x3cc46218	0.023972556
113	0x3c6dd180	0.014515281
114	0xbc4d062c	-0.0125136785
115	0x3be655f0	0.0070292875
116	0x3d4e2c51	0.050335232
117	0xbd6bee10	-0.05760008
118	0xbd4bfce2	-0.049801715
119	0xbd392971	-0.045205537
120	0x3d01634d	0.03158884
121	0xbd0b2ced	-0.03397839
122	0x3bef3625	0.0073001557
123	0xbd2edcb9	-0.042690966
124	0xbd87924d	-0.066197015
125	0xbd404bd5	-0.04694732
126	0xbc3940e3	-0.011306974
127	0xbcd1bee3	-0.025603717
128	0xbc469d17	-0.012122414
129	0x3cc6a89c	0.024250321
130	0x3d18bb67	0.037288096
131	0x3d02ff4b	0.031981748
132	0xbd2e9a85	-0.04262783
133	0x3b7b1e91	0.003831778
134	0xbd7e55c7	-0.062093522
135	0x3d8f77ed	0.07005296
136	0xbbcfa9bd	-0.006337373
137	0xbcf66ab5	-0.030080179
138	0x3d2720ed	0.040802885
139	0x3ca6be54	0.020354427
140	0xbd464263	-0.048403155
141	0xbdb88c93	-0.090111874
142	0xbd33314d	-0.04374819
143	0xbd242f24	-0.04008402
144	0x3d8398ff	0.06425666
145	0x3b200016	0.0024414114
146	0x3d50e3f7	0.050998654
147	0xbd47b145	-0.04875304
148	0x3da4fdce	0.08056222
149	0x3d52ede6	0.05149641
150	0x3d84bd9b	0.06481477
151	0x3c443ef9	0.0119779045
152	0x3c9437aa	0.018092949
153	0xbd2137df	-0.039359923
154	0xbc999b39	-0.018750774
155	0xbdaed0f2	-0.08535947
156	0xbd89bf68	-0.06725961
157	0xbc8b96c0	-0.017039657
158	0xbc519148	-0.012790985
159	0xb9e6b87c	-0.0004400647
160	0xbd828adf	-0.06374144
161	0xbd6ae79a	-0.05734978
162	0xbc39a610	-0.011331096
163	0x3d87ee4b	0.06637248
164	0xbd705193	-0.058671545
165	0x3c9747b6	0.018466812
166	0x3c796c89	0.015223631
167	0x3d4c22e4	0.04983796
168	0xbc725b32	-0.0147922505
169	0x3d5f4ed9	0.054518554
170	0x3d09c921	0.033639077
171	0x3d1d579e	0.038413636
172	0xbd8ba0b0	-0.06817758
173	0x3be91c76	0.0071139885
174	0x3d45c234	0.04828091
175	0x3b4a503d	0.003087058
176	0xbd661c92	-0.05617959
177	0xbc3ce7a6	-0.011529839
178	0x3d8961b2	0.06708087
179	0xbc4738f8	-0.0121595785
180	0xbb78fd22	-0.0037992676
181	0xbc231c54	-0.009955484
182	0x3d03474a	0.03205041
183	0x3c8bc746	0.017062794
184	0xbc38eeb3	-0.011287379
185	0x3c3ae282	0.011406543
186	0x3d4bdfc2	0.04977394
187	0x3ceef1f0	0.0291681
188	0x3daa6305	0.08319668
189	0x3bb6f7f4	0.0055837575
190	0x3c26b29d	0.010174421
191	0x3d106610	0.035253584
192	0xbde785df	-0.11304831
193	0xbb377972	-0.002799597
194	0x3da17032	0.07882728
195	0xbd09a73b	-0.03360675
196	0x3cd17d91	0.02557257
197	0x3ccc62bf	0.02494943
198	0xbdc0211d	-0.09381316
199	0xbc1a0bd8	-0.009402238
200	0x3d9ec8cb	0.07753142
201	0xbca2a8c4	-0.019855864
202	0xbc9e6821	-0.019336762
203	0x3db9d5ca	0.0907398
204	0xbbeaad2f	-0.0071617584
205	0x3d35dbb6	0.044398986
206	0xbd2b14d0	-0.041767895
207	0xbd547db1	-0.05187768
208	0x3dacb65a	0.08433218
209	0x3da1fcd8	0.07909554
210	0xbcc1c7cf	-0.023654846
211	0x3d2d4fa7	0.04231229
212	0x3c8d64b7	0.017259939
213	0x3d4864c7	0.048924234
214	0x3d978f62	0.07400395
215	0x3daa341d	0.08310721
216	0x3dab22b7	0.08356231
217	0x3dadb819	0.084823795
218	0x3d2547f7	0.040351834
219	0xbce979bf	-0.028500436
220	0x3d658f8e	0.056045108
221	0xbd2cb740	-0.04216695
222	0xbda68994	-0.0813171
223	0xbdd94a5f	-0.10609888
224	0xbc5228e3	-0.012827131
225	0xbbcb9f40	-0.0062140524
226	0x3dd5876a	0.10426219
227	0xbb3566b9	-0.0027679636
228	0x3dae5718	0.085127056
229	0x3c82a7c9	0.015949147
230	0xbd8258c4	-0.06364587
231	0xbd13f43a	-0.036121584
232	0x3dd7e739	0.10542149
233	0xbccb78b8	-0.024837837
234	0xbda9254f	-0.08259069
235	0x3d4ca55d	0.04996239
236	0x3de8d6f2	0.113691226
237	0x3ad6d755	0.0016391078
238	0xbd7a0c17	-0.061046686
239	0xbc8f3d43	-0.017485267
240	0x3deef4c5	0.1166778
241	0xbce61c54	-0.02808968
242	0x3dbabb1b	0.09117719
243	0x3d3122ec	0.043246195
244	0x3d83801b	0.064209186
245	0x3c7c0fe5	0.015384649
246	0x3c40f515	0.011777182
247	0x3cb9e401	0.022691729
248	0xbd5ee632	-0.05441875
249	0xbc5b2547	-0.013375587
250	0xbc8ac0ca	-0.016937632
251	0x3d394757	0.04523405
252	0x3c60f1e7	0.013729549
253	0xbd1c7a6d	-0.03820269
254	0xbd97d796	-0.07414167
255	0x3d43882e	0.047737293

conv2.bias f4 [32]
0	0x3dec51e3	0.11539056
1	0x3bf227a4	0.0073899794
2	0x3cdc528a	0.026894826
3	0x3e0fceec	0.14043778
4	0xbcb44065	-0.022003362
5	0x3e00afc6	0.12567052
6	0xbde581e1	-0.11206413
7	0x3dfc497b	0.12318703
8	0x3cc706ad	0.024295175
9	0xbdc85408	-0.09781653
10	0x3c3ec25c	0.011643019
11	0x3cc7f14f	0.024407057
12	0xbcd642c4	-0.026154883
13	0x3d624d0e	0.055249266
14	0x3d39ec07	0.04539111
15	0x3e5e2f48	0.21697724
16	0xbbe52734	-0.006993199
17	0xbd66a858	-0.05631289
18	0xbcd19b8f	-0.025586871
19	0x3d274853	0.040840458
20	0xbd390ee3	-0.045180213
21	0xbe20a9a1	-0.15689708
22	0xbde29266	-0.110630795
23	0xbda1d8cf	-0.07902681
24	0x3e0bea2f	0.13663553
25	0xbda0d487	-0.078530364
26	0x3dd264c9	0.102731295
27	0x3bc39999	0.005969238
28	0xbe02931d	-0.12751432
29	0x3e14ad0a	0.14519134
30	0x3dbf389d	0.0933697
31	0x3cea832d	0.028627003

conv3.weight f4 [32, 32, 3]
0	0x3ad72c0f	0.0016416329
1	0xbd667e14	-0.05627258
2	0x3c61a8a3	0.013773116
3	0xbd910cab	-0.07082494
4	0x3ceea8d0	0.02913323
5	0xbdaa8f9d	-0.08328173
6	0xbd8bf2cb	-0.068334185
7	0xbd850032	-0.06494178
8	0xbcd1620a	-0.025559444
9	0x3d86458a	0.06556232
10	0x3cf9a206	0.030472767
11	0x3d6d1d83	0.057889473
12	0x3d41bf9b	0.04730187
13	0x3ca4e0ff	0.020126818
14	0xbd4db69d	-0.05022298
15	0x3cbe84a2	0.023256604
16	0xbdb8030f	-0.089849584
17	0xbc1d4cb5	-0.009600808
18	0x3d9af375	0.07565967
19	0x3d3fcc52	0.046825714
20	0x3d764d50	0.060132325
21	0xbc5a8156	-0.0133365
22	0xbcc0d799	-0.023540305
23	0x3d86541c	0.06559011
24	0xbdc0a23e	-0.09405945
25	0x3cfc022a	0.03076275
26	0x3cc50498	0.024050042
27	0xbcaa9971	-0.02082512
28	0xbd5f6837	-0.054542746
29	0x3da76110	0.0817281
30	0x3c5a842d	0.013337177
31	0x3c127337	0.008938602
32	0xbdc79762	-0.09745671
33	0x3d2bace6	0.041912936
34	0xbd135a47	-0.035974767
35	0x3b8b5ed8	0.0042532496
36	0xbbd396a4	-0.0064571667
37	0x3d2c52e2	0.04207123
38	0x3be21be4	0.0069002975
39	0x3c9cca02	0.019139294
40	0xbd8773e8	-0.06613904
41	0x3d615f00	0.05502224
42	0xbd143cdd	-0.036190856
43	0x3ccc2ad5	0.024922768
44	0xbc968fcd	-0.018379116
45	0xbaf46ebe	-0.0018648726
46	0x3ba75326	0.0051063476
47	0xbc1b6748	-0.009485073
48	0x3d4bb26f	0.049730714
49	0xbc99f2ec	-0.018792592
50	0x3da6b027	0.08139067
51	0x3c4049af	0.011736318
52	0xbcddf26a	-0.027093131
53	0xbd098ca9	-0.03358141
54	0x3ac52063	0.0015039559
55	0x3999c09f	0.00029325948
56	0x3ba252ed	0.004953733
57	0x3c16c0e0	0.009201258
58	0xbd40fccf	-0.047116097
59	0x3c4c1c28	0.012457885
60	0x3cba86b4	0.02276931
61	0x3dba722d	0.091038086
62	0x3d1d3d3c	0.038388476
63	0xbd34fb2b	-0.044184845
64	0xbb467e64	-0.0030287737
65	0x3d2b32ac	0.04179637
66	0x3d85135b	0.064978324
67	0xbd296165	-0.04135265
68	0xbc00b6e5	-0.007856105
69	0xbc7933af	-0.015210076
70	0x3d01b509	0.03166679
71	0x3d6a6669	0.057226572
72	0xbc12dab6	-0.008963278
73	0x3d8f3e18	0.06994265
74	0x3de38827	0.111099534
75	0xbd80d04a	-0.06289728
76	0xbd100541	-0.03516126
77	0x3af5cea9	0.0018753606
78	0x3d130830	0.03589648
79	0x3a2c979f	0.00065838726
80	0xbc25a6cf	-0.010110571
81	0x3d430bad	0.047618557
82	0x3d84b5cc	0.064799875
83	0xbc3bd404	-0.011464123
84	0xbd422350	-0.047396958
85	0x3c867b96	0.016416352
86	0x3db72494	0.089425236
87	0xbd2e9067	-0.04261818
88	0xbc299690	-0.010350838
89	0x3c8111ef	0.015755622
90	0xbbf4b697	-0.0074680555
91	0x3d8e3451	0.06943572
92	0x3d8f83b2	0.07007541
93	0xbce55265	-0.02799339
94	0x3b75d256	0.0037509403
95	0xbcc49b6c	-0.023999892
96	0x3af49194	0.0018659108
97	0xbd11be74	-0.03558202
98	0x3d0f97c9	0.035056863
99	0x3c95c452	0.01828209
100	0xbcd3a810	-0.025836974
101	0xbd8fa995	-0.07014767
102	0x3d1dcc0b	0.03852467
103	0x3c98563f	0.018595813
104	0xbd4e8ae7	-0.050425436
105	0xbc563155	-0.013073285
106	0xbcb9d8bb	-0.022686353
107	0xbd106653	-0.035253834
108	0xbd5f88f9	-0.054573987
109	0x3d10a2a2	0.03531135
110	0xbcbe1c17	-0.023206754
111	0x3d0bfd1a	0.034176923
112	0xbd4bf1d3	-0.04979117
113	0xbd8f66f3	-0.07002058
114	0x3c011245	0.007877891
115	0x3cc9704b	0.024589678
116	0xbd60878f	-0.05481678
117	0xbdf3d6cd	-0.119062044
118	0xbcfb4f59	-0.030677484
119	0xbc09fa7d	-0.0084215375
120	0xbdc66799	-0.096877284
121	0xbd29b807	-0.041435268
122	0xbd8f64a8	-0.070016205
123	0x3bd5e82e	0.006527922
124	0xbc85fb57	-0.0163552
125	0xbc2ba4a1	-0.010476262
126	0xbd05a137	-0.03262445
127	0x3c1727ab	0.009225766
128	0xbd462071	-0.048370782
129	0x3d1af092	0.037827082
130	0xbd7db9c0	-0.061944723
131	0x3d1b9906	0.03798773
132	0xbcf40a53	-0.02979008
133	0xbdd00002	-0.101562515
134	0xbd80ec42	-0.062950626
135	0x3df312c4	0.11868814
136	0x3d3ea50f	0.04654413
137	0xbdc066ed	-0.093946315
138	0xbd40ddbf	-0.047086474
139	0xbda7749f	-0.081765406
140	0xbd6c5f27	-0.05770793
141	0xbd494dfd	-0.04914664
142	0xbdb83691	-0.08994783
143	0xbc4d07f1	-0.0125141
144	0x3cc20b66	0.023687076
145	0xbd932e9a	-0.07186623
146	0x3cb10ce4	0.021612592
147	0xbd90f0d7	-0.070771866
148	0x3d100c8a	0.03516821
149	0xbca2c3ad	-0.019868696
150	0xbd151d30	-0.03640479
151	0xbb92a6f2	-0.004475468
152	0xbc2ddc3d	-0.010611591
153	0xbc95cdb5	-0.018286565
154	0xbd11d87d	-0.03560685
155	0x3d0fe430	0.035129726
156	0x3d210fe8	0.03932181
157	0x3d791090	0.06080681
158	0xbb745801	-0.00372839
159	0xbd893411	-0.06699384
160	0x3d6af302	0.057360657
161	0xbd46ab48	-0.04850319
162	0x3c83d702	0.016093735
163	0xbdbf7926	-0.09349279
164	0x3c2851d6	0.010273417
165	0x3c5d9faa	0.013526836
166	0xbbb18f9d	-0.0054187314
167	0xbcf89796	-0.03034572
168	0x3c32edd1	0.010920958
169	0x3d26ea70	0.04075092
170	0xbda0e18e	-0.07855521
171	0x3baea785	0.0053300285
172	0xbd386467	-0.045017626
173	0xbd05b976	-0.032647572
174	0x3cd3d4c0	0.025858283
175	0x3cbb5570	0.022867888
176	0x3c001c00	0.007819176
177	0x3d5b7dcb	0.053586762
178	0xbcb1a6f4	-0.021686055
179	0x3c71af2b	0.014751236
180	0xbd0acddb	-0.033887725
181	0xbca669ab	-0.020314058
182	0xbd9b8a95	-0.07594792
183	0x3c90e2ae	0.017686214
184	0xbcac9175	-0.021065453
185	0xbdd381e9	-0.10327513
186	0x3d0834bd	0.03325342
187	0x3d9e1519	0.07718868
188	0x3c10deba	0.008842165
189	0xbd4475ba	-0.047963835
190	0xbd904858	-0.070450485
191	0x3ca909e8	0.020634606
192	0xbb74529e	-0.003728069
193	0x3d14ab11	0.036295954
194	0x3d183028	0.0371553
195	0xbd0e5b96	-0.034755312
196	0xbb7134c4	-0.0036805132
197	0xbcf1213b	-0.02943479
198	0xbbc57646	-0.006026062
199	0xbd2d807f	-0.04235887
200	0xbd8ed85a	-0.069748595
201	0xbd6b5b6b	-0.05746023
202	0x3cc09ab1	0.023511263
203	0xbd7d9a35	-0.06191464
204	0xbd40fbfb	-0.047115307
205	0xbd72e9b5	-0.05930491
206	0xbdd4095c	-0.10353348
207	0xbd035b70	-0.032069623
208	0xbc2d561d	-0.010579613
209	0xbce324fe	-0.0277276
210	0x3d2bc02e	0.041931324
211	0xbd6dd690	-0.05806595
212	0xbd9d3898	-0.0767681
213	0xbdc62443	-0.09674885
214	0xbc037419	-0.008023285
215	0x3c080279	0.008301371
216	0xbdd56a10	-0.104206204
217	0x3d06d16b	0.03291456
218	0x3c915083	0.017738586
219	0xbd84ba35	-0.06480829
220	0xbbebf996	-0.007201384
221	0x3c18b044	0.009319369
222	0x3d8de14d	0.06927738
223	0xbcbb96a9	-0.022898989
224	0xbcea4c30	-0.028600782
225	0xbd357e2c	-0.04430978
226	0xbd7ff43c	-0.06248878
227	0xbd658cd5	-0.05604251
228	0xbd4c9dd5	-0.049955208
229	0xbcb2cdbd	-0.02182662
230	0xbd537cfb	-0.051632863
231	0x3cea7750	0.028621346
232	0x3d0cf68b	0.03441481
233	0x3d8ecdc4	0.069728404
234	0xbcea1a80	-0.02857709
235	0xbcdb2a80	-0.026753664
236	0x3c9acaad	0.018895471
237	0xbd8b9780	-0.06816006
238	0xbdc3d2e1	-0.09561706
239	0x3bd1cc9c	0.006402565
240	0xbd9b0dad	-0.07570968
241	0x3ce338f6	0.027737122
242	0x3cc36866	0.023853492
243	0xbd0e1c68	-0.03469506
244	0xbc9f57ea	-0.0194511
245	0x3ca20c64	0.019781299
246	0xbc92f9a5	-0.017941305
247	0xbd5c506a	-0.053787626
248	0xbd09b3cc	-0.033618733
249	0xbd247d5c	-0.040158615
250	0xbda279ad	-0.07933364
251	0xbd699269	-0.057024393
252	0xbdb94b3c	-0.09047553
253	0x3d291cf3	0.041287374
254	0xbdb41f2b	-0.08795007
255	0xbc99bb99	-0.018766211

conv3.bias f4 [32]
0	0xbd378b2f	-0.04481047
1	0x3c57f857	0.013181767
2	0x3dee1a6c	0.11626133
3	0x3d3881b2	0.045045562
4	0xbc1fbe03	-0.009749892
5	0xbd03cd2f	-0.0321781
6	0x3cb70259	0.022339987
7	0xbd36fd60	-0.04467523
8	0xbcc47fb7	-0.02398668
9	0x3dbda5bf	0.09260129
10	0x3b6d0a10	0.0036169328
11	0x3be50f32	0.006990337
12	0x3d04eb2f	0.03245085
13	0xbd0f6233	-0.03500576
14	0xbd343c7a	-0.044002987
15	0x3c3da081	0.011573912
16	0xbc9b2cb6	-0.018942218
17	0x3d0e7820	0.03478253
18	0xbd287f10	-0.0411368
19	0x3d2af3e6	0.041736506
20	0xbcd042aa	-0.025422413
21	0xbd6a4ca7	-0.057202008
22	0xbd21dab6	-0.03951522
23	0x3c98d881	0.018657925
24	0x3c9103fe	0.017702099
25	0x3daaaa58	0.08333272
26	0xbd253002	-0.040328987
27	0xbd9bbc6e	-0.076042995
28	0xbd2f5ce7	-0.042813208
29	0xbc3da4fe	-0.011574982
30	0x3c9fa88d	0.019489551
31	0x3d18f69a	0.037344553

conv4.weight f4 [32, 32, 3]
0	0x3d1a0d84	0.037610546
1	0x3cccd644	0.025004514
2	0x3c7b8e3d	0.0153537365
3	0xbc45de91	-0.01207699
4	0x3cbd86c6	0.023135554
5	0xbc789241	-0.015171588
6	0x3ada62ca	0.0016661522
7	0xbba4161b	-0.005007518
8	0x3d13bd56	0.036069237
9	0xbdc54112	-0.09631552
10	0x3c1a35c4	0.009412233
11	0x3ca08990	0.019596845
12	0x3dffde8b	0.124936186
13	0xbd0a6139	-0.033784125
14	0xbc8e53d8	-0.017373964
15	0xbd9e44b9	-0.077279516
16	0xbd36ab7a	-0.044597127
17	0xbbf29ae7	-0.0074037197
18	0xbde568be	-0.112016186
19	0x3da5e5eb	0.08100494
20	0x3b13c2a0	0.0022546425
21	0xbd8e8eed	-0.06960855
22	0x3c8a5245	0.016884932
23	0xbd0e1a2e	-0.034692936
24	0x3c4bbdf8	0.012435429
25	0x3d93aecd	0.07211075
26	0xbd8c8da5	-0.06862954
27	0x3b713658	0.0036806073
28	0x3d97eea4	0.07418564
29	0xbd6a97c1	-0.05727363
30	0x3ca40124	0.020020075
31	0x3cae46f9	0.021274077
32	0xbc139b00	-0.009009123
33	0xbdc6be55	-0.09704272
34	0xbbd6cd4d	-0.0065552355
35	0x3d88efbb	0.0668635
36	0x3cd56560	0.026049316
37	0x3c015986	0.007894879
38	0x3d40c68b	0.047064345
39	0xbd1e82ab	-0.038698833
40	0x3c55703c	0.013027247
41	0xbcd770d2	-0.026298914
42	0xbd95c0c8	-0.07312161
43	0xbd1917d5	-0.037376244
44	0xbcd00180	-0.02539134
45	0x3da0cf9f	0.078521006
46	0xbc9f4a83	-0.01944471
47	0x3db9c458	0.09070653
48	0x3c93f04c	0.018058918
49	0xbcb2b3e7	-0.0218143
50	0x3ab3e2ae	0.0013724172
51	0xbd05d83d	-0.032676924
52	0xbda7ac6b	-0.08187183
53	0xbd22b86b	-0.039726656
54	0x3cf6e286	0.030137312
55	0xbcd82991	-0.026387008
56	0xbb1278dc	-0.002234987
57	0x3d61bb45	0.055110235
58	0xbcbe7821	-0.023250641
59	0xbc978d00	-0.018499851
60	0xbcbe65ed	-0.023241961
61	0x3c6624f8	0.0140469
62	0x3c8b45bb	0.017001024
63	0x3c08e584	0.008355502
64	0xbc93dce4	-0.018049665
65	0x3c30713f	0.0107691875
66	0x3d2e73f0	0.042591035
67	0x3db137c5	0.08653215
68	0x3d3c9deb	0.04604904
69	0xbe060730	-0.1308868
70	0x3da05c0e	0.07830058
71	0xbc5f9b9e	-0.013647942
72	0x3d2d3681	0.042288307
73	0xbdaddba7	-0.08489161
74	0xbb26f652	-0.0025476408
75	0x3c9747f2	0.018466923
76	0x3d4889fb	0.048959713
77	0x3cb7dacb	0.022443196
78	0x3dc2d095	0.0951244
79	0xbd026b40	-0.031840563
80	0xbd9e925a	-0.07742758
81	0xbcb9f948	-0.022701874
82	0x3c580201	0.0131840715
83	0xbcc4fe4d	-0.024047041
84	0x3d7b6480	0.06137514
85	0x3cb7926b	0.022408685
86	0x3d278af3	0.040903997
87	0x3d4ea812	0.050453253
88	0xbe172597	-0.14760433
89	0x3d6996ea	0.05702869
90	0xbdf5ad2e	-0.11995922
91	0x3e01c146	0.12671384
92	0xbc209d3a	-0.009803111
93	0xbd34a3be	-0.04410147
94	0xba2cbc40	-0.0006589331
95	0xbcec82b2	-0.028870914
96	0xbcbb36f4	-0.022853352
97	0xbdc2ced3	-0.09512105
98	0xbcda8dfb	-0.02667903
99	0x3d06da5c	0.032923087
100	0x3ba05a46	0.004893574
101	0x3ce519d3	0.027966416
102	0x3d264628	0.04059425
103	0x3d61f7eb	0.055168074
104	0xbd40137b	-0.046893578
105	0x3d988845	0.07447866
106	0xbd3b0358	-0.045657486
107	0xbdc3d04c	-0.09561214
108	0xbc23ffdf	-0.010009735
109	0x3d86102f	0.065460555
110	0xbd3318c0	-0.043724775
111	0x3925344a	0.00015755105
112	0x3d17d103	0.037064563
113	0xbc855cc3	-0.016279584
114	0x3d824fc0	0.06362867
115	0xbd96f5a9	-0.07371075
116	0x3cd7fa06	0.026364338
117	0x3d7b106d	0.06129496
118	0xb99e090d	-0.00030142852
119	0x3d83fa7f	0.06444263
120	0xbc5f8182	-0.013641717
121	0xbd9e8cfa	-0.07741733
122	0x3c244c88	0.010028012
123	0x3dcb84cb	0.099374376
124	0x3d806501	0.06269265
125	0x3d0f08c2	0.03492046
126	0x3d50c532	0.05096931
127	0x3d89700f	0.067108266
128	0xbc254168	-0.010086395
129	0x3d984307	0.074346595
130	0x3d16e1a4	0.03683628
131	0x3d85dbc7	0.0653606
132	0x3c6032b8	0.013683967
133	0x3d434c32	0.047680087
134	0x3bdf5023	0.006814973
135	0x3dea9630	0.11454427
136	0xbcee641a	-0.029100467
137	0xbd5f7311	-0.054553095
138	0x3d0c0628	0.03418556
139	0xbdc35794	-0.095381886
140	0x3d067a86	0.03283169
141	0x3dbd3764	0.092390805
142	0x3c7d4565	0.0154584395
143	0xbb582b92	-0.0032984954
144	0xbd8bfa84	-0.068348914
145	0xbcf916a9	-0.030406313
146	0x3c9a9f5e	0.01887482
147	0x3cd72b03	0.026265627
148	0x3d17848a	0.036991633
149	0x3dacd67b	0.084393464
150	0x3ba35c17	0.004985343
151	0x3ca829bc	0.020527713
152	0x3d669eb7	0.056303706
153	0x3cbad285	0.022805462
154	0x3c1bd79b	0.009511854
155	0x3cf1f5d2	0.029536162
156	0x3d2b20b7	0.041779246
157	0xbd40739a	-0.046985246
158	0xb9c2968a	-0.00037114724
159	0x3c2f191c	0.010687139
160	0xbbf6dbd3	-0.0075335293
161	0x3d5f15ae	0.054464035
162	0x3d417358	0.04722914
163	0x3c13c39c	0.009018805
164	0xbd4565bb	-0.04819272
165	0xbba82cd7	-0.0051322985
166	0x3d25602f	0.04037493
167	0x3d21af2e	0.039473705
168	0x3b0ff8f0	0.0021968447
169	0x3c168565	0.009187077
170	0xbc988a44	-0.018620618
171	0xb919f271	-0.00014681534
172	0x3d8d1a14	0.0688974
173	0xbd113cd7	-0.035458412
174	0x3df9f8d5	0.12205664
175	0x3cbc5d91	0.022993835
176	0xbd15c60b	-0.03656582
177	0x3c04cb71	0.008105145
178	0xbca4b3dc	-0.020105295
179	0xbd0ef2d9	-0.034899566
180	0xbd1452a6	-0.036211632
181	0xbc89f385	-0.016839752
182	0xbd6e0a7e	-0.058115475
183	0xbc755e7a	-0.014976138
184	0x3e05a594	0.13051444
185	0xbcf58253	-0.02996937
186	0xbb794775	-0.0038036976
187	0x3cc745dc	0.024325304
188	0x3ceea0dd	0.02912944
189	0x3d1c5497	0.03816661
190	0x3c23896f	0.009981497
191	0x3d9807bf	0.074233525
192	0xbd67170b	-0.05641846
193	0x3db679b1	0.089099295
194	0x3d1bf84f	0.038078602
195	0x3d630ef8	0.055434197
196	0x3cbe450d	0.023226285
197	0xbdc98026	-0.098388955
198	0x3d356d13	0.044293474
199	0xbd2c63ae	-0.04208725
200	0xbd13cba9	-0.036082897
201	0xbce0caed	-0.027440513
202	0xbc8456f2	-0.01615474
203	0xbc30c10e	-0.010788215
204	0xbe5ae600	-0.213768
205	0x3c4c5d11	0.012473361
206	0xbc98615a	-0.018601108
207	0xbdb1e900	-0.08687019
208	0x3d80f7ac	0.0629724
209	0x3deb3b32	0.114859
210	0x3d4c6131	0.049897376
211	0xbcdabcb9	-0.026701318
212	0x3d1d29fd	0.03837012
213	0x3b8b5455	0.0042519965
214	0xbd026c2b	-0.03184144
215	0xbba27695	-0.0049579837
216	0x3d2ad1ad	0.04170387
217	0x3c51f671	0.012815104
218	0x3ae322cf	0.0017329099
219	0x3d6a0e2f	0.057142433
220	0xbb4dcf53	-0.0031404092
221	0xbd942e7f	-0.07235431
222	0x397d9c37	0.00024186155
223	0xbc4acb2b	-0.012377541
224	0xbd7db7d5	-0.061942894
225	0x3ddb138b	0.10697087
226	0xbd713c7d	-0.058895577
227	0x3c44276e	0.011972291
228	0xbd249cb4	-0.040188506
229	0x3cae6fd4	0.021293558
230	0xbb7ea48b	-0.00388554
231	0xbcfd2438	-0.03090106
232	0x3d01f83e	0.031730883
233	0xbd965409	-0.07340247
234	0xbd266983	-0.040627968
235	0xbce587e3	-0.028018897
236	0x3c41124b	0.011784147
237	0xbd5759a6	-0.05257573
238	0xbc93a594	-0.01802329
239	0x3ce74eb9	0.02823578
240	0xbe0af9fb	-0.13571922
241	0xbd90522b	-0.07046922
242	0xbd00c48d	-0.031437445
243	0xbdbfebe4	-0.093711644
244	0x3d0d997f	0.034570213
245	0x3cfaa6e6	0.030597162
246	0xbd2574d9	-0.040394638
247	0xbccc5429	-0.024942474
248	0x3e24c3fe	0.1609039
249	0x3ceab446	0.028650414
250	0xbd6a252b	-0.057164352
251	0xbcb48454	-0.022035755
252	0xbda15391	-0.07877267
253	0xbd431a8d	-0.047632743
254	0x3cb7bf41	0.022430064
255	0xbd4072a6	-0.046984337

conv4.bias f4 [32]
0	0xbba1ba6d	-0.0049355538
1	0x3d98f26b	0.074681126
2	0xbd9eecd8	-0.07760018
3	0xbdd7d806	-0.1053925
4	0xbe0ff9cf	-0.14060138
5	0x3b02818d	0.0019913644
6	0xbd87b66e	-0.066265926
7	0xbbc3cd33	-0.0059753894
8	0xbc5fd16b	-0.013660769
9	0xbd172ab7	-0.03690597
10	0xbd799344	-0.06093146
11	0xbd0b368c	-0.033987567
12	0xbc0145fb	-0.00789022
13	0xb9bf5404	-0.00036492955
14	0xbe3026bf	-0.1720228
15	0xbd0f24bf	-0.034947153
16	0x3d7b528c	0.06135802
17	0xbda87ce6	-0.082269475
18	0xbd55aa7c	-0.05216454
19	0xbd1c5a22	-0.038171895
20	0x3d0649a3	0.03278507
21	0x3c9f8619	0.019473122
22	0xbe036ee2	-0.12835267
23	0xbce79c01	-0.02827263
24	0x3c85d488	0.016336694
25	0xbdacb3d3	-0.08432736
26	0xbdde6162	-0.10858418
27	0xbda32cec	-0.079675525
28	0xbc955a24	-0.018231459
29	0xbd1dd2ce	-0.038531117
30	0x3c40bfd9	0.01176449
31	0x3d816c3d	0.06319473

conv5.weight f4 [32, 32, 3]
0	0xbda8087e	-0.08204745
1	0xbd840ae4	-0.0644739
2	0xbd538b89	-0.051646743
3	0xbca29ec7	-0.019851102
4	0x3c7a5536	0.015279105
5	0x3d030b2b	0.031993072
6	0xbdd7d95a	-0.105395034
7	0xbdc497fd	-0.09599302
8	0xbc04831c	-0.0080879
9	0xbd6f36bb	-0.058401804
10	0xbd3c7bb3	-0.046016406
11	0x3c50d2d1	0.012745575
12	0xbd0de586	-0.03464272
13	0xbc5d0e9f	-0.0134922555
14	0x3d54624a	0.05185155
15	0x3d5901be	0.052980177
16	0xbdbec3a5	-0.0931466
17	0x3d65e336	0.05612489
18	0xbd8b3e9b	-0.067990504
19	0x3d67325f	0.056444522
20	0xbd054f1b	-0.032546144
21	0xbd0c1a44	-0.034204736
22	0xbd376818	-0.044777006
23	0xbd2e461b	-0.042547327
24	0xbc40bb65	-0.011763428
25	0xbcda20d6	-0.026626986
26	0x3cad3621	0.021143975
27	0xbd174e06	-0.036939643
28	0xbcc7303c	-0.024314992
29	0xbd4d9fe4	-0.05020131
30	0xbcdc8f5b	-0.026923826
31	0xbdb238d1	-0.08702243
32	0x3d35dd05	0.044400234
33	0xbd3a29b0	-0.045449913
34	0x3da07461	0.078346975
35	0xbd0c840c	-0.034305617
36	0x3cba44a2	0.022737805
37	0xbcb48239	-0.022034751
38	0xbda56e49	-0.08077676
39	0x3c975c2a	0.018476564
40	0xbd242073	-0.04007001
41	0x3c3803cb	0.011231373
42	0xbdb9afcf	-0.09066736
43	0xbcd5f215	-0.02611641
44	0xbd142b8b	-0.03617434
45	0xbba64cc5	-0.0050750696
46	0xbd94e2f8	-0.07269853
47	0x3d704747	0.058661725
48	0x3bc8a429	0.006123085
49	0xbd83af35	-0.064299025
50	0xbae152a5	-0.0017190768
51	0xbcd0e16d	-0.025498116
52	0x3d19083c	0.03736137
53	0x3d7f8e4c	0.062391564
54	0xbd56c150	-0.05243045
55	0xbd624389	-0.055240188
56	0xbdbf5c4f	-0.09343778
57	0xbbc8a8a0	-0.0061236173
58	0xbd4597c7	-0.04824045
59	0xbcb278f2	-0.021786187
60	0xbce6b17f	-0.028160809
61	0x3c72d221	0.014820606
62	0x3b75dc3e	0.0037515308
63	0xbc8c66b6	-0.01713882
64	0xbc6b2c70	-0.014353856
65	0x3c3cd4f1	0.011525379
66	0xbd5bafa3	-0.053634297
67	0xbe0d99c1	-0.13828184
68	0xbe49143c	-0.19636625
69	0xbd65c6fb	-0.056097966
70	0xbdeb79a4	-0.114978105
71	0xbdb42bba	-0.08797403
72	0x3d88ce4a	0.066799715
73	0xbc2cfbfb	-0.010558124
74	0x3d095d3e	0.03353619
75	0x3cdc6bd2	0.026906881
76	0xbc6a9682	-0.01431811
77	0xbd8adb1c	-0.06780073
78	0x3d059b26	0.032618664
79	0x3d0ca34d	0.034335423
80	0x3d7bd269	0.06147996
81	0xbcbedb22	-0.02329785
82	0xbd31e706	-0.04343321
83	0xbcd007e9	-0.025394397
84	0xbdbaf711	-0.091291554
85	0xbd41032f	-0.047122177
86	0xbd88b202	-0.06674577
87	0x3d0b3138	0.033982486
88	0xbd3dbb6d	-0.04632132
89	0xbd478de9	-0.04871932
90	0xbdc2b696	-0.09507482
91	0x3c739055	0.014865954
92	0xbd02ab6b	-0.03190176
93	0x3c4a7c9a	0.012358809
94	0xbadb8c94	-0.001675027
95	0x3be70b2a	0.0070508914
96	0x3ca93324	0.020654269
97	0x3d3f66ae	0.046728782
98	0xbcade4c4	-0.021227248
99	0xbcdd54fa	-0.027018059
100	0xbb839517	-0.0040155756
101	0x3d616959	0.055032108
102	0x3bfb5d3c	0.0076710265
103	0xbcd3450b	-0.025789758
104	0x3cefa489	0.029253261
105	0x3cea7452	0.028619919
106	0x3d88965a	0.06669302
107	0xbcad15ba	-0.021128524
108	0xbd76477a	-0.06012676
109	0x3c4ccf67	0.01250062
110	0x3cbe6b62	0.023244563
111	0xbdbed7aa	-0.093184784
112	0xbc3c6d6a	-0.011500696
113	0xba98bfeb	-0.0011653876
114	0xbcb5e911	-0.022205861
115	0xbd05d6c0	-0.032675505
116	0x3c5baff2	0.013408648
117	0xbd1de986	-0.038552783
118	0x3cb7137f	0.022348164
119	0x3db7aca9	0.08968479
120	0xbd9d2aa3	-0.07674148
121	0x3d1d7234	0.03843899
122	0x3cf19aae	0.029492702
123	0x3d294cfb	0.04133318
124	0x3cacab4d	0.021077776
125	0x3d90509b	0.07046624
126	0x3d468a0f	0.048471507
127	0xbd1a7154	-0.037705734
128	0x3d812015	0.06304947
129	0x3d88dd2e	0.06682812
130	0xbc8ca2c5	-0.017167458
131	0xbc2ade42	-0.010428967
132	0x3c64794b	0.013944934
133	0x3d833285	0.0640612
134	0x3d110bb4	0.03541155
135	0xbdeae8c8	-0.11470181
136	0xba9448ad	-0.0011313163
137	0x3cdcb4f2	0.02694175
138	0xbae086ca	-0.0017130014
139	0x3d5cb651	0.053884808
140	0x3b78c055	0.0037956436
141	0xbc547a5c	-0.012968626
142	0x3c0a9e4c	0.0084605925
143	0xbd0b71c3	-0.03404404
144	0xbbbfd2d2	-0.005853989
145	0xbcd508c5	-0.026005158
146	0xbcd1d44a	-0.025613923
147	0xbe03e0ff	-0.12878798
148	0x3cf8ad7b	0.03035616
149	0x3d24518d	0.040116835
150	0xbcea510a	-0.028603096
151	0xbcbb313b	-0.022850623
152	0xbd2493d7	-0.040180054
153	0xbcdd9bbc	-0.027051799
154	0xbd35febc	-0.044432387
155	0x3d321d05	0.043484706
156	0x3dd339b1	0.10313738
157	0xbd10988d	-0.035301734
158	0x3c6a8790	0.014314547
159	0x3c94b62d	0.018153274
160	0x3d304da2	0.043042786
161	0xbd3c8bf3	-0.046031903
162	0xbb7b7ec3	-0.0038375116
163	0xbcd4d0eb	-0.025978526
164	0x3d606861	0.054787043
165	0xbd32cc5e	-0.04365193
166	0xb7861c06	-1.5987094e-05
167	0xbd6b753b	-0.057484847
168	0x3c70f996	0.014707943
169	0x3c4da4c7	0.012551493
170	0xbd5977dd	-0.053092826
171	0x3da2462e	0.07923542
172	0x3de7058b	0.11280354
173	0x3ba18993	0.00492973
174	0x3dc191da	0.09451647
175	0x3dd4f87f	0.10398959
176	0x3e01a95b	0.1266226
177	0xbb8f78d3	-0.004378417
178	0x3ce9d1cb	0.02854242
179	0xbc80a62e	-0.01570424
180	0xbcf43bc3	-0.029813653
181	0x3dc3c7d2	0.09559597
182	0x3cf4e9f0	0.029896706
183	0xbd800132	-0.06250228
184	0x3d896677	0.06708997
185	0xbc953850	-0.018215328
186	0x3d6e3164	0.05815257
187	0x3da52ef4	0.08065596
188	0x3d4c2ff0	0.049850404
189	0xbd644fd5	-0.055740196
190	0x3c7aaa70	0.0152994245
191	0xbbeda259	-0.0072520194
192	0x3d8a4383	0.06751158
193	0xbd37f8ad	-0.04491489
194	0xbcb4f821	-0.022090973
195	0x3d1bd0c9	0.03804091
196	0xbc9ed1cf	-0.019387154
197	0x3d725d7f	0.059171196
198	0xbc37cb78	-0.011217944
199	0x3ad7263a	0.0016414591
200	0xbd8aae35	-0.067715086
201	0x3d312566	0.043248557
202	0xbdb84457	-0.0899741
203	0x3c53fed1	0.012939171
204	0x399999a0	0.00029296894
205	0xbca0dd7f	-0.019636868
206	0xbdb69bb3	-0.08916416
207	0xbddf3337	-0.1089844
208	0x3cdcfbf9	0.026975619
209	0xbdb9163a	-0.090374425
210	0x3d97d620	0.07413888
211	0xbd8894b1	-0.06668986
212	0x3d637cb9	0.055538867
213	0x3d3d91ff	0.04628181
214	0xbd342ff3	-0.04399104
215	0x3cec0f10	0.028815776
216	0x3b83936d	0.0040153773
217	0xbb8a5622	-0.0042216936
218	0xbd51fdf2	-0.05126757
219	0xbd1f95f9	-0.038961384
220	0x3bccf6c2	0.0062550018
221	0xbc933f3c	-0.017974488
222	0xbdff7bdf	-0.124747984
223	0x3ccfc7d3	0.025363838
224	0xbcea6b4a	-0.028615613
225	0x3d6e8c95	0.05823954
226	0xbd42f4c6	-0.047596715
227	0x3baa2c2c	0.005193254
228	0x3ce1f780	0.027583838
229	0x3bf49206	0.0074636964
230	0xbd5e66a0	-0.05429709
231	0xbcddebee	-0.02709004
232	0xbd99e7c0	-0.07514906
233	0x3da46822	0.08027674
234	0xbcadc4ca	-0.021212
235	0x3c15f2c5	0.009152119
236	0x3dcc0946	0.09962706
237	0x3dac6b4d	0.084189035
238	0xbd7551c4	-0.05989243
239	0xbd4ff248	-0.050768167
240	0xbe20afc6	-0.15692052
241	0x3da91ebc	0.08257815
242	0xbc474fad	-0.012164992
243	0xbd550977	-0.05201098
244	0xbcb34f57	-0.021888418
245	0x3db6043f	0.08887529
246	0xbcf2d238	-0.029641256
247	0x3d028af3	0.031870794
248	0x3dc38a5e	0.09547876
249	0x3c28dbf1	0.010306344
250	0xbda12878	-0.07869047
251	0xbc9930a6	-0.018699955
252	0x3d793c8c	0.060848758
253	0x3c549610	0.012975231
254	0x3d9348a3	0.07191589
255	0x3bf49fe4	0.0074653495

conv5.bias f4 [32]
0	0x3dc03bd0	0.09386408
1	0x3b155856	0.0022788248
2	0xbcf31c75	-0.029676655
3	0x3dfa09af	0.12208878
4	0x3d260805	0.04053499
5	0xbdbe60c5	-0.09295801
6	0xbd8b8882	-0.06813146
7	0xbd89e9ca	-0.06734045
8	0xbd7d7d05	-0.061886806
9	0xbde30df1	-0.110866435
10	0xbde75fa0	-0.11297536
11	0x3d842003	0.06451418
12	0xbd89d6ce	-0.06730424
13	0x3d50b7cc	0.050956532
14	0xbde55620	-0.11198068
15	0xb9a9e535	-0.00032404964
16	0x3c7d6fa3	0.015468511
17	0xbd979633	-0.07401695
18	0x3bd72115	0.006565223
19	0xbd045313	-0.03230579
20	0xbd44036a	-0.04785482
21	0xbd9ea967	-0.07747155
22	0x3d8557f8	0.06510919
23	0x3c58cd2a	0.013232509
24	0xbc8b52dc	-0.017007284
25	0xbe116749	-0.14199556
26	0xbd6829d9	-0.056680534
27	0xbda85efc	-0.08221242
28	0x3caf0a08	0.021367088
29	0xbdee95cc	-0.11649665
30	0x3ce06e86	0.027396452
31	0xbccd4d0e	-0.025061157

conv6.weight f4 [32, 32, 3]
0	0xbb6cfaeb	-0.00361603
1	0xbce19ec0	-0.027541518
2	0x3dbcb658	0.09214467
3	0x3d741b3a	0.059596278
4	0x3c4c6609	0.012475499
5	0xbd683cfc	-0.056698784
6	0x3e17cb53	0.14823656
7	0xbb7a91f3	-0.0038233965
8	0xbd9455c5	-0.07242922
9	0x3cd50404	0.026002891
10	0xbd25569d	-0.040365804
11	0x3d6548a1	0.055977467
12	0xbd7a2f04	-0.061079994
13	0x3b889fbc	0.0041694324
14	0xbd19610f	-0.037446078
15	0x3b36a97c	0.0027872017
16	0xbd9c8dff	-0.07644271
17	0xbda1f1b0	-0.07907426
18	0xbc89db57	-0.016828222
19	0x3dffc2c7	0.12488323
20	0xbdc3b736	-0.09556429
21	0x3c9e10d5	0.019295136
22	0x3bdd4511	0.006752618
23	0x3b7c53ba	0.0038502053
24	0x3d9e9a4b	0.07744273
25	0xbdd80434	-0.10547677
26	0xbd179eb5	-0.03701659
27	0xbdbb760a	-0.091533735
28	0xbbfaee18	-0.0076577775
29	0xbc1fb8ab	-0.009748618
30	0x3daae09a	0.083436206
31	0xbcd29d39	-0.025709735
32	0xbd854b01	-0.065084465
33	0x3c9de3c0	0.019273639
34	0x3b888295	0.004165957
35	0x3d5e9005	0.054336566
36	0xbd161498	-0.036640733
37	0x3cc0c5a8	0.02353175
38	0xbd0cc081	-0.034363274
39	0xbc27fb94	-0.010252852
40	0xbd8ca22d	-0.0686687
41	0x3ca1f36a	0.01976939
42	0x3d4dcc0d	0.050243426
43	0xbc9e2e96	-0.019309323
44	0xbda6a9b2	-0.081378356
45	0x3c986977	0.018604977
46	0xbd98462c	-0.07435259
47	0x3cb422c1	0.021989228
48	0xbcd4bc7c	-0.025968783
49	0xbd2a95a6	-0.041646622
50	0x3d40df92	0.047088213
51	0x3d6f6256	0.05844339
52	0x3c3bea42	0.011469426
53	0x3d1191b0	0.03553933
54	0xbd33d27c	-0.043901905
55	0x3d719cb5	0.058987338
56	0xbd1f5878	-0.03890273
57	0xbca80ef0	-0.020514935
58	0xbd211533	-0.039326858
59	0xbd29da66	-0.041468047
60	0x3d747abe	0.05968737
61	0xbd5c7944	-0.053826585
62	0x3d8f5e40	0.07000399
63	0xbe0b1e4d	-0.13585778
64	0xbd82d047	-0.06387382
65	0xbcaa51dd	-0.020790989
66	0xbd6d1a0a	-0.05788616
67	0xbce9e221	-0.02855021
68	0xbd63ee9d	-0.05564748
69	0x3d2f6a9f	0.04282629
70	0x3bd990fd	0.0066395984
71	0xbdb7ecb7	-0.08980697
72	0xbb15bb3b	-0.0022847194
73	0xbd1dc48c	-0.03851752
74	0x3d27a2d3	0.040926766
75	0x3ddcfcc8	0.10790402
76	0x3d5dfbb6	0.05419513
77	0xbd7e1ab3	-0.06203718
78	0x3d64558a	0.05574564
79	0xbd66eef0	-0.056380212
80	0x3cd2bfad	0.025726164
81	0xbc31e842	-0.010858597
82	0xbc58b4ec	-0.013226729
83	0x3ca2fbc0	0.019895434
84	0x3d48be1d	0.04900943
85	0x3d002374	0.03128381
86	0x3d07e5ff	0.033178326
87	0x3cf5499e	0.02994233
88	0x3c7e8c75	0.015536417
89	0x3d10a33c	0.035311922
90	0x3b62f522	0.0034630974
91	0xbcb37b9f	-0.021909533
92	0x3d864ebd	0.06557987
93	0xbd24a297	-0.04019412
94	0x3cec3484	0.028833635
95	0xbc4cbf7c	-0.012496825
96	0xbbf82114	-0.0075723026
97	0x3cad9c5a	0.021192718
98	0x3da66446	0.081245944
99	0xbc510e77	-0.012759796
100	0xbc210798	-0.009828471
101	0xbc708d20	-0.014682084
102	0x3d9964d2	0.07489933
103	0x3d195cea	0.037442125
104	0xbb35cd08	-0.0027740616
105	0xbc9ea0b6	-0.019363742
106	0x3d5021f8	0.050813645
107	0xbd99fbec	-0.075187534
108	0xbd8c5fa0	-0.068541765
109	0xbd25cb7f	-0.040477272
110	0x3d0ae49d	0.03390943
111	0xbd098ac1	-0.03357959
112	0x3c92787f	0.017879723
113	0xbdc0b5bd	-0.09409664
114	0x3b2901d3	0.002578844
115	0xbc06f4fd	-0.008237121
116	0xbae5ceb2	-0.0017532913
117	0xbd6ca6a5	-0.057776112
118	0xbae24fd9	-0.0017266228
119	0x3cc748e2	0.024326745
120	0xbd3ba0d6	-0.045807682
121	0xbaa61d37	-0.0012673502
122	0xbd6aab8e	-0.057292514
123	0x3cba202d	0.02272042
124	0x3c7a1eab	0.015266101
125	0xbd1d461d	-0.038396943
126	0x3c401d71	0.011725769
127	0x3c06507a	0.008197898
128	0xbd3a621e	-0.045503728
129	0xbd496277	-0.04916617
130	0x3d3518cf	0.044213112
131	0x3c04a40a	0.008095751
132	0x3db3015d	0.087404944
133	0x3d5d7f96	0.054076754
134	0xbddce5b0	-0.10785997
135	0xbd868988	-0.06569201
136	0x3d4336bb	0.047659617
137	0x3c06ae58	0.008220278
138	0x3d528505	0.05139639
139	0x3d01fbd7	0.031734314
140	0xbc44c76e	-0.012010438
141	0x3cb340c8	0.021881476
142	0x3b38b9c3	0.0028186894
143	0xbd45a303	-0.048251163
144	0xbc4512fd	-0.012028453
145	0xbda3ea50	-0.08003676
146	0xbd52d825	-0.051475663
147	0x3cb8c640	0.02255547
148	0x3dcc9f39	0.09991307
149	0xbd1f7482	-0.03892947
150	0xbd22b752	-0.03972561
151	0x3c01ff40	0.0079343915
152	0x3d11d73f	0.035605665
153	0x3d7cd377	0.061725106
154	0xbd658e9c	-0.056044206
155	0xbd483585	-0.048879165
156	0x3d07f665	0.033193965
157	0x3c65386f	0.013990506
158	0xbd4acae9	-0.049509916
159	0x3a16a898	0.00057471683
160	0xbcbb494a	-0.022862095
161	0xbd1602fe	-0.036623947
162	0xbb9c150c	-0.004763251
163	0xbd30b8df	-0.043145057
164	0xbd5d4e6a	-0.05402986
165	0x3d1a4c26	0.037670277
166	0x3ce23479	0.027612912
167	0xbd7cacfa	-0.0616884
168	0x3dd84c1f	0.10561394
169	0xbd1f6aae	-0.038920097
170	0xbce0ae91	-0.02742699
171	0xbcb9c084	-0.022674806
172	0x3d9c47c6	0.07630877
173	0xbc1a6a91	-0.0094248215
174	0x3c90ea34	0.017689802
175	0xbcdaa505	-0.026690016
176	0x3d7e0277	0.06201407
177	0x3bf4f35a	0.007475299
178	0xbc55f7ea	-0.013059596
179	0x3cb26b7c	0.021779768
180	0x3ad5bfb8	0.0016307747
181	0xbdbf3a9e	-0.09337352
182	0x3d3efcef	0.046627935
183	0xbd835d65	-0.06414298
184	0x3d711db6	0.058866225
185	0xbcb2546a	-0.021768767
186	0x3d9326f9	0.07185168
187	0x3d983f45	0.07433943
188	0xbd6f7476	-0.058460675
189	0xbdb9eb11	-0.090780385
190	0xbd15fadf	-0.036616202
191	0x3c58c3e9	0.013230302
192	0x3ba1ca16	0.0049374206
193	0xbe210b0f	-0.15726875
194	0xbe0327f8	-0.12808216
195	0xbe023293	-0.12714605
196	0x3b6bfae0	0.0036007687
197	0x3e0264f9	0.1273383
198	0x3cb2f3e5	0.021844814
199	0xbb9480e7	-0.004531968
200	0x3c29dbc1	0.010367335
201	0x3daeb34b	0.08530291
202	0xbd947e34	-0.07250634
203	0xbdc368c1	-0.095414646
204	0xbd8b4bd6	-0.06801574
205	0x3d331d3e	0.04372906
206	0x3d1351da	0.03596673
207	0xbe3c41f3	-0.18384533
208	0xbd8e0bc2	-0.069358364
209	0x3cae7223	0.021294659
210	0xbd129513	-0.0357867
211	0xbb49eddb	-0.003081194
212	0x3d11bfe0	0.035583377
213	0x3d3ef7c4	0.046623006
214	0xbcc29a3d	-0.023755187
215	0xbd8cb18b	-0.06869801
216	0xbd5f0f02	-0.054457672
217	0x3d1e5001	0.038650516
218	0x3cac4ee0	0.021033704
219	0x3d54b98e	0.05193477
220	0xbda291b2	-0.079379454
221	0xbd73812d	-0.059449363
222	0x3d5a6e82	0.053328045
223	0x3c0ec808	0.008714683
224	0xbc559ee3	-0.01303837
225	0xbd39b158	-0.045335144
226	0xbd167786	-0.03673508
227	0xbd68da5c	-0.05684887
228	0x3c3dd88f	0.011587276
229	0x3d903b5e	0.070425734
230	0xbca12a0b	-0.019673368
231	0x396b0e55	0.00022416686
232	0x3bbccbbf	0.005761593
233	0xbca36e59	-0.019950079
234	0x3c289bcc	0.010291051
235	0x3e19824d	0.14991112
236	0x3ded762a	0.11594804
237	0xbcdf7ef8	-0.027282223
238	0xbd8cf99e	-0.06883548
239	0xbdc00d2f	-0.093775146
240	0xbc545d51	-0.0129617015
241	0x3c8570a1	0.016289057
242	0x3d7bd00f	0.061477717
243	0xbd2a2f74	-0.04154916
244	0xbcad0db9	-0.021124708
245	0xbe0ea119	-0.13928641
246	0x3d97d9f7	0.0741462
247	0xbdb491eb	-0.08816894
248	0xbcef0341	-0.029176356
249	0x3c4ec832	0.0126209725
250	0x3ce2b512	0.027674232
251	0xbcf91be1	-0.030408802
252	0x3d6761ca	0.056489743
253	0x3c316845	0.010828082
254	0xbc196f21	-0.009364874
255	0xbb3deada	-0.0028979094

conv6.bias f4 [32]
0	0xbc05998c	-0.008154284
1	0x3b61cb58	0.0034453478
2	0xbe169ae3	-0.14707522
3	0x3c01671b	0.007898117
4	0xbbf3de21	-0.0074422513
5	0xbdc5bb92	-0.09654917
6	0x3cb377fc	0.021907799
7	0xbbd0c555	-0.00637118
8	0x3d929e36	0.071590826
9	0xbdd57376	-0.10422413
10	0x3993060a	0.00028042524
11	0x3d84ffad	0.06494079
12	0x3b27479a	0.0025524856
13	0xbdbed43e	-0.09317826
14	0xbbc90c19	-0.0061354754
15	0xbdbc77fe	-0.09202574
16	0x3c451a57	0.012030206
17	0xbe0cb443	-0.1374064
18	0xbdec92a5	-0.11551408
19	0xbc4f5820	-0.012655288
20	0x3a455801	0.0007528067
21	0x3d573cad	0.0525481
22	0xbceedf6c	-0.02915927
23	0xbd0adcd8	-0.03390202
24	0xbda7ef7f	-0.08199977
25	0x3c7b4251	0.015335635
26	0xbdba6195	-0.091006435
27	0x3b9c078a	0.004761641
28	0xbc400961	-0.011720986
29	0xbd733425	-0.0593759
30	0x3d229a02	0.039697655
31	0x3c67679a	0.014123822
