SCAFFOLD_3/cli2_model_parameters.pth (torch, 767010 bytes, 51 tensors)

conv1.weight f4 [32, 2, 3]
000000 73 6a fb bd 77 c6 64 3e 1f 44 86 be 94 06 88 3e
       -0.12276163 0.22341333 -0.26223847 0.2656752
000010 00 92 0b 3c 1a d2 97 3d 16 71 f1 3c ee ae 96 3e
       0.008518696 0.074131206 0.029472869 0.29430336
000020 49 41 27 3e 20 d2 fc 3d fa 7a d6 3d b6 47 08 3e
       0.16333498 0.12344766 0.10472675 0.13308606
000030 79 82 41 bd 94 e9 18 be 8c 19 ae bd 4e 2d f3 3d
       -0.04724357 -0.14932853 -0.085009664 0.118738756
000040 c2 52 70 3e 4a 0b c1 bd 5f fb a7 3e c2 b2 85 be
       0.2346907 -0.09425981 0.32808968 -0.26112944
000050 c1 3c 82 bb 05 87 43 be cf 76 1a be 98 f8 26 bd
       -0.0039745276 -0.19094475 -0.15084384 -0.04076442
000060 42 1c c9 bd 4c 9e 30 3e b4 cd 53 be 96 c2 89 3e
       -0.09819843 0.17247885 -0.20683938 0.2690627
000070 d0 e1 34 3c f5 80 90 3e 8f 60 76 3e e7 18 84 3e
       0.011040166 0.28223386 0.24060272 0.2580025
000080 1c 2f 92 3e 72 58 0d 3e f0 ed 5c 3c 88 44 b2 bd
       0.28551567 0.1380327 0.013484463 -0.087044775
000090 cd 09 02 be 16 42 9a be 0a a0 b7 be 80 7c 02 bd
       -0.12699051 -0.30128545 -0.35864288 -0.031857014
0000a0 a6 ab 6e be 38 88 00 bd 1b 6f 49 be c1 2f a4 3d
       -0.23307666 -0.03137991 -0.1967129 0.08016921
0000b0 09 d4 3f bd 2e 0a 8e 3e 74 82 fa 3d 64 d2 72 3e
       -0.04683307 0.2774214 0.12231913 0.2371307
0000c0 a0 1f 80 bd e3 5f 8a 3e 1b 77 d2 be 5a a0 fd 3d
       -0.06256032 0.2702628 -0.41106495 0.123841
0000d0 6c b4 90 3c 8c b8 37 3e a8 14 b8 3c 1f 9c 04 be
       0.017664157 0.17941493 0.022470787 -0.1295018
0000e0 3c e2 eb bd 78 41 28 3d 78 54 96 bd e3 5c 86 3d
       -0.1151776 0.04107806 -0.0734033 0.065606855
0000f0 41 ec c9 bc f3 da 9f be 5e 63 40 be ec 0c 1c 3d
       -0.024648787 -0.31221732 -0.18787906 0.03809826
000100 a0 0f 53 3e f2 08 cd 3d 3e 0a db 3d 11 56 c6 3e
       0.20611429 0.10011472 0.10695313 0.38737538
000110 19 39 90 3e 80 47 2b bc fa 9d 6f 3e fe 61 76 be
       0.28168562 -0.010454059 0.23400107 -0.24060819
000120 ad cd 21 be 58 04 ae 3c 4c 52 2a be 40 4f ce 3c
       -0.15801115 0.021242306 -0.16632956 0.025184274
000130 bb 34 26 3e 30 1f 19 3c ba 4a 24 be 5e d8 99 3d
       0.16231053 0.009345815 -0.16044131 0.07511972
000140 9e a0 28 3e 46 a3 de 3d ba 10 c6 be 8c 3a 7d bd
       0.1646752 0.10870986 -0.38684636 -0.061823413
000150 39 24 7c be 63 79 13 be f9 bc e6 3e 3d 51 11 be
       -0.24623193 -0.14401774 0.4506605 -0.14191146
000160 1c 07 ae bd c0 ad 05 bb 4a 03 38 3d b4 72 7f be
       -0.0849745 -0.0020397753 0.04492501 -0.249461
000170 ca 06 c5 ba 8c ef 85 3d 4a 4a 43 3e 6c a9 75 3d
       -0.001503193 0.065398306 0.19071308 0.059976026
000180 97 c2 07 3c 5c 19 c9 3e 67 99 f7 3c d6 26 87 3e
       0.00828614 0.3927716 0.030224515 0.26396817
000190 1c 76 21 bd bf 80 48 be ac 2a 9d 3e a2 49 bc bd
       -0.03941928 -0.19580363 0.3069662 -0.09193732
0001a0 53 f2 65 be 26 12 09 3e 7c cb 84 bd 00 65 0b 3d
       -0.2245572 0.1338583 -0.06484124 0.034031868
0001b0 20 22 c0 3e 97 8a 2e 3d ad d5 d5 bd 40 9d 1b 3d
       0.37526035 0.04261264 -0.10441146 0.037991762
0001c0 40 0f 22 bc ac 3f c3 be d5 ed ad bd 34 76 57 be
       -0.009891331 -0.38134515 -0.084926285 -0.21041185
0001d0 8a bf 82 be d7 c0 94 bd d8 b8 4e bd 55 88 86 3e
       -0.25536758 -0.07263344 -0.05046925 0.26275888
0001e0 33 05 1e be cc 34 22 3e 04 22 25 bc 00 68 eb 39
       -0.15431671 0.15840453 -0.010078911 0.0004490018
0001f0 40 f2 35 bd b8 e7 0f 3e 51 a4 1d bd e3 10 37 3e
       -0.04442048 0.14053237 -0.038486782 0.17877536
000200 e3 a8 66 3e 73 cd 02 3e 8d 1f 18 3e 7a c1 94 be
       0.22525363 0.12773685 0.14855786 -0.2905386
000210 31 d5 92 3d 88 20 ec 3b 28 5a 81 be 1a 90 50 3e
       0.07169569 0.0072060265 -0.25264096 0.2036747
000220 0a 93 71 3e e0 ba 33 3d d2 5a 32 3e 2e 5a 01 ba
       0.23591247 0.04387939 0.17417458 -0.00049343973
000230 5d ce 57 be 60 24 98 3c e9 e1 94 3e f6 fb 9c 3d
       -0.21074815 0.018572032 0.29078606 0.07665245
000240 52 0a 88 be 0d 1b 2b 3e 63 91 d7 3d 00 d1 5b 3b
       -0.26570374 0.16709538 0.10525777 0.0033541322
000250 57 39 96 be 48 17 e1 3c 08 c8 0d be 36 0b 2c 3e
       -0.29340622 0.027476922 -0.13845837 0.16801152
000260 5b 14 5d 3e 0c f8 60 bd e7 15 a2 bd 60 3a 11 3d
       0.21589796 -0.054924056 -0.07914334 0.03545606
000270 13 f2 0e be 0e 16 b9 3e 8e f9 8e 3e df 6d 11 be
       -0.13959531 0.3614964 0.2792477 -0.14202069
000280 80 bc cc bc 64 79 5b be 4e 2a 55 3e 29 f8 d0 bd
       -0.024992228 -0.21433026 0.20816919 -0.10203583
000290 8b 0e 50 3e a8 90 ae 3d b7 da de bd 62 9a ba bd
       0.20318048 0.08523685 -0.1088156 -0.091114774
0002a0 2d 73 fb 3d 5c b5 4d 3d 7e d7 ef bd e8 0d 19 bd
       0.122778274 0.050221786 -0.11711024 -0.037366778
0002b0 e0 13 80 be 88 15 f6 3d 61 8e 78 3c d5 8d 69 3e
       -0.25015163 0.120158255 0.0151706645 0.22808011
0002c0 d1 bf b8 bd 64 84 bc 3d 70 cf 89 bc d2 d0 b4 3d
       -0.09020961 0.09204939 -0.016822547 0.08828892
0002d0 74 ee f8 bd b8 1d 5e be 82 4a 85 3e 80 84 1f 3b
       -0.12154856 -0.21691024 0.26033407 0.002434045
0002e0 b7 a9 25 be 54 0b 5c 3e b3 41 89 bd c9 90 87 bb
       -0.16178022 0.21488696 -0.06701984 -0.004137133
0002f0 b4 df 0e be 90 a3 80 3c 30 5b a3 3c b4 13 b6 3e
       -0.13952523 0.015702993 0.019940943 0.35561907

conv1.bias f4 [32]
000000 c5 69 32 3e 4c 13 0e 3e 9a e2 b9 3e 36 57 80 3e
       0.1742316 0.13874549 0.36305696 0.25066537
000010 9c 43 dc bd 4d 84 c4 3c a1 42 02 bd cb 71 84 be
       -0.10755083 0.023988867 -0.031801824 -0.25868067
000020 96 e6 9f bd 1e d9 52 be e3 34 21 be 41 45 77 39
       -0.07807653 -0.20590636 -0.15742831 0.00023581555
000030 04 e5 12 be 53 b9 82 3e 65 5c 9e 3e 5e 42 65 3e
       -0.14345175 0.25532016 0.30929866 0.22388598
000040 32 41 d9 3d b5 fd 19 3e 3a a1 32 3b 92 c6 a4 bd
       0.10608138 0.15038188 0.0027256743 -0.08045687
000050 f8 00 27 be 2b 99 36 3a 90 d7 62 be 20 07 2e 3e
       -0.16308963 0.0006965573 -0.22152543 0.16994905
000060 26 37 ab bd 4a 82 c7 3d 0f 66 54 3e ec 72 cb 3d
       -0.08360128 0.097416475 0.20742057 0.09934029
000070 93 ce ac be 3c 29 c2 be 22 a8 01 be ab 50 59 3e
       -0.33751354 -0.37922084 -0.12661794 0.21222179

conv2.weight f4 [32, 32, 3]
000000 d6 96 fd 3d 4f 71 88 3c f0 8c 93 3d f2 64 62 bd
       0.12382285 0.016655592 0.07204616 -0.05527205
000010 66 8e 96 bd ad 96 fb bc f5 38 19 3d ab a8 ce 3c
       -0.07351379 -0.030711496 0.037407834 0.025226912
000020 07 03 6d bd d0 9e 19 bd 09 67 b6 3c 8c 96 54 bd
       -0.057864215 -0.03750497 0.022265928 -0.051901385
000030 76 83 97 3d 9c 64 3e 3a 3c 30 8c bc 8a 20 7f 3d
       0.07398121 0.0007262917 -0.017112844 0.06228689
000040 9d 3f 4c 3d dc d9 85 3b 28 b5 3d bd a1 4f a1 bd
       0.049865354 0.0040848088 -0.046315342 -0.07876516
000050 1f 80 f8 3c c7 7a 86 bd d1 1b 51 3d cc ad 89 bc
       0.03033453 -0.06566387 0.05105192 -0.016806506
000060 15 fd 7f bd 2e 51 c6 bb 4c 28 59 bd ca 4d fc 3c
       -0.062497217 -0.006052158 -0.053016946 0.030798811
000070 da 5f a8 bb f8 70 7e bc 9c 58 4d bd 9c 71 22 bd
       -0.0051383795 -0.015529864 -0.050133333 -0.039659128
000080 ff 00 af bd db 2a b7 bc f1 02 16 3d 74 9a a3 3c
       -0.08545112 -0.022359302 0.0366239 0.01997111
000090 26 19 be bb e7 34 cc 3c 97 10 44 3d da 9e f7 3d
       -0.005801338 0.02492757 0.047867384 0.120908454
0000a0 05 b8 f5 bc 45 fd 30 3d 22 01 fb 3b 88 92 32 3d
       -0.029994974 0.043210287 0.007660047 0.043596774
0000b0 31 f6 80 3d 31 4d 33 bd 4b b3 4f bd 88 85 d3 bc
       0.06296957 -0.043774787 -0.050708096 -0.025820509
0000c0 2b 98 95 3d 94 53 a6 3c c2 fd 76 bd d7 b5 3d bd
       0.07304414 0.020303525 -0.060300596 -0.046315994
0000d0 a0 5d c8 3d 10 f3 4b bb 52 7b 06 3d 87 d5 f6 3c
       0.097834826 -0.0031120218 0.03283245 0.030131115
0000e0 91 94 1d bd 0a 2b d5 b8 86 ef 9b 3d 28 c3 aa 3d
       -0.038471762 -0.00010164648 0.07614045 0.08338004
0000f0 0d d1 dc 3c 9c 45 bd bc a9 eb 79 3d 06 1d 1a bd
       0.026955152 -0.023104481 0.06101576 -0.037625335
000100 b1 3a 3f bd bd 1c a8 bd 3e 00 1e bd b8 91 28 bd
       -0.04668683 -0.082086064 -0.03857445 -0.041154593
000110 e4 74 2b 3d 7c fc 13 3d f5 79 96 3d 07 26 8f 3c
       0.041859522 0.03612946 0.0734748 0.017474188
000120 e0 1a 2a 3d 3e d8 94 3c 7a 66 31 3c 01 a4 7d 3c
       0.041529536 0.018169519 0.010827655 0.015480996
000130 90 ec 2f bd 4a f3 3b bd e5 db 4d bd 79 74 b5 bd
       -0.042950213 -0.045886315 -0.050258536 -0.08860106
000140 bb 87 de bc 9d f3 a1 bd 52 b4 ad bd d8 e6 81 bd
       -0.02716433 -0.07907794 -0.08481659 -0.06342858
000150 0e 81 28 3d a9 a7 f0 bc 37 99 cc 3c dc 8d 80 bd
       0.0411387 -0.029376822 0.024975402 -0.062770575
000160 62 1c 3c 3d 9d 82 c0 3c 6d 15 b6 3d df 76 8a 3c
       0.045925505 0.023499781 0.088908054 0.016902385
000170 1e e4 77 bd a1 49 35 3d 73 20 ce 3d 53 f4 e4 3c
       -0.060520284 0.04425967 0.10064783 0.027948534
000180 3b e7 be bc 94 21 e7 3c cb 3e e4 bc 54 8b 27 3c
       -0.023303619 0.028214253 -0.027861973 0.0102260895
000190 5a 84 76 bd 63 7f 42 3d 52 73 e1 bc 53 89 f0 bd
       -0.060184814 0.047484767 -0.02752081 -0.117449425
0001a0 0b 58 69 bd e3 20 db bc e6 92 b2 3b 03 d5 b3 3c
       -0.05696873 -0.02674908 0.0054496406 0.021952158
0001b0 38 17 07 bc 77 04 4c 3d 3f e1 ac bc a2 81 2c 3d
       -0.008245282 0.049808946 -0.0211035 0.042115815
0001c0 81 6d b8 3c fc 10 63 3c 8b ee 4b bc 28 e7 ea 3b
       0.022513153 0.01385903 -0.01244701 0.0071686693
0001d0 ef 0f 4f 3d 00 65 6b bd fb 73 4b bd 89 a0 38 bd
       0.050552305 -0.057469368 -0.049671154 -0.045074973
0001e0 6f 80 01 3d 47 b0 0b bd e4 60 f2 3b d7 16 2f bd
       0.031616624 -0.034103658 0.007396804 -0.04274639
0001f0 54 af 87 bd c7 85 40 bd 93 46 38 bc 58 83 d2 bc
       -0.06625238 -0.04700258 -0.011247295 -0.025697395
000200 0a e6 48 bc 85 ec b7 3c c1 d1 0c 3d 2d 31 f7 3c
       -0.012261877 0.022451648 0.034379724 0.030174816
000210 e0 16 30 bd 6e f4 62 3b 47 e2 7f bd 71 e5 86 3d
       -0.042990565 0.0034630555 -0.062471654 0.06586731
000220 80 39 5f bc 00 7c 13 bd e6 0b 07 3d de c9 32 3c
       -0.013624549 -0.036006927 0.03297033 0.010912387
000230 1f 86 65 bd 6b f5 b6 bd 8e 0e 29 bd c6 d4 20 bd
       -0.05603611 -0.089335285 -0.041273646 -0.039265417
000240 99 4b 81 3d 06 d3 31 b9 1a a5 4b 3d 44 89 53 bd
       0.06313247 -0.00016958648 0.049718 -0.05164458
000250 82 8d b3 3d 5a 59 53 3d 16 d5 84 3d 75 dc 2d 3c
       0.08767225 0.051598884 0.064859554 0.010611643
000260 83 a0 82 3c a0 7b 21 bd be 22 9a bc c9 f2 ae bd
       0.015945679 -0.03942454 -0.018815394 -0.08542401
000270 a9 dc 88 bd 83 0d 88 bc 8d 7a 4a bc fa 6b b1 ba
       -0.066827126 -0.016608005 -0.01235832 -0.0013536208
000280 74 37 86 bd 9f 9b 6b bd 5d 97 2e bc 8d 5f 89 3d
       -0.065535456 -0.05752146 -0.010656205 0.06707678
000290 bf 6a 6d bd 7d 9e df 3c d3 6c d3 3c 98 bd 5a 3d
       -0.05796313 0.027297253 0.025808727 0.053403467
0002a0 e7 fa 88 bc 41 19 4c 3d ca 98 04 3d 86 72 14 3d
       -0.016721202 0.04982877 0.032372274 0.03624203
0002b0 3e 28 92 bd 38 88 c8 3b 45 cb 0c 3d ff d2 a6 bb
       -0.07136582 0.006119754 0.03437354 -0.0050910707
0002c0 d0 55 63 bd 8e da 61 bc 33 c5 83 3d 2d 87 70 bc
       -0.05550176 -0.013785018 0.06434097 -0.014680666
0002d0 b3 0c 86 bb be e2 27 bc 9e 15 02 3d a3 21 87 3c
       -0.0040908693 -0.010246931 0.031758897 0.016495531
0002e0 bd 92 42 bc 34 c1 30 3c a2 7d 4d 3d ea 57 f1 3c
       -0.011875805 0.010788251 0.05016864 0.029460866
0002f0 3e e0 aa 3d 44 c1 fc 3b 2c 8e 59 3c 39 64 19 3d
       0.08343552 0.0077134687 0.013278525 0.037449095
000300 19 3b e3 bd ab 50 3e bb 28 35 9d 3d d8 3d 13 bd
       -0.11095256 -0.002903978 0.076761544 -0.03594765
000310 3f 1e c8 3c 85 bc cb 3c 90 dc ba bd 42 9b 04 bc
       0.024428485 0.024870167 -0.091241 -0.008093657
000320 00 af 9b 3d 3c 84 73 bc c0 6f a5 bc b5 c9 ae 3d
       0.07601738 -0.01486307 -0.020194888 0.08534566
000330 33 72 fe bb c8 32 33 3d 43 51 2e bd 0f 8a 5f bd
       -0.0077650785 0.0437496 -0.042557966 -0.054575022
000340 b9 84 a9 3d 50 06 a4 3d 41 fb be bc e9 28 2f 3d
       0.08277268 0.080090165 -0.023313167 0.042763624
000350 4d e3 8f 3c 87 bb 48 3d cb ba 97 3d 64 5f aa 3d
       0.01756444 0.049006965 0.07408675 0.083189756
000360 f7 83 aa 3d a8 63 ad 3d f3 35 25 3d 8b 4c e9 bc
       0.083259515 0.084662735 0.040334653 -0.028478881
000370 18 a6 65 3d b6 a0 2c bd c3 28 a6 bd ee 91 d8 bd
       0.056066602 -0.042145453 -0.081132434 -0.10574709
000380 aa 2d 4e bc 82 58 29 bc 32 a3 cf 3d e8 47 45 bb
       -0.012584129 -0.010336043 0.10138549 -0.0030102674
000390 1e 30 ad 3d 1c 03 7c 3c a2 83 83 bd 11 1c 21 bd
       0.08456443 0.015381601 -0.06421591 -0.039333407
0003a0 72 91 d9 3d a9 dc b4 bc a2 5f b1 bd bb e8 5d 3d
       0.106234446 -0.022077875 -0.08660819 0.054177027
0003b0 96 f6 f3 3d ed 5e a9 3b 3a c1 70 bd 80 f0 94 bc
       0.11912267 0.0051687867 -0.058778025 -0.018181086
0003c0 91 bf e7 3d 5a 88 fa bc d8 81 bb 3d 36 e5 54 3d
       0.11315835 -0.030582596 0.09155625 0.051976405
0003d0 d3 1f 80 3d b5 88 f4 3b fc 52 0d 3c 9c fc 9b 3c
       0.0625607 0.007462586 0.008625742 0.019041352
0003e0 bc ad 64 bd 36 21 5c bc fd 3e 8b bc 4e 08 39 3d
       -0.05582975 -0.0134356525 -0.016997809 0.045173936
0003f0 55 0e 68 3c 94 b2 1a bd 7f f3 96 bd f2 9c 37 3d
       0.014163573 -0.03776796 -0.07370662 0.04482741

conv2.bias f4 [32]
000000 b9 11 d6 3d 18 74 cb 3c 3e 9f 32 3d a0 21 01 3e
       0.10452599 0.024835631 0.043608896 0.12610483
000010 dd a0 b5 bc fd ac e0 3d 70 a0 a5 bd 4c ec b9 3d
       -0.022171432 0.10970495 -0.08087242 0.09078273
000020 6a 91 1e 3d de 96 b6 bd a6 21 78 3c bd 81 f9 3c
       0.038712896 -0.089154944 0.015144741 0.030457372
000030 bf 3a ca bc 5a 24 82 3d 72 80 07 3d e8 95 59 3e
       -0.024686215 0.0635459 0.03308148 0.21248591
000040 50 91 86 3c eb 5e 65 bd e1 50 35 ba 3b 2f 76 3d
       0.016426712 -0.055998724 -0.0006916654 0.060103636
000050 08 2a 6b bd 02 79 54 be a6 f9 e8 bd 4b f0 91 bd
       -0.05741313 -0.20749286 -0.11375742 -0.0712591
000060 06 c7 fb 3d 43 9f 44 bd 69 7c bf 3d 93 7a f3 3c
       0.1229382 -0.048003446 0.09349901 0.029721534
000070 7f 65 fc bd 9d 11 0d 3e 65 d6 ac 3d 7d 58 c5 3c
       -0.12324046 0.1377625 0.0843933 0.024090046

conv3.weight f4 [32, 32, 3]
000000 ca 9e fe 3b 6e 9e 64 bd 79 38 58 3c 5c f0 8e bd
       0.007770394 -0.055815153 0.013197058 -0.06979439
000010 19 af f1 3c b8 51 b1 bd 17 b6 8a bd 89 b1 85 bd
       0.029502438 -0.08658165 -0.06773012 -0.06528003
000020 a1 0a e7 bc f1 75 a2 3d be cd 01 3d 28 bc 78 3d
       -0.02820331 0.07932652 0.03169035 0.060726315
000030 94 86 4f 3d 25 30 af 3c 15 ea 54 bd 16 53 be 3c
       0.050665453 0.021385262 -0.05198105 0.023232978
000040 ed c0 c1 bd 85 6e 3a bb ae 53 a5 3d 48 8f 1a 3d
       -0.09460626 -0.0028447222 0.08072601 0.0377343
000050 22 75 65 3d bd 93 90 bb 90 04 a7 bc e7 f9 96 3d
       0.05601991 -0.004412143 -0.020387918 0.07371884
000060 98 64 bb bd cf 40 fa 3c 1e 13 98 3c a3 7a b4 bc
       -0.09150046 0.030548481 0.018563803 -0.022031134
000070 00 7c 79 bd 79 0f 92 3d 7d 42 63 3c eb 62 ca 3b
       -0.06090927 0.071318574 0.0138708325 0.0061763427
000080 2f 06 d5 bd 23 8f 73 3d c0 1e c6 bc 1b 7b a1 b9
       -0.1040157 0.059462678 -0.024184585 -0.00030800034
000090 ac 3a 91 bb 39 28 1d 3d 02 73 f9 ba b8 56 e6 3c
       -0.004432043 0.038368437 -0.0019031467 0.028117523
0000a0 a4 b1 74 bd 7d a6 61 3d 51 8f 1f bd 36 c4 9a 3c
       -0.059739724 0.055090416 -0.038955037 0.018892389
0000b0 ad c5 ae bc eb 70 b3 bb e3 22 ac bb e2 26 40 bc
       -0.021334494 -0.0054761074 -0.0052531823 -0.01172802
0000c0 a1 8f 6f 3d 49 2e 61 bc be 52 ae 3d 79 eb 4f 3c
       0.058486585 -0.013743945 0.085118756 0.012690418
0000d0 14 5b 01 bd 3c e6 28 bd b1 ce 09 3a 1f 23 61 bb
       -0.031581 -0.041235194 0.00052569347 -0.003435321
0000e0 72 91 80 ba d6 62 95 3c f2 40 27 bd 65 5e 4d 3c
       -0.0009808971 0.018235605 -0.04083342 0.012534712
0000f0 72 0f 21 3c 4c 0c 9e 3d c6 68 f3 3c cb d5 42 bd
       0.009830343 0.07717189 0.029713046 -0.04756717
000100 e3 39 31 bc 9e 3f e4 3c b2 4f 89 3d f7 99 54 bd
       -0.010817024 0.027862366 0.06704654 -0.051904645
000110 69 28 b4 bc 5a e3 4b bc b7 cc ea 3c 1b 3a 42 3d
       -0.021991925 -0.012444342 0.028662069 0.047418695
000120 8a 0e c6 bb ad 0c 96 3d cf a5 ea 3d ff 55 66 bd
       -0.0060442137 0.073266365 0.11457407 -0.056234356
000130 65 94 05 bd e7 dd 2d bb dc fa 2e 3d 4a c9 fc 3a
       -0.032612223 -0.002652997 0.042719707 0.0019286063
000140 39 10 9a bc d4 2e 67 3d bc 93 86 3d 4d 33 14 bc
       -0.018806564 0.056441143 0.06571147 -0.009045434
000150 0a 52 36 bd 8e e1 69 3c 23 d8 a5 3d 23 f8 83 bc
       -0.044511832 0.014274968 0.080978654 -0.016109532
000160 bb e0 00 bb ea cd a0 3c fc 09 ac bb 86 94 86 3d
       -0.00196652 0.019629437 -0.0052502137 0.06571297
000170 cf 24 8a 3d 8c 0f 05 bd 7b ab 12 3a 20 d6 d4 bc
       0.06745302 -0.03248553 0.00055950106 -0.025981009
000180 50 00 82 bb 1a eb 32 bd fa ab 0b 3d e3 35 80 3c
       -0.0039673224 -0.04368124 0.034099557 0.015650695
000190 f6 0b d5 bc 2d 28 8b bd 6f c2 1c 3d 67 05 9f 3c
       -0.02600668 -0.06794772 0.038271364 0.019411756
0001a0 5d 59 49 bd 66 dc 3a bc 08 8f f8 bc d8 3c 11 bd
       -0.04915749 -0.011405086 -0.03034164 -0.035458416
0001b0 10 8a 5d bd d7 90 16 3d a0 a4 a7 bc b6 36 15 3d
       -0.054086745 0.036759224 -0.020464242 0.03642913
0001c0 33 95 51 bd 20 64 85 bd ca ac d9 bb 97 de ee 3b
       -0.051167678 -0.06513238 -0.0066429125 0.0072897184
0001d0 a9 a5 81 bd fd 99 e2 bd 7d de 00 bd a0 45 21 bc
       -0.06330425 -0.11064527 -0.03146218 -0.00984326
0001e0 ff 49 c6 bd 9e 1a 24 bd dc a5 8d bd 1a 48 14 3c
       -0.096820824 -0.040064447 -0.06916401 0.0090503935
0001f0 e2 c8 3b bc d0 33 b2 bb 3f 31 f5 bc d8 6e 56 3c
       -0.011461468 -0.0054383054 -0.029930709 0.013087951
000200 2d e7 39 bd 13 95 41 3d 69 18 6d bd 05 92 23 3d
       -0.045386482 0.04726131 -0.057884607 0.039934177
000210 45 6c ee bc 42 d0 c7 bd 79 ff 6c bd 43 7f 0c 3e
       -0.029104361 -0.09756519 -0.057860825 0.13720421
000220 89 64 58 3d 95 90 b9 bd 5a d9 66 bd ac fa af bd
       0.052830253 -0.0906078 -0.056359626 -0.08592734
000230 3c b5 7c bd b3 82 74 bd 5a 54 dd bd 21 f9 82 bc
       -0.061696276 -0.059694957 -0.108071044 -0.015987935
000240 79 e4 98 3c f5 a6 96 bd 50 41 8f 3c e3 09 8d bd
       0.018663632 -0.07356063 0.017487198 -0.06886651
000250 66 03 26 3d 82 7a 64 bc 9f 07 0f bd 58 88 d1 b9
       0.040530585 -0.013945224 -0.034919377 -0.0003996517
000260 8b 97 d1 bb c4 fe a4 bc f0 f7 39 bd bb a6 d6 3c
       -0.006396239 -0.020141013 -0.045402467 0.02620255
000270 df cf 0a 3d e2 58 5c 3d ea 2a 0c bb 4c 9b 99 bd
       0.033889648 0.053795703 -0.0021387883 -0.07500324
000280 28 be 3a 3d 5b 59 4c bd 79 72 b8 3c a3 36 ad bd
       0.045591503 -0.049889904 0.022515522 -0.08457687
000290 d8 94 ae 3c a7 bb 85 3c 90 68 70 ba e3 ac c9 bc
       0.021311209 0.016324831 -0.00091708545 -0.024618572
0002a0 d7 82 d6 3a 96 9a 01 3d 1e 6d a7 bd 44 c6 e8 3b
       0.0016365898 0.031641565 -0.08175109 0.007103713
0002b0 06 2e 27 bd dd 2a db bc a7 a8 1e 3d 55 d0 0e 3d
       -0.040815376 -0.026753837 0.03873506 0.03486665
0002c0 cd d2 9c 3c 3f 10 38 3d a1 06 fd bc f1 bf 48 3c
       0.019143486 0.04493737 -0.03088695 0.012252794
0002d0 8a f3 02 bd 30 97 85 bc d6 28 8f bd 4a 4e 04 3d
       -0.03197054 -0.016307443 -0.06990211 0.032301225
0002e0 7b c3 eb bc b5 4d de bd 84 b6 aa 3c 07 a8 8a 3d
       -0.028779736 -0.10854665 0.020838983 0.0677033
0002f0 4d 40 2d 3a eb c5 22 bd 38 7c 86 bd 13 e6 0f 3d
       0.0006609008 -0.03973953 -0.065666616 0.035131525
000300 ce 7c 58 bb 5f b9 13 3d 9f 27 0b 3d 6a eb 14 bd
       -0.0033033374 0.036065456 0.033973332 -0.03635732
000310 df 36 53 bb 93 0a e0 bc 5c eb db bb d4 af 2a bd
       -0.003222875 -0.027348792 -0.0067114066 -0.04167159
000320 35 58 8f bd d8 1f 78 bd 64 c1 99 3c 3f eb 94 bd
       -0.06999246 -0.060577244 0.018768974 -0.07271432
000330 8f a7 48 bd 7d 41 72 bd f7 a4 d1 bd 39 0b 1e bd
       -0.04898792 -0.059144486 -0.10236543 -0.03858492
000340 9c 68 a5 bc c7 6a 2f bd c7 46 38 3d d8 4b 64 bd
       -0.020191483 -0.04282644 0.044989374 -0.055736393
000350 d8 cc a5 bd 7a de bb bd 79 b5 3e bc 12 3d 1c 3b
       -0.080957115 -0.091732934 -0.011639946 0.0023840112
000360 87 fb d1 bd 3f d6 0f 3d 47 b6 91 3c ed 82 81 bd
       -0.10253053 0.03511643 0.017787112 -0.063238
000370 41 af d9 bb 20 68 96 3b ad e1 8c 3d 76 58 c2 bc
       -0.0066432063 0.0045900494 0.06878982 -0.023723822
000380 f9 91 03 bd 66 59 25 bd d4 17 70 bd 27 5b 39 bd
       -0.032121632 -0.04036846 -0.058616474 -0.045252945
000390 44 2d 4b bd 4c c1 a6 bc f0 e4 56 bd 24 4c ec 3c
       -0.049603716 -0.020355843 -0.052464426 0.0288449
0003a0 fb f3 fe 3c 80 86 85 3d c8 16 03 bd ad 0a f4 bc
       0.031122198 0.065197945 -0.032004148 -0.029790247
0003b0 88 80 06 3c 72 8e 81 bd 54 29 c0 bd a8 9a e7 39
       0.008209355 -0.063259974 -0.09382883 0.0004417498
0003c0 d0 7b 97 bd a0 36 ee 3c 3e 52 b3 3c d3 3a 0e bd
       -0.07396662 0.029078782 0.021889802 -0.034724068
0003d0 da 70 9c bc 75 61 90 3c b5 84 90 bc 82 bd 59 bd
       -0.01909678 0.017624596 -0.017641405 -0.053159244
0003e0 3a ef 0f bd dd 8e 2b bd 94 68 a9 bd ab dd 78 bd
       -0.035140254 -0.041884292 -0.082719 -0.060758274
0003f0 33 32 ac bd 5f c4 3b 3d e0 69 b3 bd dc 1d 7c bc
       -0.08408012 0.04584157 -0.087604284 -0.015387978

conv3.bias f4 [32]
000000 14 94 15 bd 23 2c 3b 3c 10 8a ea 3d fd c8 41 3d
       -0.03651817 0.011424097 0.114521146 0.047310818
000010 7e 71 1f bd 61 0f f6 bc 74 06 d9 3c dd e5 28 bd
       -0.038926594 -0.03003663 0.026492335 -0.04123484
000020 9d 25 91 bc ac eb b5 3d 09 b0 83 3b 68 af ad ba
       -0.01771813 0.088828415 0.0040187878 -0.0013251128
000030 24 a1 f3 3c eb 17 08 bd 19 4b 38 bd 15 7a 98 3a
       0.029739924 -0.033225935 -0.044993494 0.0011633063
000040 56 e3 2a bd 8b 6b e4 3c 78 eb 73 bd 8e 48 4b 3d
       -0.04172071 0.027883312 -0.059550732 0.04962974
000050 99 d2 c7 bc a6 0c 86 bd b0 01 1c bd c5 4f be 3c
       -0.024392413 -0.06545381 -0.038087547 0.023231396
000060 d0 7c 6f 3c 04 aa aa 3d f2 85 32 bd b1 c3 a0 bd
       0.01461716 0.08333209 -0.04358477 -0.07849825
000070 f0 39 3b bd 7e a9 1c bd 28 93 eb 3c c1 05 ea 3c
       -0.04570955 -0.038247578 0.028756693 0.028567197

conv4.weight f4 [32, 32, 3]
000000 d2 c9 80 3d 14 23 3d 3d 1e 2f 16 3d 0f 3a 2f bc
       0.06288494 0.04617603 0.03666603 -0.010694995
000010 5f 5a c5 3c b9 7c e0 bc 12 90 9a ba c6 d0 25 bc
       0.024090944 -0.027403222 -0.0011792204 -0.010120576
000020 cd c4 ef 3c 24 b6 d0 bd dc d0 19 3b 56 81 bb 3c
       0.029268647 -0.101909906 0.0023470437 0.02288882
000030 50 b1 02 3e 03 a3 65 bc d1 15 00 bc 47 5c 79 bd
       0.12762952 -0.014015916 -0.007817701 -0.06087902
000040 e9 14 e4 bc 94 84 16 3c f3 6d b5 bd e9 20 9a 3d
       -0.027842002 0.0091868825 -0.08858862 0.07525808
000050 e4 af f5 bb a3 74 8f bd 7f 89 f7 3b cf e8 f1 bc
       -0.0074977744 -0.070046686 0.0075542326 -0.029529957
000060 9b 2e 0e 3c 47 74 6a 3d b7 ac 97 bd af 2e 03 b8
       0.008678104 0.057239797 -0.074059896 -3.127631e-05
000070 95 15 6f 3d 32 7a 6a bd 68 13 4b 3c 63 c1 5e 3c
       0.05837019 -0.05724544 0.0123947635 0.013595912
000080 05 ef 1e bc 69 95 6b bd 11 e9 ea bc ef d4 78 3d
       -0.009700541 -0.057515536 -0.028675588 0.060749944
000090 62 77 cb 3c 6a 8e 91 ba 44 7f 54 3d 47 a1 3e bd
       0.0248372 -0.0011105065 0.051879182 -0.046540525
0000a0 06 8e 80 3b af d6 a6 bc dc e9 be bd 35 36 33 bd
       0.0039231805 -0.020366041 -0.09321949 -0.043752868
0000b0 f9 87 19 bd ed 23 e4 3d 10 8e ee b9 ee b4 e1 3d
       -0.03748319 0.11139665 -0.00045500742 0.11020838
0000c0 0a f8 fc 3b 22 b6 03 bc cb ec 63 3c fd 5b 03 bd
       0.0077199982 -0.008039029 0.013911436 -0.03207015
0000d0 c8 58 ab bd 41 88 0b bd 74 95 34 3d bd 07 7f bc
       -0.08366543 -0.03406549 0.044087842 -0.01556581
0000e0 f8 5b 98 3c dd 04 6b 3d 68 d9 b0 bc 0d d1 8a bc
       0.018598542 0.057377685 -0.021588042 -0.016945386
0000f0 e1 08 f0 bc 7b f4 22 3a 34 a4 a4 3c 02 03 0b bc
       -0.029301109 0.000621624 0.02009783 -0.008484604
000100 0c 96 e9 bc 88 8a bd ba 60 68 25 3d d8 ed 90 3d
       -0.02851393 -0.0014460841 0.040382743 0.07076615
000110 aa f1 5b 3d de 43 e8 bd 5b db 91 3d b9 df a4 bb
       0.053697266 -0.1134107 0.07121917 -0.0050315526
000120 71 4f b2 3c 52 2e 94 bd 2d be a5 bc 8c f4 50 3c
       0.021766396 -0.072353974 -0.020232284 0.012753617
000130 41 8d 08 3d 92 11 a3 3c 63 43 f8 3d 21 da 4f bc
       0.033337835 0.01990584 0.12122228 -0.012686283
000140 8f f2 88 bd b9 97 e2 bc ae 6d 61 3b 2b 88 9e bc
       -0.066868894 -0.027660238 0.003439765 -0.01935204
000150 c0 07 79 3d 63 cf dd 3c 25 29 17 3d ca ca f3 3c
       0.060798407 0.027076429 0.036904473 0.029759783
000160 f2 90 01 be 3b 6e 80 3d 30 4d 02 be 2d a7 cf 3d
       -0.12652948 0.06271025 -0.12724757 0.10139308
000170 38 94 a4 bc 25 4f ca bc 03 69 29 3c ed 79 6b bb
       -0.020090207 -0.024695942 0.010339978 -0.0035930828
000180 0c 62 e5 bc b3 61 c3 bd f4 ca fa bc 42 54 da 3c
       -0.028000854 -0.09540119 -0.030614354 0.026651505
000190 e6 3a 90 b8 66 21 ab 3c e3 7f 04 3d c4 b5 4b 3d
       -6.877426e-05 0.020889949 0.032348525 0.049733892
0001a0 ad 67 4b bd b4 f3 97 3d 6c 15 3c bd 34 13 c9 bd
       -0.04965942 0.074195296 -0.045918867 -0.09818116
0001b0 c1 bd 49 bb da a0 40 3d cf 91 48 bd 5d a1 60 3a
       -0.0030783268 0.0470284 -0.04896718 0.0008568967
0001c0 04 f5 e4 3c aa 5f cb bc 37 cd 47 3d 7a 45 a9 bd
       0.027948864 -0.02482589 0.048779693 -0.08265205
0001d0 be 54 61 3c 72 3d 8e 3d 2d 4d c6 3b dd e4 82 3d
       0.013753114 0.069453135 0.0060516805 0.063913085
0001e0 33 83 87 bc 7f 25 94 bd 8b f9 c4 3c 51 57 d2 3d
       -0.016542053 -0.07233714 0.024044773 0.102705605
0001f0 a8 33 89 3d a7 28 14 3d 30 a0 4a 3d 72 2b 82 3d
       0.06699306 0.03617158 0.049469173 0.06355943
000200 43 2f 84 bc d2 64 35 3d bc 28 20 3d b4 0a 58 3d
       -0.016135817 0.044285603 0.039101347 0.052744582
000210 4a 6a 97 3c 53 86 4f 3d cd a6 80 3b 85 06 e3 3d
       0.0184833 0.05066521 0.003926134 0.11085228
000220 91 1c 15 bd 3b 46 80 bd 1b 95 1a 3d 46 00 bd bd
       -0.036404196 -0.062633954 0.037739854 -0.09228568
000230 a0 22 ca 3c 35 42 bd 3d e6 b4 aa 3b a2 67 79 bc
       0.024674714 0.092411436 0.005209553 -0.015222462
000240 7e 61 92 bd 7d 6c 0f bd 9b fa ff 3c 68 2d f8 3c
       -0.071475014 -0.03501557 0.031247428 0.030295089
000250 aa 98 36 3d f5 b5 b6 3d a7 aa 2a bb 58 71 19 3c
       0.044579186 0.08921424 -0.0026041658 0.009365402
000260 09 f8 82 3d 42 df a4 3c 6c 26 57 3b ba aa 7f 3c
       0.06394965 0.020125989 0.0032829298 0.015604669
000270 97 65 36 3d 81 e3 20 bd 66 3f 9a 3a bc f9 4b 3c
       0.044530477 -0.039279465 0.0011768162 0.012449678
000280 7e 45 ae bb 28 e6 85 3d 0f 2c 52 3d 22 01 37 3c
       -0.0053183427 0.065380394 0.05131155 0.011169704
000290 5e 47 43 bd 90 1d 6c bc 48 d8 1a 3d 40 cb f6 3c
       -0.047675483 -0.014411345 0.037803918 0.030126214
0002a0 dc 80 f6 3b 09 05 a0 39 f0 90 05 bd 87 18 aa 3b
       0.0075226855 0.0003052133 -0.032608926 0.005190912
0002b0 02 44 95 3d 5d 6a 16 bd 23 e3 ea 3d 3b 42 ea 3b
       0.07288362 -0.03672253 0.11469104 0.0071490086
0002c0 df 05 71 bd ec 45 07 3c 0e 32 9f bc 89 f0 19 bd
       -0.05884349 0.008256417 -0.019433048 -0.037582908
0002d0 f3 60 18 bd 35 f0 a6 bc 9e 86 8d bd 09 69 20 bc
       -0.037201833 -0.020378212 -0.06910442 -0.009790667
0002e0 7a f4 ff 3d 8e 1d 3a bb 93 e3 66 3b d7 14 32 3d
       0.12497802 -0.0028398964 0.003523086 0.043476906
0002f0 4e 82 29 3d 3e 93 d1 3c f3 d5 fd 3b 27 9f 9b 3d
       0.041384034 0.025582906 0.007746452 0.07598715
000300 94 b4 5a bd 2c 26 a9 3d 76 9e e5 3c b6 02 82 3d
       -0.05339487 0.08259234 0.028029662 0.06348173
000310 56 3c a7 3c d1 ac c2 bd e2 f6 54 3d 0b 3b 1f bd
       0.020414513 -0.09505618 0.05199326 -0.038874667
000320 f2 23 17 bd 03 1a e8 bc ce 3f 75 bc a9 d9 e0 bb
       -0.036899514 -0.028332716 -0.0149688255 -0.0068618846
000330 fe 00 42 be fe 25 9c 3b eb 54 73 bc 21 b6 91 bd
       -0.18945691 0.004765271 -0.014851789 -0.071148165
000340 5a d1 92 3d 7c 2f fa 3d 81 b4 f8 3c 9b f3 af bc
       0.07168837 0.12216088 0.030359508 -0.021478465
000350 f0 c1 27 3d 69 28 4f 3b 7f 13 fb bc f8 8e 1c bc
       0.040956438 0.003160978 -0.030648945 -0.009555571
000360 25 eb 54 3d e3 81 bd 3c f9 4c 96 ba d9 34 5f 3d
       0.051982064 0.023133224 -0.0011467031 0.05449376
000370 b8 d5 fb 39 98 02 95 bd dc fe ba ba bd 51 08 bc
       0.00048033684 -0.07275885 -0.0014266628 -0.008320269
000380 8f 13 50 bd 07 78 b6 3d 9f 37 75 bd 0e 56 86 3b
       -0.050799903 0.08909612 -0.059867498 0.004099614
000390 85 e0 14 bd 5a b0 d3 3c 7e 45 f6 39 27 9c a6 bc
       -0.03634693 0.025840927 0.00046972552 -0.020338131
0003a0 3f b9 ea 3c ac aa 8c bd bb 17 24 bd b8 e2 d6 bc
       0.028652785 -0.068684906 -0.040061694 -0.026231155
0003b0 64 78 a6 3c 01 51 5c bd 4d df 6e bc 26 cd 2b 3d
       0.020321079 -0.05378819 -0.014579606 0.04194369
0003c0 68 12 ef bd 19 a5 7b bd 97 99 30 bd f1 b1 e0 bd
       -0.116734326 -0.061436746 -0.043115225 -0.1097144
0003d0 12 d5 b4 3c 2d 87 32 3c 79 ef c7 bc 03 6b c4 bc
       0.022074256 0.010896486 -0.024406182 -0.023976808
0003e0 5e b6 30 3e 93 6e e3 3c 30 95 65 bd 49 4f 01 bc
       0.17257068 0.027762687 -0.05605048 -0.007892438
0003f0 04 f3 bb bd 80 fc 60 bd e3 c7 73 3c 2a e1 1e bd
       -0.09177211 -0.054928303 0.0148792 -0.038788952

conv4.bias f4 [32]
000000 6b 5e d9 bb 46 05 9a 3d f1 6e 91 bd 9c b5 d4 bd
       -0.00663357 0.07520537 -0.071012385 -0.10386202
000010 ff 36 15 be d4 00 b5 3b 9a 24 80 bd c7 3e 56 bc
       -0.1457176 0.0055237804 -0.06256981 -0.013076491
000020 69 b5 ed ba b7 8c cb bc 83 86 85 bd a3 68 b7 bc
       -0.001813573 -0.024847372 -0.06519797 -0.022388762
000030 b3 b5 64 bc 9d 4e a3 3b 43 c5 30 be b8 16 34 bd
       -0.013959336 0.0049837367 -0.1726275 -0.04396698
000040 dc 3b 74 3d 06 6c ae bd fd b3 76 bd a2 d1 24 bd
       0.0596274 -0.085166976 -0.060230244 -0.040238984
000050 d2 4b d1 3c a2 f1 60 3c df d7 e4 bd 82 96 87 bc
       0.02554885 0.013729485 -0.11173987 -0.01655126
000060 ee 2d 76 3c 22 51 a3 bd 49 f1 e8 bd 38 77 90 bd
       0.015025599 -0.07974459 -0.113741465 -0.07053989
000070 33 75 83 bc 92 87 4b bd fb 93 22 3b 1f 37 8d 3d
       -0.016047096 -0.049689837 0.0024807442 0.06895279

conv5.weight f4 [32, 32, 3]
000000 7e fd e1 bd 27 c3 91 bd 75 25 2a bd e4 17 b5 bc
       -0.11034678 -0.071173005 -0.041539628 -0.022106119
000010 ea 18 06 3c ef 5a e2 3c b0 02 ce bd ac d8 d8 bd
       0.008184651 0.027631251 -0.10059106 -0.10588202
000020 a4 32 94 bb b7 2e 71 bd 3e 70 1b bd bb 93 0d 3c
       -0.0045226384 -0.05888244 -0.03794884 0.008641179
000030 9b f8 39 bd f6 f8 9a bc 1d e1 38 3d 6c f5 12 3d
       -0.045403104 -0.018917542 0.04513656 0.035878584
000040 2b 81 99 bd f2 c6 81 3d 25 68 94 bd a2 fe 67 3d
       -0.0749534 0.06336774 -0.072464265 0.05663932
000050 82 a4 f4 bc 5c bb 04 bd 8a fc 47 bd 2c 7e 4d bd
       -0.0298636 -0.032405242 -0.048824824 -0.050169155
000060 02 12 54 bc 59 c6 ab bc 4b 55 66 3c ea ec 05 bd
       -0.0129437465 -0.020968603 0.014058421 -0.032696642
000070 bc e9 14 bd 3c d0 20 bd ba f3 a7 bc ec 5d b3 bd
       -0.03635572 -0.039261088 -0.02050196 -0.087581486
000080 5a 63 50 3d 77 2b 6c bd 53 e4 80 3d b1 5c 2f bd
       0.050876 -0.05765864 0.062935494 -0.042813007
000090 bc b9 82 3c 8f b0 fb bc e6 ec b9 bd f3 3e 87 3b
       0.015957706 -0.030723838 -0.09078388 0.004127377
0000a0 39 c2 4e bd 34 99 05 3c 67 cd b9 bd 46 ae e1 bc
       -0.050478194 0.008154202 -0.090723805 -0.02754892
0000b0 6b e6 06 bd a4 92 6a bc 09 d5 b4 bd 48 4c 68 3d
       -0.032934587 -0.014317188 -0.08829696 0.056713372
0000c0 b9 07 c3 3a 2f aa 59 bd 09 e4 9b 3c 25 b7 44 bd
       0.0014879621 -0.053140815 0.019029634 -0.048026223
0000d0 09 7a ba 3c b6 da 4d 3d 21 91 7a bd d3 fa 76 bd
       0.022763269 0.050257407 -0.061173562 -0.0602978
0000e0 7e 2b c3 bd 8f 85 2c bc 69 6b 37 bd 6d e5 a9 bc
       -0.0952978 -0.01052989 -0.04478017 -0.020739282
0000f0 8d ff d2 bc 4c a1 2e 3d 17 50 83 3c 20 74 e0 bc
       -0.025756622 0.042634293 0.0160294 -0.027399123
000100 57 ba 90 bc 32 42 3e 3c f1 c5 3b bd cb e1 d5 bd
       -0.017666979 0.011612462 -0.04584307 -0.10443457
000110 d9 d3 3b be 3f 5e 4b bd 6c 60 e9 bd 28 de ab bd
       -0.18342532 -0.049650427 -0.11395344 -0.08391982
000120 61 92 73 3d 0a 45 a7 bc 16 15 89 3c 46 d9 bf 3c
       0.05946577 -0.020418663 0.016733687 0.023419034
000130 5e 44 85 bc 8b b2 96 bd 21 85 bc 3c 7c cc ed 3c
       -0.016267952 -0.07358273 0.0230127 0.02902817
000140 50 30 72 3d 1e c2 c7 bc 69 2e 1e bd 50 43 16 bc
       0.059128106 -0.024384554 -0.03861848 -0.009171322
000150 59 82 b9 bd 1c 14 43 bd f1 dd 85 bd 1d 33 29 3d
       -0.09058065 -0.0476266 -0.065364726 0.04130851
000160 4a 6e 26 bd 7a a6 54 bd f7 5e d4 bd 1e 1f 75 3c
       -0.040632524 -0.051916577 -0.103696756 0.014961032
000170 07 64 08 bd b9 d7 ef bb 4a 58 4c bc 4b e7 e3 bb
       -0.03329852 -0.0073194173 -0.012472222 -0.0069550625
000180 1b e5 b0 3c 33 93 50 3d 14 9b da bc 2f 20 68 bc
       0.021593621 0.05092163 -0.026685275 -0.014167829
000190 47 a5 ac bb c1 6c 68 3d 36 52 22 3c 3e 24 bb bc
       -0.005268726 0.05674434 0.009907296 -0.02284443
0001a0 7e 03 6a 3c df dd 01 3d a0 98 93 3d bb 77 3d bc
       0.014283059 0.031705733 0.07206845 -0.0115641905
0001b0 34 cc 85 bd 40 9e 78 3c bb 10 4e 3c 97 8c bf bd
       -0.06533089 0.0151744485 0.012577231 -0.09352987
0001c0 b4 90 0c bc 6f 49 20 3b c2 e9 ac bc a7 60 1e bd
       -0.008579422 0.0024457832 -0.021107558 -0.038666394
0001d0 72 fe 0a 3c a9 6b 0e bd 43 f7 7d 3c 4a d7 b5 3d
       0.008483516 -0.03477064 0.015500846 0.08878954
0001e0 1b e3 8f bd b1 bc 1e 3d 53 3d de 3c 61 f8 3a 3d
       -0.07025739 0.03875417 0.027128851 0.04564703
0001f0 c2 9c b7 3c ce 5a 8c 3d 1d 0a 20 3d e6 f8 21 bd
       0.022413615 0.06853257 0.039072145 -0.03954401
000200 71 77 29 3d 4b e5 9a 3d 6d 60 59 bc b2 fd bc bb
       0.041373674 0.075632654 -0.013267619 -0.0057675475
000210 5a c7 57 3c 4a ae 93 3d ca f4 0f 3d 04 04 ee bd
       0.013170088 0.072109774 0.03514556 -0.1162186
000220 f7 9f d0 39 ef c2 2f 3d 9e 87 40 3a fa 4b 65 3d
       0.00039792035 0.042910513 0.0007344427 0.05598066
000230 aa aa 3c 3b b0 9c 00 b9 65 f9 81 3c dd 64 25 bd
       0.0028788247 -0.00012265402 0.01586599 -0.040379394
000240 c6 24 53 bc ba de a9 bc c9 2b de bc 04 a5 03 be
       -0.012887185 -0.020736087 -0.027120488 -0.12855917
000250 72 57 37 3d 4c 69 4d 3d 6c ad c5 bc b1 ec f2 bc
       0.04476113 0.050149247 -0.024130546 -0.029653879
000260 f4 5f 50 bd 82 dd 16 bd c3 4b 6f bd c2 f6 3a 3d
       -0.050872758 -0.03683234 -0.05842186 0.045645483
000270 cd a4 c4 3d a8 26 2d bd 0f 49 2f 3c 2e 63 78 3c
       0.09601746 -0.042273194 0.010698571 0.015160365
000280 68 9d 26 3d e0 20 6e bd 65 9d 1e 3c 3f f3 73 bc
       0.040677458 -0.05813682 0.0096810805 -0.014889537
000290 3d 0e 5c 3d 99 68 25 bd 26 b0 27 ba 0d ee 62 bd
       0.053724516 -0.040382955 -0.00063967926 -0.055402804
0002a0 7a bd 79 3c 8d 6e 6f 3c 64 2e 45 bd 8b f1 98 3d
       0.015242929 0.01461376 -0.048139945 0.07467946
0002b0 68 b2 d2 3d e6 30 68 3a e4 46 c1 3d e0 f1 ce 3d
       0.102879345 0.0008857384 0.094373494 0.10104728
0002c0 dc ec f6 3d fc ff ec bb 03 7f fd 3c 9e 4e 68 bc
       0.12056896 -0.007232664 0.030944353 -0.0141789
0002d0 19 a1 b9 bc a1 98 ba 3d 55 e9 eb 3c f1 cf 81 bd
       -0.022659825 0.09111143 0.028797785 -0.0633849
0002e0 4d 29 95 3d 92 f9 bd bc 38 d7 63 3d e0 56 aa 3d
       0.07283268 -0.023190293 0.05562517 0.08317351
0002f0 29 e7 38 3d 99 a6 46 bd ce 06 a5 3c a3 f2 f9 bb
       0.045142327 -0.048498724 0.020144846 -0.0076278015
000300 84 0f 9e 3d c1 05 3b bd e9 40 16 bd 74 9b 2c 3d
       0.07717803 -0.045659784 -0.036682997 0.04214044
000310 9e 18 7d bc 38 b2 68 3d 94 cf a5 3c cb c6 92 bc
       -0.015447764 0.056810588 0.020240583 -0.017917057
000320 cb 3b b8 bd c0 2a 0b 3d 51 d5 7a bd 7d 85 53 3c
       -0.089957796 0.033976316 -0.06123859 0.012910244
000330 38 f3 11 ba ae ed 1f bc 01 d9 a0 bd eb 47 ee bd
       -0.00055675535 -0.009761257 -0.0785389 -0.11634811
000340 bc 8b de 3c ff ed a4 bd d7 99 90 3d c2 25 77 bd
       0.02716624 -0.08053207 0.070605926 -0.060338743
000350 1a 32 60 3d 06 52 65 3d 17 2d 23 bd 99 3b 52 3d
       0.05473528 0.055986427 -0.039837923 0.051326368
000360 f2 9c 11 bb df 8f 05 3c 41 c0 26 bd 89 01 b6 bc
       -0.002221879 0.008151977 -0.04071069 -0.022217529
000370 d3 47 d7 3b 00 62 e8 bc a2 c1 b4 bd 97 2f 64 3c
       0.0065698414 -0.028367043 -0.08825995 0.013927362
000380 e8 e1 28 bd 65 b2 4d 3d f2 ef 7b bd e5 b1 eb bb
       -0.041231066 0.05021896 -0.061508127 -0.0071928375
000390 d8 3c 00 3d 69 be ba 3b 1d b4 a9 bc aa e4 ba bc
       0.031308025 0.005698968 -0.020715768 -0.022814114
0003a0 93 4f 92 bd e8 77 c2 3d 70 87 10 bc 81 85 4a 3c
       -0.07144084 0.094955266 -0.008821353 0.012360931
0003b0 9d 38 00 3e ab e8 ac 3d 20 b4 5d bd 46 35 62 bd
       0.12521596 0.084428154 -0.05412686 -0.055226587
0003c0 f7 25 12 be bb c5 a2 3d e9 79 6a 3c 92 6a 79 bd
       -0.14272295 0.0794787 0.014311292 -0.06089265
0003d0 03 a4 b6 bc 79 0b ac 3d e4 d4 7e bc 79 71 f7 3c
       -0.022295004 0.08400626 -0.015553687 0.030205475
0003e0 58 04 c1 3d a4 82 e5 bb 28 7e 6d bd 88 c4 50 bc
       0.09424657 -0.007004099 -0.05798164 -0.012742169
0003f0 79 97 50 3d 4a ca 2d 3c d5 65 89 3d d5 e6 a3 bc
       0.050925706 0.0106073115 0.06708876 -0.02000753

conv5.bias f4 [32]
000000 a3 69 be 3d 4f a3 92 bb a9 10 e2 bc 67 46 dd 3d
       0.09297492 -0.0044750343 -0.027595835 0.10804444
000010 6a 20 f4 3c 10 e0 c3 bd 33 21 84 bd cb f6 8e bd
       0.029800612 -0.09564221 -0.06451645 -0.06980666
000020 10 7a 7e bd 0f 7d e9 bd f5 3b f1 bd ce 5b 80 3d
       -0.062128127 -0.11400806 -0.11779014 0.0626751
000030 1c 23 54 bd 52 80 24 3d 6e 46 be bd 82 3e a9 bb
       -0.051791295 0.04016144 -0.09290777 -0.005164922
000040 59 9b 96 3c a5 09 ad bd 84 a2 33 3c 2c 85 15 bd
       0.018384622 -0.08449105 0.01096404 -0.036503956
000050 89 b1 4b bd eb 13 6b bd bc a0 7b 3d 66 bc 8f 3b
       -0.049729858 -0.057392042 0.061432585 0.0043864725
000060 e9 b1 c3 bc 33 22 0a be 2d a2 58 bd a5 09 b1 bd
       -0.023888545 -0.13489608 -0.052889038 -0.08644418
000070 84 20 96 3c 5d 82 e6 bd af dc ed 3c 1d 3a e2 bc
       0.018326052 -0.112553336 0.029035894 -0.027615601

conv6.weight f4 [32, 32, 3]
000000 7c d7 4c 3c 0b 3a 01 bd fd 0d a6 3d 1f 43 3c 3d
       0.012502547 -0.031549495 0.08108137 0.04596245
000010 ce 77 61 bb 28 9a 55 bd 19 df 08 3e 70 a9 6b bc
       -0.0034403685 -0.052148968 0.13366355 -0.014383659
000020 14 2d 8d bd f9 7c c7 3c 7a 60 37 bd 1e ad 1a 3d
       -0.068933636 0.024351584 -0.04476974 0.037762754
000030 fd 36 86 bd 1e 10 ad bc 0e 31 13 bd 7a 45 bd ba
       -0.06553457 -0.02112585 -0.035935454 -0.0014440261
000040 26 ad b3 bd 6f 2f 9c bd ea 94 0c bd 0f df d9 3d
       -0.0877326 -0.07626235 -0.034321703 0.10638248
000050 5f 9c b0 bd 9a 00 73 3b de da 19 bc f9 d9 3e 3c
       -0.086235754 0.0037079216 -0.009390561 0.011648648
000060 83 3a 93 3d 72 b4 08 be 80 d7 d1 bc de 8d c1 bd
       0.071888946 -0.13350084 -0.025615454 -0.09450887
000070 84 76 4f bc 46 4e 1f bb a8 47 cb 3d fd 71 98 3a
       -0.012662534 -0.002430813 0.09925777 0.0011630651
000080 97 bf 87 bd d2 4b 97 3b 12 94 9f bb 4b 6f 54 3d
       -0.0662834 0.004617193 -0.0048699463 0.05186395
000090 4c ea 42 bd 3d 3c 18 3b 1d 6b 19 bd 88 e5 9d bc
       -0.047586724 0.0023229264 -0.037455667 -0.019274488
0000a0 51 4c 9c bd 2c 14 c4 3c d0 77 18 3d 50 4f 0f bd
       -0.07631744 0.0239354 0.037223637 -0.034987748
0000b0 bc b2 94 bd 91 61 99 3c 0d ca 8f bd be 3b b0 3b
       -0.072606534 0.018723281 -0.0702096 0.0053782156
0000c0 d8 ca 1e bd f5 44 64 bd cc 11 34 3d c4 ae 75 3d
       -0.038767666 -0.055729825 0.043962285 0.059981123
0000d0 e5 54 ca ba 37 2a 8a 3c 29 4e 34 bd 45 48 88 3d
       -0.0015436677 0.016865833 -0.04401985 0.06654409
0000e0 62 dd 2c bd 02 ed e9 bc 79 6d 08 bd 88 45 e3 bc
       -0.042203315 -0.028555397 -0.033307526 -0.027743116
0000f0 72 08 85 3d 8e 73 37 bd b7 33 83 3d 4a 1a 0b be
       0.064957514 -0.044787936 0.06406348 -0.13584247
000100 5d 09 78 bd e2 b8 d4 bc 8a 5a 97 bd ef c2 0f bd
       -0.060555805 -0.025967065 -0.07390316 -0.035098013
000110 59 45 2a bd 92 d7 2f 3d c3 29 52 3b 2e de bf bd
       -0.04157004 0.042930193 0.003206835 -0.09368549
000120 2c fb 3b 37 5d a0 2b bd da 40 52 3d 60 ef d5 3d
       1.1204549e-05 -0.04190098 0.05133138 0.10446048
000130 ed 2f 84 3d 52 70 85 bd e0 c0 7f 3d f1 5a 62 bd
       0.064544536 -0.06515564 0.0624398 -0.05526251
000140 40 b3 1e 3c 55 df a9 bc 5f 51 7c bc ae b7 5f 3c
       0.009686291 -0.020736376 -0.01540026 0.0136546325
000150 11 0b 58 3d c6 22 1e 3d 36 02 17 3d 76 e3 07 3d
       0.05274493 0.03860738 0.036867343 0.033175908
000160 b2 e9 dd 3c 7d 8c dc 3c 3a a9 25 bc c3 3e 12 bd
       0.027088974 0.026922459 -0.010111148 -0.035704385
000170 a2 3a 8f 3d cf 97 41 bd b1 cf 13 3d 4e 61 81 bc
       0.06993605 -0.047263917 0.03608674 -0.015793469
000180 fd 9d e8 bb 21 f9 80 3c 35 44 a4 3d 90 93 0e bc
       -0.007098912 0.015743794 0.08020822 -0.008702174
000190 f2 32 c9 bc 9e 82 9a bc 8f 94 9b 3d 9a b3 18 3d
       -0.024560425 -0.018861111 0.07596695 0.037280656
0001a0 ba 2d aa bb 57 59 ba bc f9 e1 7a 3d f8 01 a7 bd
       -0.0051934393 -0.022747679 0.06125066 -0.081546724
0001b0 13 ab 80 bd a2 7d 1e bd 2d ad c9 3c cc 56 0b bd
       -0.0628263 -0.03869403 0.02461871 -0.034018323
0001c0 66 37 79 3c d3 bf b7 bd cf f1 cb 39 2d ad f3 bb
       0.015210962 -0.089721344 0.0003889934 -0.0074364156
0001d0 a1 ca 16 bc c4 10 85 bd f4 42 3e bc 10 2b cc 3c
       -0.009203584 -0.064973384 -0.011612643 0.024922878
0001e0 03 84 40 bd ce 34 4d bc f2 81 63 bd b6 71 b1 3c
       -0.047000896 -0.012524797 -0.055543847 0.021660667
0001f0 90 39 4d 3c e2 5b 53 bd ab 55 c3 3b ac 55 e0 3c
       0.012525931 -0.0516013 0.00596114 0.027384602
000200 dd a6 3e bd cb 99 5b bd 53 bd 2e 3d ad 96 81 3c
       -0.046545852 -0.053613465 0.042661022 0.015818918
000210 9a d6 a8 3d 88 7d 5a 3d 2a c0 c3 bd 64 53 7c bd
       0.08244057 0.053342372 -0.09558137 -0.061602965
000220 2a 9e d4 3c 5c a4 47 3b 93 21 4b 3d d9 71 e4 3c
       0.025954325 0.0030462956 0.049592566 0.027886318
000230 ce 4b 8f 3b 42 1a b6 3c 99 d3 82 bb ce 5a 7f bd
       0.0043730503 0.022229318 -0.0039925096 -0.062342457
000240 34 7a 1b bc 43 89 aa bd 97 8c 54 bd 77 99 d4 3c
       -0.009489585 -0.08326962 -0.05189189 0.025952084
000250 f0 c1 c5 3d d2 54 4a bd 98 65 4c bd 39 f7 3e bc
       0.09656131 -0.049397297 -0.049901575 -0.011655622
000260 1c e1 05 3d cc 88 93 3d 4c 23 5f bd c3 8c 4a bd
       0.032685384 0.07203826 -0.05447702 -0.049450647
000270 a8 31 3b 3d 4f c6 c3 3c 26 73 4f bd 2c 73 5b 3b
       0.045701653 0.023898272 -0.050646923 0.0033485396
000280 87 df 6d bc 96 7d f5 bc 88 17 79 bc 17 81 47 bd
       -0.014518625 -0.02996711 -0.015203364 -0.048707094
000290 d1 7b 80 bd b7 19 f9 3c e0 7b f7 3c e1 df 88 bd
       -0.06273616 0.03040777 0.030210435 -0.066833265
0002a0 ed 5f d2 3d f5 9d d9 bc 5f e2 03 bd 9b 48 c2 bc
       0.10272203 -0.026564578 -0.032198306 -0.023716262
0002b0 79 e6 a1 3d 37 55 0f bc cc ff 2b 3c 99 d7 a7 bc
       0.07905287 -0.008748344 0.010497998 -0.020488547
0002c0 cf 73 1e 3d ba b0 16 3c 14 72 34 bc e7 94 39 3c
       0.038684662 0.009197408 -0.0110135265 0.011327005
0002d0 da e2 99 3b a7 93 bd bd d4 69 42 3d cd 45 6c bd
       0.0046962323 -0.09256678 0.047464207 -0.057683755
0002e0 92 7d 8c 3d db 7a 1c bc b7 7e a0 3d 17 4d 90 3d
       0.06859888 -0.009550775 0.07836669 0.07045954
0002f0 a1 78 7d bd 73 bb b6 bd 96 cb 13 bd 27 e1 3a 3c
       -0.06188262 -0.08922472 -0.036082827 0.01140622
000300 6a f3 41 3d 21 73 ea bd c9 87 da bd 91 ef c8 bd
       0.04735128 -0.1144774 -0.1067043 -0.09811319
000310 36 84 3a 3d 02 c5 24 3e 95 6e 1e 3d 34 72 a2 3c
       0.045536242 0.16090778 0.038679678 0.019829847
000320 ad 48 89 3d cc e2 97 3d d2 9d 6e bd ea f2 ae bd
       0.06703315 0.07416305 -0.058255978 -0.08542426
000330 82 6b a2 bd e2 51 08 3d 97 bf 23 3d f5 7a 3b be
       -0.07930662 0.033281215 0.039977636 -0.18308623
000340 be c9 a3 bd e5 e9 02 3d 87 f8 59 bd f7 a1 71 bc
       -0.07997464 0.03196134 -0.05321553 -0.014748088
000350 b2 84 ba 3c 0a 7b 32 3d 46 b3 80 bc 59 f5 0e bd
       0.022768352 0.04357437 -0.015710484 -0.03490195
000360 59 7a 6b bd c9 4a 5d 3d 91 f7 fa 3c 2e f9 34 3d
       -0.057489727 0.0540264 0.030635627 0.04418295
000370 fb 8e b2 bd 1c b5 66 bd 78 2b 63 3d 2c 84 d4 3c
       -0.087186776 -0.056325063 0.055461377 0.02594193
000380 1b d2 28 3c 92 0c 35 bd 18 3a 07 bd ef 6e 28 bd
       0.010303999 -0.04420144 -0.033014387 -0.04112142
000390 b8 ea 40 3a 6b ac a5 3d 06 7e 0d bd ad 87 ca 3c
       0.00073591946 0.08089527 -0.034544013 0.024722898
0003a0 ae 66 00 3d 5b bd f9 3b 36 03 fe bc f9 a2 f5 3d
       0.031347923 0.00762145 -0.03100739 0.11993975
0003b0 72 56 c5 3d dc 2b 50 bc 18 9a 57 bd 34 93 a6 bd
       0.09635629 -0.012705769 -0.05263719 -0.081335455
0003c0 52 5b 2a bc f7 68 f5 3c 35 c3 bb 3d f1 3f a7 bb
       -0.010397749 0.029957278 0.09168092 -0.005104058
0003d0 91 0f 59 3a 1a 51 ff bd 29 f0 9e 3d 11 b0 82 bd
       0.00082802126 -0.12466641 0.07760651 -0.06381238
0003e0 55 09 07 bd fe 05 ce 3c be 6d 67 3d e1 1b 40 bd
       -0.032967884 0.025149342 0.056501143 -0.046901587
0003f0 cb 59 4f 3d cc a4 98 3c 31 f5 8d b7 a4 6d 02 bd
       0.050622743 0.018633269 -1.6922686e-05 -0.031842843

conv6.bias f4 [32]
000000 17 b5 f0 3a 87 ae 9b 3a af 96 15 be 7a 3b e6 3b
       0.0018364516 0.0011877575 -0.14608262 0.007026133
000010 e6 c9 76 bc d2 31 b1 bd 6a c4 85 3c e0 7d 46 bb
       -0.015062785 -0.086520806 0.01632901 -0.003028743
000020 b2 78 9f 3d 92 75 b5 bd b2 38 da bb 06 60 3d 3d
       0.07786693 -0.088603154 -0.0066595906 0.046234153
000030 21 8a 9b ba 6b 4f c9 bd 5d 7d 0c ba 7d c4 b9 bd
       -0.0011866727 -0.09829601 -0.0005359257 -0.0907068
000040 45 1a 48 3c 80 52 f9 bd 37 85 ea bd 37 9a fd bb
       0.012213294 -0.12173939 -0.1145119 -0.007739331
000050 b4 f9 58 3c 64 80 4c 3d 3e 17 a8 bc 95 cf 35 bd
       0.013243128 0.04992713 -0.020518895 -0.04438742
000060 02 eb ad bd f8 76 b6 3c 3b 25 b8 bd 0d f3 07 3a
       -0.0849209 0.022273526 -0.08991476 0.00051860587
000070 d8 f7 b2 bb e3 bd 62 bd 09 d9 50 3d 3c fa 36 3c
       -0.005461674 -0.05535687 0.05098823 0.011168059
