SCAFFOLD_3/server_model_parameters.pth (torch, 767202 bytes, 51 tensors)

conv1.weight f4 [32, 2, 3]
000000 35 6f fd bd 72 2b 64 3e 5c b2 86 be 94 06 88 3e
       -0.12374727 0.22282198 -0.26307952 0.2656752
000010 00 92 0b 3c 1a d2 97 3d ab cf 80 bd e3 73 52 3e
       0.008518696 0.074131206 -0.062896095 0.2055202
000020 69 69 97 3d 20 d2 fc 3d fa 7a d6 3d b6 47 08 3e
       0.07393152 0.12344766 0.10472675 0.13308606
000030 2f 9b 3e bd cc 6a 18 be 05 d8 b0 bd 4e 2d f3 3d
       -0.046534713 -0.1488449 -0.086349525 0.118738756
000040 c2 52 70 3e 4a 0b c1 bd a2 3f 6d 3e b2 0f b4 be
       0.2346907 -0.09425981 0.23168805 -0.35168225
000050 43 8f a8 bd 05 87 43 be cf 76 1a be 98 f8 26 bd
       -0.0823045 -0.19094475 -0.15084384 -0.04076442
000060 cd 04 c9 bd 63 9a 30 3e 41 e1 53 be 96 c2 89 3e
       -0.09815369 0.17246394 -0.20691396 0.2690627
000070 d0 e1 34 3c f5 80 90 3e 67 98 76 3e 48 0e 84 3e
       0.011040166 0.28223386 0.24081574 0.25792146
000080 c6 23 92 3e 72 58 0d 3e f0 ed 5c 3c 88 44 b2 bd
       0.28542918 0.1380327 0.013484463 -0.087044775
000090 e2 da 01 be e6 1e 9a be f1 78 b7 be 80 7c 02 bd
       -0.12681153 -0.301017 -0.35834458 -0.031857014
0000a0 a6 ab 6e be 38 88 00 bd 1b 6f 49 be c1 2f a4 3d
       -0.23307666 -0.03137991 -0.1967129 0.08016921
0000b0 09 d4 3f bd 2e 0a 8e 3e 74 82 fa 3d 64 d2 72 3e
       -0.04683307 0.2774214 0.12231913 0.2371307
0000c0 63 ed 80 bd f5 ee 89 3e 3c 7e d2 be 5a a0 fd 3d
       -0.06295278 0.26940122 -0.41111934 0.123841
0000d0 6c b4 90 3c 8c b8 37 3e a8 14 b8 3c 1f 9c 04 be
       0.017664157 0.17941493 0.022470787 -0.1295018
0000e0 3c e2 eb bd 78 41 28 3d 78 54 96 bd e3 5c 86 3d
       -0.1151776 0.04107806 -0.0734033 0.065606855
0000f0 94 05 c9 bc dc de 9f be a5 82 40 be ec 0c 1c 3d
       -0.024538793 -0.31224716 -0.18799837 0.03809826
000100 a0 0f 53 3e f2 08 cd 3d e8 ed de 3d ce 9b c6 3e
       0.20611429 0.10011472 0.10885221 0.38790745
000110 d2 8b 8f 3e 80 47 2b bc fa 9d 6f 3e fe 61 76 be
       0.28036362 -0.010454059 0.23400107 -0.24060819
000120 60 2d 21 be 1c f7 b2 3c e8 b5 29 be 40 4f ce 3c
       -0.15739965 0.021846347 -0.16573298 0.025184274
000130 bb 34 26 3e 30 1f 19 3c 4e 8d 0b be 63 85 d0 3d
       0.16231053 0.009345815 -0.13628122 0.101816915
000140 66 47 44 3e 46 a3 de 3d ba 10 c6 be 8c 3a 7d bd
       0.19167861 0.10870986 -0.38684636 -0.061823413
000150 16 f8 78 be 60 7b 12 be 3c cd e3 3e 3d 51 11 be
       -0.24313387 -0.14304876 0.4449252 -0.14191146
000160 1c 07 ae bd c0 ad 05 bb 62 17 36 3d ef 72 7f be
       -0.0849745 -0.0020397753 0.044455893 -0.24946187
000170 c0 7b 6d b8 8c ef 85 3d 4a 4a 43 3e 6c a9 75 3d
       -5.6620454e-05 0.065398306 0.19071308 0.059976026
000180 4e 71 2a 3c 3b 2e c9 3e 50 59 ee 3c d6 26 87 3e
       0.0104029905 0.39293084 0.029095322 0.26396817
000190 1c 76 21 bd bf 80 48 be 92 a6 91 3e c6 90 d5 bd
       -0.03941928 -0.19580363 0.28447396 -0.10428004
0001a0 e8 8d 61 be 26 12 09 3e 7c cb 84 bd 00 65 0b 3d
       -0.22026789 0.1338583 -0.06484124 0.034031868
0001b0 dc 15 c0 3e aa b7 29 3d b6 1f d6 bd 40 9d 1b 3d
       0.37516677 0.04143492 -0.10455267 0.037991762
0001c0 40 0f 22 bc ac 3f c3 be d5 ed ad bd 34 76 57 be
       -0.009891331 -0.38134515 -0.084926285 -0.21041185
0001d0 8a bf 82 be d7 c0 94 bd d8 b8 4e bd 55 88 86 3e
       -0.25536758 -0.07263344 -0.05046925 0.26275888
0001e0 33 05 1e be cc 34 22 3e 04 22 25 bc 00 68 eb 39
       -0.15431671 0.15840453 -0.010078911 0.0004490018
0001f0 40 f2 35 bd b8 e7 0f 3e 4a 91 2a bd ac e2 35 3e
       -0.04442048 0.14053237 -0.041642465 0.1776225
000200 0e 41 67 3e 73 cd 02 3e 8d 1f 18 3e 7a c1 94 be
       0.2258341 0.12773685 0.14855786 -0.2905386
000210 a6 ec 92 3d 50 59 ed 3b 56 52 81 be 1a 90 50 3e
       0.07174043 0.007243313 -0.2525813 0.2036747
000220 0a 93 71 3e e0 ba 33 3d d8 d3 36 3e 5a a0 bd bb
       0.23591247 0.04387939 0.1785425 -0.0057869377
000230 28 7a 5f be 60 24 98 3c e9 e1 94 3e f6 fb 9c 3d
       -0.21823943 0.018572032 0.29078606 0.07665245
000240 dc a9 70 be ce 6a 4a 3e 99 60 08 3e 00 d1 5b 3b
       -0.23502296 0.19767305 0.13318099 0.0033541322
000250 57 39 96 be 48 17 e1 3c df c9 04 be 38 c7 30 3e
       -0.29340622 0.027476922 -0.12967633 0.17263496
000260 58 4f 5e 3e 0c f8 60 bd e7 15 a2 bd 60 3a 11 3d
       0.21709955 -0.054924056 -0.07914334 0.03545606
000270 4c 2c 59 be e7 27 94 3e 51 8f 50 3e df 6d 11 be
       -0.21208304 0.28936693 0.20367171 -0.14202069
000280 80 bc cc bc 64 79 5b be 22 9e 56 3e 57 2a d1 bd
       -0.024992228 -0.21433026 0.2095876 -0.10213154
000290 1f 40 4f 3e a8 90 ae 3d b7 da de bd 62 9a ba bd
       0.20239304 0.08523685 -0.1088156 -0.091114774
0002a0 a2 8a fb 3d 8c d8 4d 3d 95 d3 ef bd e8 0d 19 bd
       0.122823015 0.050255343 -0.11710278 -0.037366778
0002b0 e0 13 80 be 88 15 f6 3d 10 a0 79 3c 62 a1 69 3e
       -0.25015163 0.120158255 0.015235916 0.22815469
0002c0 b8 98 b8 bd 64 84 bc 3d 70 cf 89 bc d2 d0 b4 3d
       -0.09013504 0.09204939 -0.016822547 0.08828892
0002d0 c6 20 f9 bd 78 1a 5e be 2e 36 85 3e 80 84 1f 3b
       -0.12164454 -0.21689785 0.26017898 0.002434045
0002e0 b7 a9 25 be 54 0b 5c 3e aa 2f 95 bd 0d e9 0d bc
       -0.16178022 0.21488696 -0.07284482 -0.008661521
0002f0 d6 83 13 be 90 a3 80 3c 30 5b a3 3c b4 13 b6 3e
       -0.1440576 0.015702993 0.019940943 0.35561907

conv1.bias f4 [32]
000000 aa 9e 31 3e d5 1a 0e 3e 50 dc b9 3e 55 21 88 3e
       0.17345682 0.13877423 0.36300898 0.2658793
000010 c6 e5 db bd 40 24 c3 3c 8c 71 02 bd cb 71 84 be
       -0.10737185 0.023820996 -0.031846568 -0.25868067
000020 f6 f9 a1 bd 1e d9 52 be c4 8c 20 be a8 e9 da 39
       -0.079090044 -0.20590636 -0.15678698 0.00041754288
000030 b2 c3 11 be 71 65 21 3e 9c 5c 9e 3e 79 96 65 3e
       -0.14234808 0.15761353 0.3093003 0.22420682
000040 a2 71 d9 3d 22 24 1a 3e 42 b5 e6 ba 92 c6 a4 bd
       0.10617377 0.15052846 -0.0017601626 -0.08045687
000050 f8 00 27 be c9 6e 06 3a b8 4e 62 be fb 44 2d 3e
       -0.16308963 0.00051282026 -0.22100341 0.16920845
000060 9a 07 2c bd 84 07 c7 3d ee 14 54 3e 30 6d ce 3d
       -0.041999437 0.0971823 0.20711109 0.100794196
000070 aa ca ac be 3a fe c1 be 99 e1 01 be cc 40 53 3e
       -0.3374837 -0.37889272 -0.12683715 0.20630187

conv2.weight f4 [32, 32, 3]
000000 04 29 05 3e 9b bf b0 3c 26 65 98 3d 6c d3 52 bd
       0.13003927 0.02157574 0.074411675 -0.05147116
000010 9f 98 8d bd 6d 4c cf bc e2 5c 37 3d ec 6e f9 3c
       -0.06913876 -0.025304997 0.044766314 0.0304484
000020 50 d3 5f bd 97 7a 35 bd aa 67 91 3c 98 74 67 bd
       -0.054644883 -0.044306364 0.017749626 -0.056507677
000030 e6 0e 97 3d 00 6f 0c 3a 1a dd 8d bc c7 96 61 3d
       0.073758885 0.00053571165 -0.017317344 0.055075433
000040 46 4b 37 3d b4 3c 6b 3a fb 06 3d bd 5a ff a0 bd
       0.04474952 0.0008973584 -0.046149235 -0.078612044
000050 2a ca f9 3c a9 74 86 bd e2 2a 51 3d 6d 95 89 bc
       0.030491907 -0.0656522 0.051066287 -0.016794885
000060 8d 19 80 bd f8 7d cb bb 0e cc 59 bd d0 af fc 3c
       -0.062548734 -0.006210085 -0.053173117 0.030845553
000070 52 d7 a6 bb b4 ac 7d bc 13 f3 4c bd d2 de 21 bd
       -0.005091586 -0.01548307 -0.0500365 -0.03951914
000080 16 9a ae bd 2a 9a f5 bc 92 c5 fe 3c 5e b3 86 3c
       -0.08525483 -0.029980738 0.031100068 0.01644295
000090 1c 92 ca bb 4d 23 c9 3c 46 90 42 3d d4 02 f4 3d
       -0.0061819684 0.024552966 0.04750087 0.11914602
0000a0 47 86 01 bd 58 d7 34 3d be c2 a0 3b 83 a9 23 3d
       -0.031622197 0.04415068 0.0049060276 0.03995658
0000b0 c3 c5 82 3d 2a f1 14 bd 36 d3 3a bd 42 54 b9 bc
       0.06385376 -0.036362804 -0.045611583 -0.022623185
0000c0 a9 9e 85 3d 9e 04 73 3c 35 c7 82 bd 72 69 3b bd
       0.06524403 0.014832644 -0.06385652 -0.045754857
0000d0 f6 80 cb 3d a8 85 a8 bb 8e ed be 3c 28 c6 bf 3c
       0.09936707 -0.005142886 0.023306634 0.023409918
0000e0 5a 22 33 bd 15 43 f8 b8 b1 e6 9b 3d 52 ba aa 3d
       -0.043733932 -0.000118380565 0.0761236 0.08336319
0000f0 88 3e de 3c ac d7 bb bc 5b a2 7a 3d b2 f1 35 bd
       0.027129427 -0.022929989 0.06118999 -0.04441995
000100 4a ed 52 bd ee 3d ad bd b6 aa 1c bd cc 3f 27 bd
       -0.051495828 -0.08459078 -0.03824874 -0.040832326
000110 20 c3 2c 3d 43 92 f6 3c 8a c8 8e 3d 04 94 35 3c
       0.042178273 0.03009904 0.069718435 0.011082653
000120 1a 4b 10 3d 1e 6f 56 3c d8 d8 f9 3b b1 b2 18 3c
       0.035227872 0.013088016 0.0076247267 0.009319947
000130 8a 71 42 bd 6d f4 44 bd 32 60 29 bd d2 80 a4 bd
       -0.04747156 -0.048084665 -0.041351505 -0.08032383
000140 2b 2c 83 bc f7 79 b2 bd 6a 0e ba bd e3 0b 8a bd
       -0.016012272 -0.08714669 -0.090847805 -0.067405485
000150 7f f5 27 3d 54 c0 f1 bc d8 81 cb 3c 4a eb 80 bd
       0.041005608 -0.029510655 0.024842188 -0.06294878
000160 45 74 3b 3d 81 7a bf 3c 26 11 b6 3d aa a5 8b 3c
       0.04576518 0.023373844 0.088899896 0.017046768
000170 60 4f 77 bd e0 d5 52 3d 36 fd d8 3d 4a 61 ff 3c
       -0.060378432 0.0514735 0.10595171 0.03117432
000180 57 36 c2 bc 0e ed e6 3c af 66 e3 bc e3 16 6b 3c
       -0.023707552 0.028189208 -0.027758924 0.014348718
000190 9a 52 6b bd ea de 45 3d 5c 13 e0 bc 4c 48 f1 bd
       -0.057451822 0.04830829 -0.027352981 -0.11781368
0001a0 9c 87 68 bd 72 ca c8 bc 02 a7 20 3b 83 83 aa 3c
       -0.056769952 -0.024510596 0.0024513607 0.020814663
0001b0 7e d0 ff bb 6e e5 4d 3d eb ff a8 bc 56 68 2d 3d
       -0.0078068366 0.05026763 -0.020629844 0.04233583
0001c0 cc 67 be 3c 3e 71 68 3c 5c 7a 4c bc 8c 9e e8 3b
       0.023242854 0.014187155 -0.012480345 0.0070989784
0001d0 20 9e 4e 3d 88 a9 6b bd 6e b8 4b bd fd e4 38 bd
       0.05044377 -0.057534724 -0.049736433 -0.045140255
0001e0 de 71 01 3d 9a 6e 0b bd 84 cb f0 3b c8 f9 2e bd
       0.031602733 -0.034041025 0.0073484797 -0.04271868
0001f0 d0 a0 87 bd ce 68 40 bd bb c3 38 bc 1e 21 d2 bc
       -0.066224694 -0.04697495 -0.0112771345 -0.025650557
000200 90 c1 47 bc 90 4a bf 3c 94 c6 12 3d e2 97 fe 3c
       -0.012192145 0.023350984 0.03583391 0.031078283
000210 b2 58 2f bd 80 09 6f 3b 07 1c 7f bd af 2e 8b 3d
       -0.042809196 0.0036474168 -0.06228259 0.067960136
000220 2f 87 23 bc ad 58 07 bd 6a 16 17 3d a2 11 80 3c
       -0.009980961 -0.033043552 0.03688661 0.015633408
000230 41 e4 55 bd ff c0 b7 bd ee 1f 2e bd f5 81 22 bd
       -0.052219633 -0.08972358 -0.04251092 -0.039674718
000240 4c 72 82 3d e6 e2 94 3a 88 44 4e 3d 44 9d 4d bd
       0.06369457 0.0011359125 0.050358325 -0.05019881
000250 a8 45 ac 3d a0 23 53 3d 58 c9 84 3d b7 0d 39 3c
       0.084117234 0.051547647 0.06483716 0.011294774
000260 16 6c 8b 3c c0 59 21 bd fc de 99 bc de e1 ae bd
       0.017019313 -0.039392233 -0.018783085 -0.085391745
000270 08 4e 89 bd 22 d2 89 bc ea 05 4e bc 19 1a 6b ba
       -0.067043364 -0.016823832 -0.012574652 -0.00089684274
000280 2a 61 84 bd 9c 41 6b bd b6 1e 34 bc ec a6 88 3d
       -0.06463845 -0.057435617 -0.01099365 0.06672463
000290 29 de 6e bd 1a 73 bb 3c 8c 11 a8 3c 3e 70 53 3d
       -0.058317337 0.022882033 0.02051618 0.051620714
0002a0 40 14 81 bc 0d b4 55 3d f6 30 07 3d 12 e5 18 3d
       -0.015756726 0.052173663 0.033005677 0.037327833
0002b0 77 e4 8e bd 57 d2 d8 3b bc 46 29 3d c1 55 83 ba
       -0.0697717 0.0066168713 0.041327223 -0.0010020063
0002c0 31 b9 64 bd 1a 61 4f bc 72 93 86 3d 12 e0 5b bc
       -0.055840675 -0.012657428 0.06571092 -0.013420122
0002d0 a2 45 81 bb 89 7f 25 bc 74 ae 02 3d 74 74 89 3c
       -0.0039450685 -0.0101012075 0.031904653 0.016779162
0002e0 b8 c0 3d bc db d1 35 3c b2 ae 4c 3d ed 24 f0 3c
       -0.011581592 0.011097397 0.04997129 0.029314483
0002f0 a2 a1 aa 3d 9c dc d9 3b 64 20 40 3c 24 e5 14 3d
       0.0833161 0.006648613 0.0117264725 0.036351338
000300 7c 60 e5 bd 0e e5 3a bb ad 52 9f 3d 8a 72 0e bd
       -0.112000436 -0.0028517875 0.07779441 -0.0347772
000310 e8 cd cc 3c a2 0f cc 3c d6 7e bd bd 8d 53 0f bc
       0.025000528 0.024909798 -0.09252708 -0.008747947
000320 e6 3b 9d 3d 71 35 8e bc f0 eb a1 bc c0 4f b4 3d
       0.0767744 -0.017359467 -0.019765824 0.088042736
000330 b1 8f f4 bb 3f 87 34 3d 0a b3 2c bd e0 03 5a bd
       -0.0074634184 0.044074293 -0.042162932 -0.05322635
000340 8a 1d ab 3d 94 01 a3 3d 88 61 c0 bc 48 3c 2e 3d
       0.083552435 0.079592854 -0.023484007 0.042537957
000350 02 a4 8e 3c 27 90 48 3d 16 a5 97 3d c0 49 aa 3d
       0.01741219 0.0489656 0.074045345 0.08314848
000360 57 d3 aa 3d e0 8d ad 3d f5 3e 25 3d 25 63 e9 bc
       0.08341091 0.08474326 0.040343244 -0.028489659
000370 d3 9a 65 3d fb ab 2c bd 2c 59 a6 bd 26 ee d8 bd
       0.056055855 -0.0421562 -0.08122477 -0.10592298
000380 46 2b 50 bc 11 94 07 bc 4e 95 d2 3d 50 57 3d bb
       -0.01270563 -0.008275048 0.10282384 -0.0028891154
000390 9b c3 ad 3d ac 54 80 3c 33 ee 82 bd 26 88 1a bd
       0.084845744 0.015665375 -0.06393089 -0.037727498
0003a0 56 bc d8 3d b0 2a c0 bc 78 42 ad bd 0c 47 55 3d
       0.10582797 -0.023457855 -0.084599435 0.05206971
0003b0 c4 66 ee 3d c2 14 5f 3b a8 66 75 bd e2 16 92 bc
       0.11640695 0.0034039472 -0.059912354 -0.017833177
0003c0 2b 5a eb 3d 57 52 f0 bc 7a 1e bb 3d 11 04 43 3d
       0.114918076 -0.029336138 0.09136672 0.0476113
0003d0 f7 cf 81 3d 20 2a 3b 3c 08 24 27 3c 4e f0 aa 3c
       0.06338494 0.011423618 0.010201462 0.02086654
0003e0 f7 c9 61 bd 3e a3 5b bc e4 ff 8a bc d2 27 39 3d
       -0.05512425 -0.013405619 -0.016967721 0.04520399
0003f0 1e 80 64 3c 80 96 1b bd 8a 65 97 bd 90 92 3d 3d
       0.013946561 -0.037985325 -0.07392414 0.04628235

conv2.bias f4 [32]
000000 ce 31 e1 3d 00 ff 83 3c 42 64 10 3d 46 78 08 3e
       0.109958276 0.016112804 0.035251863 0.1332713
000010 a1 f0 b4 bc 44 06 f1 3d 28 91 c5 bd e4 1a db 3d
       -0.022087397 0.11768773 -0.09646827 0.10698488
000020 60 0a 01 3d 73 75 bf bd 01 72 5b 3c 86 b9 e0 3c
       0.031504035 -0.093485735 0.01339388 0.027432214
000030 c2 3e d0 bc e1 4a 73 3d 3c b6 20 3d 98 e2 5b 3e
       -0.02542055 0.059397582 0.039236292 0.21473157
000040 06 8f 9a 3b a2 03 66 bd 16 46 57 bc c7 bb 4e 3d
       0.0047167568 -0.05615581 -0.013139268 0.050472047
000050 76 1c 52 bd 52 91 3a be 06 c6 e5 bd 8d e4 99 bd
       -0.051296674 -0.18219498 -0.112194106 -0.07514296
000060 d9 e6 04 3e 14 92 81 bd 99 f0 c8 3d 7d 30 92 3c
       0.12978686 -0.0632669 0.09811515 0.017845387
000070 ee 62 00 be 54 df 10 3e 81 07 b6 3d d5 ed d7 3c
       -0.12537739 0.14147693 0.0888815 0.026358524

conv3.weight f4 [32, 32, 3]
000000 e7 34 9a 3b 41 8e 65 bd 8e f0 5c 3c 84 fe 8f bd
       0.0047060135 -0.056043867 0.013485087 -0.07030967
000010 f4 2b f0 3c aa f0 ad bd 71 54 8b bd de 58 85 bd
       0.029317833 -0.08493169 -0.06803215 -0.06511091
000020 56 36 dc bc be 5d 94 3d c1 9e fe 3c d6 ec 72 3d
       -0.026881378 0.072444424 0.03108156 0.059307896
000030 18 a3 48 3d 92 08 aa 3c 59 50 51 bd dc 6b be 3c
       0.048983663 0.02075604 -0.051102016 0.02324479
000040 fe e1 bc bd 56 e8 cb bb 92 23 a0 3d cd 2d 2d 3d
       -0.09222792 -0.006222765 0.078192845 0.042280007
000050 39 e1 6d 3d 9a 65 11 bc 14 ee b3 bc 02 a7 8e 3d
       0.058076117 -0.008874321 -0.02196411 0.06965448
000060 6b 03 be bd 7c 21 fb 3c db 8b ae 3c 0a 8a af bc
       -0.09277996 0.030655615 0.021306923 -0.021428127
000070 1c 72 6c bd 44 b8 9c 3d 55 e3 5e 3c ac a4 f7 3b
       -0.05772601 0.076523334 0.013604005 0.007557472
000080 c8 4e ce bd 04 9e 4f 3d a7 69 f6 bc 26 47 01 3b
       -0.1007362 0.050687805 -0.030079676 0.0019726246
000090 a8 68 b2 bb 8e bd 24 3d 24 bf 23 3b 5d 90 c1 3c
       -0.005444605 0.040219836 0.0024985755 0.023628408
0000a0 5d e6 80 bd be 82 61 3d 17 e6 19 bd 86 77 b3 3c
       -0.06293938 0.055056326 -0.037572946 0.02190758
0000b0 bd aa a2 bc 9a 8c 70 bb a0 f7 99 b8 15 c7 2d bc
       -0.019856805 -0.0036704899 -7.341732e-05 -0.010606547
0000c0 08 a1 5d 3d 08 45 85 bc 72 81 aa 3d 94 1a 48 3c
       0.05410865 -0.016268268 0.08325471 0.012213368
0000d0 49 54 f0 bc 72 39 19 bd de 03 85 3a 0b eb cd ba
       -0.029337065 -0.0374083 0.0010148247 -0.0015710307
0000e0 90 2e 02 3b 46 c3 60 3c e0 1e 34 bd 46 bd 4c 3c
       0.001986418 0.013718432 -0.043974757 0.012496298
0000f0 36 87 85 3c 3c 3f ac 3d d0 78 0b 3d 7b e8 3b bd
       0.016299825 0.084104985 0.034050763 -0.045876008
000100 7c d9 e2 bb 3e a9 0e 3d 86 31 87 3d ae fd 3e bd
       -0.006922899 0.03482937 0.06601243 -0.046628647
000110 dc 83 74 bc 84 8b 62 bc 64 1b f7 3c 42 50 56 3d
       -0.014924016 -0.013827208 0.030164428 0.052322634
000120 fb e1 f5 bb 62 a5 92 3d fb 16 e7 3d 4a fb 73 bd
       -0.0075037456 0.071604505 0.1128368 -0.05956582
000130 d3 cc 0a bd 4a da cb b9 86 01 21 3d 8d 8a a9 3a
       -0.03388674 -0.00038881815 0.039308093 0.0012934968
000140 a0 e3 6c bc 40 1d 55 3d c4 a4 85 3d a8 03 28 bc
       -0.014458567 0.052029848 0.06525567 -0.010254778
000150 ad 3a 3c bd 5d 6c 7b 3c 5c 7e ae 3d 78 8c f0 bc
       -0.045954395 0.01534566 0.08520195 -0.029363856
000160 bf ce c9 bb ec ef 90 3c 4a 60 d0 bb 6c 64 8a 3d
       -0.0061586793 0.017692529 -0.006359135 0.06757435
000170 40 d4 8c 3d be b8 f7 bc 9a 3e 0d 3b c6 b8 cc bc
       0.06876421 -0.03023946 0.0021552206 -0.02499045
000180 d6 b7 89 ba c7 54 22 bd e2 a1 0d 3d 1a fd 8a 3c
       -0.0010507058 -0.03963163 0.03457821 0.016966391
000190 03 5a d4 bc e1 68 8d bd 3d 47 1d 3d d3 ad 9b 3c
       -0.025921827 -0.0690477 0.038398016 0.019003784
0001a0 22 f2 4b bd de 86 48 bc e2 33 d9 bc 96 d1 10 bd
       -0.049791463 -0.012239186 -0.026513997 -0.035356127
0001b0 84 89 5e bd bc 99 13 3d 5c e0 b2 bc e8 99 10 3d
       -0.054330364 0.036035284 -0.021835499 0.035303026
0001c0 83 c3 4e bd 8a 65 8a bd 00 df 21 3a f8 93 82 3c
       -0.050479423 -0.06757648 0.0006174892 0.015939698
0001d0 70 e9 71 bd 65 38 eb bd 2a 86 fe bc 0e a0 15 bc
       -0.059060514 -0.11485366 -0.031069834 -0.009132398
0001e0 cc 58 c6 bd 52 e9 26 bd 42 85 8e bd 31 3c ff 3b
       -0.096849054 -0.040749855 -0.06959011 0.007789158
0001f0 c8 df 63 bc 44 5f 02 bc eb 1c 00 bd 42 cb 36 3c
       -0.013908334 -0.007957283 -0.03127758 0.011156859
000200 cf 03 40 bd d2 42 2e 3d 14 69 75 bd 86 95 1f 3d
       -0.046878632 0.042544194 -0.059914663 0.038960956
000210 4c 3b f1 bc 22 e8 cb bd fe 6b 77 bd 52 04 03 3e
       -0.02944722 -0.09956385 -0.060405724 0.12794617
000220 cc 84 4b 3d c1 fb bc bd 8c db 53 bd a6 b7 ab bd
       0.04968719 -0.09227706 -0.051723048 -0.083846375
000230 32 8a 74 bd 58 e8 5e bd 76 c5 ca bd 1a 7d 69 bc
       -0.059702106 -0.0544208 -0.09900944 -0.014251018
000240 f0 77 ad 3c c8 ea 94 bd 1a 27 a0 3c 5d fd 8e bd
       0.021175355 -0.072713435 0.019549895 -0.06981919
000250 f8 07 1b 3d 77 80 8a bc 68 12 12 bd 78 bf 1f bb
       0.037849396 -0.01690696 -0.035662085 -0.00243756
000260 01 54 0b bc 3c 66 9d bc 36 e8 25 bd 8e 37 fb 3c
       -0.008503915 -0.019213788 -0.040504657 0.030666139
000270 e4 ef 15 3d b9 b4 6a 3d 76 41 40 bb ae 67 91 bd
       0.03660573 0.057301257 -0.0029335893 -0.070998535
000280 95 d8 52 3d 52 82 49 bd be 24 9e 3c e4 57 b6 bd
       0.05147608 -0.04919655 0.01930463 -0.089034826
000290 e2 5e 81 3c 7c 8b 74 3c af 9c 4f bb 3c 22 e1 bc
       0.015792314 0.014925834 -0.0031679084 -0.027482145
0002a0 2c be cd 3b 83 42 14 3d 56 27 a4 bd e4 b6 cb 3b
       0.006278774 0.036196243 -0.08015315 0.0062168706
0002b0 36 c9 2f bd e4 4e f3 bc 84 49 04 3d 0d 7b ec 3c
       -0.0429165 -0.029700704 0.032296672 0.028867269
0002c0 cd e0 5c 3c 05 c7 49 3d ca 56 d7 bc 8e 37 5d 3c
       0.013481331 0.049262065 -0.026286501 0.013502015
0002d0 b2 e0 06 bd 6e 00 96 bc b6 59 95 bd a1 bf cc 3c
       -0.03292913 -0.018310752 -0.07292502 0.02499372
0002e0 78 2a cc bc cf e7 d8 bd ff 8f dd 3c 90 5e 94 3d
       -0.024922594 -0.10591089 0.027046202 0.07244599
0002f0 bf b2 9b 3b d2 9d 33 bd 48 62 8b bd 07 6b e4 3c
       0.004751533 -0.04385168 -0.06805855 0.027883066
000300 b6 67 66 bb 38 32 14 3d e4 ab 11 3d 80 a3 11 bd
       -0.0035157031 0.036180705 0.03556432 -0.035556316
000310 d2 35 62 bb e7 95 e8 bc d1 b0 d0 bb 2a 18 2c bd
       -0.0034516943 -0.028391792 -0.0063687344 -0.042015232
000320 48 18 8f bd a2 bd 71 bd 0a 2e ad 3c 2d dc 89 bd
       -0.06987053 -0.05901874 0.021140117 -0.06731448
000330 c5 d1 44 bd 99 95 72 bd 2a d7 d2 bd 54 b3 10 bd
       -0.048051614 -0.0592247 -0.102949455 -0.03532727
000340 aa 13 7c bc a3 7e 10 bd 7a 03 32 3d 34 11 69 bd
       -0.015385548 -0.03527702 0.043460347 -0.05690117
000350 b8 82 a1 bd 5e 01 c1 bd c9 14 21 bc be 11 af 3b
       -0.07886261 -0.09424089 -0.009831616 0.005342691
000360 cc b2 d3 bd d5 53 0b 3d 65 83 91 3c 91 1e 83 bd
       -0.10336837 0.034015495 0.01776285 -0.064023145
000370 6c d4 e2 bb 54 e4 e3 3b 7d 61 8d 3d 90 f7 be bc
       -0.0069222953 0.006954709 0.0690336 -0.023311406
000380 11 b8 f8 bc c9 6b 2d bd 08 06 78 bd fe 73 4f bd
       -0.030361207 -0.04233912 -0.060552627 -0.05064773
000390 8c e5 4b bd 84 c7 ac bc f6 30 55 bd ba 61 eb 3c
       -0.04977946 -0.02109123 -0.052048646 0.028733123
0003a0 44 38 06 3d 22 2a 8a 3d 08 24 f8 bc 96 9a e7 bc
       0.032768503 0.067463174 -0.030290619 -0.028271955
0003b0 f1 0a 5e 3c f9 92 86 bd 1a fe c1 bd 46 46 60 3b
       0.013552413 -0.065710016 -0.09472294 0.0034221574
0003c0 be 44 99 bd cb b7 e8 3c 52 5d bb 3c 9e 2b 0e bd
       -0.07483815 0.028407952 0.022871647 -0.034709565
0003d0 62 e4 9d bc ec 36 99 3c 2d bf 91 bc f6 06 5b bd
       -0.01927394 0.018702947 -0.017791355 -0.053473435
0003e0 83 d1 0c bd 1c 06 28 bd 20 f1 a5 bd 0a 38 71 bd
       -0.034379493 -0.04102145 -0.081026316 -0.058891334
0003f0 b8 be b2 bd a9 70 32 3d 86 c4 b3 bd 44 e5 8b bc
       -0.08727783 0.043564472 -0.08777718 -0.017077096

conv3.bias f4 [32]
000000 a2 8f 26 bd 3d 92 49 3c 3e 52 ec 3d 58 25 3d 3d
       -0.040664323 0.012302932 0.11539124 0.046178192
000010 ff 60 c7 bc e0 d4 fe bc 66 04 c8 3c 9e f1 2f bd
       -0.024338244 -0.031107366 0.02441616 -0.042955033
000020 aa d2 aa bc b6 c8 b9 3d 11 35 7a 3b 58 a3 39 3b
       -0.020852406 0.09071486 0.0038178603 0.002832612
000030 c1 bb fe 3c 0f bd 0b bd ca 43 36 bd c4 af d0 3b
       0.031095387 -0.034115847 -0.044498242 0.006368609
000040 b1 79 f8 bc f3 56 00 3d 44 35 4e bd 3a 1e 3b 3d
       -0.030331464 0.03133292 -0.050343767 0.045683123
000050 a2 0a cc bc fa 32 7b bd 33 ee 1e bd 23 94 ab 3c
       -0.024907414 -0.061327912 -0.038801383 0.02094466
000060 33 61 84 3c 2e aa aa 3d fa da 2b bd 10 40 9e bd
       0.01615963 0.083332404 -0.04195688 -0.07727063
000070 6c 4b 35 bd be 12 cc bc da 9d c5 3c bd fc 06 3d
       -0.04426138 -0.02491128 0.024123121 0.032955874

conv4.weight f4 [32, 32, 3]
000000 94 d0 4d 3d 1b c7 11 3d ad 12 d5 3c 50 8c 3a bc
       0.050247744 0.035590272 0.026009882 -0.011385992
000010 92 70 c1 3c ed 62 ae bc e0 4a 7f 39 d4 db f7 bb
       0.023613248 -0.021287406 0.00024346588 -0.0075640474
000020 de cf 05 3d 9b fb ca bd fb a9 c0 3b 73 05 ae 3c
       0.03266894 -0.09911271 0.0058796383 0.021242833
000030 4b 50 01 3e fa c9 c3 bc c0 5e 4e bc 6e 79 8d bd
       0.12628286 -0.02390002 -0.012595832 -0.069079265
000040 f7 5a 14 bd 04 b9 69 3a 58 6b cd bd 6a 03 a0 3d
       -0.036219563 0.0008915814 -0.1003024 0.07813151
000050 94 ce 2b bb c8 01 8f bd a5 34 48 3c 4b 87 03 bd
       -0.002621566 -0.069827616 0.012219583 -0.032111447
000060 4a f6 2c 3c 78 74 84 3d 2e 1d 92 bd 9d 29 ef 3a
       0.010556767 0.06467527 -0.07134472 0.0018246655
000070 b7 bc 87 3d fa 88 6a bd 6c c5 84 3c d5 d3 8e 3c
       0.066277914 -0.057259537 0.01620742 0.017434994
000080 02 45 19 bc 85 44 9e bd 32 4e 90 bc 19 ad 82 3d
       -0.009354832 -0.07727913 -0.017615411 0.06380672
000090 61 6e d0 3c 72 4f 5e 3b e8 a2 4a 3d f9 91 2e bd
       0.025443258 0.0033921865 0.049471766 -0.04261968
0000a0 a0 db 0a 3c c0 23 bf bc 52 55 aa bd 05 27 26 bd
       0.008475214 -0.023332477 -0.08317055 -0.040564556
0000b0 5c c4 00 bd c6 79 c2 3d bb 04 23 bc a3 bc cd 3d
       -0.031437263 0.09495883 -0.009949858 0.10045745
0000c0 4e 2e 53 3c f8 8e 74 bc 21 69 fa 3b 1d 9a 04 bd
       0.012889458 -0.0149266645 0.007641927 -0.032373536
0000d0 9a 82 a9 bd 56 20 17 bd 5c 03 18 3d b8 d6 ab bc
       -0.082768634 -0.036896072 0.03711258 -0.02097641
0000e0 dc 0c 06 3c 11 60 66 3d c4 a8 b7 bc 06 2f 91 bc
       0.008181777 0.05624396 -0.02241934 -0.017722618
0000f0 67 37 d7 bc 40 54 f0 3b f8 f4 97 3c 80 5f 87 b8
       -0.026271535 0.007334262 0.018549427 -6.45509e-05
000100 78 b9 be bc ee bf 98 3b 28 ee 29 3d ce 12 a1 3d
       -0.023281798 0.0046615517 0.04148689 0.07864915
000110 ca 47 4c 3d 1f 29 fa bd b4 1b 99 3d bd 05 19 bc
       0.04987315 -0.122148745 0.07475987 -0.009339747
000120 1d 2f 03 3d fc 04 a1 bd f7 9c 3a bc 38 c2 7f 3c
       0.032027353 -0.07862279 -0.011389962 0.01561027
000130 9e 8b 28 3d 2e 76 ad 3c fc 89 dd 3d c8 61 b6 bc
       0.041148774 0.021174517 0.10817334 -0.022263423
000140 74 c2 93 bd 80 48 ce bc b6 2e 08 3c 3c c3 b1 bc
       -0.07214823 -0.025181055 0.008311918 -0.02169954
000150 20 36 7a 3d e7 b0 ca 3c 0c 5a 1f 3d bc 46 24 3d
       0.061086774 0.024742557 0.038904235 0.04010652
000160 44 5b 0c be b0 39 75 3d c7 23 fd bd dc 94 e9 3d
       -0.1370669 0.05986947 -0.123603396 0.11405346
000170 d5 e2 74 bc a8 e5 0c bd 3f 9d 9e 3b f8 f8 84 bc
       -0.014946659 -0.034398705 0.0048405225 -0.016231999
000180 80 4c d0 bc 43 18 c3 bd 78 ac ea bc 7d 04 f4 3c
       -0.025427103 -0.09526112 -0.028646693 0.029787296
000190 5a 19 1e 3b 9c 1d c8 3c 06 63 15 3d d8 d6 56 3d
       0.0024123997 0.024428181 0.03647139 0.052450985
0001a0 94 bd 45 bd fc 3d 98 3d 62 8c 3b bd c0 71 c6 bd
       -0.0482765 0.074336976 -0.045788176 -0.09689665
0001b0 4f 6f d6 bb 9c 60 66 3d 48 d5 3d bd 38 f7 04 3a
       -0.0065440307 0.056244478 -0.04634598 0.0005072239
0001c0 c2 25 05 3d 36 5e a8 bc 5c 36 66 3d 92 1d a0 bd
       0.03250671 -0.020552736 0.056204185 -0.0781814
0001d0 32 52 a4 3c d4 e2 85 3d 9c 6c 3c 3b ae 6f 83 3d
       0.020058725 0.06537405 0.002875126 0.064177856
0001e0 f4 43 77 bc 3c 59 99 bd e8 8f 8b 3c 0e ee ce 3d
       -0.015091885 -0.07487723 0.017036393 0.10103999
0001f0 54 cc 84 3d b4 98 11 3d b1 b2 4d 3d c0 cd 85 3d
       0.06484285 0.03554602 0.05021924 0.06533384
000200 f7 cf 56 bc 70 f5 72 3d 30 85 1b 3d 21 e1 71 3d
       -0.013111106 0.0593161 0.037968814 0.05905259
000210 d3 c1 83 3c 42 69 49 3d 78 fb af 3b 5a ce e6 3d
       0.016083634 0.049172647 0.0053705536 0.11269827
000220 4f 27 06 bd c4 ff 6f bd a2 4d 13 3d ed 2b c0 bd
       -0.03275233 -0.058593526 0.03596271 -0.09383378
000230 d6 8b eb 3c cc 3c bd 3d ec 4f 29 3c 43 b9 17 bc
       0.028753202 0.09240112 0.010333996 -0.009260478
000240 01 2e 8f bd e9 fb 05 bd fc 4c cd 3c 36 ac e7 3c
       -0.069911964 -0.032710943 0.025061123 0.028280359
000250 9a 0e 27 3d 38 c6 b1 3d 87 0d 9c 3a 68 e2 74 3c
       0.04078541 0.08680385 0.0011905887 0.014946558
000260 64 47 76 3d e4 d8 af 3c 36 a1 d1 3b 98 e5 b8 3c
       0.060126677 0.021465726 0.0063973917 0.022570416
000270 27 c3 30 3d 8e ab 30 bd 87 33 d3 39 6c 89 3d 3c
       0.04315486 -0.043132357 0.00040283447 0.011568408
000280 a8 90 d2 bb ff 70 75 3d b4 cf 49 3d 5f 62 25 3c
       -0.006425936 0.059922215 0.049270347 0.010094254
000290 8c 56 44 bd fe 19 20 bc 3c 1c 20 3d 67 8a 0e 3d
       -0.0479341 -0.009771822 0.039089426 0.03479996
0002a0 aa 3e 9f 3b 8d 85 9b 3b 12 d6 d1 bc f3 48 25 3b
       0.004859765 0.004746145 -0.025614772 0.0025220483
0002b0 0b 2f 91 3d 9a d3 13 bd fc 6d f2 3d 20 ee 76 3c
       0.07089051 -0.03609047 0.11837384 0.015071422
0002c0 f5 65 43 bd ae 08 06 3c f5 f2 a1 bc b1 71 14 bd
       -0.047704656 0.00818078 -0.019769171 -0.036241237
0002d0 cc 59 16 bd dd 71 98 bc ee 45 82 bd c2 e3 4a bc
       -0.03670673 -0.018608982 -0.06360994 -0.012383403
0002e0 e8 cf 02 3e 02 63 86 bc 10 1f 13 b9 e2 db 0a 3d
       0.12774622 -0.016404632 -0.00014030584 0.033901103
0002f0 5e 69 10 3d 1b 8f 02 3d 34 3a 11 3c 73 d3 99 3d
       0.035256736 0.031874757 0.008863974 0.07511034
000300 d0 e5 60 bd ee cf af 3d c5 63 07 3d 32 8a 73 3d
       -0.054906666 0.08584581 0.033054132 0.059457965
000310 b2 c0 b2 3c 7c 16 c6 bd fa 31 45 3d 5c cf 25 bd
       0.0218204 -0.09672257 0.048143364 -0.040480956
000320 ce 77 15 bd 78 72 e4 bc d9 f6 7e bc f1 96 10 bc
       -0.036491208 -0.027886614 -0.015561783 -0.00882505
000330 7f 73 4e be 08 38 0d 3c e8 05 89 bc 90 cf a1 bd
       -0.20161246 0.008619316 -0.01672645 -0.079009175
000340 83 e4 89 3d 57 b5 f2 3d b9 5d 24 3d 2a 58 c5 bc
       0.06733038 0.11850994 0.040128443 -0.024089891
000350 f6 75 22 3d 8a e8 72 3b ea f5 ff bc 42 ca ed bb
       0.039663278 0.0037064874 -0.03124519 -0.007256777
000360 69 de 3f 3d 8e 3e 93 3c ac ab 99 39 84 a1 64 3d
       0.046842966 0.017974164 0.0002931034 0.055818096
000370 9c 54 ae ba 8c 98 94 bd 55 4b 1b ba 74 8e 29 bc
       -0.0013300362 -0.072556585 -0.0005924006 -0.010348905
000380 b2 e5 66 bd c9 c5 c8 3d 0e 3a 73 bd 3a a9 03 3c
       -0.0563714 0.098033495 -0.059381537 0.008035952
000390 9c be 1c bd 17 10 c1 3c db db df ba 30 e0 d1 bc
       -0.038267717 0.023567243 -0.0017079072 -0.025619596
0003a0 de 54 f7 3c 5a 7f 91 bd 9f 40 25 bd 4e 35 de bc
       0.030191835 -0.071043685 -0.04034483 -0.027125027
0003b0 c5 80 83 3c 54 d5 59 bd 9d 8a 85 bc 41 ba 0f 3d
       0.016052613 -0.05318196 -0.016301448 0.035089735
0003c0 98 41 01 be 5c 12 87 bd 12 af 18 bd ea 4e d0 bd
       -0.12622678 -0.06595299 -0.037276335 -0.10171302
0003d0 08 04 e8 3c 3e f5 a9 3c 4b b6 04 bd 96 5f c8 bc
       0.028322235 0.020746823 -0.03240041 -0.024459641
0003e0 2e bd 2a 3e 6c 11 e7 3c 2e dd 67 bd f8 2b 75 bc
       0.16673729 0.02820655 -0.056607418 -0.014964096
0003f0 4a a3 ae bd 86 0b 52 bd 99 d1 98 3c e8 a9 2f bd
       -0.08527239 -0.05128052 0.018654631 -0.042886645

conv4.bias f4 [32]
000000 6c 8c bd bb d8 7b 99 3d e4 2d 98 bd d1 46 d6 bd
       -0.005784562 0.074943244 -0.07430628 -0.10462726
000010 67 98 12 be 9a 41 76 3b 84 ed 83 bd b0 12 1c bc
       -0.1431595 0.0037575723 -0.06441787 -0.00952594
000020 18 88 fd bb 12 f1 fc bc 12 28 81 bd de ea e6 bc
       -0.007737171 -0.03087667 -0.06306471 -0.028188165
000030 d7 fd 32 bc 5d 59 17 3b 01 76 30 be bc 9d 21 bd
       -0.010924778 0.0023094036 -0.17232515 -0.039457068
000040 34 c7 77 3d 76 74 ab bd 3c 2f 66 bd e2 95 20 bd
       0.06049271 -0.083718225 -0.05619739 -0.03920544
000050 8c ef ee 3c 75 ff 87 3c d2 da f5 bd 42 99 b7 bc
       0.02916696 0.016601304 -0.12004627 -0.022411946
000060 c0 75 80 3c 7a 02 a8 bd 56 a9 e3 bd 12 d2 99 bd
       0.015681148 -0.08203597 -0.11116283 -0.07510771
000070 ac 67 8c bc 30 ad 34 bd d8 64 e9 3b ae 51 87 3d
       -0.017139278 -0.044110477 0.007122617 0.06607376

conv5.weight f4 [32, 32, 3]
000000 fe 02 c5 bd 06 e7 8a bd 7f d8 3e bd 56 db ab bc
       -0.09619711 -0.067823455 -0.046593186 -0.020978611
000010 10 37 40 3c a2 38 f4 3c 05 ee d2 bd 54 b8 ce bd
       0.011731878 0.02981216 -0.10299305 -0.100937515
000020 6e 9c ce bb b9 32 70 bd f8 f5 2b bd 46 33 2f 3c
       -0.006305269 -0.058642123 -0.04198262 0.010693377
000030 10 ef 23 bd 23 c0 84 bc b4 a1 46 3d 95 fb 35 3d
       -0.04002291 -0.0162049 0.048494056 0.04442938
000040 68 22 ac bd 8d b8 74 3d 60 d3 8f bd 80 98 67 3d
       -0.08405 0.059746314 -0.070227385 0.05654192
000050 5c a1 ff bc d0 6a 08 bd 51 b2 3f bd 24 e2 3d bd
       -0.031204872 -0.03330499 -0.046800915 -0.046358243
000060 b4 66 4a bc 98 f3 c2 bc 63 30 90 3c 78 9d 0e bd
       -0.012353588 -0.023797795 0.017601198 -0.034818143
000070 da 81 f8 bc 10 38 37 bd 8a 41 c2 bc 5e cb b2 bd
       -0.030335356 -0.0447312 -0.023712892 -0.087301955
000080 30 20 43 3d 94 2a 53 bd 5a ac 90 3d 5e f0 1d bd
       0.04763812 -0.051554278 0.070641235 -0.03855931
000090 2f 7f 9e 3c 64 19 d8 bc 98 ad af bd e7 2b 39 3c
       0.019347755 -0.026379295 -0.08578032 0.011301971
0000a0 56 71 39 bd 80 ce 1e 3c 9b be b9 bd 2e d0 db bc
       -0.0452741 0.009692788 -0.09069558 -0.026832666
0000b0 fb 88 0d bd 83 dc 1e bc 00 dc a4 bd c8 49 6c 3d
       -0.034554463 -0.009696129 -0.08049774 0.05768755
0000c0 17 66 79 3b 4c 84 70 bd df ce 0d 3c ee 93 16 bd
       0.0038055235 -0.058719918 0.008655279 -0.03676217
0000d0 40 45 f6 3c 81 b4 66 3d 38 a9 68 bd 2e 9f 6c bd
       0.030062318 0.056324486 -0.056802005 -0.057768993
0000e0 e6 43 c1 bd f0 6c 08 bc 98 81 3e bd 30 2f ae bc
       -0.09436779 -0.008326754 -0.04651031 -0.021262735
0000f0 86 d8 dc bc d4 55 eb 3c 9f 0b 22 3c 6b 6d b6 bc
       -0.026958715 0.02872745 0.009890466 -0.022268971
000100 48 28 83 bc 92 8b 3d 3c ca ba 4b bd a6 8a f8 bd
       -0.016010419 0.011568921 -0.049738683 -0.1213582
000110 0a 74 42 be 9d 92 58 bd 08 6d ea bd f1 04 b0 bd
       -0.18989578 -0.052874196 -0.11446577 -0.085946925
000120 bd 4b 81 3d 08 c3 7d bc c9 e7 cd 3c 8c 22 ce 3c
       0.06313274 -0.015488394 0.025134938 0.025162958
000130 9f 8f 7a bc d4 c6 90 bd b6 dd e3 3c c6 c4 01 3d
       -0.015293031 -0.070691735 0.027815681 0.0316818
000140 5c 01 77 3d a0 4e c3 bc b8 0a 28 bd c8 94 8d bc
       0.06030403 -0.023841202 -0.041025847 -0.017282858
000150 b5 3c ba bd a6 0b 42 bd fa 47 87 bd 2a 32 1a 3d
       -0.0909361 -0.04737439 -0.06605525 0.037645496
000160 dc 14 32 bd 32 1a 4e bd c6 8a cb bd ba 57 74 3c
       -0.043476924 -0.05031795 -0.09938578 0.014913494
000170 b9 87 05 bd 7b 21 25 3b dc c9 e7 bb c0 f7 48 38
       -0.03260014 0.0025196958 -0.007073624 4.791445e-05
000180 20 0c ad 3c f0 fc 47 3d ec 3f c4 bc 89 b2 a8 bc
       0.021123946 0.048825204 -0.023956262 -0.020592945
000190 2f 1d 98 bb 0d eb 64 3d 6a 00 10 3c a4 34 c7 bc
       -0.004642151 0.055888224 0.008789161 -0.024317093
0001a0 24 53 b2 3c 08 18 f7 3c 7d 17 8e 3d cc e8 85 bc
       0.02176816 0.030162826 0.06938074 -0.016346358
0001b0 f8 77 80 bd d4 b6 62 3c e0 b9 92 3c 20 32 bf bd
       -0.06272882 0.013837535 0.017910898 -0.093357325
0001c0 0f 7f 24 bc f3 d2 27 3a 6a 69 b1 bc b4 1b 12 bd
       -0.010040059 0.00064019783 -0.02165671 -0.03567095
0001d0 32 57 33 3c 98 2a 16 bd 90 07 9b 3c fa c1 b6 3d
       0.010946082 -0.036661714 0.018924505 0.08923717
0001e0 df 86 96 bd 72 17 1e 3d 00 ec e7 3c ae 22 32 3d
       -0.07349943 0.038596578 0.028310776 0.043490104
0001f0 08 24 b2 3c b4 55 8e 3d 16 4a 33 3d 1d 35 1e bd
       0.021745697 0.0694994 0.043771826 -0.03862487
000200 ce db 55 3d 3c e1 91 3d fc 52 79 bc 8e ae 04 bc
       0.052211575 0.07123038 -0.015217539 -0.008098258
000210 52 20 5e 3c 68 70 8b 3d 3f 80 10 3d 66 76 ec bd
       0.01355751 0.06808549 0.035278555 -0.1154602
000220 5e 41 c0 b9 b4 0e 0f 3d fb 42 00 ba 26 01 61 3d
       -0.00036669796 0.03492613 -0.00048927934 0.054932736
000230 80 b5 5a 3b cf 7c d6 bb 8b 48 47 3c 50 6b 18 bd
       0.0033372343 -0.00654564 0.012163292 -0.037211716
000240 18 87 19 bc c0 73 bf bc 0a 00 d8 bc 02 c3 03 be
       -0.009370588 -0.023370624 -0.026367206 -0.12867358
000250 18 d7 19 3d 6c dd 38 3d 3b ff d7 bc f6 0e d7 bc
       0.037558645 0.04513304 -0.02636682 -0.026252251
000260 e6 79 3a bd b0 d5 02 bd 40 a5 52 bd e4 89 36 3d
       -0.045526408 -0.03194207 -0.051427126 0.044565096
000270 3f ef cb 3d 9a df 1e bd 50 e8 4c 3c e2 73 88 3c
       0.09957742 -0.03878746 0.0125065595 0.01665682
000280 85 75 2b 3d 6a 56 55 bd 68 7b 3f 3b 45 65 a7 bc
       0.041860122 -0.052084364 0.0029217843 -0.020434031
000290 4f 3b 5e 3d 7c 1a 2c bd 06 e1 ab b9 a4 31 67 bd
       0.05425578 -0.042017445 -0.00032783317 -0.056443825
0002a0 88 5b 75 3c aa 89 5e 3c 20 53 4f bd dc 9b 9d 3d
       0.014975436 0.013582626 -0.050616384 0.076957434
0002b0 fa db dc 3d b0 8f 3e 3b 5f 6c c1 3d 30 f5 d1 3d
       0.10784145 0.0029077344 0.09444498 0.10251844
0002c0 c9 1f fd 3d 68 3c be bb 67 a8 f3 3c 7d cd 74 bc
       0.12359578 -0.005805541 0.029743386 -0.01494157
0002d0 6e ee d6 bc 3a 30 bf 3d a2 69 f0 3c 92 e8 80 bd
       -0.026236739 0.0933537 0.029347245 -0.06294359
0002e0 e2 47 8f 3d f1 98 a9 bc 4e 04 69 3d ea c2 a7 3d
       0.069961324 -0.020702811 0.05688887 0.08191474
0002f0 8c 8b 42 3d 37 7b 55 bd 03 2e 91 3c 7e ca f3 bb
       0.047496364 -0.05211946 0.017722135 -0.0074399104
000300 84 29 94 3d 37 7f 39 bd fa bc f0 bc 1e 36 24 3d
       0.07234481 -0.045287337 -0.029386986 0.040090673
000310 0f af 8e bc dc 87 6d 3d b0 d3 93 3b 67 54 05 bc
       -0.017417459 0.057990894 0.004511319 -0.008137799
000320 00 75 a1 bd 13 28 1e 3d 80 d7 9a bd 27 c2 53 3c
       -0.07883644 0.038612437 -0.075606346 0.0129247075
000330 d0 4c 0a b9 56 d4 70 bc 5a ba ab bd 91 bd e6 bd
       -0.0001318932 -0.014699062 -0.08385153 -0.11266626
000340 da c3 dd 3c 1c 02 af bd fc 37 94 3d c9 13 82 bd
       0.027070928 -0.08545324 0.07237241 -0.0635143
000350 6a d7 61 3d 02 72 51 3d 85 ae 2b bd 90 21 24 3d
       0.055137075 0.051134117 -0.04191448 0.04007107
000360 d0 13 6b 3a 9c c9 00 3b 1a 5f 3c bd be 96 fa bc
       0.0008967491 0.0019651419 -0.045989133 -0.030589458
000370 4a 1f d2 3b 9e d0 bd bc c0 1e da bd cf ef a0 3c
       0.0064124214 -0.023170765 -0.10650396 0.0196456
000380 c6 0b 0f bd 7d 1f 5e 3d 5c 72 5f bd 72 0b 83 ba
       -0.034923337 0.05422925 -0.05455242 -0.0009997918
000390 98 38 f1 3c 38 a8 d7 3b 57 a0 19 bd 4c 68 cc bc
       0.029445931 0.0065813325 -0.037506428 -0.024952076
0003a0 aa 1b 96 bd 05 70 b3 3d 82 08 76 bc 23 3c 30 3c
       -0.07329495 0.087616004 -0.015016677 0.010756525
0003b0 40 3d e6 3d fc a9 ac 3d f2 82 69 bd c7 13 59 bd
       0.11242151 0.084308594 -0.057009645 -0.052997377
0003c0 de 6a 19 be 3c f2 a5 3d f0 a8 8c 3a 04 3a 67 bd
       -0.14982173 0.08102843 0.00107315 -0.056451812
0003d0 ad f9 b4 bc dc 07 b1 3d 55 1e b9 bc b0 43 fe 3c
       -0.022091711 0.08644077 -0.022597471 0.031038135
0003e0 5b 47 c2 3d 7c 6a d8 3a c6 f3 8b bd 75 c9 80 bc
       0.09486266 0.0016511227 -0.068336055 -0.015721062
0003f0 02 ea 64 3d 2d 30 41 3c 3c 57 8e 3d b8 7d cd bb
       0.05588723 0.011791271 0.069502324 -0.0062710904

conv5.bias f4 [32]
000000 ba 52 bf 3d 48 ee 8f ba 8f 96 ea bc 0b a8 eb 3d
       0.09341951 -0.0010981048 -0.028636245 0.11506661
000010 1d 0c 10 3d 6a 20 c1 bd da d4 87 bd 4a 70 8c bd
       0.035167802 -0.094300106 -0.06632395 -0.06857355
000020 8a fb 7d bd 80 45 e6 bd ca 4d ec bd e8 3d 82 3d
       -0.062007464 -0.11243725 -0.115382746 0.06359464
000030 5c e8 73 bd 0f 9c 3a 3d 47 ce d1 bd d5 dc 33 bb
       -0.059547767 0.045558985 -0.102444224 -0.0027444859
000040 95 a9 8a 3c ec 4f a2 bd 87 99 0f 3c 20 ec 0c bd
       0.016926566 -0.079254 0.008764631 -0.034404874
000050 7a da 47 bd ae 19 8a bd 2b 94 81 3d ae 55 10 3c
       -0.04879234 -0.06743179 0.06327089 0.00880949
000060 62 82 a7 bc be c4 0d be 03 66 60 bd 50 b4 ac bd
       -0.020447914 -0.13844582 -0.054784786 -0.084328294
000070 46 95 a2 3c 14 8c ea bd 9a 25 e7 3c 96 c3 d7 bc
       0.01984657 -0.11452499 0.028216172 -0.02633838

conv6.weight f4 [32, 32, 3]
000000 c1 98 91 3b 6b 09 f2 bc 2a 62 b1 3d 2c 2f 58 3d
       0.0044432585 -0.029545506 0.086613014 0.05277936
000010 16 08 94 3b 92 eb 5e bd 36 55 10 3e f6 26 15 bc
       0.0045175655 -0.054423876 0.14095005 -0.009103527
000020 6c c1 90 bd 7e 40 ce 3c 8c 5b 2e bd e0 fa 3f 3d
       -0.07068142 0.025177237 -0.042567775 0.046870112
000030 40 a7 81 bd 2f e8 0a bc 0e 49 16 bd 7e 0d 30 3a
       -0.063307285 -0.008478208 -0.036690764 0.00067158777
000040 92 1d a8 bd 90 10 9f bd 96 82 d1 bc eb d0 ec 3d
       -0.08208765 -0.07766831 -0.025574964 0.115632854
000050 ca 29 ba bd e8 70 3c 3c 56 e1 ac ba e8 ee fd 3b
       -0.09090002 0.011501528 -0.0013189714 0.007749427
000060 67 ea 98 3d 8c b6 f4 bd 3a 45 00 bd f4 81 be bd
       0.07466584 -0.119488806 -0.03131602 -0.0930213
000070 c8 76 26 bc 3c 8c c7 bb 21 14 bb 3d 19 16 49 bc
       -0.010160156 -0.0060897153 0.09134699 -0.012273335
000080 4c 85 86 bd b4 b6 43 3c e8 8b b8 b9 a8 7f 59 3d
       -0.06568393 0.011945415 -0.00035199453 0.053100258
000090 72 7f 2c bd 30 cd 53 3c cf 15 13 bd 52 e3 71 bc
       -0.04211373 0.0129273385 -0.03590947 -0.01476367
0000a0 3f 77 94 bd cb 03 b3 3c ee 21 33 3d 9b 66 de bc
       -0.07249307 0.021852395 0.04373353 -0.027148535
0000b0 37 ae 9d bd 84 e5 98 3c 1c 08 94 bd b0 31 60 3c
       -0.076992445 0.01866413 -0.07228109 0.013683721
0000c0 8b 94 04 bd 4e 6d 47 bd af 78 3a 3d 8d 88 72 3d
       -0.032368224 -0.048688225 0.04552525 0.059212256
0000d0 a5 9f a2 3b cc a6 d6 3c 52 10 34 bd 50 8b 80 3d
       0.004962879 0.026202582 -0.043960877 0.06276572
0000e0 ed 1a 26 bd f9 fd c8 bc 56 c1 14 bd 95 be 0d bd
       -0.040553022 -0.024535166 -0.036317192 -0.03460558
0000f0 d1 45 7f 3d 69 f6 49 bd fc 48 89 3d 4c 1c 0b be
       0.06232244 -0.04930726 0.06703374 -0.13585013
000100 f6 d4 7e bd 60 85 bf bc c8 f3 86 bd 00 5a 02 bd
       -0.062214814 -0.023379028 -0.06589466 -0.031824112
000110 fb 19 47 bd 18 a1 2f 3d ef 52 a1 3b 72 e5 bb bd
       -0.04860876 0.04287824 0.0049232165 -0.091746226
000120 40 ff 94 ba 74 b2 24 bd d6 f1 3c 3d 14 76 d9 3d
       -0.0011367574 -0.04020925 0.04612907 0.10618225
000130 c8 2d 73 3d d6 3e 82 bd 35 0b 72 3d f0 a4 64 bd
       0.059369832 -0.06359641 0.05909272 -0.05582136
000140 a6 0c 91 3c bb 69 81 bc 26 83 6a bc cc 6b 89 3c
       0.017706227 -0.015797487 -0.014313495 0.016775034
000150 97 64 50 3d 1d 23 0f 3d 1a 74 0f 3d 22 44 01 3d
       0.05087718 0.034945596 0.035022832 0.031559117
000160 f6 97 ae 3c 7a e9 fe 3c e3 d7 59 bb 92 fc eb bc
       0.021312695 0.03111719 -0.003324025 -0.028806958
000170 b0 c4 8a 3d 33 1d 33 bd fa f4 04 3d 0c c1 67 bc
       0.067757964 -0.04372902 0.03246019 -0.014145147
000180 88 5f f0 bb be 4a 97 3c 3e 54 a5 3d 04 d1 2f bc
       -0.007335607 0.018468257 0.080727085 -0.010730986
000190 5f db 8c bc 97 64 89 bc b0 7c 9a 3d 42 08 19 3d
       -0.017194448 -0.016771598 0.075433135 0.03736139
0001a0 1f 8a 82 bb 06 7d ac bc f8 81 65 3d f2 7e a0 bd
       -0.0039837505 -0.02105571 0.05603215 -0.07836713
0001b0 5a 85 86 bd 90 24 22 bd 34 bb ef 3c c6 70 0a bd
       -0.065684035 -0.03958565 0.02926407 -0.033798955
0001c0 19 8a 87 3c c8 3a bc bd 0d 80 c2 3a ca 65 00 bc
       0.016545342 -0.09190899 0.0014839187 -0.007836768
0001d0 77 84 b3 bb 16 64 7b bd ef 8c da bb f9 b9 c9 3c
       -0.0054784375 -0.061374746 -0.0066696326 0.024624811
0001e0 6c 12 3e bd 75 f8 e1 bb c0 16 67 bd f2 c8 b5 3c
       -0.046404287 -0.0068960735 -0.05641818 0.022190545
0001f0 1e ac 63 3c 00 51 38 bd 23 e4 10 3c f4 be 91 3c
       0.013896016 -0.044999123 0.0088434545 0.017791249
000200 7e 84 3c bd 21 7e 52 bd 11 eb 31 3d b2 e8 43 3c
       -0.046024792 -0.051389817 0.043437067 0.011957334
000210 fc eb ad 3d 8f fe 5b 3d ed 52 d0 bd 9d 59 82 bd
       0.08492276 0.053709563 -0.10172067 -0.063647486
000220 e8 c2 16 3d 6f 97 b8 3b 4c d3 4e 3d c4 34 f4 3c
       0.03680697 0.0056332867 0.050494477 0.029810317
000230 0e 43 7a bb 85 ad b4 3c de da 19 ba e8 7e 62 bd
       -0.003818694 0.022055397 -0.00058691006 -0.05529681
000240 98 46 30 bc ca 39 a7 bd 5e b2 53 bd dc af c6 3c
       -0.010759018 -0.08165319 -0.051683776 0.024253778
000250 94 30 c9 3d aa e4 34 bd 75 8e 37 bd e4 df f3 ba
       0.09823719 -0.044163384 -0.044813592 -0.0018606153
000260 2e dc 0b 3d 44 f9 88 3d f4 58 62 bd 24 61 49 bd
       0.034145527 0.06688169 -0.055260614 -0.049164906
000270 06 94 21 3d 43 31 9b 3c 08 1f 4d bd a9 8e 00 3b
       0.039447807 0.018944388 -0.05007842 0.0019616282
000280 87 1c 99 bc e4 60 08 bd 07 91 23 bc fb 1c 3c bd
       -0.01869036 -0.033295527 -0.009983308 -0.045926075
000290 06 23 6f bd 81 6c 0b 3d 2c d8 ec 3c 2f 9b 83 bd
       -0.05838301 0.034039024 0.028911673 -0.06426083
0002a0 06 56 d5 3d d4 1c 06 bd a8 39 f4 bc 90 04 be bc
       0.10416798 -0.032742336 -0.029812649 -0.023195535
0002b0 20 17 9f 3d e4 df 14 bc 1a ea 66 3c 4f 3e c1 bc
       0.077680826 -0.009086583 0.0140939 -0.023589281
0002c0 23 3b 4e 3d 34 95 08 3c ff 34 45 bc f8 9a 87 3c
       0.050349366 0.008336354 -0.012036561 0.016553387
0002d0 c8 52 4f 3b 22 67 be bd 62 b3 40 3d 4c 80 79 bd
       0.0031635035 -0.09297015 0.047046073 -0.06091337
0002e0 36 86 82 3d ec 48 80 bc d8 d2 99 3d 2e 46 94 3d
       0.06373255 -0.015659772 0.075109184 0.07239948
0002f0 8c 76 76 bd 42 53 b8 bd 3a e3 14 bd 88 d2 49 3c
       -0.06017165 -0.09000255 -0.036349513 0.012318261
000300 ad 2c d6 3c 50 22 0b be dc 6b f0 bd 5c aa e6 bd
       0.02614435 -0.13587308 -0.117393225 -0.11262962
000310 e4 43 c9 3c fe 94 13 3e 88 e8 f7 3c f4 a3 fa 3b
       0.024568506 0.14412305 0.030262247 0.0076489393
000320 25 84 1e 3d 0c 4b a3 3d 8e e6 85 bd d6 2d b9 bd
       0.03870024 0.079732984 -0.065381154 -0.09041946
000330 ac db 96 bd 90 b7 1d 3d b8 88 1b 3d 74 de 3b be
       -0.07366118 0.038505137 0.037972182 -0.18346578
000340 c0 ea 98 bd f6 22 da 3c cd 46 36 bd b7 0e 12 bc
       -0.0746665 0.026627999 -0.044501115 -0.008914641
000350 39 02 ef 3c 67 b9 38 3d c2 a6 a1 bc 38 2c 54 bd
       0.029175865 0.04509869 -0.019732837 -0.051799983
000360 ae 44 65 bd 65 cd 3d 3d 38 a3 d3 3c 5e d9 44 3d
       -0.0559737 0.046338458 0.025834665 0.04805886
000370 56 90 aa bd 24 1b 6d bd fd cc 5e 3d 18 f4 8d 3c
       -0.08328311 -0.05788721 0.05439471 0.017328307
000380 20 33 b3 ba f5 5e 37 bd cf d8 0e bd a6 a4 48 bd
       -0.0013671853 -0.044768292 -0.034874734 -0.048985146
000390 3a e7 c9 3b e4 f3 9a 3d 0c 13 de bc ca 5d 4c 3c
       0.0061615976 0.0756605 -0.027108692 0.012473533
0003a0 26 00 98 3c 04 fe c9 bb 50 b5 29 bc e5 29 0a 3e
       0.018554758 -0.006164314 -0.01035817 0.13492544
0003b0 4e 66 d9 3d 73 ca a3 bc aa c6 78 bd 32 50 b3 bd
       0.10615216 -0.019993996 -0.060736336 -0.087555304
0003c0 52 5c 3f bc cc 6c bd 3c 9e d5 9c 3d 72 17 bf bc
       -0.011679726 0.023123167 0.07657932 -0.02332661
0003d0 3c 45 26 bc d3 24 07 be 10 65 9b 3d fe a0 9b bd
       -0.010148343 -0.13197641 0.075876355 -0.07599066
0003e0 f6 8a fe bc 0c b5 9a 3c 24 64 2c 3d e9 54 1e bd
       -0.031072121 0.018885158 0.04208769 -0.038655195
0003f0 ca 5d 5b 3d ee 58 71 3c 1c b6 99 bb 52 4c 8e bc
       0.05355624 0.014730675 -0.0046908986 -0.017370377

conv6.bias f4 [32]
000000 d2 05 4f bb 4e d1 17 3b c9 18 16 be d8 84 f4 3b
       -0.0031589163 0.0023165527 -0.14657892 0.0074621253
000010 7b 5c 38 bc b2 76 bb bd 33 9e 9c 3c 22 02 9a bb
       -0.011252518 -0.09153499 0.019118404 -0.0046999613
000020 74 0b 99 3d 84 74 c5 bd 51 08 51 bb b0 af 63 3d
       0.07472888 -0.09641364 -0.0031895826 0.05558747
000030 13 05 33 3a d4 11 c4 bd c5 9b 5a bb 3e 1e bb bd
       0.0006829064 -0.09573713 -0.0033357006 -0.091366276
000040 4e 9a 46 3c c2 ae 04 be ee 8b eb bd 9e 12 27 bc
       0.01212175 -0.1295729 -0.11501299 -0.01019731
000050 34 4f e5 3b 88 de 51 3d 55 7b cb bc 36 56 20 bd
       0.006997967 0.051237613 -0.024839083 -0.039144717
000060 40 ed aa bd 10 0c 9a 3c 68 43 b9 bd ec 05 2d 3b
       -0.08346033 0.01880458 -0.0904606 0.0026401235
000070 a6 c2 0c bc 04 f9 6a bd 86 b9 39 3d eb 30 4f 3c
       -0.00859133 -0.057366386 0.045342945 0.01264594
