SCAFFOLD_1/cli1_model_parameters.pth (torch, 767010 bytes, 51 tensors)

conv1.weight f4 [32, 2, 3]
000000 64 84 de bc 4d b8 96 be 23 90 08 3d 52 94 82 be
       -0.027162738 -0.29437485 0.033340584 -0.25503784
000010 a8 73 e6 bd fd 05 47 be a0 df 92 3e a7 b1 32 3f
       -0.112525284 -0.19435878 0.28686237 0.69802326
000020 da 4e 82 3e a0 fe 35 be a1 16 37 be f0 e9 85 3e
       0.25450784 -0.17772913 -0.17879726 0.26155043
000030 14 fe e6 3d b4 3f bf be 2f d1 23 be b4 81 8f 3d
       0.1127893 -0.3735329 -0.15997766 0.07007161
000040 68 e1 c3 3d 44 2d 1a 3e d8 00 a6 be 86 65 a5 be
       0.09564477 0.1505633 -0.3242252 -0.3230402
000050 45 28 d8 3d b8 ee a6 bd 20 3e 39 bd 11 b1 ca be
       0.10554556 -0.08151001 -0.045225263 -0.39588216
000060 01 22 38 3f b8 81 5d 3d 65 dd c8 be aa e3 3a be
       0.71926886 0.054078788 -0.3923141 -0.1825091
000070 44 8c 97 be 48 19 50 bd 0d 5f 6b 3e 18 f4 fc bc
       -0.29599202 -0.05080536 0.22985478 -0.030878112
000080 63 5e 89 3e b2 02 96 3e 88 81 90 3e 6c ea e7 bd
       0.26829824 0.2929893 0.28223825 -0.11324009
000090 c7 a6 b5 be 57 75 53 3d 0c df 99 be 4f 7c a5 be
       -0.35478804 0.051625576 -0.30052984 -0.32321402
0000a0 2e 91 a3 3e d0 15 4c 3e ec 43 d0 be 5e 1b b0 3e
       0.319467 0.19930196 -0.4067682 0.3439588
0000b0 a4 1f a9 3d 68 92 fe 3d 06 96 89 3e 7a e1 4a be
       0.08257988 0.124302685 0.2687227 -0.19812575
0000c0 6a ae 4b 3e 3c 60 62 be 01 94 1f 3e e8 22 8c 3e
       0.19890752 -0.22107023 0.15583803 0.2737038
0000d0 75 d7 93 be e8 53 77 3e 9b c9 29 3f ed ea 52 3f
       -0.28875318 0.24153101 0.6632325 0.8238972
0000e0 3e 37 97 3f 16 c7 99 3e 58 d0 ef 3d 80 ec bb 3d
       1.1813734 0.30034703 0.1170966 0.09175968
0000f0 af 7e be 3d 71 e7 b2 3e 70 51 d2 be 12 80 7c be
       0.09301507 0.349422 -0.41077757 -0.2465823
000100 8a 7d 97 be 6c fa 3b 3e 87 0c 79 be 95 f8 8d 3e
       -0.29587966 0.18357247 -0.24321185 0.27728716
000110 8e 03 9a be 52 c7 0a be 60 02 bf 3c 50 b6 80 bd
       -0.30080837 -0.13552597 0.023316562 -0.06284773
000120 9e 9c d2 be c2 f3 11 bc 8d 67 d6 3e c0 50 27 bd
       -0.41135114 -0.008908214 0.41875878 -0.040848494
000130 80 ea 18 3e 4c ac 49 3e 75 75 45 3d 17 31 96 3b
       0.14933205 0.19694632 0.04820772 0.0045834887
000140 93 12 2d be 44 75 96 bd 60 3c b7 bd 80 3b 82 3c
       -0.16901617 -0.073465854 -0.089470625 0.015897512
000150 1d 3e 05 be 23 a5 ab be 80 93 05 3e 10 7d c6 bd
       -0.13011976 -0.33524427 0.13044548 -0.096918225
000160 68 1d e4 3d a0 3a c2 3c 62 6d 69 3d c8 ec 3f bd
       0.11138421 0.023709595 0.05698908 -0.04685667
000170 f5 4f 73 3e ce 6c ca 3e 50 28 53 3d 48 21 97 bd
       0.2376097 0.39536136 0.051552117 -0.07379395
000180 31 ca c0 be ee 8b cc 3c ec 34 25 3e 78 b8 da 3d
       -0.3765426 0.024969067 0.1613347 0.10679716
000190 51 21 a7 be 5c 53 5f 3e 5d 03 a9 3e 93 2d 81 be
       -0.32642606 0.21809143 0.33010378 -0.25230083
0001a0 a1 2b 87 bd 56 66 9f 3e 3a e8 92 3e 98 fe 95 3e
       -0.066001184 0.31132764 0.286928 0.29295802
0001b0 43 fe 8e be a2 7e c3 be 88 72 11 be 7f 5f 6c be
       -0.2792836 -0.3818255 -0.14203846 -0.23083304
0001c0 78 63 9b 3e c2 4c b6 3e 72 30 b9 be b6 2e 96 3d
       0.30349326 0.35605437 -0.36169773 0.07333128
0001d0 02 6f 9e be 20 d3 26 3e f4 d7 b2 bd 60 2a a1 bc
       -0.30944067 0.16291475 -0.08732596 -0.019673526
0001e0 ba 7e 95 bd b9 a2 5b 3e 8d 86 d2 be c8 17 ae 3e
       -0.07299562 0.21448793 -0.4111828 0.3400252
0001f0 e8 f0 9d be a0 f6 02 3e bf c6 53 3f cf 1f ab 3e
       -0.3084786 0.12789392 0.8272514 0.33422706
000200 1b 6b aa 3e 46 7d 18 be b8 a1 b8 3d a8 88 6e bd
       0.3328484 -0.14891538 0.090152204 -0.058235794
000210 29 28 2b bd e6 90 2e be 17 b2 bd be c4 0e 2e 3e
       -0.041786347 -0.17047462 -0.37049934 0.1699782
000220 80 47 10 bc 00 50 3a ba 6a ac 8b 3e 4e 28 70 3e
       -0.008806109 -0.0007107258 0.2727998 0.23452875
000230 51 df 0f be 3a 03 bd 3e e2 1c a7 be a4 db db bd
       -0.14050032 0.36916524 -0.32639223 -0.107352525
000240 9a b4 7c bd 77 70 0a bd 1a 69 00 bf 60 d2 17 be
       -0.061695673 -0.03379866 -0.5016037 -0.14826345
000250 46 86 98 3e 00 10 51 39 cb 20 b6 bd 50 f7 b7 3e
       0.29789943 0.00019937754 -0.088929735 0.35930872
000260 81 69 53 3e 74 f2 51 3e 1c cd 58 3e 50 29 c4 3e
       0.20645715 0.20502645 0.21171993 0.3831277
000270 c7 e5 cf 3e 54 15 22 3b 5e 1a dc be 08 ee b3 3e
       0.40604994 0.002473195 -0.42988867 0.3514254
000280 55 22 9f be 40 d7 28 bd f3 57 88 be 71 27 2d bc
       -0.3108088 -0.041220903 -0.266296 -0.010568486
000290 da 08 95 be 1d ca bb be 7c ab 73 be 40 49 c1 3d
       -0.29108316 -0.36677638 -0.23795885 0.094377995
0002a0 96 79 1e 3d d9 31 2c 3e 58 cc 7b 3e 80 f8 56 3c
       0.038690172 0.1681589 0.2458967 0.01312077
0002b0 e3 da 5f be d3 5b 5d be f5 ca 9e 3e 0a cb bd 3e
       -0.21860842 -0.2161706 0.3101422 0.3706897
0002c0 a8 ee 2e be 4e b2 89 3e 00 0e 40 bc e0 51 91 bd
       -0.17083228 0.26893848 -0.011722088 -0.070956945
0002d0 14 88 06 3f f6 11 4d be 27 e9 e0 3e 2a f0 1a be
       0.5255139 -0.20026383 0.4392788 -0.15130678
0002e0 37 5c a1 be 1e fd 4c be 88 41 49 3d c5 f4 ba 3d
       -0.31515667 -0.20018432 0.04913476 0.09128717
0002f0 60 b0 53 bc a4 d1 9b 3d 45 2b 7d be c6 1a 94 3e
       -0.012920469 0.07608345 -0.24723537 0.28926677

conv1.bias f4 [32]
000000 d6 e2 2b be e2 89 51 3e 2f db 1d bd 42 3d 8f be
       -0.1678575 0.20462754 -0.038539108 -0.27976424
000010 55 a2 6a 3e 0e e7 9a 3e 1c 7c a4 be 5f 4b 99 3e
       0.22913487 0.30254406 -0.32125938 0.29940316
000020 0b e3 50 3e 86 01 98 3e bb b8 58 be 76 4f 87 3e
       0.2039911 0.29688662 -0.21164219 0.2642781
000030 71 c8 6a 3e d0 37 ac be e3 36 c5 3e c8 21 31 3e
       0.22928025 -0.33636332 0.38518438 0.17298043
000040 56 04 cc be e2 6c 48 be 69 a7 80 bd 99 85 bd be
       -0.39847058 -0.19572785 -0.06281931 -0.3701599
000050 b1 5d 6b be 0e 81 84 3e d5 07 ac bd b2 97 ef be
       -0.22984959 0.2587971 -0.08399931 -0.46795422
000060 9b 41 86 bd 2f d0 1b 3e 63 bd a6 3e b7 0d f8 3f
       -0.06555482 0.15216134 0.32566366 1.9379185
000070 af 84 8f 3e 94 00 48 3e 0e 8a 29 3f 7f f2 ba be
       0.28030917 0.1953147 0.6622628 -0.36513135

conv2.weight f4 [32, 32, 3]
000000 1b f3 90 3d a2 23 74 bd 8f ea eb bc 73 53 fc bd
       0.07077619 -0.059604295 -0.02879837 -0.12320604
000010 b3 72 ee bd 4c d2 ba bd 9e 0c fb 3b 23 a2 02 bd
       -0.11642971 -0.09122142 0.007661416 -0.031892907
000020 1e f2 92 bd 99 8b 5b 3d 88 59 86 3d 0a 15 da 3d
       -0.071750864 0.053599928 0.065600455 0.10648544
000030 4e ea 35 bd 50 a8 2f 3d 1d eb 8b bc 33 b4 a6 3d
       -0.044412903 0.042885125 -0.017079884 0.08139839
000040 3b a4 60 3d b6 3e 1d bd b2 3c be bd 72 6a 46 3c
       0.054844122 -0.038389884 -0.092889205 0.0121103395
000050 00 75 1d 3d 94 01 13 be ab de b4 bd 14 5c 60 bd
       0.038441658 -0.14356071 -0.08831533 -0.054775313
000060 30 f3 f7 bd 1d f0 7a bc 12 4d e7 bc 11 67 a5 bd
       -0.12106931 -0.0153160365 -0.028234992 -0.08076299
000070 90 58 ae bd b2 d3 d5 bd 30 82 72 3d 41 47 c6 3c
       -0.08512986 -0.10440768 0.059206188 0.024203898
000080 f9 c3 61 bd 56 0a 1e 3d 88 bf d3 bd af 04 96 bd
       -0.055118535 0.038584076 -0.10339266 -0.07325112
000090 15 31 e3 bd b7 c7 30 bd 76 18 ef 3b 42 3e 89 bd
       -0.11093346 -0.043159213 0.007296617 -0.06701328
0000a0 7c 0c 67 bd 27 39 88 bd f5 dc 0d bd 7a f6 56 3d
       -0.05640839 -0.06651526 -0.03463455 0.052481152
0000b0 3a 3a 78 3d 3e 50 e6 3c 9b 6c 0c bd e3 ce 1f bb
       0.060602404 0.028114434 -0.03428326 -0.0024384789
0000c0 78 c9 9f 3d f3 82 d8 3d db 09 5f bc 78 27 a1 bd
       0.07802099 0.105718516 -0.01361319 -0.07868856
0000d0 cb 14 9e bd 46 f0 ad bd 64 83 ae bd 50 ab b9 bd
       -0.0771881 -0.08493094 -0.085211545 -0.090658784
0000e0 b3 ac 85 3d 9a 08 c5 bd d5 82 ed bd 04 7e a1 bc
       0.065270804 -0.09620781 -0.1159722 -0.01971341
0000f0 6b 4c 79 3d 50 67 92 bd 66 d2 9d bd 68 7e d7 3c
       0.060863893 -0.071486115 -0.07706146 0.026305392
000100 54 d0 d7 bc d1 83 7e bc e5 96 a3 bd 04 11 80 3c
       -0.026344456 -0.015534357 -0.07987765 0.015633114
000110 02 56 b7 bd a4 85 c0 bc 90 f6 78 3c 54 f9 a4 3d
       -0.089519516 -0.023501225 0.015195504 0.08055368
000120 8b 3e 8f bd 1a 4a f0 3d ef ae a1 3d c2 c8 e2 bd
       -0.06994351 0.11732884 0.07894694 -0.11073448
000130 46 ca bd bd 27 04 b9 bd 3c bb ee 3c 38 49 fc bc
       -0.09267096 -0.09033995 0.029142015 -0.030796632
000140 7f 24 77 3a 4b 75 a9 3d 4c 8b e1 3d 6c 84 00 bd
       0.00094277406 0.08274325 0.11012897 -0.031376287
000150 d6 e5 df bd ff a0 23 3c 6b 21 1e 3d 6e de 8e bc
       -0.109325096 0.009987115 0.03860609 -0.017440047
000160 b8 16 a7 bd 89 76 dd bd 34 5e 4f 3d 3b cf be bc
       -0.0815863 -0.108136244 0.05062695 -0.023292175
000170 21 33 91 3c 31 56 6d bd f8 2d 72 bd d4 05 9a 3d
       0.017724575 -0.057943527 -0.05912587 0.07520643
000180 01 dd 9b bd ad be bb bd 1b 4e 99 bd 2f ec f2 bd
       -0.076105125 -0.09167228 -0.074856006 -0.11861455
000190 2c 44 21 3a 87 07 35 3d 8c ff 13 3d 72 55 8b bd
       0.0006151821 0.04419663 0.03613238 -0.06803407
0001a0 f4 bf 13 3d 37 75 21 3b 20 89 ce bd fd b5 ba bc
       0.036071733 0.0024636516 -0.10084748 -0.022791857
0001b0 b3 49 f5 3d 87 ed 21 3d a4 48 07 3e d3 d5 73 3d
       0.11976948 0.039533164 0.13211304 0.05953009
0001c0 82 06 04 3e cb ea a9 3c 46 3d 59 3d b6 07 a9 bd
       0.12893108 0.02074184 0.05303695 -0.08253424
0001d0 93 28 ce bc 85 2f cf 3d 6e 6c f4 bc 24 88 0d bb
       -0.025165832 0.101164855 -0.02983686 -0.0021596039
0001e0 f3 b9 3f 3d 86 6f f3 3b ea db d2 bd 94 9e 92 bd
       0.046808194 0.007429066 -0.102958515 -0.071591526
0001f0 fe 08 1b be 50 cf 40 bd f2 01 01 be c1 e4 95 bb
       -0.15140149 -0.04707271 -0.12598398 -0.0045743887
000200 b2 2d ac bc 8c 87 f4 3b a2 a8 49 3c 66 6c c0 bd
       -0.021017883 0.0074624475 0.012308272 -0.09395675
000210 d6 88 1e 3d a8 5d dd bd e9 45 81 3c 7a 1a 8d bc
       0.038704716 -0.10808879 0.015780406 -0.01722454
000220 35 17 1b bd 9a 39 fd 3d ff c2 0e be 59 3e 7a 3d
       -0.03786393 0.12364502 -0.13941573 0.061094616
000230 0f 26 dc bd b4 dd c9 bc c3 95 8d bc 85 9b 4f 3d
       -0.107494466 -0.02464185 -0.017283326 0.050685424
000240 3d be 17 bd cd c6 33 3c 85 aa 48 3d 24 eb f6 3b
       -0.03704666 0.010972691 0.048990745 0.007535355
000250 b3 75 c2 3d ea 1d 2d bb 2d 40 76 bb 8b 20 c1 3d
       0.094951056 -0.0026415535 -0.0037574873 0.09430035
000260 9a 29 4c 3d be b8 63 bd bb 42 7a bd d1 62 aa 3d
       0.04984436 -0.055596106 -0.061098795 0.08319629
000270 40 a1 d0 3d 9b 7c 88 bb 9e 77 46 bd 46 c3 9e 3d
       0.10187006 -0.0041652448 -0.04845392 0.07752089
000280 88 c0 39 bd b0 14 b0 3d 22 ae 71 3d ee fb 9c bd
       -0.045349628 0.08597696 0.059003957 -0.07665239
000290 5e 46 81 3d 82 f9 69 bd ba 8c ad bd 37 29 a9 bd
       0.063122496 -0.057122715 -0.08474107 -0.08259814
0002a0 6c b9 57 3d 55 d9 11 3d 2d 74 b1 3d f5 a7 0f bc
       0.052667066 0.035607655 0.08664737 -0.008768071
0002b0 d5 53 56 bd f2 28 3e 3d eb 92 0b 3d 22 9f 20 3e
       -0.052326042 0.046425767 0.03407566 0.15685704
0002c0 63 a9 09 bd 94 17 e0 bd 95 38 90 3c 7a 79 11 be
       -0.033608805 -0.10941997 0.017605105 -0.14206496
0002d0 eb bc 7e bc 1e 66 97 3d 7b 17 57 3d 76 d1 18 3d
       -0.015547971 0.07392524 0.052512627 0.037309133
0002e0 12 17 03 3e 96 55 c7 3d 14 86 fb 3d e0 47 2b bd
       0.1280177 0.09733121 0.12281433 -0.041816592
0002f0 3a 00 b1 3c c4 b5 f1 bc 79 e3 c6 3d bc ce ec 3c
       0.021606553 -0.029505618 0.09711356 0.028907172
000300 f7 af 95 ba e0 48 87 3b c9 88 55 3d 8a 49 05 bd
       -0.001142024 0.0041285604 0.0521324 -0.032540835
000310 aa 35 8d 3d e2 b6 8d 3d ae eb 48 bd a3 e4 86 3d
       0.06895001 0.06919648 -0.049052887 0.06586578
000320 36 05 ac bc 68 84 18 3c 59 90 7f 3d 67 58 f7 3d
       -0.020998579 0.009308912 0.06239352 0.12077408
000330 85 f2 d5 3c 42 cf 5e bd 85 0e 12 bd f4 9f 50 bd
       0.026116619 -0.054396875 -0.03565838 -0.050933793
000340 e1 19 b7 bd b8 3f 18 3d 0d 16 b4 3d bf a4 91 3d
       -0.08940483 0.037170142 0.08793268 0.07111501
000350 c5 ff 89 bd 87 fa 1a bd 7f 56 06 3c 4d f3 72 bd
       -0.06738237 -0.037836578 0.008199333 -0.05931406
000360 c9 67 64 bd 40 ad e5 bc 18 1d f1 bb 13 6f 91 bd
       -0.05576304 -0.028036714 -0.0073582046 -0.07101264
000370 30 74 00 3d 62 1b 32 bd 53 d0 e3 bd 0d 42 a9 bd
       0.031360805 -0.043483146 -0.11123719 -0.08264551
000380 b5 66 5b 3d 51 14 0b 3d 05 be bf 39 7f 6f 49 3d
       0.053564746 0.033954922 0.00036571934 0.049178597
000390 d6 74 35 3b 3e 2d a6 3d 4f 22 aa bb ef 59 bf 3c
       0.0027688048 0.08114098 -0.005192078 0.023358313
0003a0 66 a1 9f bd 70 60 8d bd 86 2f d1 3d 29 87 9a 3d
       -0.07794456 -0.069031596 0.102141425 0.07545311
0003b0 b1 de 29 3d 33 fa 38 3d 43 8d 6e bd 9c 78 36 3a
       0.04147214 0.045160484 -0.058240186 0.0006960721
0003c0 09 75 78 3d e5 22 d3 3d da 88 69 3c a2 53 4f 3d
       0.06065849 0.1030939 0.014253819 0.050616868
0003d0 15 05 12 3d 56 7e 8e 3d 62 46 3d bd ac b6 94 bd
       0.035649378 0.069576904 -0.0462097 -0.072614044
0003e0 b2 c7 07 3d ff f8 26 3d 84 69 7e bd c4 0b 81 3d
       0.03314943 0.040764805 -0.062112346 0.06301072
0003f0 79 e2 46 bd 9c 6c ff 3c eb 3f 60 3c 69 24 60 3c
       -0.048555825 0.031179719 0.013687114 0.013680556

conv2.bias f4 [32]
000000 dc d8 92 3a 77 0b bd bd 20 77 5b 3d 81 ae 1a bd
       0.0011203545 -0.09230702 0.053580403 -0.037764076
000010 fc 95 c7 3d 73 69 cb bd e6 66 36 be c2 e6 58 3d
       0.09745404 -0.09932222 -0.1781269 0.052954443
000020 00 51 ef 3d 6a 24 6d 3d 4e 83 ce 3c 5c 89 07 3e
       0.116853714 0.057896055 0.025209095 0.13235992
000030 da 47 a7 3b 9b 76 13 be 22 18 40 be b4 35 b1 bd
       0.005105001 -0.14400713 -0.18759206 -0.08652821
000040 c5 af 66 3d cf 1c 18 3d de 91 0c be 03 49 1a be
       0.05631997 0.03713685 -0.13727519 -0.15066914
000050 0e 9c 03 3d 6a 7c c4 3d a2 96 5d bd 3b a1 7a be
       0.032131247 0.095940426 -0.054098733 -0.24475567
000060 a3 9c d8 bc 31 f4 e2 3d dd 64 8c bd 4a a5 e8 bd
       -0.026441878 0.11081732 -0.06855176 -0.113596514
000070 cc df a7 3d 3d 3e 29 be b3 9e b5 bd 59 c7 68 bc
       0.08196983 -0.16527648 -0.0886816 -0.014207684

conv3.weight f4 [32, 32, 3]
000000 bf 99 8b 3c 63 6b 87 3c 78 73 93 3d 28 8d 02 bd
       0.017041085 0.016530698 0.07199758 -0.0318729
000010 a9 7d 23 be fa 9c fa bd a8 0d a7 3d ce 47 6a 3d
       -0.15965904 -0.12236972 0.081569016 0.057197385
000020 dd 6b 9c 3d cd 19 19 bc 3b 26 88 bd f5 38 d7 bd
       0.07637761 -0.00934453 -0.06647917 -0.105089106
000030 8f e5 ec 3d ea aa 69 bb 29 0a a8 3b e3 18 da bc
       0.11567222 -0.0035654851 0.0051281643 -0.026623195
000040 73 ef 64 bd 7a b9 91 bb c6 6f 0d be bd 71 68 bd
       -0.05589242 -0.0044471594 -0.1381217 -0.056749094
000050 d8 4b 98 bb 3d 10 1e bd 86 dd be 3b 92 46 95 3d
       -0.004647713 -0.038589705 0.0058247475 0.07288851
000060 df be a6 bd 66 b2 58 3c 55 20 a3 3d c2 d6 c2 3c
       -0.081418745 0.013226127 0.07965151 0.023784045
000070 9c dd 9e 3d 25 19 f7 3c 0e 30 90 3d 64 6c 9c 3d
       0.077571124 0.030163357 0.07040416 0.07637861
000080 4d cf d2 3c 2e b8 b3 bd 0f 43 51 bd 96 a8 82 3d
       0.025733614 -0.08775364 -0.051089343 0.063798115
000090 48 83 17 be 36 88 12 bc dd df 67 bd 4a 3b 26 bd
       -0.14796174 -0.008943608 -0.056609977 -0.040583886
0000a0 e7 45 e7 bb 6a 19 96 3c 1f aa 1f be 44 06 e7 bd
       -0.0070578936 0.018322665 -0.1559224 -0.11280492
0000b0 fa 28 bd bd 7e e7 8f bd 44 19 85 3c 7b 15 d4 bd
       -0.09236331 -0.070265755 0.0162474 -0.103556596
0000c0 1c 06 43 bb 7e 2f 62 3d 0d d8 65 bc 84 0d 61 bd
       -0.002975828 0.055221073 -0.014028561 -0.05494453
0000d0 4b e6 a8 bd d9 b1 a5 bd 39 7d e7 bd fa 4f 1e be
       -0.0824705 -0.080905624 -0.11303181 -0.15460196
0000e0 6e f2 32 be 7d 45 29 be 4f 22 b8 bc 54 e1 72 bd
       -0.17475292 -0.16530414 -0.022477297 -0.05929692
0000f0 ef ab 1c 3d 87 13 e9 3c 9c 62 07 bd 42 50 3b 3d
       0.038249906 0.028451694 -0.033053026 0.045730837
000100 f2 fe 8b 3b 5e 3f a8 3c 5c 3d 81 bd 8c 30 bc 3d
       0.004272335 0.020538028 -0.063105315 0.09188947
000110 3c bf 42 3d 4d 4b 89 bd db e9 8f bd e1 ae 94 bd
       0.047545657 -0.067038156 -0.07027026 -0.07259918
000120 b1 ef b0 bd 58 09 64 bd cd 12 bb bd 5f 6a 58 bd
       -0.086394675 -0.055672973 -0.09134445 -0.05283582
000130 5d ce 7a bb 76 1c 44 bd ee 21 14 be b9 a7 73 bd
       -0.0038269975 -0.047878705 -0.14466068 -0.059486125
000140 77 85 35 bd 2b cc 50 bd ac 4d 49 3d 0f ef 94 bd
       -0.044316735 -0.05097596 0.04914634 -0.07272159
000150 18 db ef bc d0 e5 07 3e e4 fb 0c 3e 3c 6f f9 bc
       -0.029279277 0.1327126 0.13767964 -0.030448548
000160 d2 8c 82 bd bc b2 cc bc 55 03 07 bd fa 9c 2d 3d
       -0.063745156 -0.024987571 -0.032962162 0.042386033
000170 ef 25 6d bd 68 77 e4 bc 74 97 b8 3d 6c 3e af 3d
       -0.057897504 -0.027888969 0.090132624 0.08556828
000180 54 f7 a7 3d 25 ea 69 3d b5 de 55 3d 39 8f 63 3c
       0.08201471 0.057108063 0.052214343 0.013889127
000190 af dc 90 3d 94 5f 30 bd aa aa bb 3c 57 2d 89 3d
       0.07073342 -0.0430599 0.022908527 0.06698101
0001a0 95 35 13 3d 31 b7 d3 3d c5 2c 58 bd 6c b6 0f bd
       0.03593977 0.10337675 -0.05277707 -0.03508608
0001b0 26 64 dc 3d 5c 45 32 bc 81 64 e0 3d 1f 42 af bc
       0.10761289 -0.010880794 0.109566696 -0.021393834
0001c0 2e 88 89 3c 95 5c f6 3b b6 f7 ee 3c c1 f9 b6 3d
       0.016788568 0.007518361 0.029170852 0.089343555
0001d0 5f c9 34 bd db 87 33 3d 73 59 cb 3c cd 28 32 3d
       -0.044137355 0.043830734 0.024822926 0.043495942
0001e0 24 1f 94 bc 91 c4 1c 3e e0 c4 36 bd 3b a8 32 3d
       -0.018081255 0.15309359 -0.04462135 0.04361747
0001f0 fa 55 51 3d a1 e6 98 bc c0 3d c7 3d a9 e6 cd 3d
       0.051107384 -0.01866466 0.09728575 0.100537606
000200 5d 30 a6 bd cb fe b0 bc 96 ce 5c bc b9 44 9c bb
       -0.08114693 -0.02160587 -0.013476988 -0.0047689346
000210 04 7e af 3b e3 17 92 bc ad ec 82 3c 12 89 83 3c
       0.0053555984 -0.017833656 0.015981996 0.016056571
000220 28 b7 22 bd 6c 67 e8 bd 0e 53 e8 3d 60 48 d8 3d
       -0.039725453 -0.11347851 0.113439664 0.105606794
000230 5a 33 55 3d 13 f4 cc 3d d0 12 26 3d 16 4f 8b bc
       0.052050926 0.10007491 0.040545285 -0.017005485
000240 4c 8a 13 3c 9d 04 12 bd b0 93 d3 3d 4c 0d 5d bd
       0.0090051405 -0.03564893 0.103309035 -0.05396776
000250 5d 50 d6 3d 37 f9 8b bd 0f ac 90 3d aa 68 7f bd
       0.10464547 -0.06834643 0.070640676 -0.062355675
000260 49 13 1d bd f4 58 f4 bc fa 6f e9 bd 81 65 aa 3d
       -0.03834847 -0.029827572 -0.11398311 0.083201416
000270 e8 00 ff 3d b5 79 da 3d 71 ce 6b 3d 66 52 0f 3e
       0.12451345 0.10667745 0.057569925 0.13996276
000280 fc e0 74 3d d9 18 18 3d ed 14 5f 3c 2f 2a 06 3e
       0.059784874 0.03713307 0.013615829 0.1310203
000290 74 2d 20 3e d4 3e 8c 3d d8 5c b4 3d d3 24 98 3d
       0.15642339 0.06847921 0.08806771 0.07428899
0002a0 4a d9 13 bd 88 c7 6b 3d 71 08 6a bc 09 b4 c2 bc
       -0.036095895 0.057563335 -0.014284239 -0.023767488
0002b0 5d 08 8a bd 89 eb 8f 3c 4c fb bb bd 0b 55 28 3d
       -0.067398764 0.017568367 -0.091787905 0.04109673
0002c0 02 d1 04 be c8 3e d3 3c 42 86 ac bc 10 dc 6f 3d
       -0.12970355 0.025786772 -0.021060113 0.058559477
0002d0 16 c4 00 3e 86 17 a1 3d 4e bf a6 3d 26 9b f8 bc
       0.12574801 0.07865815 0.08141957 -0.030347418
0002e0 bb d7 6b bd e9 ba 9f 3d 82 89 fd bc 96 0a b8 bb
       -0.057578783 0.07799322 -0.030949358 -0.0056164963
0002f0 d3 2e 89 3d c0 23 43 3d c9 e6 96 bd 64 16 ba 3c
       0.06698384 0.047641516 -0.073682375 0.022715755
000300 4d 88 2b bd e6 0a 19 bc f6 c5 cc b8 bb 41 9a 3d
       -0.041878033 -0.009340977 -9.764351e-05 0.07532068
000310 53 9a c1 3d 26 a0 ed bc 09 f5 d8 bc 23 1f 92 bd
       0.09453263 -0.029007029 -0.02648403 -0.07134845
000320 b4 f2 88 3d 65 f4 47 bd a2 1b b6 3d 34 22 db bc
       0.06686917 -0.048817057 0.08891989 -0.026749708
000330 7a 58 92 bc bc b8 5a bd 2e 8d ff 3c 95 dc 3f bc
       -0.017864455 -0.053398833 0.03119525 -0.011710306
000340 d8 91 7e bd e5 3a c3 3d dd e2 27 bd 1e c5 aa 3d
       -0.062150806 0.095327176 -0.040987838 0.08338378
000350 c4 2a 56 bc d5 a4 9a bd fe 11 b7 3d af 39 04 3d
       -0.01307172 -0.075509705 0.089389786 0.032281574
000360 00 13 2c bd ea 19 51 3d 9e 0f 87 3d f6 56 0c bd
       -0.042010307 0.051050104 0.065947756 -0.03426262
000370 4e ef 54 3c 5b 61 18 3d 2f 06 13 3e 3d 5a 80 3d
       0.012996508 0.03720222 0.14357828 0.062672116
000380 1e e7 9f 3c 1d b2 01 3e 22 18 4f 3c 24 44 5d bd
       0.019519385 0.12665601 0.012640031 -0.054020062
000390 ec db f0 bc 96 02 3b 3d be 47 1c bc 11 cb c1 3d
       -0.029401742 0.045656763 -0.009538589 0.0946256
0003a0 83 7f 41 3d e3 b9 17 bd 48 02 d1 bc c7 41 e3 3c
       0.047240745 -0.03704251 -0.025513783 0.027741326
0003b0 c8 74 ce bc f3 23 d2 bb 20 9e 53 3c ce 16 6a 3d
       -0.02520217 -0.006412977 0.012916118 0.057150654
0003c0 c2 b7 28 3d 6b 44 14 bc c8 32 32 3d 11 47 f2 3d
       0.04119087 -0.009049515 0.04350546 0.11829961
0003d0 ab 2d 8e bd a0 6b 5b bd 4c 32 e2 bc 6e 3c b1 bc
       -0.06942304 -0.053569436 -0.027611874 -0.02163526
0003e0 71 ca f4 bc bb fc 6f 3d 6b 1c f9 3d 89 13 7c 3b
       -0.029881688 0.058590632 0.121636234 0.0038463792
0003f0 37 20 ea 3d 4e 58 74 3d 73 3a 92 bc 46 af 8a bd
       0.11431926 0.059654526 -0.017850136 -0.06771712

conv3.bias f4 [32]
000000 c5 90 4e bc c7 9a e9 3c c2 8c ce bd b5 16 b4 bd
       -0.012607758 0.028516186 -0.10085441 -0.087933935
000010 ee c1 2b bd 44 e5 01 3e 94 16 b6 bd 00 b9 9a bd
       -0.041932993 0.12685114 -0.08891025 -0.07554817
000020 dc 0d fc bd bc 30 98 3d 9c 0a c4 3d 24 cd 1f 3e
       -0.12307331 0.0743117 0.09572336 0.15605599
000030 c9 41 b0 bc 24 99 27 bd 95 c8 be bd f1 83 c5 bd
       -0.021515744 -0.04091753 -0.09315602 -0.096443065
000040 38 49 80 3d 99 2f 75 bd 17 76 6d bc 01 49 e3 3c
       0.06263965 -0.059859846 -0.014493487 0.027744772
000050 ec 9b 18 ba c8 cb f7 3d 0f d9 f9 bd ca 19 55 3c
       -0.0005821574 0.12099415 -0.12199604 0.013006637
000060 52 e6 c1 bc 41 d6 03 3e 59 16 43 3d 62 67 8f bc
       -0.023669396 0.128747 0.047628734 -0.017505351
000070 7f 05 12 bd f3 2b ee bb 7e 89 e4 3b 96 4d ef bd
       -0.035649773 -0.0072684227 0.006974398 -0.1168472

conv4.weight f4 [32, 32, 3]
000000 69 29 eb bd 91 e7 f0 bd 93 2a b1 bd 33 a0 fe bd
       -0.11482508 -0.11762918 -0.086506985 -0.12432899
000010 a7 d8 94 3d fc 06 7c bd 9c 30 a8 bd bd 4b 7d 3d
       0.07267886 -0.0615301 -0.082123965 0.061839808
000020 6b f1 f4 3d af 28 17 3e dc 7a ce 3d ea a0 e6 3c
       0.11960109 0.14761613 0.10082027 0.028152902
000030 66 73 06 bc 19 71 f7 bc 41 11 21 be 64 38 a1 3d
       -0.008206224 -0.030205296 -0.15729238 0.07872084
000040 4b 99 25 bd d6 91 f8 bc 75 57 84 3d 59 89 b7 3d
       -0.040429395 -0.030342977 0.064619936 0.08961744
000050 47 50 8f bc 6e 9d 89 bd bc 10 37 bc 27 93 63 bd
       -0.017494334 -0.067194805 -0.011173423 -0.055560257
000060 ae 36 41 bd 38 47 a2 3d 90 b4 35 bc 78 12 a4 3d
       -0.047171287 0.0792374 -0.011090413 0.08011335
000070 41 99 ab 3d 0f ff a4 3d 22 ea c4 bd 68 f9 ac bd
       0.0837884 0.08056461 -0.0961497 -0.08446008
000080 85 f6 a7 3d 1d 7d 7f bd 17 b9 9a bd ef a5 d6 3c
       0.08201317 -0.062375177 -0.07554834 0.02620217
000090 b5 59 1e 3d 6a 01 8e bd fd 2d 77 bd 24 b7 08 3e
       0.03865977 -0.069338635 -0.060346592 0.13351113
0000a0 58 8e 99 3c 9b fe 7c bd c2 dc 3c 3b 79 18 fc 3d
       0.018744633 -0.06176625 0.0028818105 0.12309355
0000b0 e0 62 92 bd d9 51 3d bd 8f 49 f7 bc 4c ad 9f bb
       -0.07147765 -0.046220634 -0.030186443 -0.0048729535
0000c0 94 60 8f 3c a0 c4 9c bc bc 19 57 3d 32 86 e2 bc
       0.017502107 -0.019136727 0.052514777 -0.02765188
0000d0 c5 7e 42 bd 58 bc 0b 3d b9 a4 9b 3d 20 84 a4 bc
       -0.047484178 0.034115165 0.07599778 -0.020082533
0000e0 e6 52 98 bc 93 ce 9d bd e1 77 38 3d 3c b1 98 bd
       -0.018594217 -0.077054165 0.0450362 -0.0745568
0000f0 1a 60 86 bd 26 e8 cc 3c 68 16 70 bd ef 77 01 3e
       -0.06561299 0.02501304 -0.05861512 0.12643407
000100 76 60 76 3d 42 d8 d8 3c 47 59 ab 3d 06 ad 51 bd
       0.060150586 0.026470307 0.08366638 -0.0511904
000110 15 da aa bd de 72 51 3d 9d 5d 94 bd 28 13 80 3b
       -0.08342377 0.051134937 -0.07244418 0.0039085336
000120 bc fe c1 3d 04 e4 a7 3d 77 fd c3 3d f2 bd e4 3b
       0.09472415 0.081977874 0.09569829 0.006980651
000130 93 dd 93 bd 2f 65 97 bd 50 9e 26 3d 65 63 9b 3d
       -0.07219996 -0.07392346 0.040678322 0.075873174
000140 36 14 93 3c 5f 5c 19 3d dc e1 86 3d a9 38 11 3d
       0.017953973 0.037441608 0.06586048 0.035454426
000150 d2 da 77 bd 5d f0 8c 3c 77 2a 70 bd ae 65 cc bd
       -0.060511418 0.017204458 -0.058634248 -0.09980331
000160 a7 d0 9c bd 7f a1 b5 bd bc eb c7 bd 9b 73 98 3d
       -0.07656985 -0.088686936 -0.0976176 0.07443925
000170 6c cf cf ba 32 f1 ea bb 3a 27 86 bd e1 4a 47 bc
       -0.0015854663 -0.007169866 -0.065504506 -0.012163849
000180 af 04 a5 bd 72 29 8d 3d 3f 72 ad 3d e8 1c 9a 3d
       -0.08057534 0.06892671 0.08469056 0.07525045
000190 64 f7 7d 3d 1f 6f bc 3d 04 a5 18 3d f5 3b 4a 3d
       0.06200351 0.09200882 0.037266746 0.049373586
0001a0 e0 89 7a 3d 51 60 a0 3d 63 f4 22 3d 7d cb 30 3d
       0.061166644 0.07830871 0.039783847 0.04316281
0001b0 aa 51 a6 bd 4d 72 2a bc 3f b7 ac bd 30 2e e7 39
       -0.08121045 -0.010403228 -0.08433389 0.00044094166
0001c0 08 e7 b7 3d 4c b8 0f 3d f8 b7 5c 3c bb 77 62 3d
       0.089796126 0.03508787 0.013471596 0.055289965
0001d0 da 23 9f 3d 50 5e 24 bd f0 2f 24 3d 7f 17 82 3d
       0.0777051 -0.040129006 0.04008478 0.06352138
0001e0 f9 d5 bf 3d fd f7 cb 3c b2 7b a3 bd b9 58 79 3c
       0.09366984 0.024898523 -0.079825774 0.015218907
0001f0 57 b8 b3 bd f3 7f 5a 3c d0 90 ac 3c a7 a3 26 3d
       -0.087753944 0.0133361695 0.021065146 0.040683415
000200 92 6f 1d 3d 26 19 d5 3c 06 94 e3 3d 60 80 03 3d
       0.03843648 0.026012968 0.111122176 0.03210485
000210 40 31 f5 3c ec 43 a7 3d 39 8b 3a 3c 73 99 5e 3d
       0.02993071 0.08167252 0.011385732 0.05434556
000220 fa 13 14 be 2b d2 7e 3d 00 0f dd 3c 36 e8 75 bc
       -0.14460745 0.06221215 0.026984692 -0.015008977
000230 8d 54 da 3d 75 38 40 3d 87 5a b9 3d b2 07 91 3d
       0.10660658 0.04692884 0.0905047 0.07081546
000240 72 5f 1d bd c8 7e 6b bd 6b a6 50 3d e0 df 07 bd
       -0.038421102 -0.057493955 0.05093996 -0.03317249
000250 3b 9f 9d 3d e0 61 99 3d e8 b2 98 3c 15 49 9e bc
       0.076963864 0.07489371 0.018639997 -0.019321958
000260 fd 4d e2 3c 16 4f 5b bc 53 eb 4d 3d 44 49 98 bd
       0.027625078 -0.013385555 0.05027325 -0.07435849
000270 59 da 47 3d 96 2f 42 3d 36 7e a4 3d 07 43 af bb
       0.048792217 0.047408663 0.08031885 -0.0053485665
000280 62 b3 2b 3d e3 2c 08 3d ca 51 42 bb 59 ec 56 bc
       0.04191912 0.033245932 -0.00296508 -0.013117873
000290 5e 31 16 3c c7 a4 8b 3d 7e ea 94 3c f6 1d 79 bc
       0.0091670435 0.06818538 0.01817822 -0.015204897
0002a0 fe 80 82 bd 33 1a 60 bd f2 18 5f bd 8d 55 65 3c
       -0.063722596 -0.054712486 -0.05446715 0.013997448
0002b0 6d 25 3d bc cb df 32 3d cd 5d b9 3d 14 9e 80 bd
       -0.0115445675 0.043670457 0.09051094 -0.06280151
0002c0 a9 4f 55 3d 6a 8f fd bc 7a 63 e5 bb bb be 50 3d
       0.052077923 -0.030952174 -0.007000384 0.050963145
0002d0 31 67 57 3d 2b 04 b6 bc cf 00 72 3d 16 fd 09 bd
       0.052588645 -0.022218784 0.059082802 -0.033688627
0002e0 97 48 b9 3c 33 87 99 3c e6 8f af 3d 19 23 e4 3d
       0.022617621 0.018741226 0.08572368 0.11139507
0002f0 a1 b8 b4 3d 49 31 9b 3d 58 99 35 bd a9 74 90 3d
       0.08824278 0.0757776 -0.044335693 0.07053501
000300 2a 96 45 3c 49 22 ef bc b4 fe 2f bd 14 e1 c9 bc
       0.012059728 -0.029191153 -0.042967513 -0.024643458
000310 bb 94 17 3c 80 48 3e 3d 68 ba 42 bd 36 a9 44 bc
       0.009251769 0.04645586 -0.047541052 -0.012003234
000320 96 89 cc 3b 64 c1 f7 3a 2d 27 ee bd 9b 44 52 bb
       0.0062419875 0.0018902239 -0.11628566 -0.003208435
000330 45 c2 8b bd d3 7a f1 bc fc 26 90 bc 42 55 08 be
       -0.06824163 -0.029477512 -0.017596714 -0.13313773
000340 3d dc 54 3d d3 a1 fb bc d2 a1 76 bb e1 f8 7b bd
       0.051967848 -0.030716812 -0.0037633074 -0.061516646
000350 78 8f 00 bd 59 bd cb bd b2 ed 16 3d b6 77 49 bc
       -0.031386822 -0.099482246 0.036847778 -0.012296608
000360 01 1a c3 3d ac 6e a3 bd 91 69 86 bd 3b ee 03 bc
       0.09526444 -0.07980093 -0.06563104 -0.008052404
000370 d0 8a a1 bd 2a de d4 bd ee 56 b6 bd ed c0 c5 bd
       -0.078878045 -0.10393937 -0.08903299 -0.09655938
000380 4f eb 54 3d 59 f7 1e be 52 72 d4 3c 42 2f 88 3d
       0.05198222 -0.15524043 0.025933418 0.06649639
000390 37 89 f1 3c 46 21 00 3d b9 13 eb bd a9 52 f1 bc
       0.029484374 0.031281732 -0.11478371 -0.02945836
0003a0 f2 75 ef bc a6 23 65 3c 0c 7d b3 bd f5 d3 90 bd
       -0.029231045 0.01398555 -0.08764085 -0.070716776
0003b0 39 9c b8 3c bb 98 84 bd df 38 47 3c 43 54 d3 bd
       0.02253543 -0.064744435 0.012159555 -0.10318806
0003c0 ce a3 ad bd b0 19 17 bd b1 9a 31 3d c4 77 f3 bc
       -0.08478509 -0.036889732 0.043360416 -0.029720195
0003d0 43 88 4c 3d 7b 60 ad 3d 27 5a 84 bd d0 58 72 3c
       0.049934637 0.08465668 -0.06462508 0.014791682
0003e0 e0 d7 c7 bd a4 6a a3 bd 7e bc e2 3d 39 1e d3 3d
       -0.09757972 -0.079793245 0.11071108 0.10308499
0003f0 8f 57 23 3d cb be 09 bd 50 2a fa bc f2 4d 75 3d
       0.039878424 -0.03362922 -0.030537754 0.059888788

conv4.bias f4 [32]
000000 b6 17 4c 3d 0c 3a b4 bd 86 55 91 bd f2 c0 55 bd
       0.0498273 -0.08800134 -0.070963904 -0.05218596
000010 18 3a af bd 2c 6a a7 bd 14 5c 8f bd f2 11 03 3d
       -0.085560024 -0.081745476 -0.069999844 0.031999536
000020 80 c6 81 bd 04 8f 17 bb 37 87 d3 bd bf 3d c7 bd
       -0.06336689 -0.0023126015 -0.103285246 -0.09728574
000030 5c 81 0f 3d 89 df 1b bd aa 0a 56 3d 60 9e 8c 3d
       0.035035476 -0.038054977 0.052256264 0.06866145
000040 24 5e 99 bc 10 ed a1 bc a5 58 e4 3c be 61 17 3d
       -0.018721648 -0.01976636 0.0278743 0.03695845
000050 c5 7e 02 be 56 ec 8e bd 06 df 1a 3d 8e 8c 8b bd
       -0.12743671 -0.06978671 0.037810348 -0.06813918
000060 74 d3 9d 3d 7a 86 38 ba 13 65 8e bd 53 2a ab bd
       0.07706347 -0.00070390815 -0.06952872 -0.08357682
000070 ff 42 06 3d 1a 3b 0a bd cd 68 ac bd 0e 4c de bd
       0.032778736 -0.03374777 -0.08418427 -0.1085435

conv5.weight f4 [32, 32, 3]
000000 99 70 6c 3b 88 16 5e 3d ad 9b 4f 3d 35 37 3a 3d
       0.0036077856 0.054220706 0.050685573 0.045462806
000010 5e 25 0a 3e f2 86 ae 3d bb cd 6f 3d be 9d 68 3c
       0.13490817 0.085218325 0.05854581 0.014197765
000020 a4 84 62 3d ac ef 7f 3c 12 31 e3 bd 13 df 19 3d
       0.055302277 0.015621107 -0.11093344 0.037566256
000030 f4 34 88 3d ce 9c 03 3e 74 ea fb 3d 4d a4 80 3d
       0.06650725 0.12852785 0.12300578 0.06281338
000040 e2 3b 93 3d ef e5 ed 3d db e5 ba 3d fc d9 d9 3d
       0.07189156 0.11616122 0.09125873 0.1063728
000050 a7 19 ce 3c 53 14 ec bc 91 75 9f 3d 80 6f b6 bc
       0.025158716 -0.028818285 0.07786096 -0.022269964
000060 c1 d2 88 3d 83 5b a5 3d db 46 26 3d 1f ef 5e bc
       0.06680823 0.08074095 0.040594917 -0.013606816
000070 06 5e 97 3d 7f 74 e2 3c fe 71 c1 bd c5 36 5a bc
       0.073909804 0.02764344 -0.094455704 -0.013318722
000080 23 df 9f bd 0b fd 35 3d 3e 70 6c 3d 5c 39 f8 bb
       -0.07806232 0.044430774 0.05772423 -0.007575197
000090 59 b7 a8 3d 5d c2 34 3d 52 b0 76 bd 35 16 89 3d
       0.08238096 0.04413067 -0.060226746 0.06693689
0000a0 2d 83 a1 3d 33 77 32 3e 8c 87 5d 3d 9e cf 7d bd
       0.07886348 0.17428283 0.054084346 -0.061965577
0000b0 58 cc 1d 3b 9f d1 a7 3c 6f d5 b1 bd df 0c 02 bb
       0.0024078097 0.020485697 -0.08683287 -0.0019844098
0000c0 5a 5c c5 bd b2 94 e0 bd 1b bb 09 3c 3e 73 10 3d
       -0.09636755 -0.109658614 0.008406426 0.035266154
0000d0 de e5 62 bd f6 42 08 3e 31 e9 09 3e 0f 7a 22 bd
       -0.055395 0.13306794 0.13467862 -0.039667185
0000e0 63 a1 00 bd 9f 61 29 3c bc 5e 94 3c 21 39 bb bc
       -0.03140391 0.010338216 0.01811158 -0.02285439
0000f0 90 d7 d9 3c f6 db a7 3d 5c ef ef 3d 92 19 28 3d
       0.026592046 0.08196251 0.11715576 0.04104001
000100 0f 73 22 3e 39 c4 11 3e fb 5b 0a be 5e 7a cc bd
       0.15864204 0.14235009 -0.1351165 -0.09984277
000110 d2 a2 22 bd 96 e8 f7 bc 9d 26 79 3d 6e 2d d6 bd
       -0.03970606 -0.030262273 0.06082784 -0.10457884
000120 cf f9 93 bc 29 72 83 bc 1e 9e 72 bc 18 26 0f 3e
       -0.018063454 -0.016045647 -0.014808206 0.13979375
000130 13 04 97 3c 0d a2 71 3d 23 29 f1 3d 7a 9c a1 bc
       0.01843456 0.058992434 0.11775424 -0.019727934
000140 c3 bf a0 3c a8 b7 8b 3c ec 55 2b bd 82 8f 51 bd
       0.01962269 0.017055348 -0.04182999 -0.05116225
000150 e5 5f 72 3c 3e 58 17 3d 09 93 07 3e 12 74 e1 bd
       0.014793371 0.03694939 0.13239683 -0.11008467
000160 24 94 92 bd 6c 9a 75 3d 46 ae c6 bc 91 e3 ca bd
       -0.07157162 0.05996172 -0.024253022 -0.09906686
000170 47 e1 86 bd b2 e9 55 bc 34 65 bc bd ce 74 7c bd
       -0.06585937 -0.013056206 -0.091989905 -0.06163483
000180 2c b9 5d 3d 16 5b f7 3d c0 cc 8a 3d 27 4b 49 bc
       0.05413167 0.1207792 0.06777334 -0.012285984
000190 af 8d 6c bb e7 fc 06 3c 25 b0 08 3d 45 b0 23 3d
       -0.0036095192 0.008239008 0.03337111 0.039963026
0001a0 83 57 4c 3d 93 fe ad bd 17 34 20 bd 27 96 33 3d
       0.049888145 -0.08495822 -0.039112177 0.04384437
0001b0 5d 96 d9 bd ed 20 51 3d 31 27 57 bd ee 2f 80 bc
       -0.10624383 0.05105679 -0.05252761 -0.015647855
0001c0 3c 9e a5 bd c0 09 cf 3c 93 4a f7 3c 24 c4 22 3d
       -0.080868214 0.025273204 0.030186927 0.039737836
0001d0 66 94 d8 bd 18 e2 24 bd bf 0d 00 be bb 70 84 3d
       -0.1057518 -0.040254682 -0.12505244 0.06466814
0001e0 b2 af 79 bd 5c 53 c1 3c 53 e4 89 3d 7c 67 0a 3c
       -0.06095857 0.02359932 0.067330025 0.008447524
0001f0 82 d7 83 bd c8 ff 80 3d 06 0d 98 bd ac 41 31 3d
       -0.06437589 0.062987864 -0.07424359 0.04327552
000200 74 8e 2f bc 99 98 a9 3d 01 ed 54 3c f4 ca 1e 3b
       -0.010715116 0.08281059 0.012995959 0.0024229856
000210 40 23 c5 bc c3 c7 6f bd 61 02 e9 3c ae e9 ed 3c
       -0.02406466 -0.058540117 0.028443517 0.029042091
000220 32 8a 67 3d 45 c8 05 be 4b da 15 3d 16 9c d0 bd
       0.056528278 -0.13064678 0.036585134 -0.10186021
000230 63 66 ae bd 6e 64 bc 3c 52 c5 51 3d c5 7b c7 3d
       -0.085156225 0.022997107 0.05121357 0.09740404
000240 19 e2 f2 bd 70 65 00 3e f4 75 8f 3d 02 e4 1c 3d
       -0.11859531 0.12538695 0.0700492 0.038303383
000250 e4 7a 8d bc 8b a0 0e bc 3a ac c7 3b d9 95 ab bd
       -0.017270513 -0.008705269 0.006093529 -0.083781905
000260 a0 bf bf bd 61 b7 6a 3d f3 29 1e 3c aa 97 e3 ba
       -0.093627214 0.05730379 0.009653556 -0.0017363925
000270 34 0a d5 3d a5 ce 1a bc 08 fc 34 bd d8 4f 02 3d
       0.10402337 -0.009448682 -0.04418567 0.031814426
000280 97 62 1d bc 5f cf ff bd db de 20 be 55 c7 bb bd
       -0.009606025 -0.12490725 -0.15710013 -0.09168879
000290 fd 37 99 3c 22 50 2a 3d f6 22 e9 bd ea bb d5 3c
       0.018703455 0.041580327 -0.113836214 0.026090581
0002a0 c1 0b 34 3b 61 ea 5d bd 83 de 35 3d d1 0e d9 bd
       0.0027472826 -0.0541786 0.044401657 -0.10598529
0002b0 75 e1 23 bd dc 21 f5 3c 5e 4c 1a bd 90 02 05 3e
       -0.040009934 0.029923372 -0.037670486 0.12989259
0002c0 f5 6f b8 3d d2 99 b3 bd 4e e5 f6 3c 12 28 4f 3d
       0.09005729 -0.08769573 0.030138638 0.050575323
0002d0 46 fb ae 3d c9 d1 47 bd 4d 76 09 be a2 8c d7 3d
       0.0854402 -0.04878405 -0.13424034 0.105248705
0002e0 d0 c3 a1 3d 1d 77 6d bc dd 74 eb bb 62 9c d4 3d
       0.078986764 -0.014493731 -0.007185562 0.1038139
0002f0 c7 2c cd 3d 46 88 be bd f2 36 82 bc b1 59 4b 3d
       0.10018306 -0.09303336 -0.01589534 0.049646083
000300 5b 66 16 3d 31 f9 5d 3d 10 fc 6f bc 1a 15 4c 3d
       0.036718708 0.054192726 -0.014647499 0.04982481
000310 4f 07 91 3c dd 0d 1f 3e cd ce 96 bd 4a 44 6e 3d
       0.01770368 0.15532632 -0.07363663 0.058170594
000320 27 f3 81 bd 41 c1 29 bd 42 98 e7 3c f0 25 11 3d
       -0.06345206 -0.041444067 0.028270844 0.03543657
000330 58 fd f2 3b 88 b9 24 3b 33 4a 27 bc 09 5a 44 bd
       0.007415455 0.0025135 -0.010210562 -0.047937427
000340 31 6a 89 3d 59 82 76 3d 50 9b 0e bc 4b 64 ba 3d
       0.067097075 0.060182903 -0.008704022 0.091011606
000350 49 9f 87 3c b8 af f8 3c fc f2 95 bd c3 97 80 bd
       0.016555445 0.030357227 -0.07321736 -0.06278946
000360 81 3d 0c 3e 99 38 14 bc d6 38 b1 bc a1 df a0 3c
       0.13695337 -0.009046697 -0.021633547 0.019637885
000370 bc 55 a6 3c df 44 24 3e bf 36 28 bd 92 ef 84 3d
       0.020304553 0.16041897 -0.041067835 0.06491007
000380 ae 2b ab bd 6f ea 52 3a 8d 42 b2 3d cf 5a 3e 3d
       -0.083579406 0.00080457976 0.087041 0.04647332
000390 10 56 19 3d 07 73 b0 3d 89 68 22 3d bb 8d a0 bb
       0.03743559 0.0861569 0.039650474 -0.004899708
0003a0 95 a7 db 3d 69 6b 8b 3c 42 56 01 bd d3 79 1b bd
       0.10725323 0.01701899 -0.031576402 -0.037957978
0003b0 88 da 4c bd f4 11 8a bc a1 3c b6 3d e1 82 bb 3c
       -0.050013095 -0.016854264 0.08898283 0.022889556
0003c0 6d 8e 8a bc f8 40 0d 3d 0e 02 f1 bd 78 9e db 3c
       -0.016913617 0.034485787 -0.1176797 0.026808962
0003d0 71 39 24 3d c7 79 44 bd 46 83 d7 3d ca cf e5 3d
       0.040093843 -0.0479677 0.10523085 0.11221273
0003e0 50 86 44 3c 22 a3 86 bd c2 76 08 3e d7 a2 8c 3c
       0.011994913 -0.06574084 0.13326553 0.017167492
0003f0 d6 a1 25 3e cc 2d 26 3e 94 ef 89 3c 11 9a 4d bd
       0.16175017 0.16228408 0.016837873 -0.050195757

conv5.bias f4 [32]
000000 83 11 e3 bc 48 2c de 3c 9c f2 9a bd 0e e8 7b 3d
       -0.027718311 0.027120724 -0.07565805 0.0615006
000010 76 0d 14 be 2a b0 10 3c 09 51 95 3d 39 1d a5 bd
       -0.1445826 0.008831063 0.07290847 -0.080622144
000020 58 bb d6 3d 44 f3 94 bd a0 31 8d 3d e3 67 8e bd
       0.10484952 -0.07272962 0.06894231 -0.069534086
000030 42 43 96 bd 6b 5b 66 3d eb a0 6d bd 9a 95 60 3c
       -0.07337047 0.056239527 -0.05801479 0.013707543
000040 57 88 f6 bc a5 97 3a 3d cd 9b bb bc b9 73 ed 3c
       -0.030094309 0.045554776 -0.02290144 0.028985845
000050 e6 8b 4c bc 8b 64 5d 3d 82 f6 12 bd e5 24 1d bc
       -0.012484526 0.054050963 -0.03587962 -0.009591316
000060 5e 92 c0 3d 17 86 a3 3d fa 6c 3d 3d ef 3c 69 3c
       0.09402917 0.0798456 0.046246506 0.014235719
000070 34 48 c3 3d 45 c2 9c bd 57 4b 26 be 95 93 d5 3d
       0.09535256 -0.076542415 -0.16239677 0.1042854

conv6.weight f4 [32, 32, 3]
000000 cb ba 25 bd 6d 6f 22 bd ee b8 f9 bd 32 b5 81 3d
       -0.040461343 -0.039657045 -0.12193476 0.063333884
000010 92 1f 45 3e 01 28 19 bc c5 72 04 3d 03 88 1e be
       0.19250324 -0.009347917 0.032336015 -0.15481572
000020 1f d2 a7 bc e3 05 66 3d bd 1e 73 3d 39 6e 56 3d
       -0.020485936 0.056157958 0.059355486 0.05235121
000030 78 c4 af 3c aa 10 04 3e 1c ce c8 bc 02 c7 98 bd
       0.021455988 0.12896982 -0.024512343 -0.07459833
000040 88 87 62 bc ac a3 65 3d 2f 81 5f bd b0 26 60 bd
       -0.0138262585 0.056064293 -0.05456656 -0.054724395
000050 76 f2 a6 bc e9 ad 25 3d 99 fa 9b bd bd dc 91 3c
       -0.020379286 0.040449057 -0.07616157 0.017805452
000060 3e 94 21 be 52 a6 ac bd 9c b3 4c 3c a3 e8 17 3d
       -0.15779206 -0.084301606 0.012493994 0.037087094
000070 38 ea 40 bd 87 0c 6d bd bc 20 e5 bc 49 0d 52 3d
       -0.04709837 -0.057873275 -0.02796971 0.0512822
000080 c5 af bc 3d 32 ec a4 3d 67 62 be 3d 3f 86 39 3e
       0.09213213 0.08052863 0.092961125 0.18117617
000090 8b 68 1c be 36 77 36 bc 59 9c 04 be bf 65 08 3c
       -0.15274255 -0.011136821 -0.12950267 0.008325039
0000a0 5c 0b b2 bd 9b f7 9e bd ee 5c ec bd 44 07 9f bd
       -0.08693573 -0.07762071 -0.115411624 -0.07765058
0000b0 99 b5 0d 3d 5d 37 83 bd bb 66 fd bd 4f 94 47 3d
       0.034597013 -0.06407044 -0.1237311 0.048725422
0000c0 b8 a6 8d bd f2 4a e9 bd 6d 5f a5 3d 4f db 44 3d
       -0.06916565 -0.11391248 0.08074842 0.04806071
0000d0 de 5a ab bd 30 6b 4b bd 09 b9 1e 3d a4 e5 cf bd
       -0.08366941 -0.04966277 0.038750682 -0.10151222
0000e0 3b e4 05 bd bb fe 02 be d7 d3 72 3c bb 80 c9 bc
       -0.03268836 -0.12792484 0.014821014 -0.024597516
0000f0 e8 36 cf 3d aa c4 36 bd b7 a0 82 3d 67 7a 5c bd
       0.101178944 -0.044621147 0.0637831 -0.05382767
000100 1f e8 5b 3b 7e 2d 10 bd 60 df 22 bd ed d8 5a 3d
       0.0033555103 -0.035199635 -0.03976381 0.053429533
000110 26 29 68 bb 54 48 87 3c ae 39 c3 bd 66 dc 7e 3d
       -0.0035424917 0.01651398 -0.09532486 0.062221907
000120 ae 13 af bb 85 77 93 bd fa a0 3d 3c 6b 67 f6 3d
       -0.005342922 -0.07200531 0.011574024 0.12031444
000130 db c1 35 3e 2d 80 80 bd 59 59 80 3d c5 4d b7 3d
       0.17749731 -0.062744476 0.06267042 0.0895038
000140 91 ec c2 bc 5f 68 60 bd 0d d7 0b 3e 01 c4 85 bd
       -0.023794444 -0.054787036 0.13656254 -0.065315254
000150 0c 9d fe bc 2e 8c c3 bd 79 9f f5 bc b9 af 82 bd
       -0.031080745 -0.095482215 -0.029983269 -0.06381173
000160 f8 3a 10 be 35 dc 17 bb c6 71 ca bd 42 98 20 3d
       -0.14084995 -0.0023172025 -0.09884982 0.039207704
000170 f0 53 b1 3d 51 d0 28 bb d4 f8 e6 bd a2 c8 ae bd
       0.08658588 -0.0025758932 -0.11277929 -0.085343614
000180 1b 1c 02 3e a9 f6 48 3c a0 06 17 bd 14 1d b1 3d
       0.12706034 0.01226584 -0.036871552 0.08648124
000190 c9 2f 5d bd 8a 41 d6 bd 03 a9 3a 3d 5b 53 39 bd
       -0.05400065 -0.10461719 0.04557134 -0.04524551
0001a0 72 88 a5 bc c8 44 45 3d 32 16 32 3d 09 e6 a0 bc
       -0.020206664 0.048161298 0.0434782 -0.01964094
0001b0 f0 76 ad 3d 2b 98 e2 3d 07 7a a3 3d d4 23 12 be
       0.08469951 0.1106418 0.07982259 -0.1427148
0001c0 73 6d e8 bd 86 92 8e 3b 5e 2a e8 bc 16 8c f1 3d
       -0.11349001 0.004350963 -0.028340515 0.117942974
0001d0 e1 51 10 be be 94 0e 3c d7 c7 9f bd ed eb 06 be
       -0.14093734 0.008702455 -0.07801788 -0.13175936
0001e0 e9 24 65 3d 14 e1 0c 3d 61 f1 99 3b 6f 60 ee 3d
       0.055943403 0.03439434 0.004697964 0.11639487
0001f0 87 c5 1d 3d 02 be 12 be fe 23 b5 3d 77 23 96 3d
       0.038518455 -0.14330295 0.088447556 0.07330983
000200 c9 9f 6d bd 1e 8d 69 bd aa f6 dd 3d 79 cf 98 3d
       -0.05801371 -0.057019345 0.10838063 0.07461447
000210 e5 2c cc bd d9 a6 c8 bd 22 9d 81 bd b3 14 e2 3d
       -0.099695005 -0.09797449 -0.06328799 0.11039104
000220 42 ef 57 bc dd 2f 3f 3d 8a 14 92 bd 77 4b ba bd
       -0.013179602 0.046676505 -0.07132824 -0.09096425
000230 eb 0b ad ba 99 1f e0 3d 8f 52 91 3c 15 eb 15 3c
       -0.0013202404 0.10943527 0.017739562 0.009150286
000240 f8 36 f5 3b c4 10 e9 3c 62 0d 1b 3c b9 f2 ba bd
       0.0074833594 0.028450377 0.00946364 -0.09128327
000250 3c 2e 22 3d fa 2a 1e bd 0f 29 10 bd 79 2e 82 3d
       0.039594874 -0.038615204 -0.035195407 0.0635652
000260 bb b6 37 3d 0a 1c 5d 3d d5 ce 83 bd 24 6c f4 3c
       0.044852 0.05398182 -0.064359345 0.029836722
000270 1e 23 d2 3d d1 3a 86 3d fd a2 c1 bd 54 bc 8e 3c
       0.10260604 0.06554187 -0.09454916 0.017423786
000280 b9 fc 8c bd 44 47 7c bc 61 b7 9a 3d 51 e1 4b 3b
       -0.068841405 -0.01539785 0.07554508 0.003110964
000290 ef cc af 3c 5c 51 51 3d 6b 3a 0d be 49 b3 f6 bc
       0.021460025 0.05110298 -0.13791816 -0.030114787
0002a0 43 bb 80 3d 0e 8e 2f be ac 17 b8 bc 7d 3d 22 bc
       0.06285717 -0.17144033 -0.022472225 -0.009902355
0002b0 5b 6e 17 3d f9 44 33 3e 46 4f ad 3d 61 f7 29 bd
       0.036970478 0.1750678 0.08462386 -0.041495685
0002c0 66 7c 1f 3d be 52 5d bc c3 6f 11 3d 05 8f 87 bd
       0.038936995 -0.013508497 0.035506975 -0.06619076
0002d0 e3 39 f2 3d 23 ff b8 bd 7d 79 2d 3d 50 a3 b9 bd
       0.11827447 -0.090330385 0.04235219 -0.090643525
0002e0 d6 52 c9 3c 8b a2 2d bd 8d 4e ce 3d 71 05 a2 3d
       0.024575632 -0.04239134 0.10073576 0.07911194
0002f0 f6 45 00 3d dd c9 f7 bc 39 8d 84 3d 37 0b 3a 3d
       0.03131672 -0.030247623 0.064722486 0.04542085
000300 e0 88 06 bd ae 36 1c 3e c1 b9 38 3d 07 85 11 be
       -0.032845378 0.15255234 0.045099024 -0.14210902
000310 7e 16 fb bb 47 86 2c 3d cb d5 79 bd ad 71 06 3d
       -0.0076625934 0.042120244 -0.060994904 0.032823253
000320 2f 2e 83 bd 6d 7d 53 bc 1e 1a 7f 3d d1 76 80 bd
       -0.06405293 -0.012908322 0.062280767 -0.062726624
000330 f1 8c 1d bb 93 21 a7 3d c0 6b a4 3d 04 6d ca bd
       -0.0024040306 0.08160701 0.08028364 -0.09884074
000340 a1 88 f3 bc be 8e c7 bd f0 cf 69 bd c6 48 c1 3d
       -0.029728236 -0.09744023 -0.05708307 0.094377086
000350 e4 65 2c ba 38 96 56 3c ee ea e9 bc 06 01 c3 3d
       -0.0006576462 0.013097338 -0.028554406 0.095216796
000360 c4 82 04 be cc 8d 73 bd 81 fb 76 bc 10 d4 1f 3d
       -0.12940508 -0.0594614 -0.015074612 0.039020598
000370 0c aa 27 bb 2b a7 07 be 68 a5 a4 bc bd 0a e2 3d
       -0.0025583534 -0.13247363 -0.020098403 0.110372044
000380 8c 69 e0 3d 47 9f e3 bd 48 e9 06 bc 95 65 73 3d
       0.109576315 -0.11114364 -0.0082343295 0.059423048
000390 b2 ae 1e bd 4e e1 b0 bd ef da 0f be 10 c9 a8 3d
       -0.03874082 -0.086367235 -0.1404836 0.08241475
0003a0 eb c2 45 bd c8 ed bb 3c 48 95 8a b9 8e 32 c1 3d
       -0.04828159 0.022940531 -0.00026432634 0.09433471
0003b0 15 06 ad 3d c0 8b 9f bd 26 01 ae bb bd 53 ea bc
       0.08448426 -0.07790327 -0.0053101955 -0.028604383
0003c0 ff 4b 27 3d d9 a7 f8 3c 44 b1 d7 3d 4f 35 ae bc
       0.04084396 0.030353473 0.105318576 -0.021265654
0003d0 46 3b 89 bd c4 47 b0 bd 19 0e 37 bd 41 51 88 3c
       -0.06700759 -0.08607438 -0.04469118 0.016640307
0003e0 a9 8b cb 3d 64 ef 26 ba 28 4d c2 bd be c5 1f bb
       0.099387474 -0.00063680694 -0.09487373 -0.0024379338
0003f0 29 75 19 3e 19 41 27 3e b8 67 56 3d 67 fa 72 bd
       0.149861 0.16333427 0.052345008 -0.059320834

conv6.bias f4 [32]
000000 f5 db ee bd 76 da f7 bd 6f 51 5b 3d 6e f2 d7 3c
       -0.11663047 -0.12102215 0.053544458 0.026360717
000010 7e ba 9e bd c0 a5 6c bd 08 16 8e bd b4 e4 24 bd
       -0.07750414 -0.05777526 -0.06937796 -0.04025717
000020 0b 52 40 bc b0 f2 9b bd 61 d4 c7 bd 26 62 24 bd
       -0.011738311 -0.07614648 -0.09757305 -0.040132664
000030 cb 86 17 3d d2 09 34 be 87 de a0 bd 5f be d7 bd
       0.036993783 -0.17581871 -0.07854944 -0.10534357
000040 fb 0a a8 bd c0 b3 db bd a2 6c b6 3b 94 af dd bd
       -0.08205219 -0.10727644 0.0055671493 -0.108245045
000050 6b 35 dc bd b4 64 35 bd 5a 7a 76 3d 63 af 92 bc
       -0.10752376 -0.04428549 0.060175277 -0.017905897
000060 23 37 74 3c d5 e5 60 bd 12 6e db bd 47 9c c7 3c
       0.014905724 -0.054906685 -0.107143536 0.024366511
000070 3d c6 73 3c 2d ac 8a 3d a0 56 2e bd 5c 36 03 be
       0.014878807 0.06771121 -0.04256308 -0.12813705
