SCAFFOLD_1/cli2_model_parameters.pth (torch, 767010 bytes, 51 tensors)

conv1.weight f4 [32, 2, 3]
00000000: bc1e debc 92ac 96be cd20 093d 5294 82be
00000010: a873 e6bd fd05 47be f985 cf3e 9738 4d3f
00000020: 6e5b a53e a0fe 35be a116 37be f0e9 853e
00000030: 9206 fd3d 859f bebe a733 20be b481 8f3d
00000040: 68e1 c33d 442d 1a3e 2778 4cbe 5383 26be
00000050: d868 9f3e b8ee a6bd 203e 39bd 11b1 cabe
00000060: bdf4 d23e e6e6 8abd e841 a6be aae3 3abe
00000070: 448c 97be 4819 50bd dd8f 7a3e 6089 14bd
00000080: ec6f 7f3e b202 963e 8881 903e 6cea e7bd
00000090: 1beb b4be 6933 593d 6023 99be 4f7c a5be
000000a0: 2e91 a33e d015 4c3e a3d6 b8be a403 883e
000000b0: 7f07 c2bd 6892 fe3d 0696 893e 7ae1 4abe
000000c0: c22e 783e a1a7 13be e29d 7a3e e822 8c3e
000000d0: 75d7 93be e853 773e b62f f23d 4297 883e
000000e0: 5452 213f 16c7 993e 58d0 ef3d 80ec bb3d
000000f0: 2c4e f23d 2d32 c13e 8559 cebe 1280 7cbe
00000100: 8a7d 97be 6cfa 3b3e 5681 a8be 14c1 813e
00000110: 038f 91be 52c7 0abe 6002 bf3c 50b6 80bd
00000120: 436b 71be 4962 32bd d218 133e c050 27bd
00000130: 80ea 183e 4cac 493e 3815 403d 2fef 563b
00000140: ea89 2ebe 4475 96bd 603c b7bd 803b 823c
00000150: f93b 21be 88c0 abbe 663b 0d3e 107d c6bd
00000160: 681d e43d a03a c23c 96ba 633d 9089 6dbd
00000170: 6ee7 703e ce6c ca3e 5028 533d 4821 97bd
00000180: 78e9 c0be abba ca3c 2ffe 243e 78b8 da3d
00000190: 5121 a7be 5c53 5f3e 13e5 a53e 129e 80be
000001a0: c63d 8cbd 5666 9f3e 3ae8 923e 98fe 953e
000001b0: b5bf 8ebe b84f c3be 841c 11be 7f5f 6cbe
000001c0: 7863 9b3e c24c b63e 2e67 b9be 82b5 953d
000001d0: bd7a 9ebe 20d3 263e f4d7 b2bd 602a a1bc
000001e0: 1992 93bd 645e 5c3e d04f d2be c817 ae3e
000001f0: e8f0 9dbe a0f6 023e 36c1 713d c667 e0be
00000200: 5868 edbe 467d 18be b8a1 b83d a888 6ebd
00000210: 4dbf 873c af92 e0bd 4088 a4be c40e 2e3e
00000220: 8047 10bc 0050 3aba 3db9 5e3e 3a08 3c3e
00000230: bb81 40be 3a03 bd3e e21c a7be a4db dbbd
00000240: 516a 7cbd e606 0abd 5f5d 00bf 60d2 17be
00000250: 4686 983e 0010 5139 94f0 d5bd 6f9f a63e
00000260: a76b 1c3e 74f2 513e 1ccd 583e 5029 c43e
00000270: b340 733e 3445 633d f6f3 febd 08ee b33e
00000280: 5522 9fbe 40d7 28bd 9b9b a2be af15 6ebd
00000290: 4077 adbe 1dca bbbe 7cab 73be 4049 c13d
000002a0: 8009 9a3d ea6e 2d3e 79b4 653e 80f8 563c
000002b0: e3da 5fbe d35b 5dbe 7212 a03e 2e50 b93e
000002c0: ce73 3dbe 4eb2 893e 000e 40bc e051 91bd
000002d0: 7a2a ab3e 5fc5 d8be 66a5 443e 2af0 1abe
000002e0: 375c a1be 1efd 4cbe 84c3 0c3e 4ca1 353e
000002f0: d6ed 8b3d a4d1 9b3d 452b 7dbe c61a 943e
-0.027114265 -0.29428536 0.033478547 -0.25503784 -0.112525284 -0.19435878 0.405319 0.80164474
0.32296318 -0.17772913 -0.17879726 0.26155043 0.12354769 -0.3723108 -0.15644704 0.07007161
0.09564477 0.1505633 -0.1996771 -0.16261034 0.31134677 -0.08151001 -0.045225263 -0.39588216
0.41202345 -0.06782322 -0.32472157 -0.1825091 -0.29599202 -0.05080536 0.24468942 -0.036263824
0.24945039 0.2929893 0.28223825 -0.11324009 -0.3533562 0.053027544 -0.299098 -0.32321402
0.319467 0.19930196 -0.36101255 0.26565278 -0.09474086 0.124302685 0.2687227 -0.19812575
0.24236587 -0.14419414 0.2447429 0.2737038 -0.28875318 0.24153101 0.118255064 0.266779
0.6301625 0.30034703 0.1170966 0.09175968 0.11831316 0.37733594 -0.40302673 -0.2465823
-0.29587966 0.18357247 -0.32911175 0.2534262 -0.28429422 -0.13552597 0.023316562 -0.06284773
-0.23576073 -0.043550763 0.14364937 -0.040848494 0.14933205 0.19694632 0.046895236 0.0032796373
-0.17044798 -0.073465854 -0.089470625 0.015897512 -0.15745534 -0.33545327 0.1379219 -0.096918225
0.11138421 0.023709595 0.055597864 -0.057992518 0.23525783 0.39536136 0.051552117 -0.07379395
-0.37678123 0.024747213 0.16112588 0.10679716 -0.32642606 0.21809143 0.32401332 -0.25120598
-0.0684772 0.31132764 0.286928 0.29295802 -0.27880636 -0.38146758 -0.14171034 -0.23083304
0.30349326 0.35605437 -0.36211532 0.073100105 -0.30953017 0.16291475 -0.08732596 -0.019673526
-0.072056 0.21520382 -0.41076517 0.3400252 -0.3084786 0.12789392 0.05902215 -0.43829173
-0.4636867 -0.14891538 0.090152204 -0.058235794 0.016570712 -0.10965478 -0.321352 0.1699782
-0.008806109 -0.0007107258 0.2175035 0.18362513 -0.18799488 0.36916524 -0.32639223 -0.107352525
-0.06162483 -0.033697985 -0.50142473 -0.14826345 0.29789943 0.00019937754 -0.10446277 0.32543513
0.15275441 0.20502645 0.21171993 0.3831277 0.2375515 0.05548592 -0.124488756 0.3514254
-0.3108088 -0.041220903 -0.31759343 -0.058126148 -0.33880043 -0.36677638 -0.23795885 0.094377995
0.07521343 0.16936842 0.22432126 0.01312077 -0.21860842 -0.2161706 0.31264073 0.36193985
-0.18501207 0.26893848 -0.011722088 -0.070956945 0.33430845 -0.42338082 0.1920372 -0.15130678
-0.31515667 -0.20018432 0.13746458 0.17737311 0.06832473 0.07608345 -0.24723537 0.28926677

conv1.bias f4 [32]
00000000: 5fa0 2bbe 121c 503e 8ae8 babc 6de7 123e
00000010: 0eab b13e db1f 993e e702 a4be 8af9 983e
00000020: 5007 503e a00e 9c3e a04a 38be 0ffd 15be
00000030: d856 683e d48d acbe ac30 bf3e 6f23 313e
00000040: 582f ccbe 5763 54be 0254 7fbd 3d95 bdbe
00000050: 4963 68be bc56 fd3e ad21 013f 222f 2cbf
00000060: 033c 89bd a875 b63b 5e6c aa3e f298 b5bd
00000070: 02d6 8f3e 52ab 473e 9c86 22be 994e d93b
-0.16760395 0.20323208 -0.022815961 0.14346094 0.34700817 0.29907116 -0.32033464 0.29877883
0.2031529 0.30479908 -0.17997217 -0.14647315 0.22689378 -0.33701956 0.3734182 0.17298673
-0.3987987 -0.2074102 -0.062335975 -0.37027922 -0.22694124 0.49480236 0.5044201 -0.6725942
-0.067008995 0.005568225 0.33285803 -0.08867063 0.28092963 0.19498947 -0.15871662 0.006631684

conv2.weight f4 [32, 32, 3]
00000000: 0173 963d 822d 69bd d52c d6bc ad7e 06be
00000010: dd2a febd 36e6 b1bd 55dd 673b 96d5 10bd
00000020: 6028 9abd 205f ea3c c717 7a3d 0584 a63d
00000030: b7dd 4dbd 216f 623d 197b a93c f27c b43d
00000040: c05e 843d 736d f1bc 11b7 bbbd 16ed 5a3c
00000050: adc7 223d 28e9 1bbe 007e bdbd 8cdc 74bd
00000060: 75c3 f2bd 4558 e9bb 12ae bbbc 2811 dcbd
00000070: 7d7b d0bd a592 f1bd b9e7 7d3d 933a cf3c
00000080: be0d 5fbd 95a0 083d a5d7 f2bd 355d bcbd
00000090: eed1 d5bd c234 13bd 6247 10bc a9a3 83bd
000000a0: 13bb 5bbd 6ea1 82bd 7639 17bd 2510 4d3d
000000b0: f617 4f3d a261 043d 8422 c9bc 7c1c bf3a
000000c0: b204 a13d 15b9 d93d 2dec 54bc 44a0 9ebd
000000d0: a26a 9bbd 3d93 abbd cbe0 b3bd c7ee bebd
000000e0: 918f 803d ddc3 c9bd af52 f2bd 36d2 b4bc
000000f0: 6db4 7e3d 08a2 8fbd 36f6 9abd d7e4 bf3d
00000100: 0f2c 223d 6b5b 1b3d 3358 9dbd 709e 073c
00000110: 5685 ccbd 62c4 2cbc 019b bf3c a46d ad3d
00000120: c97b 95bd 5cdb e93d d527 9b3d 519b d0bd
00000130: 2c37 a5bd 7baf 9dbd a87e 8d3c a73d 06bd
00000140: 2058 a13c ad2e a73d 33bd d13d 75ad 29bd
00000150: 586f d0bd b04e a83c 1e96 453d 678c 5abc
00000160: 3cc3 9ebd ad20 c7bd ea25 693d 0efe 1fbc
00000170: 464e f03c be96 35bd f324 4ebd 2f8c af3d
00000180: 2e6d 9dbd 2d47 bdbd a8c0 9abd 0395 e6bd
00000190: 3f5a 13bd e847 83bd 6531 f53c 4daf 94bd
000001a0: c7f5 fe3c 8f9f 2cbd 21a4 d7bd 70d2 bd3c
000001b0: 65c6 383e 3505 163e 4846 9f3e d35b 243b
000001c0: 524b 9e3c 2218 19be 717d a03d dc55 6abd
000001d0: a026 e238 3082 e13c 6d2e b3bc 24b4 a33d
000001e0: ac8a 933b 42f8 babd e5c3 82be f354 8ebd
000001f0: b03e 48be 35e1 e3bd ef7d efbd bffd 923b
00000200: cf43 6abc f718 8c3c 994a 843c 19a5 b3bd
00000210: 3c38 cd3b f977 aebd 0662 a03d 0c05 91bc
00000220: e152 1dbd 892a fc3d b73e ccbd 1f56 173e
00000230: 35da 1c3d e5a4 cfbd c642 15be 81a2 0dbe
00000240: 2edd 3cbd 5088 df3a 1965 223d 79bb 663c
00000250: f9e3 d03d 7899 7f3b 0f5c 1039 b424 c93d
00000260: 1142 5c3d c9c8 62bd 260a 79bd fd06 ab3d
00000270: fac5 ca3d 4ef6 e7bb 13ac 52bd 87d8 213e
00000280: ef9d 673d 1c0d 3b3e 1e19 d83d db88 2a3d
00000290: a282 883e 6b5d a8bc 714d 03bd 012f 93bd
000002a0: 6f50 5a3d 0cb9 143d f350 b33d 34cb 64bd
000002b0: b54b 11be 8883 dabd 7360 e13c ef4a bb3d
000002c0: 2139 12be 9209 c0bd 3b30 4c3d 1464 a7bd
000002d0: f13e a1bd 4007 1abd a087 f4bd 36fe 16bb
000002e0: 5a23 3e3d ada7 0ebd e834 a33d ab70 a5bd
000002f0: 36cd a2bb bdf7 b3bd 7ec8 33bc 3f27 10be
00000300: fe99 94ba 2feb 873b b581 553d 6c4d eebc
00000310: e3de 9f3d 436e 893d 8dfb 4ebd 8df5 833d
00000320: 0a10 aebc 00d4 10bd 27ae 013d 9f4e c53d
00000330: a442 363c aa3a 42bd d355 9dbc 3bbf 3cbd
00000340: e896 acbd 429b 233d 17c3 a83d 7757 863d
00000350: cf4f 95bd 4af3 21bd 6010 8b3c d0af 8bbd
00000360: 3ebc 5abd b276 febc f9c4 9fbb 7392 a2bd
00000370: d4f5 f33c ca88 14bd 2e8f ebbd 63c0 b1bd
00000380: a9b3 5a3d cfb3 043d 5a4a 22bb 5d1a 523d
00000390: a6cf 983c e940 bf3d ba4e 51bc 8633 bc3c
000003a0: bb14 a0bd d8ca 8dbd 72fb c33d 3f9b 853d
000003b0: 1de9 0e3d 2774 573d acf6 52bd 0894 883b
000003c0: ad0e 843d 41fe da3d 2323 943c 0b51 443d
000003d0: 64d5 033d 215e 8a3d 4d38 41bd af95 96bd
000003e0: dd60 043d 0b6c 1c3d 1b80 84bd 4398 773d
000003f0: a054 42bd cbb9 043d 95ff 713c d9e7 033d
0.07346154 -0.056928165 -0.026144424 -0.1313426 -0.12410519 -0.086864874 0.0035379727 -0.03535994
-0.07527232 0.028609812 0.061057832 0.081306495 -0.050260272 0.055281762 0.02068858 0.08812894
0.06463385 -0.029471135 -0.091657765 0.01336219 0.039741207 -0.15225661 -0.09252548 -0.059780642
-0.11853687 -0.0071211183 -0.022910152 -0.1074546 -0.101798035 -0.11795548 0.061988566 0.025296485
-0.054456465 0.033356268 -0.11857537 -0.09197465 -0.104404315 -0.035938986 -0.0088060815 -0.064277
-0.053645205 -0.063784465 -0.036920033 0.050064225 0.05055996 0.032319672 -0.024552591 0.0014580633
0.07862224 0.10631005 -0.012995762 -0.07745412 -0.07588698 -0.08377693 -0.0878311 -0.09322887
0.06277383 -0.09851811 -0.11832177 -0.022072893 0.062183786 -0.07013327 -0.07566492 0.093698196
0.0395928 0.03792898 -0.07682838 0.008277521 -0.09986369 -0.010544868 0.023389341 0.08468178
-0.07299001 0.114187926 0.07575957 -0.10185874 -0.08067164 -0.07699486 0.017272308 -0.03277364
0.019695342 0.081631996 0.10241165 -0.041425187 -0.10177487 0.020545334 0.048238866 -0.013339139
-0.07752082 -0.09723029 0.056920923 -0.009765161 0.029334199 -0.044333212 -0.050328206 0.0857166
-0.0768684 -0.09242091 -0.075562775 -0.112588905 -0.035974737 -0.064101994 0.02993078 -0.072599985
0.031123055 -0.042144354 -0.10529352 0.023171633 0.18044432 0.14650424 0.31108308 0.0025079146
0.019323025 -0.14950612 0.07836426 -0.057210788 0.00010783714 0.027527899 -0.021872723 0.079933435
0.004502615 -0.09129383 -0.2554008 -0.069497965 -0.19555163 -0.11126939 -0.11693942 0.0044858153
-0.014298393 0.017101748 0.016148852 -0.08771724 0.006262807 -0.08518977 0.078311965 -0.017702602
-0.038409118 0.123128004 -0.099728994 0.14778946 0.038294036 -0.10138873 -0.14576253 -0.13831522
-0.04610937 0.0017054174 0.039647195 0.014082783 0.10199732 0.0039001387 0.00013767205 0.09821454
0.053773943 -0.055367265 -0.060800694 0.08350942 0.09901042 -0.0070789224 -0.051433634 0.15805255
0.0565471 0.1826672 0.10551666 0.04163442 0.26662165 -0.020552358 -0.032056276 -0.071867
0.053299364 0.036309287 0.08755674 -0.055857852 -0.14189036 -0.10669619 0.02751181 0.09145152
-0.14279605 -0.093768254 0.049850684 -0.08173385 -0.07873333 -0.03760457 -0.11939931 -0.0023039705
0.046420433 -0.034827877 0.079690754 -0.0807813 -0.0049683107 -0.08787487 -0.010973094 -0.14077471
-0.0011337397 0.004147909 0.05212565 -0.029089652 0.07806184 0.06710484 -0.050532866 0.064433195
-0.021247882 -0.03535843 0.031660225 0.096341364 0.011124287 -0.047419228 -0.019205963 -0.04608081
-0.084272206 0.039942987 0.082403354 0.06559651 -0.07290613 -0.03953866 0.016975582 -0.06820643
-0.053402178 -0.031062458 -0.004875776 -0.07938089 0.029780306 -0.036263265 -0.11501919 -0.08679273
0.053393994 0.03239804 -0.0024763555 0.051294673 0.018653702 0.093385525 -0.0127751175 0.022973787
-0.07816454 -0.06923455 0.09569444 0.065237515 0.034890283 0.052601006 -0.051504776 0.0041680373
0.06448112 0.10693026 0.01808316 0.04792885 0.032185927 0.06756235 -0.047172833 -0.07352769
0.03231894 0.038188975 -0.06469747 0.060447942 -0.047443986 0.03240375 0.014770408 0.03220353

conv2.bias f4 [32]
00000000: 7fd7 86bc 14ec a5be f27a cb3d 275b aabd
00000010: 1e45 a23d 16f3 03be 26dc 8e3d 1ddf 0d3d
00000020: 5a75 003e dda0 3f3c 08ec 2abd 238b 583d
00000030: 9ee4 043d caa3 adbd 68ec 3d3d d2bf 19be
00000040: 7019 803d e80a 163e 84c9 7bbd 4e83 57be
00000050: d2ec e93c a268 fc3d def2 a4bc 2146 dbbc
00000060: 26fd 4bbd 4694 5dbc 9502 afbd ad8c e0bd
00000070: 8414 8a3d fae1 61bd d9db 03bd 0276 2c3d
-0.016460178 -0.32406676 0.09935559 -0.08318167 0.07923339 -0.12885699 0.06975584 0.034636606
0.12544766 0.011696068 -0.041729003 0.052867066 0.03244459 -0.08478506 0.046368033 -0.1501458
0.06254852 0.14652598 -0.061471477 -0.21046183 0.028555308 0.123246446 -0.02013534 -0.026766839
-0.049801968 -0.013524121 -0.08545414 -0.10964332 0.06742194 -0.05514715 -0.032192085 0.04210473

conv3.weight f4 [32, 32, 3]
00000000: 9647 2dbb d0a7 febb 50d2 2f3d ab4c 0e3d
00000010: 456d e6bd 5d7c a0bd 2bd7 683d bd8f fe3c
00000020: ac67 333d 6130 3e3d c71d 1cbc 1a89 1fbd
00000030: 7d54 cb3d 1ac9 74bc ee9f 80bc 435c 6fbd
00000040: 8dac bebd 735e 0bbd 46b7 c1bd e26e 36bc
00000050: 9383 333d 66c6 c5bc 1020 9a3c e8a7 aa3d
00000060: b6cf bebd 343f 6dbb 48fb 813d 17ae 6fbb
00000070: 4a16 503d 27d1 eab9 0530 073d 3d06 e83c
00000080: ca9f 8ebb 5831 54bd 60dc f4bc 73dc 893d
00000090: 569e d9bd d2f2 af3c e99e 4bbd e61a bc3c
000000a0: f045 1f3d d63e 8c3d 5274 a9bd 7121 81bd
000000b0: c8bb 2cbd 9de7 df3c 5d2f be3d 5b40 f6bc
000000c0: d96f bbbc 9229 023d c81d 28bd 4bcc 6fbd
000000d0: 2894 b2bd abb2 a5bd 6af7 24bd ef0a a2bd
000000e0: db29 afbd 9ef6 26be fcb8 00bd dcc0 94bd
000000f0: 3095 32bc f0a9 2bbc 8dde a7bd baa4 103d
00000100: ad0b 05bc e4a3 b03b eaa4 c5bd 61f3 8d3d
00000110: 78be d13b 3efb c1bd 3064 cdbd 8fdd d1bd
00000120: f222 f2bd 2805 b8bd 57b5 03be 5eec f8bc
00000130: 1e2b 253c 2b12 01bd 9734 bbbd c8f5 f9bc
00000140: c484 12bc 7ac7 aebb f295 8e3d f9ab 32bd
00000150: 229f 5dbd 6103 df3d 1b14 e53d 762a 343d
00000160: 50e3 f138 ad47 023d d4dd 68bd fbbc a43c
00000170: 6b9a a7bd a54c 88bd 1dcd 833d 00e9 733d
00000180: da25 573d fb35 f43c d05f 063d aa26 313d
00000190: 25c7 e03d 2c42 5abc 572b 2bbc 77ff d83c
000001a0: 0a63 0d3c a9ad 413d 1598 a5bd 1ebe 4abd
000001b0: d831 90bb f486 d2bd b214 0e3c fd99 45bc
000001c0: 4992 da3c e3c7 9b3b bc11 a8bc e127 4e3d
000001d0: ebb9 8ebd a610 23bc 8caa 35bd 6524 97bb
000001e0: a830 56bd 8be2 e53d 79be 9dbd b843 eabb
000001f0: 4940 b93b 1385 06bd 6c2e 103d c1c7 683d
00000200: 6768 d0bd 4242 8e3c 36a1 e43c 2e42 283d
00000210: dae9 4abc efca 15bd ae0e 343b 56ab 053d
00000220: fc1c 30bd cd24 06be 90c1 f03d 7f76 af3d
00000230: 4a35 0a3d 68ad ca3d f3a9 8d3c 87cf 2abd
00000240: 4bab a0bc e996 95bd 6093 9d3d fcea a9bd
00000250: cdbf 883d d6f5 cfbd ef74 833d 9741 a0bd
00000260: bb33 12bd 6ffb f03c ff8e a4bd b8f1 de3d
00000270: 87ba ec3d 819b c53d c046 953d c327 c03d
00000280: d457 dabb ae46 f2bc a578 e0bc 018c b23d
00000290: 210c 0a3e b310 503d e4a3 8b3d dc81 643d
000002a0: 9341 99bd 9e7d b13c 6dbc 20bd a7e9 33bc
000002b0: 4b57 aebc 5159 7b3d 6944 c0bd 4bc7 133d
000002c0: cdc7 14be 07eb 983d dcf0 a43c 5007 ca3d
000002d0: 6db9 633d 555b 073c 84c5 be3a 3010 bcbc
000002e0: 079f 44bd bd88 b03d 88c1 2ebd 674d 33bd
000002f0: e09c 233c acba ee3c 1602 9bbd ac02 ae3c
00000300: 03e6 a1bd 26bd 2cbd 21ce 9cbc 5999 bc3b
00000310: 401c b93c 597f b7bd a886 8dbd 03d6 f1bd
00000320: ae74 d33c 1479 e1bd 7558 163d 0b89 44bd
00000330: 0dd8 98bc 0183 49bd 0fbe 393d 9610 5cbd
00000340: 6ef3 e5bd 1b36 7e3d 0226 c2bd e277 573d
00000350: ec92 f0bc 1bc2 abbd 72c9 c03d 0d3f 443d
00000360: 61dc b4bd e34c e83c 62a7 433d eac6 7ebd
00000370: c369 78bc 21db 023c a5ee c43d e952 f43c
00000380: aba5 dbbb 408c 8e3d 8836 90bc ea27 91bd
00000390: e67c e6bd a2ff eb3a e807 7abd cdc1 a73d
000003a0: fc6b 4c3d 9f17 a6bc b94e a8bd 854e c9bb
000003b0: 6ea6 2ebd eb64 46bd 7ebd e4bc aec9 a53d
000003c0: 1ac6 563b aee4 1cbd 44d0 7e3c cd91 843d
000003d0: ccb6 b9bd fa12 96bd bbea d5bd 1675 16bd
000003e0: c95c aebb bcb6 25bd 8740 e63c d3ba 6ebd
000003f0: eab8 813d 084d ab39 9994 8ebd 090b 12bd
-0.0026440374 -0.0077714697 0.04292518 0.034741085 -0.1125131 -0.078362204 0.056845825 0.0310744
0.04380004 0.046432856 -0.009528584 -0.03894911 0.09928224 -0.0149405245 -0.01570126 -0.058437597
-0.09310255 -0.03402562 -0.09458785 -0.011134835 0.04382665 -0.024142455 0.018814117 0.08332807
-0.093169615 -0.0036201002 0.06346756 -0.0036572271 0.050802507 -0.0004478779 0.03300478 0.028323287
-0.0043525444 -0.05180487 -0.02989024 0.067315005 -0.10625903 0.02147809 -0.049712095 0.022962045
0.038885057 0.068479225 -0.082741395 -0.063052066 -0.04217127 0.027332122 0.092863776 -0.030059984
-0.022880482 0.031777926 -0.041044027 -0.05854444 -0.08719665 -0.08090719 -0.040275015 -0.07912242
-0.08552905 -0.16305014 -0.031426415 -0.072633475 -0.010899827 -0.010477528 -0.08196745 0.035313345
-0.0081204595 0.005390631 -0.096505955 0.069311865 0.0064008795 -0.09471749 -0.10028875 -0.10247337
-0.118230715 -0.089853585 -0.12862144 -0.030386146 0.010081081 -0.031511467 -0.0914089 -0.030512705
-0.008942787 -0.005333838 0.069621935 -0.043621037 -0.05410684 0.10889316 0.111854754 0.043985806
0.00011534116 0.031806637 -0.056852177 0.020109644 -0.0818375 -0.06655244 0.06435607 0.059548378
0.052526332 0.029810896 0.032806218 0.043249764 0.10975484 -0.013321441 -0.010447345 0.026489003
0.00862957 0.047284756 -0.08085648 -0.049497716 -0.004400473 -0.102796465 0.008671926 -0.012060639
0.026681082 0.004754053 -0.020516269 0.050331 -0.06969055 -0.0099527 -0.0443521 -0.004612493
-0.052292496 0.1122485 -0.077023454 -0.007149186 0.0056534153 -0.032841753 0.03520052 0.056831125
-0.10176163 0.017365579 0.027908903 0.04107874 -0.012384856 -0.036570486 0.002747457 0.0326341
-0.04299639 -0.13099976 0.11755669 0.08567523 0.033742227 0.09896356 0.017292952 -0.04170182
-0.019612929 -0.073041745 0.07694125 -0.08296773 0.06677208 -0.10154311 0.06418788 -0.0782501
-0.035693865 0.029416768 -0.08035087 0.10885948 0.11559015 0.09648801 0.07288885 0.09382584
-0.006663302 -0.029574718 -0.027401278 0.0871811 0.1348119 0.050797176 0.06818369 0.055787906
-0.074832104 0.021666344 -0.039242197 -0.010981 -0.021281859 0.061364476 -0.09388048 0.036078732
-0.14529343 0.07466703 0.020134382 0.09864676 0.055596758 0.008261521 0.0014554714 -0.022956938
-0.048003223 0.08619831 -0.042665035 -0.04377499 0.009986132 0.029141746 -0.07568757 0.021241508
-0.079051994 -0.042172574 -0.019141259 0.005755585 0.022596478 -0.089598365 -0.06910449 -0.118083976
0.025812473 -0.11009422 0.036705453 -0.047982257 -0.018657709 -0.0491972 0.04534727 -0.053726755
-0.11228071 0.062063318 -0.09479906 0.052604564 -0.029366933 -0.08386632 0.09413423 0.047911692
-0.088310964 0.028356975 0.04776705 -0.062201418 -0.015161934 0.007986815 0.0961583 0.02982469
-0.006703099 0.06960344 -0.017604128 -0.07087691 -0.11254291 0.0018005262 -0.061042696 0.081912614
0.04990767 -0.020274935 -0.0821814 -0.0061433935 -0.04263919 -0.048436087 -0.027922388 0.08095108
0.0032771886 -0.038304023 0.015552584 0.06473122 -0.09068069 -0.07327838 -0.10445162 -0.036732756
-0.0053211194 -0.040457472 0.02810694 -0.05828364 0.06334098 0.00032673054 -0.069619365 -0.035655055

conv3.bias f4 [32]
00000000: b3e8 eabc 2561 6a3c 1be3 9abc da31 dabc
00000010: eec8 01be e6e6 a83d af47 adbd 0b08 3fbd
00000020: 858f 7ebd 5851 a93d 06eb 433d d99b e13d
00000030: 4107 45bd 5abb 8fbd 32d0 6dbd c7e5 04be
00000040: 5425 123d e09a 7fbd eaaf b5ba 0889 523d
00000050: 599c c93c df49 b93d f8ee c3bd e890 293d
00000060: afc1 463d 3b8f ca3d 6dcd a03d d9fa d5bd
00000070: 9f29 783c 904c c63c 0e02 2c3c a1c3 f3bd
-0.028675413 0.014305388 -0.01890712 -0.0266351 -0.12674305 0.082471654 -0.08460938 -0.04663853
-0.06214859 0.08267468 0.047831558 0.11016054 -0.04810262 -0.07018156 -0.05805988 -0.12978278
0.03568013 -0.06240356 -0.001386163 0.051400214 0.024610685 0.09047293 -0.09567064 0.04139796
0.048524555 0.098906 0.07851682 -0.10448236 0.015146642 0.02420643 0.010498537 -0.11902548

conv4.weight f4 [32, 32, 3]
00000000: 0db5 01be 53ff 0ebe ea2a c7bd c29c 08be
00000010: fc0d 543d 7a41 babd 55bf ccbd e552 723d
00000020: 204b d63d f27c 943d 6004 073d e56f ff3b
00000030: 290b e03c 8bb0 a13c 6105 f9bd bbab b63d
00000040: e9a0 25bd aa4d cc3c cda8 09bc b9df a23c
00000050: 8f4c b0bd 5e0f 96bd cd87 d3bb 2cd3 38bd
00000060: 9b7b 53bd 799c 953d 13f8 2e3d ab0e d63d
00000070: dd62 b03d a81f f63d a1d2 e2bd 20d0 a8bd
00000080: a289 d43d 6ebd 5fbd ccda 87bd f2c4 783d
00000090: 3d3c 993d e655 27bd 4d19 02bd 006d a73d
000000a0: 06f7 e5bc 143c c9bd b30c 83ba 153b c03d
000000b0: ec88 06be 7076 e9bd dbdd bfbd 5571 84bd
000000c0: 7030 0fbd 122e 83bd b9ba d13c d7e9 a63b
000000d0: 5fe6 31bc 38c3 9b3d 9f63 963c c7de 86bd
000000e0: d1ff 93bd 5683 5cbd b82f 9b3d 88c8 94bc
000000f0: 8768 d1bc eb32 9d3d a6d1 dc3c 0ed9 8e3d
00000100: e4e7 6e3c 7290 dc3b bf30 d03d e77e 6dbd
00000110: 103e babd cc00 4a3d 8665 bcbd 7432 5bbb
00000120: 6973 743d f9eb 033c 53b7 0c3d b7e9 1d3b
00000130: aef1 adbd 7034 93bd 595e 0a3d 5c58 063e
00000140: 25fe ad3d 9f4d 8c3c e6ca 1e3c af7c b1bc
00000150: 9d73 39bd a717 623d 7b13 a83c 2b06 e2bd
00000160: e81b b6bd 4b51 a9bd f3e8 fcbd 61ca 353d
00000170: 8429 563c 7922 8b3c 7070 a7bd f461 31bd
00000180: 21ce 91bd 99db 9f3d c7e9 c83d 025b 973d
00000190: 6e95 853d a25c aa3d 538b 8b3d 214b 993d
000001a0: 1f0d d23d fca8 b23d fb98 343d 2dd0 863d
000001b0: 05fb 92bd 842d 92bc 2d82 96bd 43e6 fa39
000001c0: b49e a33d 261f c63c f5eb 8fba 319c f93c
000001d0: 8697 b63c af76 92bc b692 233d d828 9c3d
000001e0: 2b2b c53d 3e34 283d 49fd 74bd 77b9 c6bb
000001f0: f706 c8bd 20a0 47bb 2a34 933c c1b9 0e3d
00000200: 2ba6 9e3c 42a0 f43c 0e4e cb3d 5b42 5b3c
00000210: 2285 cd3b 2075 233d eec8 26bd d413 9a3d
00000220: 2e76 e9bd 1729 a43d 91d9 9a3c 9bfe bbbc
00000230: 92ee a13d 7b1e 6f3c bafd 893d 2eee 043d
00000240: fa95 4238 1c20 14bd 575e 8f3d 7123 09bd
00000250: 64b6 953d 7979 943d 34ff 5c3d 8a33 37bc
00000260: cadd af3c a706 1abd b8b5 813c 6bc2 edbd
00000270: de68 673d 77c0 3f3d 886a b33d 0646 c43c
00000280: 6c63 383d 881a ff3c 5d70 0c3c 8915 56bb
00000290: 616b c23c d252 463d d531 193a ed21 d9bc
000002a0: 98d1 94bd 3262 78bd c92e 9abd 7f38 e63c
000002b0: 6399 96b8 822e 923d 317d 973d 2b61 9bbd
000002c0: 3254 7e3d ec38 83bd 79c9 26bd 59bf 433b
000002d0: 14b9 4b3d 452f babc 042d 7c3d 988f eabc
000002e0: 2a79 cd3c dae4 9f3c c373 ad3d b67f e63d
000002f0: 5ebf bf3d d6e5 913d 0b68 8bbd cf97 3d3d
00000300: a9d9 8b3d 80da a23c e31d 9c3b e319 e1bc
00000310: db35 b5bc 7ff2 153d 0d8f 19bd 1b6d 8c3c
00000320: 978f 2c3d fd8a a53c dc3b d3bd 8edc f03c
00000330: fc2d 8bbd 5326 38bd 819a 5bbd 5b3f 99bd
00000340: 32a5 df3d 24d9 3d3b 0f82 2cbb 9962 7cbd
00000350: 93c1 fabc fa66 9ebd 5d4d 583d 0706 15bd
00000360: f261 0d3e 3ca1 4abd ea73 63bc 90fd c43b
00000370: b7f7 afbd 9d24 d9bd 88bd 36bc e258 e3bc
00000380: d51e fb3d 55d3 d1bd b0c8 793d de73 e23d
00000390: 5504 353d 5d4b 073d cf38 d0bd 6da4 a2bc
000003a0: 6f96 7dbc d94e 6e3d 0130 8dbd ba2e 91bd
000003b0: 501d 2f3d da9b 2cbd c67b a63c 99d3 ccbd
000003c0: 3b19 7fbd d5e7 51bc f6ed 663d 42c6 8cbc
000003d0: 22c5 983d aaa5 b33d a200 83bd b79a 663c
000003e0: 9d31 c6bd 72f9 99bd ae79 d13d 69d4 b63d
000003f0: eab1 8b3d 162d 8139 2cc2 e4bc 96ea 913d
-0.12666722 -0.13964586 -0.09724982 -0.13341048 0.05177115 -0.0909452 -0.09997431 0.059161086
0.10463548 0.07250394 0.032963157 0.0077953213 0.027349072 0.019737503 -0.12159229 0.08919474
-0.04043666 0.024939377 -0.008402062 0.01988207 -0.086083524 -0.0732715 -0.0064553977 -0.045123264
-0.05163155 0.073052354 0.04271705 0.104520164 0.08612607 0.12017757 -0.110753305 -0.08242822
0.10377814 -0.054624014 -0.06633529 0.060734697 0.07482193 -0.040853404 -0.03176241 0.08175087
-0.028071892 -0.09825912 -0.0009998291 0.09386269 -0.13138169 -0.11399543 -0.093684874 -0.06466929
-0.034958303 -0.064052716 0.025601732 0.005093794 -0.010858147 0.076055944 0.01835805 -0.0658546
-0.072265275 -0.05383619 0.07577461 -0.018162027 -0.025562538 0.076757275 0.026955437 0.06974994
0.014581654 0.0067310864 0.101655476 -0.05798235 -0.09093869 0.049317166 -0.091990516 -0.003344682
0.059680376 0.008051866 0.03435452 0.0024095604 -0.08493362 -0.07187736 0.033781383 0.13119644
0.0849574 0.017126856 0.009691929 -0.0216659 -0.045276273 0.055198338 0.020517102 -0.11036333
-0.088920414 -0.082674585 -0.12349119 0.044382457 0.0130714215 0.016984211 -0.081757426 -0.043306306
-0.07119394 0.07805557 0.098102145 0.07390405 0.06522642 0.083184496 0.06813683 0.07485033
0.10256409 0.087236375 0.044091206 0.06582675 -0.071767844 -0.01784397 -0.07349048 0.00047855274
0.079892546 0.024184775 -0.0010980355 0.030469986 0.022289049 -0.017878858 0.039934836 0.07624978
0.09627374 0.041065447 -0.059811864 -0.0060645896 -0.097669534 -0.0030460432 0.01796921 0.034845117
0.019366344 0.029861573 0.09926997 0.01338252 0.006271974 0.03990662 -0.040718965 0.07523313
-0.11399494 0.0801565 0.018902572 -0.022948554 0.07906832 0.014594669 0.067378476 0.03245371
4.639288e-05 -0.036163434 0.07000416 -0.033481065 0.07310179 0.072497316 0.05395432 -0.011181721
0.021468062 -0.037604 0.01583372 -0.11609348 0.056496494 0.04681441 0.087605536 0.023959171
0.04501669 0.03114058 0.008571711 -0.0032666645 0.023732843 0.048418827 0.00058439124 -0.026505435
-0.07266539 -0.06064052 -0.07528455 0.028103111 -7.181128e-05 0.07137777 0.07396925 -0.07586893
0.062092014 -0.06407341 -0.040719483 0.002986869 0.04973705 -0.022727618 0.061566368 -0.028632924
0.02508219 0.019518305 0.084693454 0.11254828 0.09362672 0.07123916 -0.06806954 0.046287354
0.06828625 0.01987958 0.004764305 -0.027478164 -0.022120407 0.036608215 -0.03748994 0.01714187
0.042129125 0.020207876 -0.10314152 0.029402044 -0.0679588 -0.044958424 -0.053614143 -0.07482787
0.109201804 0.0028968537 -0.0026322638 -0.061617468 -0.030609882 -0.07734485 0.052808154 -0.0363827
0.13806894 -0.04947017 -0.013882617 0.0060116723 -0.0859217 -0.106026866 -0.011153586 -0.027752344
0.1226174 -0.102453865 0.060982406 0.11057256 0.044193584 0.033030856 -0.101670854 -0.019853795
-0.015477761 0.058180664 -0.06893922 -0.070889905 0.042752564 -0.04214082 0.020322692 -0.100012966
-0.06227992 -0.012811621 0.05637928 -0.01718438 0.07459475 0.08771832 -0.06396605 0.014074973
-0.09677432 -0.07518281 0.10228287 0.08927233 0.06821044 0.0002463839 -0.02792462 0.07124822

conv4.bias f4 [32]
00000000: 1ab1 723d 1263 9ebd 112e 83bd b421 22bd
00000010: fadb 1ebd 8592 4abd e146 98bd dedc f3bc
00000020: 80fe d9bc dae4 173d 2e2b c4bd 5c74 b8bd
00000030: 4b2c 003d b80c 3abd 5cf7 f03a e8cc 8b3d
00000040: 2ea4 a2bc 7ca2 d93c f68d 223d 0dce b23d
00000050: 098f cebd c541 8fbd 0e9a 853c 8e0e b0bd
00000060: 2629 2b3d 7a71 093d ff1f b7bd d524 a5bd
00000070: 3652 873d a0da 953c a9a3 25bd 4c25 e3bd
0.05925093 -0.0773374 -0.06405271 -0.039582923 -0.038784005 -0.04945614 -0.07435394 -0.029768404
-0.026610613 0.037083484 -0.09578548 -0.09006569 0.03129224 -0.045422286 0.0018384266 0.06826192
-0.019853678 0.026566736 0.039686166 0.08730707 -0.100858755 -0.069949664 0.01630881 -0.08596526
0.04178729 0.033555485 -0.0894165 -0.08063666 0.06607477 0.018292725 -0.04043928 -0.11091098

conv5.weight f4 [32, 32, 3]
00000000: 9fc1 38bd b236 48bc 9ca1 26bb 3169 e33a
00000010: 94da 913d 3f34 3bbb 22c6 363d fb6c 403c
00000020: 92ac b63c 1021 bc3c 4a15 ddbd 1aa4 f6bb
00000030: 3d32 0f3d 5b2a 9b3d a5ba a23d 2c2f 913c
00000040: e056 0c3d 4a16 943d cd77 953d fec4 a33d
00000050: ef95 64bb 4cd9 9cbd ea9e 213d 04b3 f1bc
00000060: e796 a43d d20f f33d 296a 483c 01b5 12bd
00000070: b836 1b3c 6e15 8dbd bea9 91bd 5593 e53b
00000080: 9694 9bbd 5764 873d 6bcf 953d 3362 75bd
00000090: fb88 b43d 100b 163d a07c b4bd 56b1 873d
000000a0: b2d5 e93c 72f9 c63d 4eb6 853d 298c 87bd
000000b0: 6a3a 683c 8abf 0c3d 40d7 c9bd 905a 2dbd
000000c0: ddbc 6cbd cc82 81bd 4524 ce3d 7f2b 73bd
000000d0: 83e6 dcbd 960f 4f3d acab ca3d c51d 97bd
000000e0: 7a01 ffbd 7078 843c b4ca 57bd 4e53 2bbe
000000f0: 036b f63c fb06 a23d 78b4 1e3d 9d4f c93b
00000100: 4b3c 213e bccd 293e ed31 2dbe e51c fcbd
00000110: a434 6abd eb34 57bd a124 8e3d 1298 56bd
00000120: 7f4f 65bd 582d 98bd fe96 dfbd 39fc e73d
00000130: be8c 913b bd18 2f3c c1e8 273e 04cb 713c
00000140: 71e9 213d 4d88 253d 23bd b9bc 768a 543c
00000150: ef71 0dbd f933 7cbc 1668 513d b526 89bd
00000160: 3b9a 77bd 02fb 303d 6b73 0bbd f7e5 ffbd
00000170: 2c7f 3cbd bf2e 323d 5ff4 1bbd dc34 9c3b
00000180: 93b5 d43d 9f3b 033e aa75 023e 66a9 613c
00000190: d454 f83c 11ac aa3d ae3a af3d 7c3b 833d
000001a0: 0e54 6d3d c1a8 82bd 8883 dbbc 4a2f 273d
000001b0: 4f50 c8bd 8655 6a3d 3bb5 2ebd 4c9f 043c
000001c0: 21a7 82bd f517 833c a73e a23d 373d cb3d
000001d0: 77e0 f2bc 8cc3 17bd f165 b1bd fb7c b43d
000001e0: 6680 13bd 508d 243d 797a c93d 0e09 7d3c
000001f0: 7fcb 37bd ce6d cb3d 48c3 0bbd ae45 93bc
00000200: 1441 83bd e126 c53d 9b6e f5bc 5cab 533c
00000210: ddd2 7abd 216a b6bd e750 a93c 8c39 d63c
00000220: c458 2a3d c723 06be 932d 5f3d 6632 0cbd
00000230: b2eb 09bd 968a 383d f513 3d3d 7d7f fd3d
00000240: 545e c4bc 2fb0 af3d c32b ae3c 923c d43c
00000250: 9ea6 d7bc 04d4 3d3c 8eb8 0cbd 27ef c0bd
00000260: 73fd 86bd 92c6 803d 658b 023d 4f51 723d
00000270: 0270 743d 689d 083d 7d0a 303d 10c3 7a3b
00000280: 1ce4 85bc 7a63 edbd 7e40 acbd 36e5 83bd
00000290: a837 17bc 24de 743c 2b1b 12be 4664 d7bc
000002a0: e054 79bb 5dd7 41bd ee64 8c3d 80f7 a9bd
000002b0: df1e 81bd 9d9e 7dbc b8b6 36bd 92df cb3d
000002c0: 80b8 9f3d e158 98bc c462 2a3d bb15 af3d
000002d0: 63c6 293d 15f0 1cbd 6d11 acbd 0af8 953d
000002e0: 44f1 d63d 2c1c 673d c294 483d 0888 a63d
000002f0: 4b0b 2e3d b76e 49bd 961e 45bd 40b7 f4bc
00000300: 0cd9 9e3c 00b2 913c b5c2 07bc 4f01 08bc
00000310: 3bfb 06bd 9c74 d43d d56b f1bd 7a5f e33c
00000320: 387a efbd 109f fbbc 6a5b 063d 7a1e 493d
00000330: 8adf 35bb c556 26bb c71a 69bd 5c41 72bd
00000340: 6d5c 2d3d 2bee 6c3d fd51 61bd a63a aa3d
00000350: e08c 523d 52ec 483d 83f5 92bd 279b 1ebd
00000360: 604a ca3d 0517 d7bc e3b8 4cbc db11 89bd
00000370: 0087 b6bd 62a2 4d3d 1ce4 93bc e68e bc3d
00000380: 41d4 3bbd 99d9 95bd 5588 50bc cab5 f5bc
00000390: ad58 243e fb2f 1c3e 5d71 5a3d b3ab efbc
000003a0: 52ae 4f3d abbc 81bd 322d abbd 093e d0bd
000003b0: 656a e8bd 1f2b b0bd 7061 f63c 6926 0abd
000003c0: c3f9 013c 8f8a 3c3d f7fe c1bd 3a3d 103d
000003d0: 39b4 943d 27c0 b4bc eb54 dc3d 9f0d f13d
000003e0: c7e2 e8bc 4920 e3bd 26ad 493d a916 56bd
000003f0: 2140 423e b81c 333e 6eda 173c b3ea 65bb
-0.045106526 -0.012220072 -0.0025425917 0.0017350075 0.071217686 -0.0028565077 0.044622548 0.011744733
0.022299085 0.022964984 -0.10795076 -0.0075268866 0.03496002 0.07576438 0.07945756 0.017722689
0.034262538 0.07230814 0.07298241 0.07996558 -0.0034879406 -0.076586336 0.039458193 -0.029504307
0.08036595 0.11868252 0.012232342 -0.03581715 0.009473495 -0.06888853 -0.07112454 0.0070060887
-0.075967 0.06610935 0.073149525 -0.059908103 0.088151895 0.036631644 -0.08812833 0.06625621
0.02854428 0.09715547 0.065289125 -0.0661853 0.014174083 0.034362353 -0.09855509 -0.042322695
-0.0577973 -0.06323776 0.100655116 -0.059367653 -0.10786154 0.050551973 0.09896025 -0.07378725
-0.124514535 0.01617071 -0.052683547 -0.16730997 0.030080324 0.07911488 0.038746327 0.006143524
0.15745656 0.16582388 -0.16913576 -0.12310199 -0.05717911 -0.0525407 0.0694058 -0.05239112
-0.055984017 -0.07430524 -0.10917471 0.113274045 0.0044418266 0.01068705 0.16397382 0.014757875
0.039529268 0.04041319 -0.022673195 0.012972465 -0.034532484 -0.015393251 0.051124655 -0.06696836
-0.06044982 0.04320813 -0.034045618 -0.12495034 -0.046019718 0.04350161 -0.038074847 0.0047670435
0.10386195 0.12815712 0.12740198 0.013773298 0.030313887 0.083336 0.08556114 0.0640783
0.05794149 -0.063798435 -0.026796117 0.040816583 -0.09780943 0.057210468 -0.042653304 0.00809462
-0.063795336 0.016002635 0.07922106 0.09923785 -0.029648049 -0.037051722 -0.08662022 0.08812901
-0.036011122 0.04017383 0.09837813 0.015444053 -0.044871803 0.09933053 -0.03412178 -0.017977562
-0.06408897 0.09626556 -0.029959967 0.012919273 -0.06123625 -0.08906961 0.02066846 0.026150487
0.04158856 -0.13099585 0.054486822 -0.03422775 -0.033672042 0.04505404 0.04616161 0.12377832
-0.02397076 0.08578526 0.021261102 0.025907788 -0.026324566 0.011586193 -0.034355693 -0.09420615
-0.0659131 0.06287874 0.03187122 0.059159573 0.05967713 0.03335324 0.042978752 0.003826324
-0.016344123 -0.11591239 -0.084107384 -0.06440203 -0.009229578 0.014945541 -0.14268176 -0.026292931
-0.0038044974 -0.047324527 0.06855188 -0.0829916 -0.06304716 -0.015479711 -0.044607848 0.09954752
0.077988625 -0.018597068 0.041598096 0.08549067 0.041448962 -0.038314898 -0.08401761 0.073227
0.104952365 0.05642335 0.04896999 0.08131415 0.04249124 -0.04917785 -0.048124872 -0.029872537
0.019390605 0.017785072 -0.008286168 -0.008301093 -0.032954436 0.10373804 -0.117881455 0.027755488
-0.11693233 -0.030715495 0.032802023 0.04910133 -0.0027751648 -0.0025381309 -0.056910302 -0.059144363
0.042324472 0.057844322 -0.05500983 0.083119676 0.05140388 0.049053498 -0.07175734 -0.038722184
0.09877467 -0.026256094 -0.012495252 -0.06692859 -0.08912468 0.05020369 -0.018053107 0.09206943
-0.045856718 -0.07316894 -0.012727817 -0.02999391 0.16049452 0.15252678 0.053330768 -0.029256677
0.050703354 -0.06334814 -0.0835823 -0.10168082 -0.11348418 -0.08601975 0.030075759 -0.033728037
0.007933083 0.046030577 -0.09472459 0.03521464 0.07260937 -0.022064282 0.10758384 0.11770176
-0.028428448 -0.11090142 0.049237393 -0.052267704 0.18969776 0.17491424 0.009268386 -0.0035082519

conv5.bias f4 [32]
00000000: 28bb 123c 3f9b bf3d 1e02 23bd 6ddf 2a3d
00000010: 0c43 2cbd 199e 573c 35e4 463d e4e7 68bd
00000020: 9537 8c3d 77fc 97bd edca 683d d72e 3f3d
00000030: 4602 c1bd cdf7 813d 3b94 81bd b618 8f3c
00000040: 587c 9ebc 682e 283d 78cc 4ebb cf89 6b3c
00000050: f16b d13c edaf 733d 735d 29bd 076a 86bc
00000060: 77be 893d 0783 2f3d 9e53 2f3d ecbc bd3c
00000070: a29d bf3d 2c57 31bd f5dc f5bd 0757 af3d
0.008955754 0.09355783 -0.03979694 0.04171698 -0.04205613 0.013160252 0.04855748 -0.056861773
0.06846539 -0.07421201 0.05683415 0.04667553 -0.09424262 0.063460924 -0.06327101 0.017467838
-0.019346401 0.04105988 -0.0031554978 0.014376118 0.025564166 0.059493948 -0.041348886 -0.01640798
0.067257814 0.042849567 0.042804353 0.023161374 0.09356238 -0.043296024 -0.12005035 0.08561521

conv6.weight f4 [32, 32, 3]
00000000: 3b62 763c 3d82 913d 48f8 ddbd 8703 8e3b
00000010: 1365 f13d f879 efbc f62a d33d 44c1 98bd
00000020: 0397 a63c 25fb 363e 2563 ff3d 9f7a 763b
00000030: b4f6 a1bb e9ed ce3c 4bdb aebd e30a 86bd
00000040: 374a 34bc c109 e83d a0b7 c4bd a7e1 aebd
00000050: 2e66 b03b 7abe ec3d 40fa 3cbd 38e1 bd3a
00000060: 912a d2bc b597 80bc 60e5 a43d c2b8 1e3d
00000070: fbc4 febb 74c3 dfba 639a 15bd f65e 643c
00000080: 45f8 943d 0262 433d 1d2b 043b 191e 1b3e
00000090: 7cae abbd f7b6 323b 71f4 c9bc e516 9fbb
000000a0: c4cf 94bd dace eebb 6732 b1bd 8cc5 6bbd
000000b0: 34c0 863d 643e 373d 891d 48bc b434 033d
000000c0: 29a9 05bd 5606 9c3a aea2 cf3d 3d0f 8e3d
000000d0: a7e7 01bd fa62 f7ba 0fc8 a83d 0af0 89bd
000000e0: 1dae 013d 460a b6bd edf6 95bc 888f dd3c
000000f0: 422d 023d 7cd6 02bd f525 b23d 20a0 c3bc
00000100: 0e30 1d3d c78a adbc eaba 58bd ec1f 1d3d
00000110: 8a88 dabb bf37 2b3d 504e bf3b 1625 d63d
00000120: 8c75 3e3d bb4c a83c 195e 173d f575 bf3d
00000130: 2062 eb3d 8ac4 eebb 872c cb3d 7d02 c53d
00000140: 4136 ae3c 426e a1bd 7479 bd3d 371d ebbc
00000150: c9a6 22bc 3adb a4bd ba84 2a3d 9700 86bd
00000160: a164 05be a36e 163d 5a61 c43d 3ce7 393e
00000170: 0b1e ab3d a47b 743c ccc2 e7bd 9a3d f2bd
00000180: 5678 c83d d759 5a3d 311f 8cbb 289e 423d
00000190: 0823 ddbd 56b5 ecbd 7033 da3d 4481 0c3b
000001a0: b956 ed3c 0ab1 ce3c daa6 113d 19a0 83bb
000001b0: ccf4 d33c 8bd7 903d 421c b23d ba6b e8bd
000001c0: 27bd 0abe 846c 473c 92fa 6dbb 1cae db3d
000001d0: 7ec8 15be 8c17 7b3c 4f60 9bbd 4a8a d6bd
000001e0: 5b3e 963d d592 413d 648f bc3d a272 ed3d
000001f0: f129 1c3b fb83 0ebe dc04 a43d fdbd cb3c
00000200: cca9 9cbd 4f1c acbd 21c2 c83d d0cc 373d
00000210: f6c0 f1bd 956b cdbd 5d86 fdbc b325 843d
00000220: 113c 62bd 40f4 873d 1b90 a3bd 5261 c6bd
00000230: d538 10bd afa8 c43d b940 713d b8d5 43bc
00000240: fd6a 603b 4ca9 103d 7933 eabb 6e98 dfbc
00000250: d457 aa3d b168 cd3a 52bf 0dbd 01f0 f83c
00000260: fca2 a93d d453 6f3d 3fe6 4ebd 76f3 c13c
00000270: 70c3 103d 6c04 19bc 0d8a 1bbe 014f 883d
00000280: b071 78bc 19e6 963d 0775 743d 60b2 48bc
00000290: f7a5 583d c760 2c3d ff2f 1bbe df68 4ebd
000002a0: 7206 203d d292 12be bff6 44bb 4755 29bc
000002b0: db3b 0b3d c419 303e a682 ca3d f17f 9abd
000002c0: af19 f53c 6eff 1cbb e141 333d 835d 8dbd
000002d0: d5b3 b43d a520 c8bd a5e8 463c b0f5 d6bd
000002e0: 5ef3 023a 22a2 81bd c370 3f3d 5ded ce3c
000002f0: 5ca2 25bd 0e14 58bd de01 1b3d 7a07 97bb
00000300: 9272 d2bd 3db2 703d 8cdf b0bd 608e 18be
00000310: 357e a6bb 35ff 3f3d 5830 a5bd c48b 953b
00000320: fd8b 88bd 15f0 493b fb39 e93d b3cb 2fbc
00000330: 27db f23c d621 df3d 52dd cc3d 9ad0 04be
00000340: 1f45 b0bd ba5b f8bd 0db3 7fbd c7a4 bc3d
00000350: 7a12 b03c 8dea 9b3c 6f14 463c d26a 043e
00000360: d4bb ebbd 148f 3bbd abd0 bbbc 3f8e 093d
00000370: 31a2 4b3a 3dd4 e2bd b44e 28bd 8fff 923d
00000380: a4ae 693d 0d96 86bd 9027 123d 64c9 c03d
00000390: ddf6 4bbd 4d35 bdbd 9ce4 f5bd 2193 bc3d
000003a0: 2e2c efbc 8432 1f3d 93fc 72bd 5953 853d
000003b0: 2622 963d 889c 8abd e2fa 84bc cfcb a5bd
000003c0: 92b8 9bbc b18a cebc 901a 403d ea3b 37bc
000003d0: 3d10 cfbd 0b26 bcbd b52c 393d 3b76 d83d
000003e0: 98f7 ed3d 14ee d9bc 9ff3 d0bd b950 93b7
000003f0: 802f f63d 309e f83d 8322 b83c 7d7f a9bd
0.015038068 0.07104919 -0.108383715 0.0043339166 0.117868565 -0.029232964 0.103109285 -0.074587375
0.02033568 0.17869242 0.12470082 0.003760971 -0.0049427394 0.025259929 -0.085379206 -0.06545045
-0.011004022 0.113299854 -0.09605336 -0.085391335 0.0053832745 0.11559768 -0.046137094 0.0014486676
-0.025655063 -0.01569734 0.08051562 0.038750418 -0.0077749467 -0.0017071799 -0.036524188 0.013938656
0.07273916 0.04770089 0.00201673 0.151482 -0.0838289 0.00272697 -0.024652692 -0.004855024
-0.07266191 -0.007287842 -0.086521916 -0.057561442 0.065796286 0.044737235 -0.012214073 0.032032683
-0.032632027 0.0011903744 0.101384506 0.069365 -0.03171506 -0.0018874102 0.08241283 -0.06735237
0.031660188 -0.08888678 -0.01830622 0.02704598 0.031781442 -0.03194283 0.08698646 -0.023880064
0.038375907 -0.021184338 -0.05291263 0.03836052 -0.0066691088 0.04180121 0.005838193 0.10456292
0.04649882 0.0205444 0.036954973 0.093486704 0.11493325 -0.007286613 0.09920602 0.09619615
0.021266105 -0.07882358 0.09251681 -0.028700454 -0.00992746 -0.08049627 0.041630484 -0.06543081
-0.13026668 0.036726605 0.09588881 0.18154615 0.083553396 0.014922056 -0.113164514 -0.11828156
0.09788577 0.053308334 -0.0042761792 0.04751411 -0.10797697 -0.115580246 0.10654342 0.0021439353
0.028972017 0.025230903 0.035559513 -0.004016888 0.025873564 0.070723616 0.08696796 -0.11348672
-0.13548718 0.012171868 -0.0036312682 0.10726568 -0.14627263 0.015325438 -0.07586729 -0.10475595
0.07336112 0.04725917 0.09207037 0.1159413 0.002382871 -0.13917534 0.08008739 0.024870867
-0.07649574 -0.08403837 0.09802652 0.04487306 -0.118043825 -0.10030285 -0.030947858 0.06452503
-0.055233065 0.06638384 -0.0798647 -0.09686531 -0.03521045 0.09602486 0.058899615 -0.01195281
0.0034243457 0.035317704 -0.0071472493 -0.027294364 0.08317533 0.0015671459 -0.034606285 0.03038788
0.0828304 0.058429554 -0.05051255 0.023675662 0.035342634 -0.009339433 -0.15189381 0.06655694
-0.015163824 0.073681064 0.05968192 -0.012249559 0.05289265 0.04208448 -0.15155028 -0.05039298
0.039068647 -0.1431382 -0.0030054299 -0.010335273 0.03399263 0.17197329 0.098882005 -0.07543934
0.029919473 -0.002395596 0.043764 -0.069026016 0.08823363 -0.097718515 0.012140428 -0.1049608
0.0004995371 -0.063297525 0.046738397 0.025259668 -0.04043804 -0.0527535 0.037843578 -0.0046090456
-0.10275759 0.05876373 -0.08636388 -0.14898062 -0.005080963 0.046874244 -0.080658615 0.0045637805
-0.06667326 0.0030813266 0.11388012 -0.010729718 0.029645516 0.108951256 0.10003151 -0.129702
-0.08606934 -0.121268705 -0.062426616 0.09211116 0.021493185 0.019032741 0.012089833 0.12931374
-0.11510435 -0.045790747 -0.02292665 0.033582922 0.0007768004 -0.110756375 -0.041090682 0.0717765
0.057051316 -0.06571589 0.03568226 0.09413412 -0.049795974 -0.09238682 -0.120064944 0.0920775
-0.029195871 0.038866535 -0.059322905 0.06510038 0.07330732 -0.06768137 -0.016232911 -0.08095514
-0.019008908 -0.025212618 0.046900332 -0.011183718 -0.10110519 -0.091869436 0.04520865 0.10569426
0.116194904 -0.026602782 -0.10202717 -1.7561355e-05 0.12020779 0.12139547 0.022477394 -0.082762696

conv6.bias f4 [32]
00000000: fc02 10be 6c56 ccbd c786 fe3c 174d 8f3c
00000010: 83ca d9bc 24db bebc c4aa 2abd 64c4 86bd
00000020: 73ed 4abd 2953 ed3b 2198 9ebd 0819 84bc
00000030: 25fb 853d a1b8 50be 2b20 dabd 7c64 07be
00000040: 0ea0 1ebe 95fc ccbd 8f51 6f3b 5aca abbd
00000050: f8b7 aebd 38be 07bd e68c 663d c2cc 73bc
00000060: ae67 60bc dd3b 70bd e0a3 8abd 2d47 173d
00000070: 0da3 f23a 7cfa 3a3d 1e25 5dbd 8888 0fbe
-0.14063638 -0.09977421 0.031070126 0.017492814 -0.026585823 -0.023297854 -0.04166676 -0.06580427
-0.049542855 0.0072425795 -0.0774386 -0.016125217 0.06542043 -0.2038293 -0.10650667 -0.13221925
-0.15490744 -0.10009114 0.0036517119 -0.08388205 -0.08531183 -0.03314039 0.056286715 -0.014880361
-0.013696594 -0.05865084 -0.06769538 0.036933113 0.0018511728 0.045649037 -0.053990476 -0.14016926

conv7.weight f4 [32, 32, 3]
00000000: 861b e0bc bf07 263d 29b3 fe3d 7a79 303d
00000010: 6f1d c6bd 2e9e 003d 4c60 a9bd 3bba c0bc
00000020: 0ddf 463d e6be 083d e103 0f3b 4d04 993d
00000030: 3c90 1cbd d2cc 8ebd c476 21bd a10f 633c
00000040: b331 203c 178a 11be c183 1ebd f82e 49bc
00000050: d0e3 113d 504b 533d fb32 d23d 03ec b03d
00000060: cdae b43c b8ef 93bd 3ebb 2b3c 04da e2bd
00000070: c68f b43d fa80 75bd 8a14 943d 1c65 98bd
00000080: 9039 9dbd 2931 92bd 43d0 70bd 1659 aa3d
00000090: 4c05 8e3d 159e 6fba 2159 1a3e b533 753d
000000a0: 3b74 e33d 3e85 80bd 01ed b83d 3afa cb3c
000000b0: 6049 223c 214f 80bd c684 0bbc f543 f13d
000000c0: ae18 b53d 2339 2bbd a857 df3c f75b 8e3c
000000d0: 1fbe 91bd 42a2 943d e796 0c3d 7826 d2bd
000000e0: 69bd ab3d 34e9 27bd e016 cfbd 6f30 e83d
000000f0: 3545 1e3e 6b7c c23d 0132 5fbd 84d9 29bd
00000100: e901 183d 023f cebc 8447 9b3d 5ffe 103d
00000110: 155e 1d3d 9d21 22bb 86db ca3b df46 a73d
00000120: dba8 863d f5d5 0cbc fdfa 97bb 09a9 bfbd
00000130: fdf0 cbbd 0d43 353d 1a93 313c f8c4 413d
00000140: d1c4 8dbd cee4 55bc 38e4 a43a 2687 663d
00000150: 3c03 4a3c e222 e73d 1950 ef3b 02b1 6fbd
00000160: 020b a2ba 9bf2 6abd 09a9 d8bd 3357 183e
00000170: cfa9 383d b179 093e bb98 8b3d b29f e9bd
00000180: 1d65 0abe 8dc8 d3bc b44b 853d aa17 7f3d
00000190: 5a26 2ebd 66a0 c4bd ec94 10be f697 533e
000001a0: 6f01 133e 3bf4 4e3d 2ac4 533d a976 043d
000001b0: e246 2fbd 8cd5 a03d 0b2c 4bbd fc46 9dba
000001c0: 93b3 45bd df33 26bd 7155 773d 2448 4bbc
000001d0: 72bd 58bd e90e 763d c3f8 533b 028e 573d
000001e0: bf41 aebd bac0 3abd a3c9 f23c 0093 a4bd
000001f0: 182c 5abd 29e7 643c 8f89 493d 939b 87bd
00000200: 2cc2 a8bb 7971 1e3d 3ab0 62bd b218 c0bd
00000210: 3296 30bd 7f9d f9bd f531 3c3d 290c 36bd
00000220: e9f0 07be d3fb 143d fc02 9e3c 0641 9ebd
00000230: 6d6a ce3d bf78 95bd efcc 163d fb23 dd3b
00000240: 9874 933d f8a8 783d a151 a1bd 4dca 783d
00000250: 393b 4dbb 6e58 dfbd e26e 8c3d 93ee 4d3d
00000260: 793f eabc 1adb 1abc 8640 973c 30cf 0a3d
00000270: 4ade b43a 625c 23bd f830 77bd e94f bb3c
00000280: dd6d 943b 1a06 c13c 02b3 fcbd 4e64 00bd
00000290: 50ca e13c 4bbd 9bbc 651a 82bb be0f b13d
000002a0: 12e6 803d dc5d 923c 6d8f 083d 06db e83c
000002b0: 9343 b5bd aff3 a73d 6b5f ad3d 984c ac3d
000002c0: c128 ae3d a0cf 3d3c 5371 a4bd fbda 45bc
000002d0: 7547 e0bd 1222 833c d7bb 97bc 708e 873d
000002e0: 6318 46bc f322 aebd a964 6b3d 03bd 8ebd
000002f0: 79fa 033e fae0 643d 5ee3 e43d ad57 3b3d
00000300: e7e4 3fbd d156 aabd 4d45 a0bd e1fc 97bb
00000310: 46b2 843c 96df 7abd 2e88 7e3d c1cc e23d
00000320: 988f 223e 2652 abbd e1b4 94bc 4e6d 8cbd
00000330: ce72 9cbd e949 323d 85b2 e0bd 86d2 63bd
00000340: 505b b1bd 7307 823d 56a3 3e3d 4dd6 a7bc
00000350: 9ec1 073c 4bda bfbd bb31 8b3d 990c 87bd
00000360: e748 1dbd 76b5 cebd f290 7cbd f4ea 83bd
00000370: b265 e3bd c4a2 443d 95dc dbbd 38ec 303d
00000380: 0201 923c 6000 1ebc 8373 5dbd 2871 f7bc
00000390: 7175 8b3d e497 793d a2f2 30bd 7e7a 263d
000003a0: 706b b5bd 3b64 bd3c 8603 03bd adc0 3c3d
000003b0: 9a39 eb3d f5fe e5bd 8ce8 dd3a 37fd 2bbd
000003c0: 13a7 3d3d bee8 a0bc 0350 d63c c4eb 22bd
000003d0: e1cd a2bd f281 93ba 692a 8c39 a3db 18bd
000003e0: 567b 4f3d fdb3 ba3d 941c e73c 8ff4 93bd
000003f0: fbf0 aebd 97fe a1bc bfae d3bd 10fc 04be
-0.027356874 0.04053473 0.12436516 0.0430846 -0.09673583 0.031400852 -0.0827032 -0.023526302
0.04855256 0.03338518 0.002182238 0.074715234 -0.03822349 -0.0697266 -0.039419904 0.013858707
0.009777474 -0.14212833 -0.03869987 -0.012279265 0.03561765 0.051585495 0.1026363 0.08638766
0.022056008 -0.07223457 0.010481654 -0.110767394 0.08816485 -0.059937455 0.0723048 -0.0744116
-0.07676995 -0.07138283 -0.058792364 0.08317773 0.06934604 -0.00091406825 0.15073062 0.059863765
0.111061536 -0.06275414 0.0902958 0.02489959 0.009905189 -0.06265093 -0.008515542 0.1178054
0.08842598 -0.041802537 0.027263477 0.017377837 -0.07116341 0.07257511 0.0343236 -0.102612436
0.083857365 -0.040993884 -0.10111785 0.11337363 0.15456088 0.09496387 -0.054491047 -0.041467205
0.037111197 -0.025176529 0.07582 0.035398837 0.0384198 -0.0024739273 0.00619072 0.081678145
0.065751754 -0.008595933 -0.0046380744 -0.09358413 -0.09958074 0.044253398 0.010838294 0.047306985
-0.069223054 -0.01305504 0.0012580222 0.05628123 0.012329873 0.1128595 0.0073032496 -0.058518417
-0.00123629 -0.057360273 -0.10579116 0.14877014 0.045083817 0.13425328 0.068162404 -0.114074126
-0.13515134 -0.025852466 0.0650858 0.062278427 -0.042517044 -0.09600906 -0.14119309 0.20663437
0.14356016 0.050525885 0.05170075 0.032339726 -0.04279221 0.07853231 -0.04960255 -0.0011999304
-0.04826696 -0.040576812 0.060384218 -0.012407336 -0.052915044 0.060072813 0.0032344318 0.052625664
-0.08508634 -0.045593955 0.029637164 -0.080358505 -0.053264707 0.0139711285 0.04920345 -0.0662147
-0.0051501 0.038682435 -0.055343844 -0.0937971 -0.043111987 -0.12188243 0.04594608 -0.04444519
-0.13275494 0.03637297 0.019288532 -0.07727246 0.10078893 -0.07298421 0.036816534 0.006748674
0.07199973 0.060708016 -0.078768976 0.060739804 -0.0031315817 -0.109055385 0.06857087 0.05027635
-0.02859472 -0.009451652 0.018463384 0.033888996 0.0013799157 -0.039883025 -0.060349435 0.022865253
0.0045296983 0.02356248 -0.123388305 -0.031345658 0.02756229 -0.01901116 -0.0039704316 0.08645581
0.062938824 0.017867021 0.033339906 0.028424751 -0.088507794 0.08200776 0.08465465 0.084130466
0.08503867 0.011585146 -0.080294274 -0.012076135 -0.10951129 0.016007457 -0.018522186 0.06618965
-0.012090775 -0.0850276 0.057469044 -0.06969645 0.12888516 0.055878617 0.11176179 0.04573791
-0.046849158 -0.0831734 -0.07825718 -0.0046383 0.016198289 -0.061248384 0.06214159 0.1107421
0.15875089 -0.08365278 -0.018152656 -0.06856786 -0.07639085 0.043527517 -0.1097155 -0.055620693
-0.086599946 0.06349077 0.046542488 -0.020487929 0.008285908 -0.09367808 0.06796595 -0.065942
-0.038399603 -0.10093205 -0.061661668 -0.06441298 -0.11103381 0.048006788 -0.10735432 0.043194026
0.017822746 -0.009643644 -0.05406524 -0.030205324 0.068095095 0.06093587 -0.043200143 0.04064416
-0.08858383 0.023119083 -0.031985782 0.046082187 0.11485596 -0.1123027 0.0016930266 -0.04198953
0.046301913 -0.01964223 0.0261612 -0.039775625 -0.079494245 -0.0011253937 0.0002673448 -0.037318837
0.05065473 0.09116361 0.02821187 -0.0722438 -0.08542057 -0.019774718 -0.103360645 -0.12986779

conv7.bias f4 [32]
00000000: 4f6c 053d 6b0d 0ebe 7697 52bd 9ea3 a5bd
00000010: 4348 253c f1d7 0ebe 5c16 08be 696d c6bd
00000020: c118 a1bd fbc2 41bd f99b 173d de44 28be
00000030: c383 97bd 3ea9 c9bc bdc5 19bd a507 debd
00000040: 9627 c2bd fc6a 27bc 22f9 f3bd 25d9 83bd
00000050: 9c70 d53c 3cc0 fcbd df71 cebd cee3 a43a
00000060: 840c cbbd 1174 b4bc e0c7 39be b4ee 41bd
00000070: b4fe aabc 7d88 a73c 5e33 23be 5dc7 4ebd
0.032573994 -0.13872306 -0.051413976 -0.08087848 0.010088029 -0.13949563 -0.1328978 -0.09688837
-0.078660496 -0.04730509 0.03701398 -0.16432521 -0.073981784 -0.024616834 -0.037542094 -0.10841302
-0.09480207 -0.010218378 -0.11912753 -0.064379014 0.026054673 -0.12341353 -0.10080313 0.0012580098
-0.099144965 -0.022028001 -0.18142653 -0.047346786 -0.020873405 0.020450825 -0.15937564 -0.050483096
