SCAFFOLD_1/server_model_parameters.pth (torch, 767202 bytes, 51 tensors)

conv1.weight f4 [32, 2, 3]
0	0xbcde5190	-0.027138501
1	0xbe96b07b	-0.2943152
2	0x3d08e23e	0.033418886
3	0xbe829452	-0.25503784
4	0xbde673a8	-0.112525284
5	0xbe4705fd	-0.19435878
6	0xbe135560	-0.14388037
7	0x3e8eaf44	0.27868092
8	0xbe1c4e4b	-0.15264241
9	0xbe35fea0	-0.17772913
10	0xbe3716a1	-0.17879726
11	0x3e85e9f0	0.26155043
12	0x3dfba438	0.122871816
13	0xbebecef3	-0.37267265
14	0xbe20d3c0	-0.15705776
15	0x3d8f81b4	0.07007161
16	0x3dc3e168	0.09564477
17	0x3e1a2d44	0.1505633
18	0xbe3a6ee1	-0.1820636
19	0xbe33ffcd	-0.17578049
20	0x3e8474ba	0.25870305
21	0xbda6eeb8	-0.08151001
22	0xbd393e20	-0.045225263
23	0xbecab111	-0.39588216
24	0x3ea929ed	0.330398
25	0xbd8522ce	-0.06500779
26	0xbe6f8eb2	-0.23394278
27	0xbe3ae3aa	-0.1825091
28	0xbe978c44	-0.29599202
29	0xbd501948	-0.05080536
30	0x3e78d410	0.24299645
31	0xbd106d68	-0.035260588
32	0x3e81ced4	0.2535311
33	0x3e9602b2	0.2929893
34	0x3e908188	0.28223825
35	0xbde7ea6c	-0.11324009
36	0xbeb548f1	-0.35407212
37	0x3d565460	0.05232656
38	0xbe998136	-0.29981393
39	0xbea57c4f	-0.32321402
40	0x3ea3912e	0.319467
41	0x3e4c15d0	0.19930196
42	0xbe8fb408	-0.2806704
43	0x3eaef998	0.341748
44	0xbbe0dec0	-0.0068624914
45	0x3dfe9268	0.124302685
46	0x3e899606	0.2687227
47	0xbe4ae17a	-0.19812575
48	0x3def9046	0.1169744
49	0xbe7ba922	-0.24576238
50	0x3e37823a	0.17920771
51	0x3e8c22e8	0.2737038
52	0xbe93d775	-0.28875318
53	0x3e7753e8	0.24153101
54	0xbe69e389	-0.22840704
55	0xbd8c343e	-0.06845902
56	0x3e9632e0	0.2933569
57	0x3e99c716	0.30034703
58	0x3defd058	0.1170966
59	0x3dbbec80	0.09175968
60	0x3de45e01	0.11150742
61	0x3eb8da56	0.36104077
62	0xbed1f274	-0.4100529
63	0xbe7c8012	-0.2465823
64	0xbe977d8a	-0.29587966
65	0x3e3bfa6c	0.18357247
66	0xbe907299	-0.2821243
67	0x3e936d0d	0.28794137
68	0xbe81a667	-0.25322267
69	0xbe0ac752	-0.13552597
70	0x3cbf0260	0.023316562
71	0xbd80b650	-0.06284773
72	0xbe6ea172	-0.23303774
73	0xbd605670	-0.054769933
74	0x3df17418	0.11789721
75	0xbd2750c0	-0.040848494
76	0x3e18ea80	0.14933205
77	0x3e49ac4c	0.19694632
78	0x3d428e9a	0.047499277
79	0x3b7e71c0	0.0038825125
80	0xbe2ddde2	-0.16979173
81	0xbd967544	-0.073465854
82	0xbdb73c60	-0.089470625
83	0x3c823b80	0.015897512
84	0xbe1c3cd2	-0.15257576
85	0xbeaf1f01	-0.34203342
86	0x3dff7b46	0.124746844
87	0xbdc67d10	-0.096918225
88	0x3de41d68	0.11138421
89	0x3cc23aa0	0.023709595
90	0x3d58bbf8	0.052913636
91	0xbd786ad8	-0.06064877
92	0x3e714564	0.23561627
93	0x3eca6cce	0.39536136
94	0x3d532850	0.051552117
95	0xbd972148	-0.07379395
96	0xbec0c25f	-0.37648293
97	0x3ccd3fc8	0.025054827
98	0x3e25504a	0.16143909
99	0x3ddab878	0.10679716
100	0xbea72151	-0.32642606
101	0x3e5f535c	0.21809143
102	0x3ea5fd3e	0.3241977
103	0xbe809252	-0.25111634
104	0xbd8c2d52	-0.06844582
105	0x3e9f6656	0.31132764
106	0x3e92e83a	0.286928
107	0x3e95fe98	0.29295802
108	0xbe8edefc	-0.279045
109	0xbec3672d	-0.38164654
110	0xbe114786	-0.1418744
111	0xbe6c5f7f	-0.23083304
112	0x3e9b6378	0.30349326
113	0x3eb64cc2	0.35605437
114	0xbeb947e7	-0.3618767
115	0x3d95ec3f	0.07320451
116	0xbe9e76d4	-0.30950034
117	0x3e26d320	0.16291475
118	0xbdb2d7f4	-0.08732596
119	0xbca12a60	-0.019673526
120	0xbd949424	-0.07254818
121	0x3e5c1804	0.21493536
122	0xbed253b9	-0.410795
123	0x3eae17c8	0.3400252
124	0xbe9df0e8	-0.3084786
125	0x3e02f6a0	0.12789392
126	0x3ea43ec0	0.32079124
127	0xbe2d6e5f	-0.16936634
128	0xbe20e7c3	-0.1571341
129	0xbe187d46	-0.14891538
130	0x3db8a1b8	0.090152204
131	0xbd6e88a8	-0.058235794
132	0xbd2915e8	-0.041280657
133	0xbe2e458e	-0.1701872
134	0xbebda173	-0.37037238
135	0x3e2e0ec4	0.1699782
136	0xbc104780	-0.008806109
137	0xba3a5000	-0.0007107258
138	0x3eaab328	0.3333981
139	0x3e968572	0.29398686
140	0xbdaa0474	-0.083016306
141	0x3ebd033a	0.36916524
142	0xbea71ce2	-0.32639223
143	0xbddbdba4	-0.107352525
144	0xbd7a3b38	-0.06109163
145	0xbd0829e8	-0.03324309
146	0xbf004201	-0.50100714
147	0xbe17d260	-0.14826345
148	0x3e988646	0.29789943
149	0x39511000	0.00019937754
150	0xbe1f7235	-0.1557091
151	0x3e902b67	0.28158113
152	0x3e0042c5	0.1252547
153	0x3e51f274	0.20502645
154	0x3e58cd1c	0.21171993
155	0x3ec42950	0.3831277
156	0x3e76bff2	0.24096659
157	0x3d7778a4	0.060417786
158	0xbdedef1e	-0.116178736
159	0x3eb3ee08	0.3514254
160	0xbe9f2255	-0.3108088
161	0xbd28d740	-0.041220903
162	0xbe91be35	-0.2846543
163	0xbcd838a0	-0.026394188
164	0xbe9dc1fc	-0.3081206
165	0xbebbca1d	-0.36677638
166	0xbe73ab7c	-0.23795885
167	0x3dc14940	0.094377995
168	0x3d804148	0.062624514
169	0x3e29b9d0	0.16574788
170	0x3e71149a	0.23543015
171	0x3c56f880	0.01312077
172	0xbe5fdae3	-0.21860842
173	0xbe5d5bd3	-0.2161706
174	0x3ea029a9	0.31281784
175	0x3ec12e45	0.37730613
176	0xbe1937d6	-0.14962706
177	0x3e89b24e	0.26893848
178	0xbc400e00	-0.011722088
179	0xbd9151e0	-0.070956945
180	0x3eb7d5a6	0.35905188
181	0xbec8dc9a	-0.39230806
182	0x3e6547ec	0.22390717
183	0xbe1af02a	-0.15130678
184	0xbea15c37	-0.31515667
185	0xbe4cfd1e	-0.20018432
186	0x3ded5190	0.115878224
187	0x3e21d870	0.1580522
188	0x3d5f5858	0.05452761
189	0x3d9bd1a4	0.07608345
190	0xbe7d2b45	-0.24723537
191	0x3e941ac6	0.28926677

conv1.bias f4 [32]
0	0xbe2bbfa6	-0.16772327
1	0x3e50dadf	0.20395993
2	0xbcc53190	-0.024071485
3	0x3e05d254	0.13068515
4	0x3e844f1a	0.258416
5	0x3e9a046a	0.30081493
6	0xbea44176	-0.32081193
7	0x3e990671	0.29887727
8	0x3e50726a	0.20356146
9	0x3e9a27dc	0.30108535
10	0xbe467cab	-0.19383495
11	0x3c5c7e10	0.01345779
12	0x3e5da590	0.21645188
13	0xbeac4774	-0.33648264
14	0x3ebec342	0.37258345
15	0x3e3124e4	0.17299229
16	0xbecb8350	-0.3974862
17	0xbe545978	-0.20737255
18	0xbd802a4c	-0.062580675
19	0xbebd8d6b	-0.37021956
20	0xbe6974f8	-0.22798526
21	0x3e8444e0	0.25833797
22	0x3ac78f00	0.0015225112
23	0xbec5ec9e	-0.38657087
24	0xbd8714bc	-0.06595752
25	0xbdb11790	-0.08647072
26	0x3eaa68e0	0.33283138
27	0x3dd43778	0.10362142
28	0x3e8fa8e9	0.28058556
29	0x3e47d6eb	0.19515578
30	0xbc57b5c0	-0.013165891
31	0xbd9be534	-0.076120764

conv2.weight f4 [32, 32, 3]
0	0x3d966e62	0.073452726
1	0xbd69331f	-0.05693352
2	0xbcd620b5	-0.026138643
3	0xbdfc8822	-0.12330653
4	0xbde3c832	-0.111221686
5	0xbdabee05	-0.08395008
6	0x3b762390	0.0037557818
7	0xbd0f6d30	-0.03501624
8	0xbd997a14	-0.07493988
9	0x3d4b60e1	0.049652938
10	0x3d763d47	0.060117032
11	0x3dce8a02	0.10084917
12	0xbdadf074	-0.084931284
13	0x3cf7bf60	0.030242622
14	0xbc1ae5b4	-0.00945418
15	0x3dab447b	0.08362671
16	0x3d815bc1	0.06316329
17	0xbce779f1	-0.028256388
18	0xbdb80c46	-0.08986716
19	0x3c77ea72	0.01513158
20	0x3d29ee03	0.04148675
21	0xbe182b7f	-0.14860342
22	0xbdc4df39	-0.09612889
23	0xbd84ec3a	-0.06490369
24	0xbdff84ca	-0.124764994
25	0xbc4a80d4	-0.012359817
26	0xbcac8ae0	-0.021062315
27	0xbda8aa6e	-0.08235632
28	0xbd9e1ec9	-0.077207156
29	0xbdbe4fb7	-0.09292548
30	0x3d76f934	0.060296252
31	0x3ccc26ea	0.0249209
32	0xbd61ab0e	-0.05509477
33	0x3d147d9f	0.036252614
34	0xbde97ab4	-0.11400357
35	0xbdb85949	-0.09001405
36	0xbdb5bd55	-0.08874003
37	0xbd2352ab	-0.03987376
38	0xba4cfd00	-0.00078196824
39	0xbd83eb4e	-0.06441365
40	0xbd5c5a00	-0.05379677
41	0xbd82e973	-0.06392183
42	0xbcf4ca08	-0.029881492
43	0x3d4725f0	0.048620164
44	0x3d63efd2	0.055648632
45	0x3ce8934a	0.028390545
46	0xbcf7976e	-0.030223574
47	0x3b4d8dc9	0.0031365028
48	0x3d9dc108	0.077028334
49	0x3dd679e6	0.10472469
50	0xbc6f1cd8	-0.014594279
51	0xbd9ed691	-0.07755769
52	0xbd9b90f6	-0.075960085
53	0xbdabb702	-0.08384515
54	0xbdb23efe	-0.08703421
55	0xbdbd5b5e	-0.092459425
56	0x3d820fd3	0.063506745
57	0xbdcc31d8	-0.099704444
58	0xbdf4b591	-0.119486935
59	0xbcbe4d54	-0.023230232
60	0x3d81566e	0.06315313
61	0xbd8da7b8	-0.069167554
62	0xbd98ff39	-0.07470555
63	0x3d02567c	0.03182076
64	0xbc898c1c	-0.016790442
65	0xbc0aa2dc	-0.00846168
66	0xbda31a12	-0.07963957
67	0x3c82004c	0.015869282
68	0xbdb6d279	-0.08926863
69	0xbcad82c2	-0.021180514
70	0x3c93446d	0.017976964
71	0x3daab44b	0.083351694
72	0xbd930cf8	-0.07180208
73	0x3dec6294	0.1154224
74	0x3d9db354	0.0770022
75	0xbdd299f4	-0.102832705
76	0xbda21780	-0.079146385
77	0xbd9ca51d	-0.0764868
78	0x3b8c8778	0.00428861
79	0xbd0333c5	-0.032031793
80	0x3c4fdf55	0.012687524
81	0x3da6ecd4	0.0815064
82	0x3dcc39f1	0.09971989
83	0xbd3ec68c	-0.046576068
84	0xbdd9a781	-0.10627652
85	0x3c8ee96e	0.017445292
86	0x3d3f974f	0.04677516
87	0xbcbb0b00	-0.022832394
88	0xbda0dc48	-0.07854515
89	0xbdd424b4	-0.10358563
90	0x3d51ac9a	0.051189996
91	0xbc8a9091	-0.016914638
92	0x3cc85268	0.024453357
93	0xbd5995bd	-0.053121317
94	0xbd61208e	-0.054962687
95	0x3da3168c	0.07963285
96	0xbd9c5993	-0.076342724
97	0xbdbc3708	-0.09190184
98	0xbd99bb92	-0.07506479
99	0xbdbe087a	-0.092789605
100	0x3cbe9474	0.023264147
101	0x3d7d6556	0.06186422
102	0x3d134fcc	0.035964772
103	0xbd883829	-0.06651337
104	0x3d188409	0.037235294
105	0x3d66305d	0.056198467
106	0xbd35af04	-0.04435636
107	0x3d24c3ec	0.04022591
108	0x3d8e32b8	0.069432676
109	0xbd1ddcfe	-0.038540833
110	0x3ce4b0a8	0.027916268
111	0x3c41fc3c	0.0118399225
112	0x3dbaad34	0.09115067
113	0xbb1e7150	-0.0024176426
114	0x3d65131d	0.05592643
115	0xbda31f10	-0.07964909
116	0xbcb6ba6e	-0.022305693
117	0x3d86f35b	0.06589385
118	0xbd345546	-0.044026636
119	0x3bf0bbb0	0.007346593
120	0x3c11b650	0.008893564
121	0xbc925a10	-0.01786521
122	0xbdde3d54	-0.10851541
123	0xbd2ef463	-0.042713534
124	0xbdbe1db2	-0.09283008
125	0x3d8ebb2c	0.06969294
126	0xbdfcbff5	-0.123413004
127	0xbae30240	-0.0017319396
128	0xbca6ef24	-0.020377703
129	0x3c83af1a	0.016074706
130	0x3c7881ac	0.015167635
131	0xbdbeccbf	-0.09316396
132	0x3dab6ffc	0.08370969
133	0xbd5bdab8	-0.053675383
134	0x3d804526	0.06263189
135	0xbc8fba82	-0.017544989
136	0xbd1cd8c2	-0.038292654
137	0x3dfc4410	0.123176694
138	0xbdb4d602	-0.08829881
139	0x3dd522fa	0.10407062
140	0xbd9c63b6	-0.07636206
141	0xbd8af160	-0.0678432
142	0xbd475225	-0.048662324
143	0x3d13ff6f	0.036132272
144	0xbd18b4e6	-0.037281893
145	0x3c2e0502	0.010621311
146	0x3d46f424	0.048572674
147	0x3c15d4cc	0.009144973
148	0x3dc6b286	0.097020194
149	0xba8f4140	-0.001092948
150	0xbb1bdfa0	-0.0023784414
151	0x3dc3f82a	0.09568818
152	0x3d51e0dc	0.051239833
153	0xbd564cb7	-0.052319255
154	0xbd6ca700	-0.05777645
155	0x3db133ba	0.08652444
156	0x3dcc15aa	0.099650696
157	0xbbd1e850	-0.0064058676
158	0xbd4fcaac	-0.050730392
159	0x3d805db1	0.0626787
160	0xbd9aaaca	-0.07552107
161	0x3c410754	0.011781532
162	0x3d710827	0.058845665
163	0xbd9d48c4	-0.076798946
164	0x3d810276	0.062992975
165	0xbd9b18ea	-0.07573111
166	0xbda0b0a0	-0.078461885
167	0xbd9bc826	-0.07606535
168	0x3d5a575a	0.05330596
169	0x3d144e4c	0.036207482
170	0x3db302b2	0.087407485
171	0xbd3900c6	-0.045166753
172	0xbd83de35	-0.06438867
173	0x3d55b790	0.052177012
174	0xbca9a0f8	-0.020706639
175	0x3dc19eb3	0.094540976
176	0xbda5c515	-0.08094231
177	0xbdc2b900	-0.09507942
178	0x3d337b1f	0.04381859
179	0xbdcd0e9c	-0.10012552
180	0xbd761351	-0.060077015
181	0x3d239bea	0.039943613
182	0x3d074630	0.03302592
183	0xbc042cae	-0.008067293
184	0x3db7d89a	0.0897686
185	0x3d8fa87e	0.07014559
186	0x3d9bc0d9	0.07605142
187	0xbda42c17	-0.08016222
188	0xbb1d803a	-0.0024032728
189	0xbdae35ec	-0.085063785
190	0x3d4c5540	0.04988599
191	0xbba8d9e4	-0.0051529277
192	0xba827f4e	-0.0009956153
193	0x3b8c49e0	0.0042812675
194	0x3d561b44	0.052272096
195	0xbcf83dd3	-0.030302918
196	0x3d9b2c30	0.075767875
197	0x3d88a75c	0.06672546
198	0xbd4f8bf7	-0.05067059
199	0x3d839b16	0.06426065
200	0xbcafc732	-0.021457288
201	0xbce2aa0c	-0.027668975
202	0x3ce892b9	0.028390275
203	0x3db66b00	0.089071274
204	0x3be5ede8	0.007016886
205	0xbd3f6fc5	-0.04673745
206	0xbc4edfb8	-0.012626581
207	0xbd42ab2f	-0.047526535
208	0xbdad600a	-0.084655836
209	0x3d1510db	0.036393028
210	0x3db0cfb3	0.086333655
211	0x3d8e5dc4	0.06951478
212	0xbd8d4823	-0.068985246
213	0xbd08500a	-0.033279456
214	0x3c5f1e84	0.013618115
215	0xbd935557	-0.07194012
216	0xbd646a14	-0.055765226
217	0xbd00cf4c	-0.031447694
218	0xbc20ec38	-0.009821944
219	0xbda13492	-0.07871355
220	0x3cc9b28a	0.024621267
221	0xbd3491a4	-0.044084206
222	0xbde9f1ec	-0.11423096
223	0xbdafcd4e	-0.08584081
224	0x3d582f9d	0.052779783
225	0x3cdbff7e	0.026855227
226	0xbc051568	-0.008122779
227	0x3d3adae5	0.04561891
228	0x3cdbe12e	0.026840772
229	0x3dbdbf72	0.09265031
230	0xbc5a665e	-0.01333007
231	0x3cbfff6e	0.023437228
232	0xbd9f34ab	-0.077737175
233	0xbd8ce49c	-0.06879541
234	0x3dcbe24d	0.09955273
235	0x3d874ed8	0.06606835
236	0x3d1c125d	0.03810345
237	0x3d4da8ee	0.050209932
238	0xbd6120c2	-0.05496288
239	0xbb662e40	-0.0035122782
240	0x3d7dda97	0.06197604
241	0x3dd5dcd6	0.10442512
242	0x3c7f4f64	0.015582893
243	0x3d488bed	0.04896157
244	0x3d08186d	0.03322642
245	0x3d8c7e45	0.068600215
246	0xbd3d53d4	-0.046222523
247	0xbd94af5f	-0.07260012
248	0x3d0801ac	0.03320472
249	0x3d1a8d2f	0.0377323
250	0xbd857640	-0.06516695
251	0x3d759b17	0.05996236
252	0xbd40e06e	-0.047089033
253	0x3d060c57	0.032726612
254	0x3c7875d8	0.015164815
255	0x3caab1c1	0.020836713

conv2.bias f4 [32]
0	0xbcf08be8	-0.029363587
1	0xbdf1540f	-0.11783611
2	0x3d859a10	0.06523526
3	0x3bf30338	0.007416155
4	0x3dbbf8e9	0.09178335
5	0xbd8b151f	-0.06791138
6	0xba883c80	-0.0010394007
7	0x3db8921e	0.09012245
8	0x3dc3d918	0.09562892
9	0x3bd44b54	0.0064787064
10	0xbc625fc8	-0.013816781
11	0x3cc9852e	0.024599638
12	0x3d062e12	0.03275878
13	0xbdcf4f36	-0.1012253
14	0xbc86e7fc	-0.01646804
15	0xbe20bf18	-0.15697896
16	0x3d67fbc8	0.0566366
17	0x3ddb0018	0.10693377
18	0xbd7f5456	-0.06233629
19	0xbddfbdf4	-0.109249026
20	0x3d1137d4	0.035453632
21	0x3e057789	0.1303388
22	0xbcbc5080	-0.022987604
23	0x3c113d54	0.008864719
24	0xbcc88b46	-0.024480473
25	0xbbfca0ec	-0.007709613
26	0xbdd52f6a	-0.10409434
27	0xbdabbce4	-0.083856374
28	0x3da09e72	0.07842721
29	0xbd257252	-0.040392227
30	0xbc915fdc	-0.017745905
31	0x3d138e36	0.036024295

conv3.weight f4 [32, 32, 3]
0	0xbbd0abb4	-0.006368125
1	0xbc1f134e	-0.009709192
2	0x3d30faf1	0.043208066
3	0x3cf24b8a	0.029577035
4	0xbdda8aa3	-0.10670974
5	0xbd91bbb1	-0.071158774
6	0x3d73b0db	0.059494834
7	0x3d0ed7c4	0.03487374
8	0x3d41e1a4	0.04733433
9	0x3d480d7a	0.048840977
10	0xbc47484a	-0.012163231
11	0xbd2fdc56	-0.042934738
12	0x3db19420	0.08670831
13	0xbcd1b35a	-0.025598217
14	0xbcf9f1f6	-0.030510884
15	0xbd6c4eab	-0.05769221
16	0xbdb8a42c	-0.09015688
17	0xbd0ed1a8	-0.034867913
18	0xbdc8e38c	-0.09809026
19	0xbcad09ff	-0.02112293
20	0x3cea0a32	0.028569315
21	0xbd639c87	-0.055569198
22	0xbc3ec1ee	-0.011642916
23	0x3d6b74c0	0.05748439
24	0xbdbe6aa2	-0.09297682
25	0xba862d08	-0.0010236809
26	0x3d85d0c1	0.06533957
27	0x3b5a3760	0.0033297166
28	0x3d70c183	0.058778297
29	0x3c037248	0.008022852
30	0x3ceda96e	0.029011454
31	0x3d017ae9	0.031611357
32	0xbb8bd810	-0.0042677
33	0xbd04c944	-0.032418504
34	0xbbe1d340	-0.006891638
35	0x3dd3c87a	0.10340972
36	0xbdaffd9c	-0.08593294
37	0x3d392cad	0.04520862
38	0xbc748ef6	-0.014926663
39	0x3c4dcd7c	0.012561198
40	0x3d114402	0.035465248
41	0x3d6eacc3	0.058270227
42	0xbdaeb9d8	-0.08531541
43	0xbd5d6ebc	-0.054060683
44	0xbd0ae67f	-0.033911224
45	0x3cb2ab19	0.021810101
46	0x3dc30103	0.09521677
47	0xbcdc6e48	-0.026908055
48	0xbcc5340d	-0.024072671
49	0x3d045a29	0.032312546
50	0xbd1f7442	-0.03892923
51	0xbd6c57d4	-0.057700947
52	0xbda9aa38	-0.0828442
53	0xbda283c9	-0.07935292
54	0xbd7d4433	-0.061832618
55	0xbdd65b87	-0.10466676
56	0xbdf9036f	-0.12158858
57	0xbde40536	-0.111338064
58	0x3cf23bd6	0.029569548
59	0xbc835662	-0.016032401
60	0xbc2ebe88	-0.010665543
61	0xbc5d932d	-0.013523859
62	0xbd9cdae8	-0.076589406
63	0x3ca7ff4c	0.020507477
64	0xbcb88927	-0.022526337
65	0xbbe6b2b8	-0.007040348
66	0xbdcbd055	-0.099518456
67	0x3d766eb8	0.060164183
68	0x3c2ea6da	0.010659898
69	0xbdbad105	-0.091218986
70	0xbdc64bba	-0.096824124
71	0xbdc88034	-0.09790078
72	0xbde3c7f2	-0.11122121
73	0xbda72494	-0.081612736
74	0xbdf493a0	-0.1194222
75	0xbc1b9f19	-0.009498381
76	0x3d10e56e	0.03537505
77	0xbb21e15c	-0.0024700975
78	0xbda63ff5	-0.081176676
79	0xbc3fc2b8	-0.011704139
80	0x3c45bfd0	0.012069657
81	0x3c8b4eee	0.01700541
82	0x3dd1d9d0	0.102466226
83	0xbc8ef5b4	-0.017451145
84	0xbd7f5a78	-0.062342137
85	0x3dc6be38	0.0970425
86	0x3dc9b81a	0.09849568
87	0x3d3cd2b8	0.046099395
88	0x3b610ef0	0.0034341179
89	0x3d0d2096	0.034454904
90	0xbd514a2d	-0.05109613
91	0x3cca4d73	0.024695134
92	0xbda67f2a	-0.08129723
93	0xbd6b3ef6	-0.05743309
94	0x3d8131b3	0.063083075
95	0x3d730f65	0.059340853
96	0x3d47548f	0.048664626
97	0x3ca6813e	0.0203253
98	0x3ca1b636	0.019740205
99	0x3d1357b4	0.035972312
100	0x3db68f5b	0.08914062
101	0xbd239712	-0.039938994
102	0xbc542cf8	-0.0129501745
103	0x3cbd0074	0.023071505
104	0xbb179b50	-0.0023133345
105	0x3d42bf89	0.047545943
106	0xbdbb3ac3	-0.09142067
107	0xbd90bf71	-0.070677646
108	0x3d039c76	0.032131635
109	0xbd7903d0	-0.06079465
110	0x3d5d329e	0.05400335
111	0xbd13ca54	-0.036081627
112	0xbb901a48	-0.004397664
113	0xbd09daa0	-0.033655763
114	0xbcbba1bd	-0.022904271
115	0x3d2519f3	0.04030795
116	0xbdb51c03	-0.088432334
117	0x3becee16	0.0072305305
118	0xbce254ed	-0.027628386
119	0xbbac24cc	-0.00525341
120	0xbd529c65	-0.05141868
121	0x3dd89b0d	0.105764486
122	0xbdb3fdf9	-0.08788676
123	0xbc0f11ec	-0.0087323
124	0xbb1b6750	-0.0023712702
125	0xbd3aa122	-0.045563824
126	0x3d480d6d	0.04884093
127	0x3d9f6c3d	0.07784317
128	0xbdabe5d0	-0.08393443
129	0xbc09d5b0	-0.0084127635
130	0xb9857980	-0.0002545826
131	0x3c159f9b	0.009132291
132	0x3bd526d0	0.006504871
133	0xbbfa9ce0	-0.0076480955
134	0x3d1d870c	0.03845887
135	0x3cf20cf0	0.029547185
136	0xbcd2d66a	-0.025737006
137	0xbdce3d73	-0.10070314
138	0x3df3aec8	0.11898571
139	0x3d9d1bc2	0.0767131
140	0x3c99f30c	0.018792652
141	0x3df46730	0.11933744
142	0x3d50275f	0.050818797
143	0xbc33f988	-0.010984786
144	0xbca71fae	-0.020400848
145	0xbd9c82f2	-0.07642163
146	0x3d84f3d0	0.06491816
147	0xbda93b34	-0.08263245
148	0x3d73e461	0.05954397
149	0xbdeb1fb4	-0.11480656
150	0x3d9f01c2	0.07764007
151	0xbd7082f8	-0.05871865
152	0xbd4e34be	-0.050343268
153	0xbc13eb18	-0.009028219
154	0xbdd9a72a	-0.10627587
155	0x3db18697	0.08668249
156	0x3db9ef32	0.09078826
157	0x3d8d266d	0.06892095
158	0x3d159db2	0.036527343
159	0x3de46d95	0.111537136
160	0x3cb7eb5e	0.022451099
161	0x3b1e6a98	0.0024172422
162	0xbc817ab0	-0.015805572
163	0x3da06f24	0.078336984
164	0x3dd91bb0	0.10600984
165	0x3d416a58	0.047220558
166	0x3d7bdaaf	0.06148785
167	0x3d30f82a	0.043205418
168	0xbd990b3d	-0.07472847
169	0x3c31d91a	0.010854984
170	0xbd566e8a	-0.052351512
171	0xbce96fd6	-0.02849571
172	0xbd6ab257	-0.057298984
173	0x3cd3c398	0.025850102
174	0xbdb151fe	-0.08658217
175	0x3d75e098	0.060028642
176	0xbde796a5	-0.1130803
177	0x3d3d302e	0.046188526
178	0xbc1147dc	-0.00886723
179	0x3d8b60c0	0.06805563
180	0x3dafce32	0.085842505
181	0x3d1588ec	0.036507532
182	0x3d27f40a	0.04100422
183	0xbcec9e2c	-0.028884016
184	0xbd7acf38	-0.061232775
185	0x3d922955	0.0713679
186	0xbd4b92fc	-0.049700722
187	0xbd5505a6	-0.05200734
188	0xbc32000c	-0.010864269
189	0x3ca8f1c8	0.020623103
190	0xbdbdbdcc	-0.092647165
191	0xbac0efe0	-0.0014719926
192	0xbd7a21af	-0.06106728
193	0xbce1958a	-0.027537126
194	0xbb0fc378	-0.0021936577
195	0x3d112a0a	0.035440482
196	0x3d488ebe	0.048964255
197	0xbd824650	-0.06361067
198	0xbd2318ce	-0.039818577
199	0xbdba4f94	-0.090972096
200	0x3d61482e	0.055000477
201	0xbdac26b7	-0.08405822
202	0x3d7b8c9a	0.061413385
203	0xbce77830	-0.028255552
204	0xbcbd8c80	-0.023138285
205	0xbd70b8a4	-0.058769837
206	0x3d220595	0.039556105
207	0xbd228f7c	-0.03968762
208	0xbdbb6631	-0.09150351
209	0x3dafad4d	0.085779764
210	0xbdaa04a9	-0.0830167
211	0x3d751305	0.05983259
212	0xbcaee9aa	-0.021351654
213	0xbdbeed30	-0.09322584
214	0x3d946d46	0.07247405
215	0x3c69f7ac	0.014280241
216	0xbd84d5cc	-0.06486091
217	0x3d409b52	0.047023125
218	0x3d8ab6af	0.067731254
219	0xbd0c0ca5	-0.034191746
220	0x3c0cea2c	0.008600753
221	0x3d149c95	0.03628214
222	0x3dd91e73	0.10601511
223	0x3d4d357c	0.050099835
224	0x3d0d6f51	0.034529988
225	0x3d94b981	0.072619446
226	0xbc69d7e0	-0.01427266
227	0xbd2de26c	-0.04245226
228	0xbdbae033	-0.09124794
229	0x3cc36ff7	0.0238571
230	0xbcd59256	-0.026070755
231	0x3d5be982	0.053689487
232	0x3c784d6c	0.015155178
233	0xbd39a1fa	-0.04532049
234	0xbd4bcbfa	-0.049755074
235	0x3cccc0b8	0.02499424
236	0xbc52642e	-0.0128412675
237	0xbd5a4a1f	-0.053293344
238	0xbcec96e6	-0.028880548
239	0x3dbeca6c	0.09315953
240	0x3cd432fb	0.025903216
241	0xbcb5ad60	-0.022177398
242	0x3d0b6e76	0.03404089
243	0x3db305b2	0.08741321
244	0xbd8fba3e	-0.07017945
245	0xbd49a90a	-0.049233474
246	0xbdb4aec8	-0.088223994
247	0xbd1a1744	-0.037619844
248	0xbbe63890	-0.0070257857
249	0x3c944e6b	0.018103799
250	0x3da78a01	0.08180619
251	0xbc968bc4	-0.018377192
252	0x3dbbbd96	0.0916702
253	0x3d240b38	0.04004976
254	0xbcb152f1	-0.021645995
255	0xbda3c6af	-0.0799688

conv3.bias f4 [32]
0	0xbd0cf622	-0.034414418
1	0x3cc054e7	0.023477985
2	0xbd9e70db	-0.07736369
3	0xbd0a5252	-0.033769913
4	0xbdc3e534	-0.095652014
5	0x3dd26740	0.102735996
6	0xbda1e229	-0.07904465
7	0xbd934cd4	-0.07192388
8	0xbdc25fa9	-0.09490902
9	0x3d93a7f3	0.07209768
10	0x3d15dd1a	0.036587812
11	0x3ddb7bc8	0.10716969
12	0xbd6a2d52	-0.057172127
13	0xbd73bcc8	-0.059506208
14	0xbd4e25f8	-0.05032918
15	0xbde2f818	-0.110824764
16	0x3ccc2464	0.024919696
17	0xbd7bd0c4	-0.06147839
18	0xbb94d40c	-0.0045418795
19	0x3d24f119	0.04026899
20	0xbb91c0d6	-0.0044480367
21	0x3d37bc89	0.044857536
22	0xbdc324f7	-0.09528535
23	0x3d5fe4c8	0.054661542
24	0x3d3841e6	0.04498472
25	0x3dbbbe8c	0.09167203
26	0x3d5969ca	0.053079404
27	0xbc9be5d4	-0.019030489
28	0xbc9928de	-0.018696245
29	0x3cf15ed9	0.029464172
30	0x3c88481e	0.01663595
31	0xbdd67482	-0.10471441

conv4.weight f4 [32, 32, 3]
0	0xbd859449	-0.06522424
1	0xbdacaa0f	-0.084308736
2	0xbd794a9a	-0.06086216
3	0xbe000243	-0.12500863
4	0x3d855344	0.06510022
5	0xbd8323c4	-0.06403306
6	0xbd970a6e	-0.07375036
7	0x3d8360b2	0.064149275
8	0x3df38c2e	0.118919715
9	0x3e045fce	0.12927172
10	0x3d9d4ad0	0.07680285
11	0x3cf08156	0.029358547
12	0x3ba935d8	0.0051638894
13	0x3c7a97c1	0.01529497
14	0xbdd3412b	-0.10315164
15	0x3da54fb1	0.080718406
16	0xbd321b0a	-0.043482818
17	0xbc573cd2	-0.013137059
18	0x3cebe666	0.028796386
19	0x3d5e46d4	0.054266766
20	0xbd307bfa	-0.043086983
21	0xbd582b1d	-0.05277549
22	0x3b29b258	0.0025893655
23	0xbd1473f4	-0.036243394
24	0xbcf12eb1	-0.02944121
25	0x3dbc37de	0.09190343
26	0x3cec174b	0.0288197
27	0x3d7a14d0	0.061055005
28	0x3d7776ff	0.060416218
29	0x3d74935f	0.059710857
30	0xbdcefdfe	-0.10107039
31	0xbdada05f	-0.08477854
32	0x3da2ebb5	0.07955114
33	0xbd59d0e4	-0.05317773
34	0xbd90b402	-0.07065584
35	0x3ceab74e	0.02865186
36	0x3cd091f0	0.025460213
37	0xbda2738c	-0.07932195
38	0xbd862758	-0.06550473
39	0x3d8b740e	0.06809245
40	0xbd159475	-0.036518533
41	0xbdb95adc	-0.09050533
42	0xbd07d865	-0.033165354
43	0x3da0375f	0.07823061
44	0xbdf7a9be	-0.12092923
45	0xbd920246	-0.0712934
46	0xbd786f93	-0.06065328
47	0xbcec4efa	-0.028846253
48	0x3c8589de	0.016301092
49	0xbcba2798	-0.022723958
50	0x3d547586	0.05186989
51	0x3cbf3274	0.023339488
52	0x3bffc890	0.0078058913
53	0x3d9c60df	0.07635664
54	0x3d85c5a3	0.06531837
55	0xbd08d89b	-0.033409696
56	0xbd536b95	-0.05161627
57	0xbd8751a8	-0.066073716
58	0x3d7ecc5b	0.062206607
59	0xbd8244d9	-0.06360788
60	0xbccc4617	-0.024935765
61	0x3d75d2ea	0.060015596
62	0xbc203c62	-0.009780021
63	0x3e009096	0.12555155
64	0x3d6f138a	0.058368243
65	0x3cdc750c	0.026911281
66	0x3d668996	0.056283556
67	0xbd918606	-0.07105641
68	0xbdb97c5a	-0.09056921
69	0x3d17d41a	0.03706751
70	0xbda46ea6	-0.08028917
71	0x3caa2f10	0.020774394
72	0x3d93a436	0.07209055
73	0x3d3e6c16	0.046489798
74	0x3d8ee7ad	0.069777824
75	0x3d245f28	0.04012981
76	0xbd4cf2f7	-0.050036397
77	0xbd4e3dd8	-0.050351948
78	0x3d1d7021	0.038437013
79	0x3dc73356	0.097265884
80	0x3d72cc2a	0.059276737
81	0x3cc1df62	0.023666088
82	0x3d24bcaa	0.040218987
83	0x3cb94e62	0.022620384
84	0xbd3a4b74	-0.045482114
85	0x3d305dd9	0.04305825
86	0xbcffe3ad	-0.031236494
87	0xbda27bca	-0.07933767
88	0xbd2905a1	-0.041265134
89	0xbd5bed81	-0.0536933
90	0xbda77c19	-0.081779666
91	0x3dbc540c	0.09195718
92	0x3d0f1099	0.034927938
93	0xbcba5d94	-0.0227497
94	0xbdbf6636	-0.09345667
95	0xbd064398	-0.032779306
96	0xbdaf6a82	-0.08565237
97	0x3d8da726	0.06916647
98	0x3db04519	0.08606929
99	0x3d931148	0.071810305
100	0x3d4dfca4	0.050289765
101	0x3da021f7	0.07818978
102	0x3d3a5d5a	0.045499183
103	0x3d8b3fd2	0.06799282
104	0x3dadd5fb	0.08488079
105	0x3dac47d2	0.08412136
106	0x3d45fd38	0.04833719
107	0x3d8831aa	0.06650098
108	0xbd8142d3	-0.06311574
109	0xbbb1b650	-0.0054233447
110	0xbd7e2d7c	-0.062055096
111	0x3b27d1b0	0.0025607161
112	0x3dac892a	0.084245995
113	0x3ce4d31c	0.027932696
114	0x3b8a6118	0.0042230003
115	0x3d17e2a0	0.03708136
116	0x3d2f735e	0.042834632
117	0xbd005634	-0.03133221
118	0x3d0dd5b2	0.034627624
119	0x3d8adace	0.06780015
120	0x3dc3ffa3	0.09570243
121	0x3d16d6a4	0.03682579
122	0xbd8a274e	-0.06745778
123	0x3c76f4d4	0.01507302
124	0xbdc760d6	-0.09735267
125	0xbb2feb68	-0.0026843194
126	0x3c46cef8	0.012134306
127	0x3cf2822d	0.029603088
128	0x3c6f78c1	0.014616192
129	0x3c8e35fe	0.01735973
130	0x3dbf10ff	0.093294136
131	0x3c2199f8	0.009863369
132	0x3cd65bac	0.02616676
133	0x3d8819a8	0.066455185
134	0xbca56b4a	-0.020192761
135	0x3db40950	0.08790839
136	0xbddb318d	-0.107028104
137	0x3dc117d0	0.0942837
138	0x3cfd882f	0.030948726
139	0xbc357fcf	-0.011077835
140	0x3dc1e5aa	0.09467633
141	0x3cf913c7	0.030404938
142	0x3d99400a	0.074829176
143	0x3d4d05b8	0.050054282
144	0xbd098946	-0.03357818
145	0xbd7a3c2b	-0.061092537
146	0x3d2b825e	0.041872375
147	0xbcd8e81c	-0.026477866
148	0x3da55dc6	0.080745265
149	0x3dab2045	0.08355764
150	0x3cd05954	0.02543322
151	0xbcf3bada	-0.029752184
152	0x3c3a0a38	0.011354975
153	0xbc90a212	-0.017655406
154	0x3d340a5b	0.04395519
155	0xbdc20716	-0.09474008
156	0x3d5d0cb8	0.053967208
157	0x3d526efe	0.05137538
158	0x3db4d11d	0.08828948
159	0xbc422520	-0.011849672
160	0x3cca3880	0.024685144
161	0x3b6d13d0	0.003617514
162	0x3c8b4cb5	0.01700435
163	0x3c39d014	0.011341114
164	0x3d020e82	0.031752117
165	0x3d7af09e	0.061264627
166	0x3c807d82	0.015684847
167	0xbc670c04	-0.014101986
168	0xbd841ad8	-0.064504325
169	0xbd50d78b	-0.050986808
170	0xbd834e34	-0.064114004
171	0x3c9be89a	0.019031812
172	0xbaf4b1a0	-0.0018668659
173	0x3d6706f4	0.056403115
174	0x3db03cd6	0.086053535
175	0xbd548833	-0.051887702
176	0x3d99faa8	0.07518512
177	0xbd069c36	-0.032863818
178	0xbc0db6b0	-0.008649513
179	0x3d0a1f82	0.033721454
180	0x3d53dbf8	0.05172345
181	0xbc4f1be8	-0.012640931
182	0x3d89571d	0.06706069
183	0xbcd53d00	-0.026030064
184	0x3cd0e626	0.025500368
185	0x3cea2e2d	0.028586471
186	0x3da9a9e7	0.082843594
187	0x3de34735	0.11097566
188	0x3db45926	0.08806066
189	0x3dab0dd8	0.0835225
190	0xbd6f6bb9	-0.05845234
191	0x3d54e0a1	0.051972035
192	0x3d8eaf04	0.06966975
193	0x3ac2f020	0.0014872588
194	0xbc179388	-0.009251483
195	0xbcc783f0	-0.024354905
196	0xbc91a801	-0.017780306
197	0x3cf83f22	0.030303542
198	0xbd42b860	-0.047539115
199	0xbc2fed5e	-0.010737745
200	0x3c5f9aca	0.013647744
201	0x3c92cf6e	0.017921176
202	0xbde21e13	-0.110408925
203	0x3ca97bdc	0.020688944
204	0xbd83df62	-0.06439091
205	0xbd09013a	-0.033448435
206	0xbd1e16ac	-0.03859584
207	0xbdbc9986	-0.0920897
208	0x3da7ab4d	0.0818697
209	0xbca718d8	-0.020397589
210	0xbbdc2bc8	-0.0067190863
211	0xbd7fa04e	-0.062408738
212	0xbced8516	-0.028994124
213	0xbdb6ab3a	-0.089193776
214	0x3d176856	0.036964737
215	0xbd2505e3	-0.040288817
216	0x3def96b2	0.11698665
217	0xbd873df3	-0.06603613
218	0xbd0b827b	-0.034059983
219	0xbbc934c0	-0.0061403215
220	0xbdaf29bb	-0.08552881
221	0xbddfa341	-0.1091981
222	0xbd3b1f8e	-0.04568439
223	0xbd8fc53e	-0.07020043
224	0x3db7742f	0.08957707
225	0xbdfe59b2	-0.12419452
226	0x3d2801aa	0.041017212
227	0x3da88641	0.08228732
228	0x3cd83011	0.026390107
229	0x3c4304c2	0.01190299
230	0xbdf0c8ca	-0.117570475
231	0xbd07a876	-0.03311964
232	0xbcf627b2	-0.030048225
233	0x3d1fd787	0.039023902
234	0xbd9863e2	-0.07440926
235	0xbd933ae5	-0.071889676
236	0x3d317c30	0.043331325
237	0xbd5671ee	-0.052354746
238	0x3c52d4ea	0.0128681455
239	0xbdd4b682	-0.10386373
240	0xbd9262b9	-0.07147736
241	0xbd07905d	-0.03309666
242	0x3d02adca	0.03190402
243	0xbcfce11c	-0.03086906
244	0x3d63b9e6	0.05559721
245	0x3d65ca33	0.056101035
246	0xbd865147	-0.06558471
247	0x3c113a46	0.008863991
248	0xbdc0aec4	-0.09408334
249	0xbda8e50e	-0.08246814
250	0x3dc50180	0.09619427
251	0x3daa3dba	0.08312555
252	0x3d2f5b52	0.0428117
253	0xbcf924a2	-0.030412976
254	0xbd75eedb	-0.060042243
255	0x3d8debaa	0.06929715

conv4.bias f4 [32]
0	0x3d8a6eaf	0.067593925
1	0xbd970a5f	-0.07375025
2	0xbd6cf6ae	-0.05785244
3	0xbd6d58d0	-0.057946026
4	0xbd42b560	-0.047536254
5	0xbd195bfe	-0.037441246
6	0xbd97cafa	-0.074117616
7	0xbc075f52	-0.008262472
8	0xbd3dbb47	-0.04632118
9	0x3d08a33e	0.033358805
10	0xbdb82ce4	-0.08992937
11	0xbdc5199c	-0.09624025
12	0x3d3eda7a	0.046595074
13	0xbd18d955	-0.03731664
14	0xbb07ada8	-0.0020702872
15	0x3d713d69	0.058896456
16	0xbc61ee3b	-0.013789709
17	0x3c6a9cd6	0.014319619
18	0x3d093a25	0.033502717
19	0x3d9d4f97	0.07681196
20	0xbd9b9a07	-0.07597738
21	0xbcfe3b40	-0.031034112
22	0x3ca33143	0.01992095
23	0xbda77135	-0.081758894
24	0x3d5ee8f4	0.05442138
25	0x3cd21da8	0.025648907
26	0xbdbdd2b4	-0.09268704
27	0xbdc23c9c	-0.094842166
28	0x3d95104c	0.07278499
29	0xbcb20610	-0.021731406
30	0xbd07f344	-0.03319098
31	0xbdcd22f2	-0.10016431

conv5.weight f4 [32, 32, 3]
0	0xbd35286f	-0.044228014
1	0x3abf6ff0	0.0014605504
2	0xbc5e677a	-0.013574475
3	0xbd356e5a	-0.044294693
4	0x3cf3af8c	0.029746793
5	0xba8fef40	-0.0010981336
6	0x3d9cc887	0.07655435
7	0x3d68b8f5	0.056817014
8	0x3ddf1648	0.10892922
9	0x3c027062	0.007961364
10	0xbdd380c8	-0.103272974
11	0x3d1921b4	0.037385657
12	0x3c559d78	0.013038032
13	0x3d8f8052	0.07006897
14	0x3d93197c	0.07182595
15	0x3cdf487b	0.027256241
16	0x3d0da78d	0.034583617
17	0x3d8ff6f2	0.07029523
18	0x3d18c5f2	0.03729815
19	0x3d5f71af	0.054551776
20	0xbd17763f	-0.036978003
21	0xbcf55e8b	-0.029952308
22	0x3d942eea	0.07235511
23	0xbc3f7820	-0.011686355
24	0x3d927a53	0.07152238
25	0x3dc1c7f0	0.09461963
26	0x3c9b9b8d	0.01899507
27	0xbd04782e	-0.032341175
28	0x3cf7861a	0.030215312
29	0xbc129cd3	-0.008948523
30	0xbd9a0ce0	-0.07521987
31	0x3c054878	0.008134954
32	0xbd9ee300	-0.077581406
33	0x3d7ad66c	0.061239645
34	0x3db5d3f8	0.088783205
35	0x3bb26d8c	0.005445188
36	0x3d894a15	0.06703583
37	0x3cf2302c	0.029563986
38	0xbdace500	-0.08442116
39	0x3c8cadee	0.01717278
40	0xbab53900	-0.0013826191
41	0x3dc41dd0	0.09575999
42	0x3d94f5b1	0.072734244
43	0xbd351b68	-0.04421559
44	0x3d250910	0.040291846
45	0x3d4f39f4	0.050592378
46	0xbd6e664c	-0.058203027
47	0x3ceb386c	0.028713427
48	0xbd2b8ba2	-0.04188121
49	0xbd7c5898	-0.061607927
50	0x3dba1035	0.090851225
51	0xbc1d99e4	-0.00961921
52	0xbd97206e	-0.07379232
53	0x3dabb498	0.08384055
54	0x3d635492	0.055500574
55	0xbdc68df4	-0.09695044
56	0xbdfb7364	-0.122778684
57	0xbca718ea	-0.020397622
58	0xbd0eae4f	-0.034834202
59	0xbdbeeac9	-0.093221255
60	0xbd340d48	-0.04395798
61	0x3c883258	0.016625568
62	0x3c524128	0.012832917
63	0x3c785af0	0.0151584
64	0x3e0281ce	0.12744829
65	0x3e0161d0	0.12634969
66	0xbdd8656d	-0.105662204
67	0xbda600ce	-0.08105622
68	0xbcd9f02a	-0.026603777
69	0xbc876191	-0.016526015
70	0x3db42056	0.0879523
71	0xbdaa9d3f	-0.083307736
72	0xbd9e697d	-0.07734964
73	0xbda881be	-0.08227871
74	0xbdd4e2eb	-0.10394844
75	0x3def064c	0.11671123
76	0x3c930b22	0.017949644
77	0x3d42ec27	0.047588494
78	0x3dc98f51	0.098417886
79	0xbbfa1ecc	-0.007633066
80	0x3cbdec64	0.023184009
81	0x3d99df73	0.07513323
82	0x3c2ce0bc	0.010551628
83	0x3b09b918	0.0021014865
84	0xbd96a5e8	-0.07355863
85	0xbc9e1bae	-0.019300308
86	0x3d934bd3	0.07192197
87	0xbdc8e403	-0.09809115
88	0xbda106bb	-0.07862612
89	0x3d94bfc4	0.07263139
90	0x3c318cca	0.010836789
91	0xbda7534a	-0.08170183
92	0xbcfb2592	-0.030657563
93	0x3d1b9c3f	0.037990805
94	0xbd1ecf85	-0.038772125
95	0x3ad816f8	0.0016486337
96	0x3d4332f7	0.047656026
97	0x3de8815c	0.11352798
98	0x3dd306de	0.10304044
99	0x3d098bf3	0.03358073
100	0x3c72b884	0.0148145
101	0x3d62e534	0.055394366
102	0x3d998781	0.074965484
103	0x3d702bcf	0.05863553
104	0x3d11f128	0.035630375
105	0xbd898db4	-0.06716481
106	0xbd2c7ee2	-0.042113192
107	0x3cd914f4	0.026499249
108	0xbdaec974	-0.08534518
109	0x3d77a147	0.06045654
110	0xbcc68126	-0.024231505
111	0x3c426e3a	0.0118671
112	0xbda3310e	-0.07968341
113	0x3c45c16d	0.012070042
114	0x3d8a8b3b	0.06764837
115	0x3daa3a60	0.083119154
116	0xbd896242	-0.06708194
117	0xbcbaca92	-0.022801671
118	0xbdb3a911	-0.08772481
119	0x3da0e91d	0.07856963
120	0xbd18c56e	-0.03729766
121	0x3cba5f04	0.022750385
122	0x3da53349	0.080664225
123	0x3cb46eb1	0.022025438
124	0xbd4a0a13	-0.049326014
125	0x3da64f2f	0.08120572
126	0xbc7286f0	-0.014802679
127	0x3c602d18	0.013682626
128	0xbce576d3	-0.028010761
129	0x3df1d01f	0.11807274
130	0xbc894938	-0.016758546
131	0x39d6e200	0.00040985644
132	0xbd274f26	-0.040846966
133	0xbd3ff434	-0.04686375
134	0x3d386b8a	0.045024432
135	0x3d87ebaa	0.06636746
136	0x3d8f9e70	0.070126414
137	0xbdc4e21a	-0.09613438
138	0x3c965949	0.018353121
139	0xbdb5aa6a	-0.088703945
140	0xbd9f88c2	-0.07789756
141	0x3d2022e0	0.03909576
142	0x3d6b3d6e	0.05743163
143	0x3dc1502b	0.09439119
144	0xbce6eb69	-0.028188424
145	0x3ddb2706	0.107008025
146	0x3d0ac296	0.033876978
147	0x3cceb0f8	0.02523087
148	0xbc04e14c	-0.008110356
149	0x3c8f5bf0	0.017499894
150	0xbc133cd8	-0.008986674
151	0xbdb69f2e	-0.0891708
152	0xbd25d1a0	-0.040483117
153	0x3d81a620	0.06330514
154	0x3d1d987e	0.038475506
155	0x3d4edb94	0.050502375
156	0x3da6b2b6	0.08139555
157	0x3bd4a440	0.0064893067
158	0x3c759c68	0.014990903
159	0x3d480a5d	0.04883801
160	0x3bb83fb0	0.0056228265
161	0xbdfd452c	-0.12366709
162	0xbdc8aeda	-0.09798975
163	0xbd9b598a	-0.075854376
164	0xbb058340	-0.002037242
165	0x3d729aec	0.059229776
166	0xbdd37aad	-0.10326133
167	0x3c854c54	0.016271748
168	0x3d093611	0.033498827
169	0xbd3dcbbb	-0.04633687
170	0x3da5cdfe	0.080959305
171	0xbd4be072	-0.049774595
172	0xbd661d23	-0.05618013
173	0xbc10163e	-0.008794365
174	0xbc9f9328	-0.01947935
175	0x3dcff51a	0.10154171
176	0x3dcf380c	0.10118112
177	0xbd321813	-0.04347999
178	0x3c2cad74	0.010539401
179	0x3d066c83	0.03281833
180	0x3d3d0710	0.046149313
181	0xbd08e342	-0.033419855
182	0xbdd032b2	-0.10165919
183	0x3d9a971f	0.07548355
184	0x3dbd3f30	0.09240568
185	0x3ba68338	0.0050815605
186	0x3d0fe653	0.035131764
187	0x3daabe98	0.08337134
188	0x3d50f29c	0.05101262
189	0xbd0df674	-0.034658864
190	0xbcb76518	-0.022387072
191	0x37c8a800	2.3920089e-05
192	0x3cc98b12	0.024602447
193	0x3cc7c8c7	0.02438773
194	0xbd066d57	-0.03281912
195	0xbbb589d8	-0.005540114
196	0xbd0b44ac	-0.034001037
197	0x3dc78d7f	0.09743785
198	0xbd2f927c	-0.042864308
199	0x3dc3b02e	0.09555088
200	0xbd1fa9a9	-0.03898016
201	0xbbc8d2d0	-0.0061286464
202	0x3d31f70c	0.043448493
203	0x3d85a1aa	0.065249756
204	0xbd62e54b	-0.055394452
205	0xbd1c6217	-0.038179483
206	0xbd969915	-0.07353417
207	0xbda71ea0	-0.08160138
208	0x3cf8b975	0.03036187
209	0x3ba65160	0.0050756186
210	0xbd3e9bd1	-0.046535317
211	0x3da8f73c	0.08250281
212	0xbc0d9d40	-0.008643448
213	0x3d1e243e	0.038608782
214	0xbda375e0	-0.07981467
215	0xbd70e9bb	-0.058816653
216	0x3da44e9c	0.08022806
217	0xbd66d94c	-0.056359574
218	0xbd638c14	-0.05555351
219	0xbba991d4	-0.005174855
220	0xbcaad2aa	-0.020852406
221	0x3dfed6d4	0.12443319
222	0xbd1ec978	-0.038766354
223	0x3d82dc69	0.06389696
224	0xbda314ca	-0.079629496
225	0xbd01b820	-0.031669736
226	0x3d1b06d0	0.037848294
227	0x3cc4c6e8	0.024020627
228	0x3d9f5dac	0.07781538
229	0x3dcde049	0.100525446
230	0x3d4b439c	0.049625024
231	0xbd3b9b13	-0.045802187
232	0x3d20d392	0.03926427
233	0xbd2c783a	-0.042106844
234	0xbcef5e80	-0.029219866
235	0xbd2cfe51	-0.042234723
236	0xbd6b65c2	-0.05747009
237	0xbcc9d502	-0.024637703
238	0x3dac3172	0.084078684
239	0x3c8bc44f	0.01706138
240	0xbcf16070	-0.02946493
241	0x3d065818	0.032798856
242	0xbdc8ed7e	-0.09810923
243	0x3d25a11c	0.04043685
244	0x3d835ea0	0.06414533
245	0x39f32dc0	0.00046382658
246	0x3d886f7e	0.066618904
247	0x3d899d37	0.067194395
248	0xbcede1c2	-0.029038314
249	0xbddf55c1	-0.10905028
250	0x3d977149	0.07394654
251	0xbd136c47	-0.035991933
252	0x3df5d606	0.12003712
253	0x3e0569c8	0.13028634
254	0xbd360561	-0.044438723
255	0xbcded028	-0.027198866

conv5.bias f4 [32]
0	0xbbd79b5c	-0.0065797996
1	0x3d6805cd	0.056646157
2	0xbd57fc05	-0.05273058
3	0x3d520031	0.051269714
4	0xbc9e5cee	-0.019331422
5	0x3d0b86ce	0.034064107
6	0x3d8cd32f	0.068762176
7	0xbd8639ec	-0.065540165
8	0x3dc6b58e	0.097025976
9	0xbdb5f8e1	-0.088853605
10	0x3d99a437	0.075020246
11	0x3d4186c8	0.047247678
12	0xbdc42f93	-0.095793866
13	0x3d436e92	0.04771287
14	0xbd647c65	-0.055782694
15	0x3cf847e8	0.030307725
16	0xbc82fe38	-0.015990362
17	0x3ceb7898	0.028744027
18	0x3c465026	0.01210407
19	0x3cb441dd	0.022004062
20	0x3c5404e2	0.012940617
21	0x3d74cdbd	0.05976652
22	0xbc9c617a	-0.01908945
23	0xbcc58b1a	-0.02411418
24	0x3da109b6	0.0786318
25	0x3d58b8f7	0.05291077
26	0x3d60748b	0.054798644
27	0x3ca22c4f	0.019796519
28	0x3d915b82	0.07097532
29	0xbd5cf46a	-0.05394403
30	0xbe109277	-0.14118372
31	0x3dc06c8d	0.093957044

conv6.weight f4 [32, 32, 3]
0	0xbce18d04	-0.027533062
1	0x3d5681a2	0.05236972
2	0xbddad2f3	-0.106847666
3	0x3c1eb15c	0.00968584
4	0x3dc9c56e	0.0985211
5	0xbd8b674f	-0.06806814
6	0x3d9ea79a	0.07746811
7	0xbdb69fbc	-0.08917186
8	0x3d3596e6	0.04433336
9	0x3dab6e17	0.08370607
10	0x3da1ca55	0.0789992
11	0x3d0a9ee8	0.03384295
12	0xbdb8e51c	-0.09028074
13	0xbc9bfdc0	-0.019041896
14	0xbdb9bb82	-0.090689674
15	0xbd8837f3	-0.066512965
16	0xbcebe55a	-0.028795887
17	0x3dcc0f08	0.099638045
18	0xbd531ca6	-0.051540993
19	0xbd8987dc	-0.06715366
20	0x3cca82ec	0.024720632
21	0x3d75e204	0.06003
22	0xbd9407c3	-0.07228043
23	0x3ca43d78	0.020048842
24	0xbc88821a	-0.0166636
25	0xbcdc6574	-0.026903845
26	0x3da44918	0.08021754
27	0x3d4f877c	0.050666317
28	0xbc56ce20	-0.0131106675
29	0xbbece9b8	-0.00723001
30	0xbcfda01d	-0.030960137
31	0x3bdaa5c8	0.0066725947
32	0x3d44f36e	0.048083715
33	0x3d5cb5a4	0.053884163
34	0xbcddfe59	-0.027098821
35	0x3e0e1151	0.13873793
36	0xbdb60cfd	-0.08889196
37	0xbb952704	-0.00455177
38	0xbd7b6a8e	-0.061380915
39	0xbcb72d83	-0.022360569
40	0xbe02fc5a	-0.12791577
41	0xbd82e112	-0.06390585
42	0xbdceffa6	-0.10107355
43	0xbd669948	-0.056298524
44	0x3d49ba04	0.049249664
45	0xbd304fd0	-0.043044865
46	0xbd80466e	-0.062634334
47	0x3cf6d622	0.030131403
48	0xbd3af2eb	-0.04564182
49	0xbd29ab94	-0.041423395
50	0x3dae8d1a	0.08523007
51	0x3d3169d6	0.043313824
52	0xbd93784f	-0.072006814
53	0xbd613aa2	-0.054987557
54	0x3d1ed60e	0.038778357
55	0xbdda0dc0	-0.10647154
56	0xbb2aedb0	-0.0026081614
57	0xbd5db087	-0.054123428
58	0x3d37a798	0.044837564
59	0x3d667502	0.05626393
60	0x3b4eb950	0.003154356
61	0xbd832f08	-0.06405455
62	0x3d60f20d	0.054918338
63	0xbd3ca103	-0.04605199
64	0x3cc13d4c	0.023588799
65	0xbd4a0c31	-0.049328033
66	0xbc8aa2a4	-0.016923256
67	0x3d1316c5	0.035910387
68	0x3d1d8c09	0.038463626
69	0x3d5c863c	0.053838953
70	0x39c85680	0.0003821142
71	0x3dca1ea7	0.09869128
72	0xbcd83efc	-0.02639722
73	0xbd184132	-0.03717155
74	0x3bef76c0	0.0073078573
75	0x3de62c19	0.1123888
76	0x3df32270	0.11871803
77	0xbd1e4366	-0.038638495
78	0x3d9ad582	0.07560255
79	0x3dba2409	0.090889044
80	0x3bc86638	0.006115701
81	0xbd52aba2	-0.051433213
82	0x3de67acf	0.11253893
83	0xbd1ac094	-0.037781313
84	0xbaebd1d0	-0.0017991606
85	0xbdb2a3f7	-0.0872268
86	0x3c38eb00	0.011286497
87	0xbc496f70	-0.012294635
88	0xbdda0378	-0.10645193
89	0x3da7328a	0.081639364
90	0xbcc17d66	-0.023619365
91	0x3da8c61a	0.0824091
92	0x3d327061	0.043564204
93	0x3ce770d0	0.028252035
94	0xbddfc89b	-0.10926934
95	0xbd9ef421	-0.07761408
96	0x3ddf54af	0.10904824
97	0x3d865b26	0.06560354
98	0x3b9da1dc	0.004810555
99	0x3d9220c0	0.07135153
100	0xbdb6c13c	-0.08923575
101	0xbdc54082	-0.096314445
102	0x3dd2f7d3	0.10301175
103	0x3d03d37d	0.032184113
104	0x3d15a4a6	0.036533974
105	0x3d96602b	0.07342561
106	0x3d4bde1a	0.04977236
107	0x3cb32aba	0.02187096
108	0x3d20eeb5	0.03929015
109	0x3d9731eb	0.07382568
110	0x3d8f1818	0.069870174
111	0xbde9cc41	-0.114159115
112	0xbddeb2f2	-0.10873975
113	0x3c921d50	0.017836243
114	0xbcc7a5f8	-0.024371132
115	0x3da624a8	0.081124604
116	0xbe029434	-0.12751848
117	0x3d1ddd3c	0.038541064
118	0xbd8aaa24	-0.06770733
119	0xbdbb982e	-0.09159885
120	0x3d8e049d	0.06934474
121	0x3c6b3708	0.014356382
122	0x3cad891f	0.021183548
123	0x3df441d6	0.1192662
124	0x3c9269f4	0.017872788
125	0xbdfab4ef	-0.122415416
126	0x3dabbac8	0.08385235
127	0x3d2c89d6	0.042123638
128	0xbd9d633b	-0.07684942
129	0xbddb51ca	-0.107089594
130	0x3d3f128e	0.046648555
131	0x3cc6e524	0.024279185
132	0xbdc18ae5	-0.0945032
133	0xbdb03d74	-0.08605471
134	0xbd487469	-0.048939142
135	0x3db12366	0.0864933
136	0xbd293123	-0.041306626
137	0x3d6448ee	0.055733614
138	0xbd9510bc	-0.072785825
139	0xbda8cfbe	-0.08242749
140	0x3ba682d8	0.0050815158
141	0x3df7fa1a	0.1210825
142	0x3da15b30	0.07878721
143	0x3c8f8474	0.017519213
144	0x3ce84b82	0.028356317
145	0x3d811fd4	0.06304899
146	0x3c60f472	0.013730155
147	0xbd983038	-0.07431072
148	0x3d47dc92	0.048794337
149	0xbd505a7e	-0.05086755
150	0xbd32f045	-0.04368617
151	0x3d1f956b	0.038960855
152	0x3d84a9bd	0.064776875
153	0x3d10f0d2	0.035385914
154	0xbdaf7718	-0.08567637
155	0x3c0ac5f6	0.008470049
156	0x3d814ed0	0.063138604
157	0x3cc3ea9a	0.023915578
158	0xbdcfb6bd	-0.101422764
159	0x3d3276f9	0.043570492
160	0xbd28df02	-0.0412283
161	0x3d12b258	0.035814613
162	0x3d96a753	0.07356133
163	0xbbe119a8	-0.0068695135
164	0x3d005af0	0.031336725
165	0x3d5310e2	0.051529773
166	0xbddf2700	-0.108961105
167	0xbc9d9348	-0.019235268
168	0x3d7197a8	0.05898252
169	0xbe0c78f6	-0.13718018
170	0x3bfc4b88	0.0076994337
171	0xbc966220	-0.018357337
172	0x3ba41c78	0.0050082766
173	0x3e0ed750	0.13949323
174	0x3dcabd21	0.09899355
175	0xbd304653	-0.043035816
176	0x3d76b43d	0.060230482
177	0xbc6ac25a	-0.014328564
178	0x3d398fdf	0.04530322
179	0xbd34e55d	-0.04416405
180	0x3de5c1a9	0.11218578
181	0xbd9f9894	-0.07792774
182	0x3d6a005f	0.05712926
183	0xbd8c385a	-0.06846686
184	0x3d0f42ea	0.034975924
185	0xbc3df298	-0.011593483
186	0x3dc29285	0.09500603
187	0x3d835de4	0.064143926
188	0x3ce8daea	0.028424699
189	0xbc3e5d2a	-0.011618892
190	0x3d146107	0.036225345
191	0x3ce3cd74	0.027807929
192	0xbd9bb198	-0.07602233
193	0x3daefc86	0.08544259
194	0xbce08e96	-0.02741174
195	0xbdec3bfa	-0.11534877
196	0x3b7bcab0	0.0038420372
197	0x3d6acfec	0.057327196
198	0xbd890c54	-0.066918045
199	0x3ce4030e	0.027833488
200	0xbd42ec37	-0.047588553
201	0xbc60028c	-0.013672482
202	0x3d979efe	0.07403372
203	0xbce51d50	-0.027968079
204	0x3d0eb17f	0.034837242
205	0x3dc84ee1	0.0978067
206	0x3dd2858b	0.102793775
207	0xbdc9100a	-0.09817512
208	0xbd0f0076	-0.03491255
209	0xbdac2dba	-0.08407159
210	0xbd4ae32f	-0.049533065
211	0x3dccadb7	0.09994071
212	0x3cc938de	0.02456325
213	0x3c280514	0.010255117
214	0xbceb08a8	-0.028690651
215	0x3dd9b4f6	0.10630219
216	0xbe092736	-0.13393864
217	0xbd6ffa2f	-0.058588203
218	0xbc57afb8	-0.013164453
219	0x3d325465	0.043537516
220	0x3af227b0	0.0018474963
221	0xbddc0a2a	-0.10744126
222	0xbd1a10b3	-0.037613582
223	0x3db21e8f	0.08697235
224	0x3d8716a2	0.06596114
225	0xbda1b0fe	-0.07895087
226	0x3cd89b1a	0.026441146
227	0x3d99ac67	0.07503586
228	0xbc88605e	-0.016647514
229	0xbd2670c2	-0.040634878
230	0xbdc9aecf	-0.09847795
231	0x3dc059e4	0.09392145
232	0xbc6432b8	-0.013928108
233	0x3cdb7fda	0.026794363
234	0xbd6c3f95	-0.057677824
235	0x3d5d773c	0.05406879
236	0x3d85f161	0.0654018
237	0xbda4d842	-0.080490604
238	0xbd23b194	-0.039964274
239	0xbdc20a22	-0.09474589
240	0x3c672d98	0.0141099915
241	0xbcb9a5de	-0.0226621
242	0x3d1c1db0	0.03811425
243	0xbc6e98e0	-0.014562815
244	0xbdc9ee1a	-0.098598674
245	0xbdcf0944	-0.10109189
246	0xbc2eaa93	-0.010660785
247	0x3d270ff5	0.040786702
248	0x3df9d7fa	0.121993974
249	0xbc0986de	-0.008393971
250	0xbd8b454f	-0.06800329
251	0x3c435af2	0.0119235385
252	0x3e0b501d	0.1360478
253	0x3e15fd98	0.1464752
254	0x3c8b3184	0.016991384
255	0xbd862dfa	-0.06551738

conv6.bias f4 [32]
0	0xbdd703b5	-0.10498754
1	0xbdd36c21	-0.10323358
2	0x3d42c8e1	0.047554854
3	0x3c835cbe	0.016035434
4	0xbd13a807	-0.036048915
5	0xbd0532b2	-0.03251905
6	0xbd71fd8a	-0.059079684
7	0xbd178589	-0.036992583
8	0xbcd2020c	-0.025635742
9	0x3ae99640	0.0017821267
10	0xbdadcb44	-0.084860355
11	0xbc370ecf	-0.011172964
12	0x3d4f91f8	0.050676316
13	0xbe4956be	-0.19661996
14	0xbd989800	-0.07450867
15	0xbdce70db	-0.10080119
16	0xbdbd03d2	-0.09229244
17	0xbdd5a55a	-0.10431929
18	0x3c06ede0	0.008235425
19	0xbda76d48	-0.081751406
20	0xbd84cbab	-0.06484159
21	0xbcbb9f7c	-0.022903197
22	0x3d6b5eba	0.057463385
23	0x3b801698	0.0039089434
24	0x3c162b2e	0.009165568
25	0xbd35826b	-0.04431383
26	0xbd74f00e	-0.059799246
27	0x3cee2b8a	0.029073495
28	0x3c65975c	0.014013138
29	0x3d02cbc2	0.0319326
30	0xbd0ef7f6	-0.034904443
31	0xbdff0650	-0.12452376
