FedAvg_2_clients/cli1_model_parameters.pth (torch, 767010 bytes, 51 tensors)

conv1.weight f4 [32, 2, 3]
000000 85 8c ba 3e 8c bd 03 be 93 35 82 be e8 76 61 bd
       0.36435333 -0.12865275 -0.254315 -0.05504504
000010 3c 70 bd 3d b6 10 5e 3e 53 b4 16 be ce 6f 6a be
       0.09249923 0.21686062 -0.14717226 -0.22894213
000020 73 a1 2a 3e d8 69 45 be 80 cc 1c 3d 02 5f 72 3e
       0.1666315 -0.19278657 0.038280964 0.23669055
000030 92 0e 84 3e da 2e 0a 3e 46 23 24 be b0 35 07 3d
       0.25792366 0.13494435 -0.16029081 0.033010185
000040 f2 9e 80 3e a0 82 5b 3d 9c 6b ba be 6a fe a3 be
       0.25121266 0.05359137 -0.36410224 -0.3203004
000050 b7 47 67 be bc f3 05 bd c8 fe 5f be e4 75 70 3d
       -0.22585951 -0.032703146 -0.21874535 0.05870618
000060 26 7e 15 bd 0a f2 da bd 91 97 46 3e a3 ee a9 be
       -0.036497258 -0.106906965 0.19393755 -0.33189878
000070 7a 63 93 bd df f6 3a be 92 d8 3a be 32 71 ec 3a
       -0.07196708 -0.18258236 -0.18246678 0.0018039106
000080 04 46 49 3e a8 1b a4 3e 82 93 7a be d8 3e f6 bd
       0.19655615 0.3205235 -0.24470332 -0.12023705
000090 31 9b 83 3e 5c 14 67 3d c9 f0 15 be 47 83 88 3e
       0.2570434 0.0564159 -0.14642633 0.26662657
0000a0 34 50 ec bd 44 37 39 be ab 3b 78 3e 7d a7 18 3d
       -0.11538735 -0.18087488 0.24241512 0.037269104
0000b0 cb e8 70 be c8 62 1e 3c 2e 34 07 3e 20 d0 a9 3b
       -0.23526303 0.009667106 0.13203499 0.005182281
0000c0 f8 e7 2d be c4 42 f3 bd 63 77 86 3e 54 43 f3 3d
       -0.1698302 -0.11877969 0.2626296 0.11878076
0000d0 00 04 3a be 1a f0 18 be a1 0e 3a 3e e8 a6 2e 3c
       -0.18165588 -0.14935341 0.18169643 0.010659911
0000e0 2a f7 97 be 80 e0 99 3d 50 48 77 3e c6 8d 00 3e
       -0.2968076 0.07513523 0.24148679 0.12554082
0000f0 cf 06 41 3e ca 73 27 3e 81 b1 c7 3c a8 48 9b 3c
       0.18850254 0.16352764 0.024376633 0.018955544
000100 b0 55 7e 3d 92 76 29 3e 1a db 1c 3e 86 3c 13 3d
       0.062093437 0.16549137 0.15317956 0.03594639
000110 4f 60 56 3e ed 11 13 be 62 4a 42 be 83 10 1c be
       0.20935176 -0.14362307 -0.18973687 -0.15240674
000120 f8 74 84 be e2 19 e1 bd cc 5c ca bd 58 c4 d4 bd
       -0.2587049 -0.10991265 -0.09880981 -0.10389012
000130 10 b0 1a be 98 2b c5 3c 3a bc 5e be 59 ad 84 be
       -0.15106225 0.024068639 -0.2175149 -0.25913504
000140 40 e5 c7 3c 10 a5 06 be d0 3e 27 bd 78 66 23 3d
       0.024401307 -0.13148904 -0.040831387 0.039892644
000150 f5 f2 8a 3c a6 f2 59 3e 45 bd 5b bd 73 c0 81 bd
       0.016961554 0.2128397 -0.0536473 -0.06335535
000160 36 1f c0 be 3b 07 34 3e d5 a9 39 3e 78 5c 0f 3e
       -0.37523812 0.17580883 0.18131192 0.14000118
000170 5f 1f 5a 3d 67 46 92 be c0 87 75 3d ed 16 6d be
       0.053252574 -0.28569338 0.059943914 -0.23153277
000180 2c fd 9b b7 fe c1 7c bd a3 e1 74 3d f2 8d 03 be
       -1.8595332e-05 -0.061708443 0.059785496 -0.12847117
000190 08 57 90 bc 06 f5 6b be a3 33 ba 3d a3 94 b2 3c
       -0.017619625 -0.23042688 0.0909188 0.021799391
0001a0 7f 03 1c 3d 54 75 ca 3e 82 d2 32 3e 16 93 a0 3d
       0.03808927 0.3954264 0.17463115 0.078405544
0001b0 5b 9e 28 be 88 93 27 bd fa 85 41 3e 70 05 1f be
       -0.16466658 -0.04091218 0.18898764 -0.15529418
0001c0 dd c1 6d be dc 68 3a 3e 18 50 7f bd c6 52 48 3e
       -0.23218484 0.18204063 -0.062332243 0.19562826
0001d0 77 64 1b be d4 64 06 3e 08 e6 46 3e 2c ed b8 3d
       -0.15175043 0.131244 0.19423687 0.09029612
0001e0 02 c6 28 bc 21 59 eb bd bf 15 b3 bd 5c 89 75 be
       -0.010301115 -0.11491609 -0.08744382 -0.2397818
0001f0 9c d6 3c 3e 00 86 33 3a d1 5f ec 3c e4 c6 63 be
       0.18441242 0.00068482757 0.028854283 -0.2224384
000200 44 36 de 3d 5c f0 f5 3d 86 43 e2 3d b3 9a 2f be
       0.10850194 0.120087355 0.11048035 -0.17148857
000210 40 4b ab be b8 82 ac bd 2c 94 18 3c 0c c0 ff bd
       -0.3345585 -0.0842337 0.009312671 -0.12487802
000220 24 04 1c 3e c1 53 14 be 79 be 01 3d 23 f3 5a 3d
       0.15235955 -0.14485075 0.03167579 0.05345453
000230 d8 29 fe bd 74 dd d7 3d 08 22 51 bd 22 37 63 3e
       -0.12410325 0.10540286 -0.051057845 0.22189
000240 f9 b2 68 3e 4d 7a 1d 3e af a8 c3 be fb 07 10 be
       0.22724523 0.15378685 -0.38214633 -0.14065544
000250 00 be a0 bc 4d cf 8a 3e 2d 9d e9 bd 44 03 ee bd
       -0.019621849 0.27111283 -0.11406932 -0.116217166
000260 6f d3 98 be 6a c9 49 3d 32 c6 59 3e 96 ee 74 3e
       -0.2984881 0.04926435 0.21267012 0.23919138
000270 b4 fe 9f bd a6 99 0d be e0 6b 19 3c 27 ca 45 be
       -0.07812253 -0.13828143 0.009364098 -0.19315396
000280 6a 75 7b 3e 82 21 84 be b9 fa 71 bd 61 4d cf bd
       0.24556509 -0.25806814 -0.059077 -0.10122181
000290 8a 2f b1 be dd 97 51 3e ce 18 8b be 33 36 b9 3e
       -0.34606582 0.20468087 -0.27167362 0.36174163
0002a0 50 2c c3 3c 7d 18 36 3e 05 37 42 3e 64 eb 50 3e
       0.02382484 0.17782779 0.18966301 0.20402294
0002b0 2e 22 51 3d 46 3a 9f 3e 57 f0 a1 3d 7d 58 19 be
       0.051057987 0.31099147 0.07907169 -0.14975162
0002c0 47 1a 7b 3e d0 e5 f2 3b 9a 5d ba bd 5a 22 58 3e
       0.24521743 0.0074126497 -0.09099884 0.21106854
0002d0 06 fc 30 3d b7 3b 5e bd 13 d4 b7 bc 4c 16 72 3d
       0.0432091 -0.054256167 -0.022439992 0.059103295
0002e0 86 22 4f be ac 98 71 3d 72 2b 6e 3e 69 21 12 be
       -0.20228013 0.05898349 0.2325876 -0.14270557
0002f0 e6 c8 a0 bd 14 39 7d 3d e0 77 dd bc e4 34 a4 bd
       -0.07850818 0.061822012 -0.0270347 -0.080179006

conv1.bias f4 [32]
000000 e4 86 07 bd ef c0 44 3e 54 4a 1d bd 05 ab 57 3e
       -0.033087626 0.19214223 -0.038400963 0.21061333
000010 b1 56 4f 3e 46 4e 5b 3c 88 9e 1a 3c 50 a0 1b 3d
       0.20247914 0.013385361 0.009437211 0.037994683
000020 9d f1 33 3d 38 05 6a be 95 d3 c0 3d 89 fe 74 bd
       0.043931592 -0.22853553 0.09415356 -0.059813056
000030 b5 f4 e0 bd 46 e0 21 bd 7e ef a2 3e d9 e9 7c be
       -0.10984174 -0.039520524 0.31823343 -0.24698581
000040 ac a9 78 3c a0 d8 0a be 81 2b a8 3e 9f 05 b9 3c
       0.015177172 -0.13559198 0.3284569 0.022585688
000050 6c d3 5f 3c 5c e3 38 bd 96 90 76 be e4 73 90 bd
       0.013661247 -0.0451387 -0.24078593 -0.070533544
000060 d6 58 1f 3c b5 0d 84 be 2b d5 87 3e cb 23 44 3e
       0.00972577 -0.25791708 0.26529822 0.19154279
000070 75 f1 72 be b0 70 95 3b 61 09 96 3e 5f 2e 1f 3d
       -0.23724921 0.0045605525 0.2930403 0.038862582

conv2.weight f4 [32, 32, 3]
000000 02 56 56 3d e3 06 26 bd 04 55 f6 ba b0 9e 17 bd
       0.052328117 -0.04053391 -0.0018793647 -0.03701657
000010 b5 80 ba 3c 5d 44 68 bd 54 81 76 3d 5d 0a fd 3b
       0.02276645 -0.05670582 0.06018193 0.0077221827
000020 38 1f 02 bd 5d 24 35 bd 4a 5e 83 3d 31 7a 28 bd
       -0.031768054 -0.04422413 0.064144686 -0.041132156
000030 3c e8 d2 3c 3f e0 39 3d ce c4 c1 bd db 11 97 bc
       0.025745504 0.045379873 -0.09461366 -0.018441131
000040 0a 92 6c bd b3 c0 54 bd 4c 6d 84 bc 6b 40 d2 3c
       -0.05775646 -0.051941585 -0.016165398 0.025665483
000050 14 ba 07 3d 17 a2 b3 bd ba ed 7e 3c 64 28 38 bd
       0.033136442 -0.087711506 0.015559608 -0.044960395
000060 20 64 db bc d8 b6 11 bd 34 85 37 3d 73 5f 69 bd
       -0.026781142 -0.035574764 0.044804767 -0.056975793
000070 67 8d 69 3b 09 ce 5f bd 73 cc 8c 3d c1 2d 13 3d
       0.003563726 -0.05463985 0.06874933 0.035932306
000080 1d 79 cc bc 9a a9 b6 bc f3 db 24 3c 58 03 da 3b
       -0.024960095 -0.02229767 0.010062206 0.0066532306
000090 d8 c4 f0 3b cd ae 1b 3c 03 77 09 bc 9f 25 13 bb
       0.0073476844 0.009502125 -0.008390191 -0.0022452844
0000a0 70 c6 e5 3b c7 c8 b9 3c 54 28 ad bd d1 e3 4b bd
       0.007012181 0.022678746 -0.084549576 -0.04977781
0000b0 21 58 8a bd 7d ef d9 bd d3 2b a8 bc cd 6a e9 bd
       -0.067550905 -0.10641382 -0.02052871 -0.11397324
0000c0 85 c1 0e 3d e4 12 21 bd c2 a4 cb 3a d6 2c 85 bb
       0.034852523 -0.039324656 0.0015536773 -0.0040641828
0000d0 2c fe 17 bc db c6 6e bd d0 54 8b 3c a4 3b 84 bd
       -0.009276908 -0.058295112 0.017008215 -0.06456688
0000e0 f9 06 6f bd 16 b1 84 3c e0 6a cb 3c bb 8e 05 3d
       -0.05835626 0.016197722 0.024831235 0.03260682
0000f0 fd 85 26 3c 02 8a c7 3c f1 2f 92 bc 6e 25 f8 3d
       0.010163781 0.0243578 -0.017845126 0.12116514
000100 ee 4c 49 3d 20 6a 0e 3d 4d ff 51 ba 2e 81 11 3d
       0.04914563 0.034769177 -0.000801076 0.035523586
000110 86 35 9a 3d 70 3d 49 3d 97 c5 3e 3d 58 fa 01 be
       0.0752974 0.049130857 0.046575155 -0.12693155
000120 86 79 1a bb 39 c7 21 3c 16 fc ac 3d 55 70 55 bd
       -0.0023570969 0.009874159 0.08446519 -0.05210908
000130 1e e1 ac bd 1e 32 d0 3c f9 40 8d 3d cc e8 ec bc
       -0.08441375 0.025414523 0.06897158 -0.0289196
000140 ba f0 86 bc 57 c6 d9 bc 2f 15 ce bd 6f cd 77 bd
       -0.01647221 -0.026583834 -0.10062634 -0.06049865
000150 d9 c5 ac 3b e1 51 d1 bc 4d 83 15 bd 61 ca fd 3c
       0.0052726087 -0.025551738 -0.03650217 0.03098029
000160 05 d4 cb bd 69 cc 74 3d ad 28 43 bd 51 bc e5 3c
       -0.09952549 0.059765253 -0.047646213 0.028043898
000170 a3 34 b9 3a 7f fd 8d bc 4b 89 b8 3c 0f 7e 0e 3c
       0.0014130067 -0.01733279 0.022526404 0.008697047
000180 9e 39 70 3d b2 1e 30 3d ed 05 cd bc 1b 3a ae bd
       0.058648698 0.042998023 -0.02502724 -0.085071765
000190 c9 00 90 3b f9 1a dc bb ee f3 89 3d b2 49 8f 3d
       0.004394625 -0.0067170826 0.06735979 0.06996478
0001a0 50 8b 8b 3c fd 10 76 bc b2 d9 5b bd c4 f4 84 bd
       0.017034203 -0.015018699 -0.053674407 -0.06491998
0001b0 6a 27 41 3d 9d 5f a7 3c f1 3d 5a bd 13 f1 03 3c
       0.04715673 0.020431334 -0.05328173 0.008053082
0001c0 49 2d dd bc 11 8c d2 bc 98 9b 4d 3c 43 54 19 bd
       -0.026999133 -0.025701554 0.0125493035 -0.037433874
0001d0 8d 1c 80 3c 7e 6e 03 3c 03 7d f3 bc 73 71 e7 bb
       0.015638614 0.008021949 -0.029722696 -0.0070630847
0001e0 c0 92 7f bc 3a 89 80 3d 1a 52 ca bd 37 b8 df bb
       -0.015598953 0.06276174 -0.09878941 -0.00682738
0001f0 ef e6 ba bc 23 ca 0a bd ae ff b9 3c 69 dd 04 3d
       -0.022815196 -0.03388418 0.022704925 0.032437716
000200 cc 07 a3 3d 30 43 a3 bc 48 ee 64 3d 0b c0 3b 3d
       0.079604715 -0.019929498 0.055891305 0.045837443
000210 d4 80 7c bd a9 15 ea bc 67 d7 21 bd 5e 94 1e 3d
       -0.061646298 -0.028574781 -0.039512064 0.038715713
000220 f2 82 87 3c f6 b3 06 bd 09 3d d0 bb 0c b2 11 bd
       0.016541932 -0.032886468 -0.006354932 -0.03557019
000230 ed a9 b6 3d aa 2c 89 3c 5b 17 63 3d 39 fb ee 3d
       0.089191295 0.01674493 0.055442195 0.11669011
000240 d5 11 85 bd 0e fb f1 3a 45 39 6a bc bd 99 5f 3c
       -0.06497542 0.0018461661 -0.014295881 0.013647494
000250 b0 d8 9b bc 67 45 69 3d 5c 08 8f 3d 5b 69 56 bc
       -0.019024223 0.056950953 0.06984016 -0.013086642
000260 58 c1 8d 3d 42 dd 3b ba a3 fa d6 3c 04 68 3f bc
       0.06921643 -0.0007166454 0.02624256 -0.011682514
000270 02 de cd 3c af 74 a6 3c bc 8b 1b bc af f8 0d 3d
       0.025130276 0.020319311 -0.0094937645 0.03466099
000280 c7 d8 a0 bc 9e dd 3e 3c bf 37 d5 bc 3d f4 88 bd
       -0.019634617 0.011649517 -0.026027558 -0.0668721
000290 39 6c 5d 3b 46 9b b7 bd 06 16 1a bd df c8 4f bc
       0.003378643 -0.08965163 -0.03761866 -0.012682169
0002a0 c0 40 49 bd 70 14 a7 bb 57 18 8d bb 53 4b 05 bd
       -0.049134016 -0.005098872 -0.00430588 -0.032542538
0002b0 f7 e4 b3 bd f1 6f 88 bd 6e da 9b bc 3f 33 46 3d
       -0.08783906 -0.06661976 -0.019025054 0.048388716
0002c0 03 0e 21 bc f6 c8 70 bc 23 65 06 bc 15 05 22 bd
       -0.009830001 -0.01469635 -0.008202824 -0.039555628
0002d0 56 7f 9e 3d 62 bb 9e 3d 0b f0 aa 3c 86 bf a5 3d
       0.07739131 0.07750584 0.020866415 0.08093171
0002e0 ec ac ca bc 63 77 d1 bb 14 10 29 3c 90 db 50 bc
       -0.024740659 -0.006392406 0.010318775 -0.01274766
0002f0 03 2a ac 3c 78 ac 83 3d 5b 92 3c 3c 77 49 48 3d
       0.021016126 0.0642938 0.011509503 0.048898187
000300 30 92 24 bd 71 eb b5 bd c1 00 be ba 63 a9 ab bc
       -0.040178478 -0.088827975 -0.0014496074 -0.020954793
000310 82 93 95 bc ed df fb 3c 7e 03 8d bc cc 7b 79 bd
       -0.018258814 0.030746425 -0.01721358 -0.060909078
000320 d1 c0 24 bd de b9 92 3c 44 08 63 3d 1a 1c 49 3d
       -0.040222947 0.017910894 0.055427805 0.049099065
000330 77 b0 74 3d 7b ef 55 3c 59 77 1a bd c4 94 6f 3d
       0.059738602 0.013057585 -0.037711475 0.058491483
000340 57 30 05 bd f8 41 89 bd 75 72 24 bc b0 c8 af 3d
       -0.032516804 -0.06702036 -0.010037054 0.085832
000350 55 31 eb 3c b4 20 82 bc 24 f8 21 3d 2f 3d 4f bc
       0.028710047 -0.015884735 0.039543286 -0.012648865
000360 0e 46 c0 bc b2 50 ba bc d7 03 84 bd 11 7c 05 3d
       -0.023470905 -0.022743557 -0.06446045 0.032589022
000370 f5 42 51 3d b5 2e 0b 3e 3c da 63 bd 16 ac 57 bb
       0.051089246 0.13592036 -0.055628046 -0.0032908968
000380 3c bd 03 bc cf c6 ac bd c2 20 cf 3a cc 7b 0e 3c
       -0.008040722 -0.08436357 0.0015802609 0.008696508
000390 c7 59 c6 3d cd 21 b4 3d 3d 9f 97 3d 11 4e 4e bd
       0.096850924 0.087955095 0.07403419 -0.05036742
0003a0 1a 09 7d bd 4a 01 e8 b9 4f 85 d5 bc 46 75 e4 3c
       -0.061776258 -0.0004425145 -0.026064543 0.027887952
0003b0 00 8e 1d bd 6a 27 42 3d f8 9e 74 bd f9 41 70 3c
       -0.0384655 0.04740087 -0.059721917 0.014664167
0003c0 ad fa bc 3d b2 25 df bb 98 58 42 bd 69 32 2d bd
       0.092275 -0.0068099136 -0.04744777 -0.042284403
0003d0 db 1e 59 bd a5 bb 3a bd 58 11 b0 3c a0 84 82 3d
       -0.05300794 -0.045589108 0.021492645 0.063729525
0003e0 f8 a5 28 3c 5e cd 8b 3c 0d b4 2f bd 8b 03 95 3d
       0.010293476 0.0170657 -0.04289632 0.072760664
0003f0 76 65 32 3d 89 02 f7 bc b0 d5 6d 3d f4 5c 77 bd
       0.043553792 -0.030152576 0.058065116 -0.06039138

conv2.bias f4 [32]
000000 23 e3 66 bd 7f 9f 18 3d 7c ce c8 3d 6d 38 e3 bb
       -0.05636896 0.037261482 0.09805009 -0.0069342167
000010 5f c5 f8 bc 69 cd de bc 4c 0a c0 bd 5c 20 c5 3c
       -0.030367551 -0.027197557 -0.09376964 0.024063282
000020 14 ea 99 bd 6a fb 8c 3c a7 50 e9 3c 42 31 86 bd
       -0.0751535 0.017209727 0.02848084 -0.06552364
000030 a7 6d 71 3a c7 17 15 3e 51 4b 4f bb da ab eb bc
       0.000920976 0.14559852 -0.0031630585 -0.028768469
000040 31 f8 0c bc 37 9a a1 3d a8 72 c4 3c 13 7d ae 3d
       -0.008604095 0.07890742 0.023980454 0.0851995
000050 98 5f c0 3d 70 3a 8f 3c 84 54 26 bd b7 d5 78 3d
       0.09393233 0.01748392 -0.040607944 0.06075069
000060 9b 1b 1e 3d 10 21 3c bd 00 47 42 bd dd 40 ab 3d
       0.038600545 -0.04592997 -0.047430992 0.08361981
000070 da 1b d7 3d 32 aa c7 bc 41 ad 83 3d f4 58 92 3d
       0.10503359 -0.024373148 0.0642953 0.07145873

conv3.weight f4 [32, 32, 3]
000000 a0 97 e4 bc 85 72 5f bc b5 96 0f bb 69 d9 0c 3d
       -0.027904332 -0.013638143 -0.0021909897 0.034387026
000010 28 12 a1 3b b0 7f b1 bc e9 47 7a 3d fa 5c 1d bc
       0.0049154945 -0.021667331 0.061103735 -0.009604687
000020 1c bf 9c bd 13 5d bc bd 1b 06 c1 bd 7f c8 d6 bd
       -0.07653639 -0.0919744 -0.09424993 -0.1048746
000030 1b b8 10 3c 16 6a d9 bd ab f4 8c bd 7d 78 21 3d
       0.008832957 -0.106159374 -0.06882604 0.039421547
000040 09 cb 84 3d 66 c6 88 bc 17 28 21 bd 1e 80 b7 bc
       0.064840384 -0.016696166 -0.039344873 -0.022399958
000050 5f 65 18 bd ba 5e 46 bc c2 99 9d bd 6a 48 89 bd
       -0.03720605 -0.0121075455 -0.076953426 -0.06703265
000060 6d 9e de 3c cf 5b a8 bd 6d a0 fa bc f9 49 19 3d
       0.027175153 -0.08220636 -0.030594075 0.03742406
000070 d5 13 b7 bd de 8e a1 bd 3f c0 3e 3c c1 92 19 3d
       -0.089393295 -0.07888578 0.011642515 0.03749347
000080 c4 b7 1d bc 5d 72 a6 bc 08 67 f0 bc ae d6 ef 3c
       -0.009626333 -0.020318205 -0.029346004 0.029277172
000090 f6 f9 49 bc 9a c7 02 3d 0f 63 21 bc 52 8a 29 3d
       -0.012327662 0.031928636 -0.009850278 0.04139168
0000a0 b9 1e 03 bd a8 7f 2a bd d9 52 96 bd 10 2a 9a 3c
       -0.03201172 -0.04162565 -0.07340021 0.018818885
0000b0 60 b9 23 3c 64 f5 c6 bc 1f 27 00 3d a6 75 58 3d
       0.009992927 -0.024286933 0.03128731 0.052846573
0000c0 62 c3 6d 3c 2e 85 42 bc 5d 10 01 bd a9 28 e5 3d
       0.014511915 -0.011872573 -0.031509746 0.11189396
0000d0 e8 fa d0 3c 4c 62 24 bd b9 e8 bd 3c 15 c0 19 bd
       0.025510266 -0.040132806 0.02318226 -0.0375367
0000e0 dc 80 3f 3d 20 16 57 bb c8 dc 71 3d e3 37 98 3d
       0.04675375 -0.0032819584 0.059048444 0.074325345
0000f0 c5 fc 90 3d 1f af 56 bc 90 9d b5 3b 35 7a 9b bc
       0.07079462 -0.013103276 0.0055424646 -0.018979171
000100 c8 54 97 bb 97 b4 55 3c 11 b2 83 3d f6 e7 09 bc
       -0.004618261 0.013043544 0.06430448 -0.00841712
000110 0a bd fe bc ca 26 90 bb 0b e5 80 3d 61 0f 0c 3d
       -0.031096 -0.0043991553 0.062936865 0.034194354
000120 29 01 46 3c ad c8 09 be 0b b0 bb bd f3 b6 aa bd
       0.012085238 -0.13455458 -0.09164437 -0.08335676
000130 cc 7a 42 3d 23 a1 a3 3c 0b 47 c5 3c 96 99 b1 3c
       0.04748039 0.019974297 0.024081727 0.02167968
000140 86 67 af bc 44 2f 5d bd 43 b6 6a bd ee 64 5e bc
       -0.021411669 -0.054000154 -0.057302725 -0.013573868
000150 a5 f9 d1 bc ea c9 98 3c 58 a8 ce bc d5 a2 98 bd
       -0.025631735 0.018650968 -0.025226757 -0.07452933
000160 89 6d 62 3c 6a 72 99 bd d2 b9 b3 bd ec 3a e6 3c
       0.0138200605 -0.07492526 -0.08775677 0.028104268
000170 de 43 48 bd bc 76 35 3c 3f 48 13 bd e0 19 92 bc
       -0.04889285 0.011075672 -0.03595757 -0.017834604
000180 46 a7 d5 3a 4e 9d 0d bb a4 83 85 bc 3f 0e db bc
       0.0016300462 -0.0021608653 -0.016298123 -0.026740192
000190 2a 74 7c bb 5f 27 a6 3d fa 4f 4a 3c 48 bb 4c 3d
       -0.0038521388 0.08112978 0.012348169 0.049983293
0001a0 10 66 0e bd e1 18 a7 3c 61 f1 53 bd 87 5a a9 bc
       -0.034765303 0.020397605 -0.05174387 -0.02067305
0001b0 2b 69 5c 3d 8f 07 81 bb 3b 79 c9 bc 55 8e 93 3d
       0.053811233 -0.0039376686 -0.02459394 0.07204882
0001c0 85 04 ed bb 53 46 34 3c f8 22 b6 3c d2 1a 9c 3c
       -0.007233205 0.011003095 0.022233471 0.019055758
0001d0 4a 0a 54 bd 99 27 08 bd 8d 45 91 3d da f7 00 bd
       -0.051767625 -0.03324089 0.07093344 -0.03148637
0001e0 8c 54 32 bc 10 c0 86 bd 9b b7 a4 bd 9f 5d c1 3d
       -0.010884415 -0.06579602 -0.080428325 0.09441685
0001f0 b9 86 4d 3c 5c ac 7b ba 24 4a 39 bd ef 50 93 3d
       0.012544327 -0.00096005737 -0.04523672 0.07193171
000200 18 70 cc 3d f9 59 f8 3b 31 53 47 bd b1 04 0a 3c
       0.09982318 0.007579085 -0.048663322 0.00842397
000210 3b 93 e0 3c 77 18 be 3a 9f 66 2f 3d 44 7e c4 3c
       0.027413955 0.0014503141 0.042822476 0.02398599
000220 e2 08 4d bd 73 1b b8 bd cf 28 7c 3d 9d d9 66 bd
       -0.0500573 -0.089896105 0.061562356 -0.056359876
000230 c6 60 81 3d 6f 06 52 3d 38 a8 c8 3c 20 39 01 3d
       0.06317286 0.051275667 0.024494275 0.03154862
000240 2a b1 2f 3d ef 9b 01 3d 82 3f a3 3d 4b d3 ad bc
       0.042893566 0.03164285 0.079710975 -0.021218916
000250 09 e7 24 bd fd 44 43 3d ec 9c 7c 3d 70 42 0b bd
       -0.040259395 0.047673214 0.06167309 -0.033998907
000260 71 21 be 3c 95 0a 98 bc a3 06 07 3a d5 75 01 3e
       0.023209305 -0.018559733 0.000515083 0.12642606
000270 b6 3c 98 3d e2 f3 11 3d 4f 18 26 3c 87 51 81 3d
       0.07433455 0.035632975 0.010137632 0.06314378
000280 74 4c 9c bb bf 99 77 bd 86 4d 5c 3d c2 df 08 3b
       -0.004769856 -0.060449358 0.05378487 0.0020885323
000290 78 4b e8 3c 92 07 28 bd 5c 48 8c bc fd 3f 0a 3c
       0.028356299 -0.041022845 -0.017124347 0.008438108
0002a0 06 9e ce 3d ec 51 a4 3c 73 68 dd bb 0f af 29 bc
       0.10088734 0.020058595 -0.006756836 -0.010356679
0002b0 36 c4 c0 bc 14 d2 41 bd b9 e1 13 3d a4 bd 93 bd
       -0.02353106 -0.047319487 0.036103938 -0.072139055
0002c0 1d a3 20 3d f2 52 9b b9 93 35 21 bd ac 7d 6c 3d
       0.039218057 -0.00029625703 -0.039357733 0.057737038
0002d0 52 9e 9e ba 1e bf a8 bc 3b fd 95 3d 3f ca 5f bd
       -0.0012101626 -0.020598944 0.073236905 -0.054636236
0002e0 01 db d8 3c 72 46 1b 3d 14 66 c9 3d e4 00 81 bd
       0.026471617 0.03790898 0.09833923 -0.06298998
0002f0 dd eb 8e 3c 11 86 63 bc 19 c7 5e 3d 59 6d c4 3c
       0.017446453 -0.013886944 0.054389093 0.023977922
000300 5f e3 96 bd 09 fb 1e 3c 9f d8 21 ba 3c 44 da bc
       -0.07367586 0.009703406 -0.00061739417 -0.026643865
000310 ba 5e 09 3d 3d 29 64 bd 74 3b c7 bc 31 df e2 ba
       0.033537604 -0.05570339 -0.024320342 -0.0017308948
000320 fe 7c 4d 3b f1 88 71 3d 1a 69 41 bd 1b 3d 08 be
       0.0031355019 0.058968488 -0.047219373 -0.1330456
000330 0a bb aa bd 97 13 3a bd 7a ea 06 bd 4c 22 29 3b
       -0.08336456 -0.04542884 -0.032938458 0.0025807796
000340 7f b5 34 3d c3 05 65 bb 59 8d dc bd 7b 5e ca 3b
       0.0441184 -0.0034946061 -0.107691474 0.0061758137
000350 b8 fa 59 bc 30 72 a2 bc 64 e8 72 bc 22 eb 82 bc
       -0.013304405 -0.01982984 -0.014825914 -0.01598126
000360 78 92 30 3d 75 e7 79 3d b1 33 9c bc 79 62 24 3d
       0.043108433 0.06101175 -0.019067617 0.040132973
000370 dd 99 02 bd e9 be 9a bd c9 bc b8 bc 4a c6 af bc
       -0.031885017 -0.075559445 -0.022550957 -0.021456856
000380 f9 19 6c 3d 16 f3 4b bc 8f 8e ad 3c c4 0f 74 bd
       0.057641957 -0.012448093 0.021186141 -0.059585348
000390 83 c9 6f 3c 2c 4e b9 bd 1c 7b 8f 3c 03 2c bc 3c
       0.0146354465 -0.09048113 0.017514758 0.022970205
0003a0 68 39 d8 bc 42 75 3f bd 64 04 31 bc 75 69 02 bc
       -0.026394561 -0.046742685 -0.010804269 -0.007959713
0003b0 22 3a 14 3c 2a c4 fc bb aa d7 41 3d f9 0f b1 bd
       0.009047063 -0.0077138143 0.047324814 -0.08645625
0003c0 85 8c 87 3b 78 50 79 3c 3a d3 07 3c 61 28 b4 bc
       0.0041366243 0.015216939 0.008290106 -0.02199191
0003d0 46 a4 1b 3d b6 7c 64 3d 4c 04 e0 bb 2f 9c 0a bd
       0.03799846 0.055782996 -0.0068364497 -0.033840355
0003e0 91 ba 11 bd fe 01 1f bd 0f d3 90 3d 20 fa 2b bd
       -0.035578314 -0.03882026 0.07071506 -0.041986585
0003f0 cd cc ab 3c c7 9b 6f bd fa 21 6f bc c0 ca 7e bd
       0.02097168 -0.05849817 -0.014595503 -0.062205076

conv3.bias f4 [32]
000000 1d ce 6e 3c 5f da 55 bd b6 08 2e 3d 1c e9 e2 bd
       0.014575508 -0.052210208 0.042488776 -0.11079618
000010 3f df 3c 3d de 22 9e 3b 42 9b 4d bc fc b2 e6 3d
       0.04611134 0.004825934 -0.012549223 0.11264607
000020 94 9f 03 3d 64 f2 b9 bc e1 71 0f be 21 b6 ae 3b
       0.032134607 -0.022698589 -0.14008285 0.00533177
000030 9f e2 45 3d 3b 1d 57 3d 2c 1c a5 bd 0d 86 8d bc
       0.048311826 0.05251811 -0.08062014 -0.017275834
000040 c5 de 96 3d 16 5c b0 bb 73 81 12 bc b3 e8 3e 3d
       0.07366709 -0.0053820712 -0.008941996 0.046608638
000050 06 85 95 3d b3 12 21 bd e4 e2 dd bc 94 1c 2b bd
       0.07300763 -0.039324474 -0.027085729 -0.0417753
000060 d1 81 8c 3d bd 19 ac 3d 45 e0 a7 bd 50 f7 8e bd
       0.06860698 0.08403347 -0.08197073 -0.06980765
000070 d6 06 16 bd ee 08 1a 3e dc 49 01 3c b3 3f 88 bc
       -0.036627613 0.15042469 0.007891145 -0.016631937

conv4.weight f4 [32, 32, 3]
000000 51 d2 23 bd 64 74 94 bb 40 d1 a2 3c 65 6c 29 bd
       -0.039995495 -0.0045304764 0.019875169 -0.04136314
000010 b8 39 9b 3d 2f 04 43 bb 7e 6c fa bb 70 a7 c9 3d
       0.07579368 -0.0029757132 -0.007642328 0.09846389
000020 d0 3f b6 bc 78 8c 69 3c 8c 2b 8a 3c 0a f5 4f 3d
       -0.022247225 0.014254682 0.016866468 0.050770797
000030 aa d3 b0 3d 88 d7 28 3d 1c 31 7b bc 0d 0b 91 3c
       0.08634122 0.04122117 -0.015331533 0.017705465
000040 39 36 8b bd 2e c8 44 bb 2d 58 a4 3c fc d3 42 3d
       -0.067974515 -0.0030026543 0.020061577 0.047565445
000050 1c 9d 6b bd 6d 6f 45 bc 74 7c d7 3a d9 17 97 3d
       -0.057522878 -0.012050492 0.0016440288 0.073775955
000060 f5 64 ea 3c eb 07 62 3d 82 6f 03 bd aa bb c6 bd
       0.028612593 0.055183332 -0.032088764 -0.09703763
000070 eb 8c 89 bd 2c aa 79 bd 43 ef 3a bd 15 a1 af 3c
       -0.06716331 -0.060953304 -0.045638334 0.021439115
000080 89 16 ae bc cc 3e a9 bd 73 35 d2 3c 88 10 a0 3d
       -0.02125098 -0.08263931 0.025660252 0.07815653
000090 b1 b9 ea 3c 63 e1 08 3c e7 a3 89 3d 8f 91 22 3d
       0.028652998 0.008354518 0.06720715 0.039689597
0000a0 41 83 58 bc e4 78 4f 3c a5 02 5d 3d fd fb e1 3d
       -0.013214887 0.0126631 0.0539576 0.11034391
0000b0 6c 24 85 bd bc ef b3 3d a1 23 a2 bc fc 90 11 3d
       -0.065010875 0.0878596 -0.01979238 0.03553866
0000c0 04 4d 95 3c 95 d3 c6 bc f7 67 a1 bb fc 1a 13 bd
       0.0182252 -0.024270812 -0.0049257237 -0.035914406
0000d0 bd 6a 8a 3d 40 06 d3 3c c9 fd 7b 3d 8e 29 08 3c
       0.0675864 0.025759816 0.061521325 0.008310689
0000e0 fe 45 8b bd ad 9a a1 3d da 5a 51 3d ca 4b 4f bd
       -0.06800459 0.0789083 0.051112033 -0.050609387
0000f0 3d ab a4 bc 10 f6 fb bc e6 36 3a bd 61 76 32 3d
       -0.020101184 -0.03075698 -0.04546251 0.043569926
000100 ef 98 50 bb ba fc b3 3c 93 fe b1 3c e8 c2 44 3d
       -0.0031829437 0.021971095 0.021727836 0.04803744
000110 4a 4f 54 3c 8f 68 c2 bb 1f f2 e5 3c bd 54 9c bc
       0.012958357 -0.0059328745 0.028069554 -0.019083375
000120 d7 03 0c bd e8 ba 30 bc 1b fd b1 ba 53 df c2 3c
       -0.03418335 -0.010786749 -0.001357946 0.02378813
000130 07 d3 b2 bc 19 1a c0 bd 15 69 0e be 9b 28 f8 3b
       -0.021829141 -0.09379978 -0.13907273 0.0075732
000140 79 ff 1b 3c e6 f6 94 3b 33 6f 08 bc 1f 43 a4 3d
       0.009521359 0.004546034 -0.008327293 0.08020615
000150 19 75 5c 3d dc 9c 63 bd a4 84 2f 3c f0 df 0d 3d
       0.05382261 -0.055569515 0.010712776 0.03463739
000160 d9 ca 04 bd e9 2d 37 3b 08 a4 f2 3b 88 9c 37 3d
       -0.032420013 0.0027950949 0.007404808 0.044827014
000170 e7 a2 11 3d d7 28 65 bd 80 fe af 3b 0c b0 ad 3c
       0.035555746 -0.05594715 0.005370915 0.02120211
000180 6a 47 9c 3c 40 a2 06 bd 12 52 06 3d 9c 35 31 3d
       0.019077022 -0.032869577 0.032793112 0.043264017
000190 8c 18 1c 3d ff fd 89 bd 9c c6 df bc 4e 63 19 bd
       0.038109347 -0.06737899 -0.027316384 -0.03744822
0001a0 ee f9 b0 3c 89 31 8d 3d 6d dd 50 3d a0 a0 c0 bc
       0.02160355 0.06894214 0.050992418 -0.023514092
0001b0 c2 eb 9a bb bc 77 04 ba b2 c0 81 bd bf 3a 90 3d
       -0.0047278116 -0.0005053242 -0.06335582 0.07042455
0001c0 7a b8 12 bd 4a 54 f2 bd 28 33 43 3c 0d 75 23 bd
       -0.03582046 -0.11832483 0.011914052 -0.03990655
0001d0 8f e5 1f 3d 7c 79 75 bd 76 31 7f 3d 34 6c c4 3d
       0.039037284 -0.05993031 0.06230303 0.095909506
0001e0 dc a9 b3 3d 92 c4 a1 bc 81 08 19 3c af dd 2c 3d
       0.087726325 -0.019747052 0.009340406 0.0422036
0001f0 0c 0d 28 3d a9 ac 26 3d 5d ed 4d bd 8c 76 b0 bd
       0.041028067 0.040692005 -0.050275195 -0.08616361
000200 ed 5f d9 bd 11 75 68 3d 20 66 89 bd d4 c8 ba 3c
       -0.106139995 0.05675227 -0.06708932 0.02280084
000210 a6 18 31 bd c3 d2 e9 3c 51 46 e0 3c 37 81 06 3d
       -0.043236397 0.028542882 0.02737728 0.032838073
000220 4a e3 bc bc 20 f8 eb bc 4d 41 e4 3b 09 5f 04 bd
       -0.023057599 -0.028804839 0.0069657923 -0.032317195
000230 5f 92 f9 3a fb 91 01 3d 65 ec 2d bd 75 ca 08 bd
       0.0019040814 0.03163336 -0.04246177 -0.033396203
000240 e9 e8 9e bc a5 30 00 bd c0 16 2b 3d 8c 32 7d 3d
       -0.01939817 -0.03129639 0.041769743 0.061815783
000250 26 e1 a2 bd 33 7b 54 3d 2f 24 44 3d 5a 60 5b bd
       -0.079531 0.051875304 0.04788607 -0.053558685
000260 c8 3a be bd 26 4d b0 3c fe 17 1f bd dd 7f 2c bd
       -0.092885554 0.021521162 -0.03884124 -0.042114127
000270 ec d3 d1 ba f5 e5 6a bd bd fa 01 3d 3f af d3 3c
       -0.0016008592 -0.05734821 0.031733263 0.0258404
000280 f5 b2 b6 bc c4 85 bc bc 36 da 94 bd 27 d4 1f 3b
       -0.02230213 -0.023013003 -0.07268183 0.0024387927
000290 72 67 44 3d 0b 9f 36 3c 4f d7 e9 3b f5 33 e8 3c
       0.047950216 0.011146317 0.0071362625 0.028345088
0002a0 e3 ca 35 3d 2a 70 a9 bd ca 49 44 bd 8a 3f 89 3d
       0.04438294 -0.08273347 -0.047921933 0.06701572
0002b0 5f da 39 3d 82 12 05 bd d4 61 d6 3b f8 07 e1 3b
       0.04537427 -0.032488354 0.0065424237 0.006867405
0002c0 be db 82 3c ab 7c 2e 3c f0 88 c3 3c a8 99 9b bd
       0.015973922 0.01064984 0.023869008 -0.07597667
0002d0 b3 d0 c1 bc bb ab ea 3c c8 ce 8b bd da 35 f9 3a
       -0.023659086 0.02864634 -0.0682655 0.0019013241
0002e0 f6 20 d0 3c f1 10 96 bc 70 53 86 bd 34 83 1b bb
       0.025406342 -0.018318625 -0.06558883 -0.0023729326
0002f0 52 96 c7 3d 02 76 80 3d 00 db 0c bd 63 5e 2b 3d
       0.09745468 0.06272508 -0.034388542 0.04183806
000300 eb 84 6b bc 2a e4 e1 b9 6f 6d a4 3c f4 05 74 bb
       -0.014374952 -0.0004308534 0.020071713 -0.0037234994
000310 53 b4 0d bd e9 4a fb 3c 7e 31 64 bd 43 16 28 3d
       -0.0345958 0.030675368 -0.055711262 0.041036855
000320 c1 3d 0e bd f8 db 82 b9 5d 00 3c 3c 2b 00 97 3d
       -0.034726862 -0.00024959422 0.011474696 0.07373079
000330 95 14 c7 3c 61 00 d2 3c 21 19 95 3b b5 73 79 bc
       0.024301806 0.025634946 0.0045501147 -0.015225341
000340 64 ff 95 3d db 1b e8 bc ab 4a 2a bd 11 26 90 bd
       0.073241025 -0.028333595 -0.041575115 -0.070385106
000350 f9 22 93 3c 97 ae b0 3c 6e fd 4e 3d de e5 18 3d
       0.017961012 0.021567626 0.050534658 0.037328593
000360 f8 48 20 bd 61 a8 12 3c b1 48 ed 3d 7c 80 02 3d
       -0.03913209 0.0089512775 0.115861304 0.031860813
000370 01 5e 28 3d 66 56 82 bd 33 78 91 3b 8f 08 8a bc
       0.041105274 -0.063641354 0.0044393777 -0.016849784
000380 e7 15 b3 bc 0e d5 ac 3d db ae 47 bb 21 51 f3 bc
       -0.02186103 0.084390745 -0.0030469212 -0.029701771
000390 22 2d 87 3d 91 44 90 3b 98 c7 05 bd c9 2d 4a bb
       0.06600405 0.004402705 -0.03266105 -0.0030850044
0003a0 4b a7 93 3a c3 68 b2 3d ef 0c 7d bd bd a3 a2 3d
       0.0011265067 0.08711388 -0.061779913 0.07941387
0003b0 39 fb 15 bd 16 eb 7d bd 07 76 90 3d 22 3c 18 bd
       -0.036616538 -0.061991774 0.07053762 -0.037166722
0003c0 29 b8 26 bd 4a d2 ac 3c d2 33 79 3d ab 15 ed bc
       -0.040702973 0.021096367 0.060840435 -0.028940996
0003d0 2b af 04 3d 57 0d b1 bc 8d e9 d1 3c 26 04 10 bd
       0.032393616 -0.021612806 0.025624061 -0.035160206
0003e0 f3 a5 5c 3d c2 23 17 3d aa fe 24 bc 0d 3e d7 3b
       0.0538692 0.036899336 -0.010070482 0.0065686763
0003f0 0e be b6 bc 9f 94 8c 3d bd ad 04 bd ca 93 a8 bc
       -0.022307422 0.06864285 -0.032392252 -0.020578284

conv4.bias f4 [32]
000000 36 23 28 bc 7a 65 98 3d a8 eb 91 bb f5 85 06 be
       -0.010262301 0.0744123 -0.0044531412 -0.13137038
000010 d1 c7 3f bc 25 f5 07 bd ee 16 a9 3d d7 09 14 be
       -0.011705355 -0.033192772 0.082563266 -0.14456879
000020 f3 0f 89 bd 23 99 1e bd 94 bf 77 3c 60 bb 08 be
       -0.06692495 -0.03872026 0.015121359 -0.13352728
000030 f3 0b 5c bd 11 ae 36 3c c6 d7 b4 bb 11 b4 71 bd
       -0.053722333 0.011149899 -0.0055188863 -0.059009615
000040 1c 9d d2 bc 2e 95 d6 3d 8a 84 40 3d 7a 7c 63 3d
       -0.025709681 0.104776725 0.0470014 0.055538632
000050 6f 79 1c 3d d0 2d 01 3d 58 84 d4 bd 5c 35 4e bc
       0.038201746 0.03153783 -0.10376805 -0.012585964
000060 db 60 e5 3d e9 a4 99 bd 35 a3 09 3d c9 69 9f bc
       0.11200114 -0.07502157 0.033602912 -0.019459622
000070 03 23 67 bd 8b a1 04 3e ac 01 4c bb e8 8a 02 3d
       -0.056429874 0.12952249 -0.0031128926 0.031870753

conv5.weight f4 [32, 32, 3]
000000 b3 a4 77 bd 5c 5c 5c bd 16 53 ce bc fa 85 1d bd
       -0.060459804 -0.05379902 -0.025186103 -0.038457848
000010 c9 67 46 3c a7 fd d5 3a c3 40 2e 3d 15 28 2d bd
       0.012109705 0.0016326205 0.04254223 -0.042274553
000020 71 6b 1d ba 55 28 59 3d 49 90 a4 bd a7 c0 7d 3d
       -0.0006005085 0.05301698 -0.08035333 0.061951306
000030 fd 3a 92 bc d7 98 15 3d 95 60 10 3c 4b 4e 37 3d
       -0.017850393 0.036522713 0.008812089 0.0447524
000040 00 73 70 3d 78 95 8d 3d f7 b6 d7 3c 81 ac 13 bc
       0.058703423 0.069132745 0.026332362 -0.009013296
000050 cd 2f 91 3d b5 41 62 bd 36 14 45 3d 80 36 11 be
       0.070891954 -0.055238444 0.048114978 -0.14180946
000060 18 8c 63 bc e2 18 5c 3c 2e c3 90 3d a2 11 4b bd
       -0.013888381 0.013433667 0.070684776 -0.049577363
000070 ee 46 7f bd ed 2f 83 bc 63 09 73 3b 51 61 cd bc
       -0.062323503 -0.016014064 0.0037084452 -0.025070818
000080 3c 32 89 3c a2 52 88 bd ca db 33 bc ca d6 9e bb
       0.016747586 -0.06656386 -0.010977695 -0.004847382
000090 15 40 e3 bc 39 36 08 bd 65 4a 9f bd de 58 3d bc
       -0.027740518 -0.033254836 -0.077778615 -0.011556832
0000a0 12 3f ec 3c b1 6a ba bd 03 e7 f8 bd cd 6f dc bc
       0.028838668 -0.09102381 -0.12153437 -0.02690878
0000b0 b0 63 96 bd af 91 5a 3d 18 44 6c bd c3 7d 2c bd
       -0.07343233 0.05336159 -0.057682127 -0.042112123
0000c0 80 d1 60 3d c7 fc e5 bb c0 bb 25 3b d3 21 9a 3c
       0.054887295 -0.007018659 0.002528891 0.018814957
0000d0 78 83 98 bd e0 93 c0 bc b3 ce 62 bd ae 90 b2 bc
       -0.07446951 -0.023508012 -0.055372905 -0.021797504
0000e0 fb 5b 17 3d 0f bd e4 bb 53 ad 14 bc 28 2e 86 bd
       0.036952954 -0.0069805454 -0.009074527 -0.06551772
0000f0 74 fc 86 3d 83 90 1d bd 93 24 a3 bc c9 77 5d 3d
       0.0659112 -0.038467895 -0.0199149 0.054069314
000100 95 06 66 3d ae 7a f2 3b a9 83 d7 3c b3 2a 24 bd
       0.05615862 0.0073998785 0.026307898 -0.040079784
000110 3d 6e 11 bd a6 08 ff bb 35 57 d1 bc b8 f4 ce bc
       -0.035505522 -0.0077830134 -0.025554279 -0.025263175
000120 8e 79 ad bb 60 1c 79 3d 98 99 b6 3c c1 90 36 bd
       -0.0052940315 0.060818076 0.022290036 -0.04457164
000130 74 86 74 bd 01 75 70 3d b3 52 fe bc 3a ef 09 3d
       -0.059698537 0.058705334 -0.031045293 0.03367541
000140 ac 7e 82 bc 8e d8 85 3d ca 5c bc 3c 27 76 e4 bc
       -0.015929542 0.06535445 0.022993464 -0.02788837
000150 1c a3 a7 3c 32 d8 3e 3d 02 23 c0 3c 5b b4 9b 3a
       0.020463519 0.0465929 0.023454193 0.0011879312
000160 d0 c9 3f bd ae ff 68 3d 4b 06 f1 3b 11 03 78 3d
       -0.046823323 0.05688446 0.0073554865 0.0605498
000170 5c 92 28 bd 8b 72 23 3d 07 e4 2d 3d ce fe 29 bc
       -0.041155204 0.03990416 0.042453792 -0.010375692
000180 17 77 73 bc ac 92 ed bd f6 f4 43 bd 4d 85 d3 3c
       -0.014859936 -0.11600241 -0.047841035 0.025820399
000190 d3 63 a8 bc 88 58 e0 bd 44 5d ed bb 5b 8e 82 3d
       -0.020555412 -0.10954386 -0.007243784 0.063748084
0001a0 f5 ac b2 bd b4 59 d8 bd 4d 87 c2 bc 39 6b 2e be
       -0.08724395 -0.105639845 -0.023746157 -0.1703309
0001b0 8c a0 61 3c 86 a9 af bc 83 5a 85 bc a1 06 8d 3d
       0.0137711875 -0.02144314 -0.01627851 0.0688603
0001c0 7a bd 9d 3b 5b 16 61 38 0c da 01 bd 10 5a e8 ba
       0.004813847 5.3665e-05 -0.031702086 -0.0017727036
0001d0 c6 82 8a 3d 0a ca 77 3d c0 74 c6 bd c0 2a bd 3c
       0.06763224 0.060495414 -0.09690237 0.023091674
0001e0 cc d1 1d bc c5 7f f6 3c 94 81 2b bd 08 98 c2 bd
       -0.009632539 0.030090222 -0.041871622 -0.09501654
0001f0 c3 73 46 bd 3e 47 12 bc 90 29 02 bd a3 7b 08 bb
       -0.048450243 -0.008928118 -0.03177792 -0.0020825646
000200 60 90 a2 3d 84 06 b9 bd 5c f3 76 bd 27 7c 9a bd
       0.079376936 -0.09034446 -0.06029068 -0.075432114
000210 e3 92 b9 bc 42 48 a6 bd d0 51 98 bd fc 68 2f 3d
       -0.022653049 -0.08119251 -0.074374795 0.04282473
000220 87 00 a3 bc e1 cc 5a bd 90 2c 17 bd ad f5 a9 bd
       -0.019897712 -0.053418044 -0.036907732 -0.08298812
000230 f6 4a 9c bd e6 63 ac bd 26 97 d5 bd b0 8e f9 3a
       -0.07631485 -0.084174916 -0.1042922 0.0019039717
000240 60 05 74 bd 10 7f 92 3d f6 86 32 bd c6 0c 81 3d
       -0.05957544 0.071531415 -0.04358574 0.063012645
000250 17 9f 00 bd 36 33 b7 bc 5f b1 5e bd 38 b3 42 bd
       -0.03140172 -0.022363286 -0.054368373 -0.047534198
000260 3f ad 5c bd 2a 06 3c bc ae c8 0b bd 4e 5e 0f bd
       -0.053876158 -0.011476079 -0.03412693 -0.035002045
000270 5f 83 0b bd f1 31 af 3d a3 78 e5 3c 07 35 b1 3d
       -0.034060832 0.085544474 0.028011626 0.08652692
000280 1f 6d 4a bc 38 8b 5a bd 98 24 c6 bd df 85 7e bd
       -0.012355118 -0.053355426 -0.096749485 -0.06213939
000290 fa 7c e1 bc eb e9 d4 bb b1 80 a2 bd 3f 02 20 3d
       -0.027525414 -0.0064976118 -0.07934702 0.039064642
0002a0 45 ee b3 bd aa 8f 0a bd de 65 4f 3c 4a 4b 3e 3d
       -0.08785681 -0.033828415 0.012658564 0.04645852
0002b0 65 a8 78 bd 15 d5 43 bd b8 10 1f 3c b6 22 a1 b9
       -0.06070747 -0.047810633 0.009708576 -0.00030734175
0002c0 ab 6f 50 3b a6 95 fe 3c ea d2 de ba ad 2d 98 bd
       0.003180484 0.031077217 -0.0017000113 -0.07430587
0002d0 65 3d 44 3d 04 dd 46 bd d8 1a 13 3c 03 36 9d bc
       0.047910113 -0.04855062 0.008978568 -0.019190794
0002e0 0d 18 8b bd 97 8a 7b bd e4 b8 4d bc c8 eb da 3c
       -0.06791697 -0.061411466 -0.012556288 0.026723757
0002f0 ea e2 26 bd 0a 48 8c 3d 0f 79 65 3b 6c 01 b8 bd
       -0.040743746 0.06849678 0.0035014783 -0.08984646
000300 e3 b1 ab 3d db d6 51 3d 60 93 07 bd 43 c6 a8 3d
       0.083835386 0.051230293 -0.033099532 0.082409404
000310 0f 4b e3 3c 4d 1a 93 bd af b4 8f bd 12 0f a5 bd
       0.027745752 -0.07182751 -0.070168845 -0.08059515
000320 45 9d f5 bc 25 ef 02 3d 69 cd 14 3d 87 83 21 bd
       -0.029982219 0.031966347 0.036328707 -0.039432075
000330 be 0a 12 3d 52 cc b9 3d 6d 8c 79 3d 89 22 8e 3d
       0.035654776 0.09072174 0.060924936 0.06940181
000340 2c 69 9e 3d 25 b4 06 bd 79 ac 84 bc a3 ba c4 3d
       0.07734904 -0.032886643 -0.016195523 0.09605911
000350 8d 44 c9 3d 38 b5 a1 3d 22 9d 37 3d 70 a0 9b bc
       0.09827528 0.07895893 0.044827588 -0.018997401
000360 ce bb c0 bc d3 29 3f bd 81 ff 9e 3b 6a ae 6a bc
       -0.023527052 -0.046670746 0.004852236 -0.01432381
000370 f8 c5 9a bd c4 48 88 bc 90 7a 78 bc 3e d0 10 bd
       -0.07557291 -0.01663626 -0.01516594 -0.035354845
000380 bc 96 9c 3c 0c 30 d6 3c 06 e2 86 3d 9f f7 09 bd
       0.019114845 0.026145957 0.06586079 -0.033683416
000390 dc 58 23 bd c0 46 22 bd f2 bd 35 bd 78 c4 64 3d
       -0.039879665 -0.039618254 -0.0443706 0.05585143
0003a0 fa 9d c1 3c 7b 7c 6a bc ef 5d 29 bd 01 c1 c4 bd
       0.0236349 -0.014311905 -0.041349348 -0.09607125
0003b0 d2 c7 3c bd 1a 35 71 3a e9 81 c2 bc a7 fe 50 3b
       -0.046089 0.0009201333 -0.023743587 0.0031890066
0003c0 56 03 a4 3c f9 a2 cf b9 d4 ed f0 bc 3c ff d0 3b
       0.020021122 -0.0003960354 -0.02941028 0.0063780826
0003d0 16 d2 4f bc 6c d3 99 bd b4 78 10 3c 54 a7 d6 3c
       -0.012684366 -0.07511029 0.00881784 0.026202835
0003e0 5d ae af 3d eb 86 57 3d 34 d3 2a 3d 41 ef ee 3b
       0.08578179 0.052618902 0.041705325 0.007291705
0003f0 89 ef 6b 3d 01 c4 ac 3c 16 4b 7d 3d a2 6e 26 3d
       0.057601485 0.021089556 0.061839186 0.04063285

conv5.bias f4 [32]
000000 24 3f 40 3d 41 d9 45 3d 8f 58 d5 bd b5 62 07 bd
       0.046935216 0.048302893 -0.10417282 -0.03305312
000010 4b 90 e3 bd 97 75 67 3c b2 b8 ae bd da d8 b8 bb
       -0.11111506 0.014127157 -0.085313216 -0.005641085
000020 59 71 d2 3d 5a 77 c3 bc 7d b0 39 bc 91 ec b2 bd
       0.102755256 -0.023860622 -0.011333582 -0.08736528
000030 6f 71 32 bd 1e 39 23 be 1b b4 3d bd 03 04 2e 3b
       -0.04356521 -0.15939757 -0.04631434 0.0026552684
000040 db 03 14 be 56 f5 5d 3d ec d0 86 bd 69 40 68 bd
       -0.14454596 0.05418905 -0.065828174 -0.05670205
000050 73 54 e7 bc 92 e1 a6 bd 2e 4f 16 be 87 c8 2d 3d
       -0.02823851 -0.08148493 -0.14678642 0.042427566
000060 e7 11 59 bd 95 f4 ba 3c 92 af 2f bd 09 c2 ab bc
       -0.05299559 0.022821704 -0.042892046 -0.020966547
000070 ea 5d e8 bd 04 aa e8 bd fe 28 fe bc 19 db 58 bd
       -0.11346038 -0.11360553 -0.031025406 -0.052943323

conv6.weight f4 [32, 32, 3]
000000 7d 9c d8 3c 64 bd d2 3c c1 b1 9f bd 06 69 3f bc
       0.026441807 0.025725074 -0.07797576 -0.011682754
000010 7e 3a a1 bc c0 07 f9 3c 05 24 7a 3d 2d c7 37 3b
       -0.019681212 0.030399203 0.061069507 0.0028042302
000020 b4 6e 0f bd 97 9a 96 3d d9 98 28 3d 4f 3e 81 3d
       -0.035017684 0.073537044 0.041161392 0.063107125
000030 4f a9 cd 3b 48 1e ac bd de 9e 36 bd d7 0f ad 3d
       0.0062762867 -0.08404213 -0.0445851 0.08450287
000040 8f 56 62 3d 96 ca 3e bc de 7b ba 3c f4 78 51 bb
       0.05525833 -0.01164498 0.022764143 -0.0031962963
000050 08 80 56 3c f9 08 8d bc b7 78 73 3c 3d e8 a4 3b
       0.0130920485 -0.017216193 0.014860324 0.005032568
000060 55 2d 37 3c da 25 80 b8 5d 66 9d 3c 50 13 6d 3d
       0.011180242 -6.110566e-05 0.01921385 0.057879746
000070 8b 04 43 3d bb ab b8 bc ad 7d 8c bd f1 6a a3 bd
       0.047611754 -0.022542825 -0.06859908 -0.07979382
000080 46 78 17 be 25 d2 20 3d 98 c5 ff 3b d8 31 11 bd
       -0.14791974 0.03926291 0.0078055374 -0.035447925
000090 13 cb f4 3b b8 77 b6 3b e3 84 1b bb fa ba e8 bc
       0.0074704974 0.005568471 -0.002373033 -0.02840947
0000a0 40 c7 31 3c 35 70 46 3d 5b 8c 88 bc c7 2f b7 bb
       0.010850728 0.048446853 -0.01666849 -0.0055904123
0000b0 ef 58 5c 3c 32 a9 9d 3d bc 61 f5 3c 44 de f9 bc
       0.013448938 0.07698287 0.02995383 -0.030501492
0000c0 3b c2 04 bd 47 0f 09 bd d8 c4 1d bd 85 aa 52 3d
       -0.032411795 -0.033461835 -0.038517803 0.05143215
0000d0 2a 1d 3e 3d 7b 50 08 bd af 82 9b bc f4 da 09 3d
       0.04641453 -0.033279877 -0.018983213 0.033656076
0000e0 0c 4f 19 3d 50 52 63 bb d0 e7 f7 bb cb c7 19 3d
       0.0374289 -0.0034686513 -0.007565476 0.037544053
0000f0 b5 1d 83 bd 12 bb 1a 3d bf 45 8d bc 14 91 a8 bc
       -0.064021505 0.03777606 -0.017245172 -0.020576991
000100 bb c5 87 bd c5 d2 a9 bc 6b b3 55 bd 39 94 5d 3d
       -0.06629511 -0.020730386 -0.05217306 0.054096434
000110 ba 98 27 3c 06 52 83 bd 5c 88 8f bd 60 ad fd 3c
       0.010229284 -0.06412129 -0.0700843 0.03096646
000120 08 17 f1 3c e7 e4 a8 3b fe ed 45 3d cf d4 8b bc
       0.029429927 0.0051542404 0.04832267 -0.017069248
000130 63 2e 0b bd 70 b1 0d 3d a5 f6 92 bc de f6 1b 3b
       -0.033979785 0.034593046 -0.017939875 0.0023798267
000140 b9 83 a7 bd de 52 01 3d 8b 7e 1f bd 6c 30 a2 bd
       -0.08179421 0.03157317 -0.03893904 -0.07919392
000150 4f 46 3d 3d 07 e2 11 bc 06 8e a6 bc 3c f6 0f 3e
       0.04620963 -0.008903987 -0.020331394 0.14058775
000160 26 d7 58 3d 46 19 92 3a 14 a1 8d bd 49 1f 83 3d
       0.052939557 0.0011146448 -0.06915489 0.064024515
000170 19 e8 0b bd 47 7c 58 3d c8 e0 84 3d 64 cd 8b bc
       -0.034156892 0.052852895 0.06488186 -0.017065711
000180 cc 1b 81 bd be c9 1f 3d cb d1 81 3c 0f 90 a4 3c
       -0.0630413 0.039010756 0.015847107 0.020088224
000190 2c f3 f7 bc 52 8c 0a 3c 84 c0 35 bd e2 41 96 bd
       -0.03026732 0.0084563065 -0.04437305 -0.07336785
0001a0 2b c0 1c bd fa 41 d9 3a 0a 1a 18 bd f3 65 b6 bc
       -0.038269203 0.0016575449 -0.037134208 -0.02226541
0001b0 01 35 1b bd 34 dc 83 bd 53 3a 09 be 3e e4 f4 3c
       -0.037892345 -0.06438485 -0.13401155 0.02989399
0001c0 61 dc 75 3d 86 c1 e1 bc a5 c2 05 3c 17 de f3 bc
       0.060024623 -0.0275581 0.008164083 -0.029768987
0001d0 84 af 38 3c 0a 3f 3d bc 94 48 87 ba 57 ed c2 3c
       0.011272315 -0.011550674 -0.0010321313 0.023794813
0001e0 b8 3f 05 bb 10 33 4e 3d e2 67 a1 bd ab ac 56 bc
       -0.0020332169 0.050341666 -0.07881142 -0.013102691
0001f0 55 e9 87 bd 53 eb 1f bc 2a e3 08 3d 27 54 87 bc
       -0.066363014 -0.0097606955 0.033419766 -0.01651962
000200 fe 61 22 bd fd 03 96 bd 19 7f a8 bc 12 e0 36 bd
       -0.039644234 -0.073249795 -0.020568417 -0.044647284
000210 14 db c7 39 dd c6 dd bb cc 94 87 bd b7 9b 59 bd
       0.00038119464 -0.006768091 -0.066201776 -0.053127017
000220 8c 20 d3 bb d7 6d 0d bc 05 94 3a bd 3a 94 a8 bc
       -0.006443089 -0.008632145 -0.04555132 -0.020578492
000230 ef 35 66 bd 00 6f 65 bd 36 59 7e 3c 53 f3 e0 bb
       -0.05620378 -0.05601406 0.015524199 -0.006864944
000240 f0 0e 11 bd 14 88 48 bd c9 01 ae bc 87 e4 96 3d
       -0.035414636 -0.0489579 -0.021241086 0.07367807
000250 66 19 b3 bd fa 47 c0 bd b3 fc bc bd 13 8e 85 bd
       -0.08745079 -0.093887284 -0.09227886 -0.06521239
000260 66 de 25 bc 27 ff 63 bd d4 b1 34 bd ef 92 06 3b
       -0.010123825 -0.055663254 -0.044114903 0.0020534357
000270 7e 8e 28 3d 09 aa 33 3d 88 9e 88 3d 27 af 66 bd
       0.041151516 0.04386333 0.066708624 -0.056319382
000280 b3 85 1d bc b5 d0 18 3d b0 67 4e bc b9 13 5b 3b
       -0.009614396 0.037308414 -0.012597963 0.0033428504
000290 1e 72 a3 ba b6 d4 91 3c ee 1b 42 bc fe 5b b5 bb
       -0.0012469923 0.017801624 -0.011847479 -0.005534648
0002a0 55 d9 77 bc 25 2d f8 bd 13 15 85 bd d9 f4 ae bc
       -0.0151275 -0.12117986 -0.0649816 -0.021356987
0002b0 f9 24 4e 3d 9b 76 7c bc 3e 1d 6c bd 21 8b 0d bd
       0.05032823 -0.015409137 -0.057645075 -0.03455651
0002c0 2b 89 8c bd 53 f1 af bc 34 a3 eb 3b 35 16 2e 3d
       -0.068621 -0.021477377 0.007191086 0.042501647
0002d0 0f ca 36 bd 98 96 cf bd aa 9b f0 bd 56 01 52 bd
       -0.04462629 -0.10136145 -0.117484406 -0.051270805
0002e0 73 7a d0 bd d4 50 07 be 27 59 16 bd e3 f7 a5 3c
       -0.10179605 -0.13214427 -0.036706116 0.020259803
0002f0 e7 1b ee 3b 9b ce e2 bd 44 37 36 bc f5 e0 5d bd
       0.00726651 -0.11074563 -0.011121575 -0.054169614
000300 bc cd 43 3b 9e 8b 87 bd 04 28 40 3d b3 02 80 bd
       0.0029877266 -0.06618427 0.046913162 -0.06250515
000310 54 0f f2 39 2a 01 b5 3c 6e cb 48 bd 77 46 d6 bd
       0.00046169257 0.022095282 -0.04902213 -0.10462659
000320 b0 0d bc bd fc 7d ad bd 71 f0 3a 3b f2 c3 3b 3c
       -0.09182298 -0.08471295 0.0028524662 0.011460291
000330 9b 92 91 bd f6 d9 17 be ac 40 29 bc 98 88 4c 3c
       -0.07108041 -0.14829239 -0.01033036 0.012483738
000340 dd 05 57 3d 8b 70 c9 bd b9 24 40 bd e0 66 6d bd
       0.052495826 -0.09835919 -0.04691002 -0.057959437
000350 36 b7 eb 3c ac ce 62 3d 0d 6f 7e bc 1b 36 0c be
       0.028773885 0.05537288 -0.015529406 -0.13692515
000360 49 b4 0c 3d c3 de d4 bd 9f 3f c9 bd 12 5e 68 bd
       0.03435162 -0.10394051 -0.09826588 -0.056730337
000370 6a 7a b5 bc 74 15 3c 3d ac b5 7a bc 3e ec 91 bd
       -0.022153098 0.045918897 -0.015302103 -0.07125138
000380 d0 bc c9 bd 59 c3 85 bc 9f 70 e8 bc 95 d2 c8 3c
       -0.09850466 -0.0163285 -0.028374014 0.024514476
000390 87 55 1a 3d f5 c2 a5 bc df 92 bb 38 0e a6 f3 bc
       0.03767922 -0.020234564 8.944212e-05 -0.029742267
0003a0 09 fb b0 3b 5d b1 c2 bc ad 3f 65 bb dd ee f5 3c
       0.0054010195 -0.023766214 -0.003498058 0.030021125
0003b0 66 cf 40 bd eb 2d 6b 3c cf fa 0a bd c8 2c b4 bc
       -0.04707279 0.014354209 -0.033930596 -0.02199401
0003c0 ba b1 e2 bc b7 d8 87 3c 72 21 0d 3c 4b 20 e3 bc
       -0.027672637 0.01658283 0.008613931 -0.02772536
0003d0 db 9c 25 bd 1f ab b6 bc 31 38 6c bd bc 05 01 bd
       -0.040432792 -0.022298394 -0.057670776 -0.03149961
0003e0 74 fc 0a 3d be 20 d7 bb 43 b8 1a 3d e7 c3 85 bc
       0.033932164 -0.0065651825 0.037773382 -0.016328765
0003f0 af 66 1a 3b 37 75 d7 bc 38 ca fe bc 23 3a 30 bc
       0.002355974 -0.02630101 -0.031102285 -0.010756048

conv6.bias f4 [32]
000000 1c 71 59 bd de a7 1a 3c 2a 46 05 3d de 41 50 be
       -0.053086385 0.009439437 0.032537617 -0.20337626
000010 d8 95 98 bd 0a 5c bc bd 30 2d 0b 3e ec db 53 3d
       -0.074504554 -0.091972426 0.13591456 0.051723406
000020 ae 5d 46 be 18 51 d9 bb ae c7 80 bd 55 bf df bd
       -0.19371673 -0.0066319816 -0.06288086 -0.109251656
000030 ef 0a 26 be f3 85 31 bd da 8b 7e 3c 1d c8 60 3c
       -0.16215108 -0.043340635 0.015536273 0.013719586
000040 1c ac 68 bd e7 e5 07 3e bc b2 a7 bd e6 82 85 bd
       -0.05680476 0.13271295 -0.08188388 -0.065191075
000050 36 41 2c bd ad 4f a1 3d 97 ee 59 bd c1 92 e0 3b
       -0.042054377 0.07876525 -0.053206053 0.006853432
000060 fd 64 70 bd a4 aa c2 bd 0c 10 c2 3d 57 6e 95 bd
       -0.05869006 -0.09505203 0.09475717 -0.07296436
000070 01 36 eb bd 56 cb b5 bc 0b 67 5e bb 85 6c b7 bb
       -0.1148491 -0.022191685 -0.003393593 -0.0055976533
