FedAvg_2_clients/cli2_model_parameters.pth (torch, 767010 bytes, 51 tensors)

conv1.weight f4 [32, 2, 3]
0.36449793 -0.12946737 -0.26290426 -0.05504504 0.09249923 0.21686062 -0.15046132 -0.23471661
0.16006404 -0.19278657 0.038280964 0.23669055 0.26379797 0.13999581 -0.15408234 0.033010185
0.25121266 0.05359137 -0.35954595 -0.31727982 -0.2261202 -0.032703146 -0.21874535 0.05870618
-0.039600983 -0.10732319 0.19490938 -0.33189878 -0.07196708 -0.18258236 -0.1830272 0.0023113263
0.19755456 0.3205235 -0.24470332 -0.12023705 0.24478306 0.03841444 -0.16493215 0.26662657
-0.11538735 -0.18087488 0.23402628 0.027679574 -0.24461609 0.009667106 0.13203499 0.005182281
-0.17014939 -0.1189767 0.26162705 0.11878076 -0.18165588 -0.14935341 0.18169643 0.010659911
-0.2968076 0.07513523 0.24148679 0.12554082 0.18667237 0.16463672 0.014786846 0.018955544
0.062093437 0.16549137 0.15852182 0.044057555 0.21926722 -0.14362307 -0.18973687 -0.15240674
-0.2587049 -0.10991265 -0.09880981 -0.10389012 -0.15106225 0.024068639 -0.2175149 -0.25913504
0.024401307 -0.13148904 -0.040831387 0.039892644 0.01024359 0.2053392 -0.057577096 -0.06335535
-0.37523812 0.17580883 0.17178425 0.13153017 0.04515762 -0.28569338 0.059943914 -0.23153277
0.003559962 -0.059514966 0.05071974 -0.12847117 -0.017619625 -0.23042688 0.09148536 0.023010394
0.03966917 0.3954264 0.17463115 0.078405544 -0.16951689 -0.045049615 0.18374377 -0.15529418
-0.23218484 0.18204063 -0.06597697 0.19369175 -0.15100959 0.131244 0.19423687 0.09029612
-0.01245029 -0.124548666 -0.097601905 -0.2397818 0.18441242 0.00068482757 0.036670092 -0.22968505
0.11322641 0.120087355 0.11048035 -0.17148857 -0.3345585 -0.0842337 0.009312671 -0.12487802
0.15235955 -0.14485075 0.041356087 0.063024975 -0.114792876 0.10540286 -0.051057845 0.22189
0.22667912 0.15301186 -0.38231298 -0.14065544 -0.019621849 0.27111283 -0.11406932 -0.116217166
-0.2984881 0.04926435 0.21267012 0.23919138 -0.07688461 -0.13616031 0.03336816 -0.19315396
0.24556509 -0.25806814 -0.05918476 -0.09791611 -0.3384547 0.20468087 -0.27167362 0.36174163
0.024106018 0.18047033 0.19231473 0.20402294 0.051057987 0.31099147 0.079751834 -0.13943978
0.243502 0.0074126497 -0.09099884 0.21106854 0.05191444 -0.04635264 -0.016764594 0.059103295
-0.20228013 0.05898349 0.23215319 -0.14398316 -0.07953885 0.061822012 -0.0270347 -0.080179006
00000000: 799f ba3e 1893 04be 639b 86be e876 61bd
00000010: 3c70 bd3d b610 5e3e 8812 1abe 8d59 70be
00000020: d4e7 233e d869 45be 80cc 1c3d 025f 723e
00000030: 8710 873e 105b 0f3e c3c7 1dbe b035 073d
00000040: f29e 803e a082 5b3d 6816 b8be 8072 a2be
00000050: 0e8c 67be bcf3 05bd c8fe 5fbe e475 703d
00000060: a434 22bd 43cc dbbd 5396 473e a3ee a9be
00000070: 7a63 93bd dff6 3abe 7b6b 3bbe 9f79 173b
00000080: be4b 4a3e a81b a43e 8293 7abe d83e f6bd
00000090: 69a8 7a3e 7658 1d3d f9e3 28be 4783 883e
000000a0: 3450 ecbd 4437 39be 96a4 6f3e 46c0 e23c
000000b0: a47c 7abe c862 1e3c 2e34 073e 20d0 a93b
000000c0: a43b 2ebe 0eaa f3bd fbf3 853e 5443 f33d
000000d0: 0004 3abe 1af0 18be a10e 3a3e e8a6 2e3c
000000e0: 2af7 97be 80e0 993d 5048 773e c68d 003e
000000f0: 0b27 3f3e 8796 283e 8744 723c a848 9b3c
00000100: b055 7e3d 9276 293e 8b53 223e b275 343d
00000110: 9687 603e ed11 13be 624a 42be 8310 1cbe
00000120: f874 84be e219 e1bd cc5c cabd 58c4 d4bd
00000130: 10b0 1abe 982b c53c 3abc 5ebe 59ad 84be
00000140: 40e5 c73c 10a5 06be d03e 27bd 7866 233d
00000150: bbd4 273c 7044 523e f6d5 6bbd 73c0 81bd
00000160: 361f c0be 3b07 343e 36e8 2f3e d8af 063e
00000170: 32f7 383d 6746 92be c087 753d ed16 6dbe
00000180: 404e 693b f7c5 73bd 81bf 4f3d f28d 03be
00000190: 0857 90bc 06f5 6bbe ad5c bb3d 4b80 bc3c
000001a0: 247c 223d 5475 ca3e 82d2 323e 1693 a03d
000001b0: d695 2dbe f285 38bd 5427 3c3e 7005 1fbe
000001c0: ddc1 6dbe dc68 3a3e ef1e 87bd 2157 463e
000001d0: 42a2 1abe d464 063e 08e6 463e 2ced b83d
000001e0: 4dfc 4bbc 5f13 ffbd 82e3 c7bd 5c89 75be
000001f0: 9cd6 3c3e 0086 333a 6133 163d 8f32 6bbe
00000200: 3fe3 e73d 5cf0 f53d 8643 e23d b39a 2fbe
00000210: 404b abbe b882 acbd 2c94 183c 0cc0 ffbd
00000220: 2404 1c3e c153 14be 0065 293d 3d13 813d
00000230: 8718 ebbd 74dd d73d 0822 51bd 2237 633e
00000240: 921e 683e 24af 1c3e 87be c3be fb07 10be
00000250: 00be a0bc 4dcf 8a3e 2d9d e9bd 4403 eebd
00000260: 6fd3 98be 6ac9 493d 32c6 593e 96ee 743e
00000270: ae75 9dbd 9c6d 0bbe 0dad 083d 27ca 45be
00000280: 6a75 7b3e 8221 84be b86b 72bd 3e88 c8bd
00000290: ef49 adbe dd97 513e ce18 8bbe 3336 b93e
000002a0: fc79 c53c 37cd 383e 27ee 443e 64eb 503e
000002b0: 2e22 513d 463a 9f3e ee54 a33d 4dc9 0ebe
000002c0: 9758 793e d0e5 f23b 9a5d babd 5a22 583e
000002d0: 3ca4 543d 44dc 3dbd e755 89bc 4c16 723d
000002e0: 8622 4fbe ac98 713d 91b9 6d3e 5270 13be
000002f0: 44e5 a2bd 1439 7d3d e077 ddbc e434 a4bd

conv1.bias f4 [32]
-0.029991506 0.18896359 -0.03483406 0.2137486 0.182787 0.0061098444 -5.5421377e-05 0.01965597
0.043807097 -0.22853553 0.09164714 -0.052655824 -0.10984174 -0.039520524 0.3111873 -0.25666392
-0.0040053343 -0.13582148 0.32121056 0.043545872 0.009748564 -0.036274612 -0.24078593 -0.05992507
0.014538831 -0.25791708 0.26924145 0.19761777 -0.23448773 0.006761005 0.2984694 0.008799622
00000000: bfb0 f5bc ac7f 413e 29ae 0ebd eae0 5a3e
00000010: 842c 3b3e 1735 c83b 4074 68b8 8f05 a13c
00000020: 126f 333d 3805 6abe 7fb1 bb3d a2ad 57bd
00000030: b5f4 e0bd 46e0 21bd f153 9f3e 7469 83be
00000040: 2e3f 83bb c914 0bbe b675 a43e 285d 323d
00000050: 71b8 1f3c b094 14bd 9690 76be fd73 75bd
00000060: 4734 6e3c b50d 84be 04da 893e 505c 4a3e
00000070: 8d1d 70be 6c8b dd3b fbd0 983e 4a2c 103c

conv2.weight f4 [32, 32, 3]
0.0288612 -0.05866904 -0.021480316 -0.04698519 0.014312551 -0.0671891 0.07173631 0.016251413
-0.022482686 -0.03984573 0.06474749 -0.047805913 0.035050906 0.059775308 -0.07519041 -0.028256834
-0.05869207 -0.03387903 -0.0037330538 0.034232862 0.041531585 -0.05961202 0.025619043 -0.04878636
-0.044662476 -0.030979982 0.050593946 -0.04314762 0.01739478 -0.040809345 0.07972389 0.045550745
-0.013589486 -0.011952571 0.021055602 0.01979338 0.02095069 0.023107342 0.0052150697 -0.016612178
-0.0073571485 0.008309234 -0.07382395 -0.040707402 -0.05654363 -0.10122382 -0.023431545 -0.11088273
0.029489197 -0.02371626 0.0053534205 0.02233446 -0.006360041 -0.07781207 -0.005210615 -0.06446992
-0.04739365 0.0022428203 0.0025533368 0.008080185 0.007717543 0.026417647 -0.011278115 0.10689866
0.035474673 0.021096852 -0.01438151 0.021940516 0.06171435 0.054568242 0.058803372 -0.111372024
0.023457928 0.008668539 0.062055614 -0.03846307 -0.07076481 0.039062902 0.057010755 -0.03932413
-0.028532619 -0.055304278 -0.13074875 -0.08792562 0.0020169062 -0.029407717 -0.027890084 0.04249262
-0.086994246 0.074759096 -0.0545082 0.019253945 -0.013820325 0.019461265 0.03841551 0.0002762908
0.07413504 0.08937646 0.011097714 -0.075497426 0.012534499 0.008547078 0.052375272 0.054153576
-0.010962195 -0.0377274 -0.07294841 -0.079301514 0.04308325 0.009686717 -0.0479981 0.0134083815
-0.021536881 -0.0073149498 0.0049277307 -0.040417615 -0.001006991 0.00021435229 -0.025262551 -0.027961211
-0.0051598344 0.06419781 -0.075483695 -1.7916855e-05 -0.016457882 -0.027527172 0.011809197 0.020429604
0.06805043 -0.034374196 0.038664766 0.033868138 -0.055296462 -0.022697838 -0.033635534 0.03158887
0.009908036 -0.039520074 -0.0155718615 -0.04396269 0.08026859 0.0095413765 0.05945855 0.13733982
-0.05469763 -0.008359463 -0.0053502037 0.012878733 -0.0040168175 0.07638666 0.0757488 -0.018612267
0.08679234 -0.00044112958 0.032177005 -0.018623395 0.018622592 0.013388347 -0.01135582 0.03191881
-0.028118549 0.005118723 -0.032843444 -0.073216535 -0.0029659444 -0.08157775 -0.030037869 -0.0065224925
-0.058775306 0.0023254268 -0.020363703 -0.0254285 -0.081189565 -0.059970625 -0.011323931 0.05642951
-0.0023563977 0.006839218 0.018033138 -0.012884141 0.05899972 0.06195872 0.027840212 0.0702012
-0.037795596 -0.01051125 0.028917026 -0.0016836962 0.02204575 0.060871348 0.0076986062 0.033432517
-0.07089519 -0.116457544 -0.048106585 -0.037110202 -0.026685249 0.03175492 -4.397802e-05 -0.0484874
-0.038599182 0.019577207 0.061323036 0.05936254 0.04804494 0.0024109602 -0.036418296 0.01848118
-0.062251657 -0.081850335 0.009247375 0.095508836 0.029636431 0.009485113 0.05624176 -0.011571156
-0.05444098 -0.04371996 -0.068825215 0.044378284 0.06247333 0.14730541 -0.042248596 0.0019960434
-0.010005958 -0.07361834 0.0043854755 0.003416272 0.10942539 0.10013417 0.08621327 -0.062704995
-0.07372021 -0.012386693 -0.012539866 0.034299962 -0.04127946 0.060710177 -0.0438676 0.025937483
0.05965764 -0.02702414 -0.047669362 -0.009173573 -0.033466134 -0.053113203 -0.008903858 0.046300177
0.00717675 0.022296645 -0.026363056 0.056692135 0.030920088 -0.054467797 0.030685501 -0.07405029
00000000: 536e ec3c f34e 70bd 7df7 afbc 8b73 40bd
00000010: 317f 6a3c 709a 89bd 7dea 923d af21 853c
00000020: 9c2d b8bc 4735 23bd 559a 843d 22d0 43bd
00000030: 8a91 0f3d f4d6 743d 6efd 99bd e07a e7bc
00000040: 1967 70bd bdc4 0abd 40a6 74bb c237 0c3d
00000050: 061d 2a3d bc2b 74bd 07df d13c 35d4 47bd
00000060: 00f0 36bd bbc9 fdbc 993b 4f3d 8fbb 30bd
00000070: 7f7f 8e3c b327 27bd 4746 a33d 6b93 3a3d
00000080: 6fa6 5ebc b7d4 43bc cc7c ac3c ba25 a23c
00000090: c8a0 ab3c 9c4b bd3c 2de3 aa3b 4316 88bc
000000a0: 3c14 f1bb 7423 083c 0331 97bd cebc 26bd
000000b0: 4b9a 67bd 6f4e cfbd 83f3 bfbc 7c16 e3bd
000000c0: 5493 f13c 9a48 c2bc bf6b af3b c2f6 b63c
000000d0: e467 d0bb ef5b 9fbd cfbd aabb ce08 84bd
000000e0: d81f 42bd 48fc 123b e255 273b c162 043c
000000f0: 71e3 fc3b d269 d83c d8c7 38bc afed da3d
00000100: e44d 113d 4ed3 ac3c 6da0 6bbc 99bc b33c
00000110: 30c8 7c3d f382 5f3d cedb 703d 0417 e4bd
00000120: d72a c03c 7d06 0e3c 072e 7e3d 748b 1dbd
00000130: 24ed 90bd 6c00 203d 1c84 693d 5712 21bd
00000140: 3dbd e9bc bd86 62bd 00e3 05be 5912 b4bd
00000150: 122e 043b 74e8 f0bc bf79 e4bc be0c 2e3d
00000160: 0a2a b2bd 4c1b 993d fe43 5fbd 73ba 9d3c
00000170: a56e 62bc 3b6d 9f3c 9559 1d3d 20db 9039
00000180: 1dd4 973d 010b b73d 30d3 353c 659e 9abd
00000190: 805d 4d3c 0b09 0c3c 7487 563d 24d0 5d3d
000001a0: c79a 33bc 0c88 1abd fa65 95bd d568 a2bd
000001b0: 1078 303d 09b5 1e3c a899 44bd d4ae 5b3c
000001c0: 1d6e b0bc 3fb2 efbb cd78 a13b f18c 25bd
000001d0: 03fd 83ba c1c3 6039 69f3 cebc e90e e5bc
000001e0: d413 a9bb 247a 833d 3297 9abd 274c 96b7
000001f0: aed2 86bc aa80 e1bc 5d7b 413c fc5b a73c
00000200: 065e 8b3d f5cb 0cbd f25e 1e3d 51b9 0a3d
00000210: 8b7e 62bd d1f0 b9bc 6ac5 09bd 5563 013d
00000220: 5155 223c cddf 21bd 1f21 7fbc 3912 34bd
00000230: dc63 a43d 6f53 1c3c cf8a 733d cfa2 0c3e
00000240: 9f0a 60bd 21f6 08bc c350 afbb 5201 533c
00000250: 829f 83bb 9c70 9c3d 3022 9b3d c178 98bc
00000260: 2fc0 b13d 6947 e7b9 09cc 033d 1790 98bc
00000270: 688e 983c cc5a 5b3c c30d 3abc 4cbd 023d
00000280: df58 e6bc f6ba a73b d986 06bd 8df2 95bd
00000290: 4a60 42bb 3c12 a7bd fa11 f6bc a2ba d5bb
000002a0: 60be 70bd 3066 183b c8d1 a6bc 6e4f d0bc
000002b0: b746 a6bd c2a3 75bd 0288 39bc a122 673d
000002c0: cb6d 1abb 851b e03b 3bba 933c 0118 53bc
000002d0: b1a9 713d 6dc8 7d3d 2811 e43c a6c5 8f3d
000002e0: 8ecf 1abd 6137 2cbc 66e3 ec3c 78af dcba
000002f0: 4a99 b43c 3c54 793d 9744 fc3b 89f0 083d
00000300: 7f31 91bd 4b81 eebd 690b 45bd de00 18bd
00000310: 069b dabc 7211 023d 0a75 38b8 b99a 46bd
00000320: 2d1a 1ebd 6160 a03c dd2d 7b3d 2226 733d
00000330: c5ca 443d 3301 1e3b 5a2b 15bd d865 973c
00000340: 98fb 7ebd 26a1 a7bd 4d82 173c 239a c33d
00000350: 1ac8 f23c 7367 1b3c c25d 663d f294 3dbc
00000360: 81fd 5ebd b313 33bd 3cf4 8cbd 01c6 353d
00000370: 09e4 7f3d 3bd7 163e dd0c 2dbd 0dd0 023b
00000380: 08f0 23bc 36c5 96bd 09b4 8f3b 89e3 5f3b
00000390: 6b1a e03d 2513 cd3d 9590 b03d 7a6b 80bd
000003a0: 9ffa 96bd 8ef1 4abc 0374 4dbc 1e7e 0c3d
000003b0: a714 29bd 3cab 783d 83ae 33bd d87a d43c
000003c0: 925b 743d bb61 ddbc f340 43bd c14c 16bc
000003d0: c913 09bd 3b8d 59bd 7de1 11bc 41a5 3d3d
000003e0: f12a eb3b 74a7 b63c 56f7 d7bc 0336 683d
000003f0: 204c fd3c a019 5fbd 2960 fb3c aea7 97bd

conv2.bias f4 [32]
-0.04254683 0.04309643 0.10964526 -0.005597196 -0.058332257 -0.00013512153 -0.08856443 0.015214542
-0.08300345 0.03424102 0.066119924 -0.050126407 -0.008644087 0.14302707 -0.0028779209 -0.020558108
-0.008570417 0.068968244 0.038959093 0.08497437 0.11625094 0.012584157 -0.074624546 0.05464219
0.073795795 -0.08004707 -0.013936704 0.07215479 0.11056813 -0.057394683 0.057885185 0.08940629
00000000: 9645 2ebd e285 303d b28d e03d af68 b7bb
00000010: ceed 6ebd 69af 0db9 4561 b5bd 6a46 793c
00000020: b6fd a9bd 5040 0c3d e269 873d 5951 4dbd
00000030: ee9f 0dbc b075 123e 809b 3cbb 7a69 a8bc
00000040: ef6a 0cbc 393f 8d3d 9293 1f3d 0b07 ae3d
00000050: f914 ee3d c82d 4e3c c1d4 98bd 7dd0 5f3d
00000060: 4022 973d b8ef a3bd c656 64bc e4c5 933d
00000070: 8b71 e23d b016 6bbd 0419 6d3d a51a b73d

conv3.weight f4 [32, 32, 3]
0.009077497 0.004635848 0.016832247 0.031669997 0.007143001 -0.009691731 0.054826893 -0.015440323
-0.087745085 -0.091969825 -0.097421 -0.100961424 -0.0023982332 -0.11112083 -0.07211968 0.055203896
0.068567805 -0.00880304 -0.044929 -0.03847392 -0.042898502 0.0073666926 -0.06897892 -0.057311613
0.017203888 -0.08025325 -0.014129787 0.032208793 -0.08959318 -0.09330961 0.018778076 0.025022238
-0.013488881 -0.01911799 -0.035178494 0.019046307 0.0019108693 0.03814032 -0.010818352 0.040332217
-0.036648422 -0.046177194 -0.077678524 0.019612245 0.016232714 0.008642766 0.04391765 0.05600163
-0.0028162387 -0.017207354 -0.023123948 0.11209754 0.026605185 -0.03920188 0.02233635 -0.029232236
0.045012783 0.0073505347 0.057871893 0.07481162 0.07147477 -0.010986994 0.0070473207 0.021875532
0.021102933 0.036132976 0.074108526 0.0010567843 -0.023400767 0.0076761665 0.070030406 0.040589426
0.029419202 -0.13820042 -0.08399392 -0.08152331 0.047651645 0.006232253 0.014815872 0.022573696
-0.025384726 -0.05464477 -0.057873957 -0.021369629 -0.00010973517 0.025363225 -0.02175902 -0.057356462
0.027971406 -0.06338275 -0.042042702 0.050634235 -0.014605745 0.011891572 -0.028492296 -0.0034468495
0.019038497 -0.0037565033 -0.030902483 -0.040784296 -0.020990755 0.0620151 0.024875795 0.036644083
-0.070195764 0.024025088 -0.0487652 -0.030981353 0.037973013 -0.011027235 -0.029097801 0.050586805
-0.022757437 0.002111163 -0.00018918849 0.02088933 -0.0577918 -0.03813176 0.06392605 -0.049344037
-0.05150639 -0.093178995 -0.10110532 0.088467434 0.007748206 -0.020262528 -0.058888495 0.05987973
0.10149088 0.0022844197 -0.054704327 -0.0040765493 0.03329393 0.0016938895 0.032109894 0.018687677
-0.0524578 -0.09552646 0.039069533 -0.062488485 0.05408091 0.04756858 0.037473056 0.045037996
0.023568677 0.010369083 0.05597438 -0.017970245 -0.046108127 0.025741864 0.037534364 -0.0561794
0.022630043 -0.041625313 -0.01236781 0.11807125 0.07010911 0.027918918 0.0025835221 0.051687486
-0.008839926 -0.07043067 0.04500055 -0.015810244 0.01472774 -0.064939596 -0.0240377 0.006065839
0.09764106 0.023142364 -0.012057313 -0.015596947 -0.025124228 -0.0656904 0.02476249 -0.075720735
0.037115455 -0.021454627 -0.049486496 0.048191473 -0.014458738 -0.019126441 0.073737055 -0.06540362
0.020136092 0.038315613 0.08481752 -0.06378841 0.013006801 -0.017430648 0.060136374 0.02869427
-0.06933818 0.0048876973 0.0051685926 -0.04607323 0.03153417 -0.05511794 0.0017545179 0.008604603
0.002966662 0.05710161 -0.033547368 -0.13783668 -0.0760986 -0.042309854 -0.016775848 -0.012963187
0.023303904 -0.009462098 -0.118495815 -0.013184272 -0.029229479 -0.01864685 -0.022311872 -0.023575483
0.026850656 0.07634223 -0.050340977 0.036465026 -0.010651626 -0.103271164 -0.0031662756 -0.016484866
0.07402545 -0.04244318 0.01944351 -0.07653543 0.030380342 -0.08035599 -0.010357144 0.035241783
-0.019457724 -0.04108859 -0.027001606 -0.014236494 0.014988719 0.00047592615 0.054432735 -0.08054938
-0.040354043 0.0020436486 0.015842812 -0.018052286 0.034286227 0.054238833 -0.020074341 -0.028634077
-0.027265046 -0.021055588 0.07463016 -0.033645645 0.021385442 -0.064719394 -0.018517977 -0.057823174
00000000: c8b9 143c 50e8 973b c8e3 893c 66b8 013d
00000010: d60f ea3b 11ca 1ebc 2a92 603d 69f9 7cbc
00000020: b2b3 b3bd ad5a bcbd a984 c7bd ddc4 cebd
00000030: ad2b 1dbb 5193 e3bd 7cb3 93bd 7b1d 623d
00000040: 476d 8c3d a03a 10bc 7907 38bd d496 1dbd
00000050: 57b6 2fbd 4c64 f13b d244 8dbd 95bf 6abd
00000060: 2bef 8c3c d15b a4bd 9f80 67bc 5eed 033d
00000070: a17c b7bd 1c19 bfbd 7bd4 993c 70fb cc3c
00000080: 7800 5dbc 559d 9cbc 5317 10bd 0007 9c3c
00000090: 2276 fa3a 0639 1c3d 753f 31bc 6533 253d
000000a0: a81c 16bd 4c24 3dbd eb15 9fbd dca9 a03c
000000b0: 78fa 843c 639a 0d3c fee2 333d f761 653d
000000c0: a590 38bb 70f6 8cbc 6f6e bdbc 6593 e53d
000000d0: 1ef3 d93c 2792 20bd b9fa b63c 7178 efbc
000000e0: 535f 383d c1dc f03b 140b 6d3d d636 993d
000000f0: 5d61 923d cb02 34bc 36ed e63b 5134 b33c
00000100: 0fe0 ac3c 2c00 143d 36c6 973d cc83 8a3a
00000110: f7b2 bfbc 5a88 fb3b 1a6c 8f3d 1941 263d
00000120: 8a00 f13c 6984 0dbe 0105 acbd b1f5 a6bd
00000130: 5f2e 433d ed37 cc3b 45be 723c 79ec b83c
00000140: a1f3 cfbc 32d3 5fbd 3e0d 6dbd 5c0f afbc
00000150: 9f21 e6b8 8ac6 cf3c f93f b2bc 9cee 6abd
00000160: 4a24 e53c d1ce 81bd f834 2cbd d865 4f3d
00000170: ef4c 6fbc ded4 423c ad68 e9bc 8ae4 61bb
00000180: 9ff6 9b3c ab2f 76bb 3427 fdbc 6f0d 27bd
00000190: cef4 abbc 8c03 7e3d 53c8 cb3c 1b18 163d
000001a0: ccc2 8fbd 43d0 c43c 05be 47bd 9bcc fdbc
000001b0: 9789 1b3d 93ab 34bc 835e eebc 1c34 4f3d
000001c0: ce6d babc 705b 0a3b e660 46b9 1a20 ab3c
000001d0: 18b7 6cbd 0c30 1cbd a9eb 823d f91c 4abd
000001e0: 5df8 52bd a1d4 bebd 4e10 cfbd 6a2e b53d
000001f0: aae4 fd3b 9afd a5bc 1035 71bd 7344 753d
00000200: 73da cf3d 34b6 153b a511 60bd 9394 85bb
00000210: 375f 083d 8005 de3a aa85 033d e616 993c
00000220: fddd 56bd 60a3 c3bd 6007 203d edf3 7fbd
00000230: f283 5d3d 45d7 423d 597d 193d c379 383d
00000240: 1913 c13c 16e3 293c 6445 653d 5636 93bc
00000250: e0db 3cbd 9ae0 d23c a2bd 193d 5f1c 66bd
00000260: a462 b93c 4e7f 2abd 5ba2 4abc 57cf f13d
00000270: 5d95 8f3d 37b6 e43c 4f50 293b 42b6 533d
00000280: 56d5 10bc f53d 90bd 7f52 383d 7c84 81bc
00000290: 9e4c 713c 0dff 84bd b6ea c4bc f2c3 c63b
000002a0: 09f8 c73d 0e95 bd3c 098c 45bc 568a 7fbc
000002b0: 53d1 cdbc b088 86bd b5da ca3c 7913 9bbd
000002c0: 6006 183d 9dc1 afbc 5ab2 4abd 6c64 453d
000002d0: 58e4 6cbc 0eaf 9cbc 7403 973d 55f2 85bd
000002e0: 72f4 a43c d5f0 1c3d cfb4 ad3d 7fa3 82bd
000002f0: 7a1a 553c b8ca 8ebc 8f51 763d 3f10 eb3c
00000300: 2d01 8ebd fa28 a03b 4c5d a93b 49b7 3cbd
00000310: f929 013d 59c3 61bd daf7 e53a 52fa 0c3c
00000320: 546c 423b 61e3 693d f768 09bd 0f25 0dbe
00000330: 95d9 9bbd 194d 2dbd 816d 89bc 8c63 54bc
00000340: d4e7 be3c ea06 1bbc efad f2bd d802 58bc
00000350: a972 efbc 47c1 98bc 63c7 b6bc 5f21 c1bc
00000360: e8f5 db3c 5159 9c3d 5732 4ebd 5a5c 153d
00000370: 2884 2ebc d57f d3bd 4a81 4fbb 450b 87bc
00000380: a89a 973d e6d8 2dbd ff47 9f3c 9cbe 9cbd
00000390: 32e0 f83c ae91 a4bd 03b1 29bc b059 103d
000003a0: ce65 9fbc 824c 28bd 7932 ddbc 2f40 69bc
000003b0: 3e93 753c ba85 f939 dcf4 5e3d 13f7 a4bd
000003c0: 484a 25bd bcee 053b c9c8 813c 63e2 93bc
000003d0: b76f 0c3d 8a29 5e3d f272 a4bc 0392 eabc
000003e0: f25a dfbc c57c acbc b3d7 983d 04d0 09bd
000003f0: 8630 af3c 9a8b 84bd 03b3 97bc fed7 6cbd

conv3.bias f4 [32]
0.017366182 -0.07757463 0.060669802 -0.092773214 0.061727114 -0.0043920395 -0.0012057781 0.1285672
0.0019586505 -0.028227858 -0.104642764 0.035082933 0.028546434 0.06745286 -0.07953261 0.0045810468
0.04637327 0.039585724 -0.0076710945 0.041147023 0.11859015 -0.048663054 0.004553081 -0.034459285
0.10523681 0.03883274 -0.054447442 -0.058789495 -0.006589675 0.16563402 0.019108826 -0.047752585
00000000: 8643 8e3c 73df 9ebd e680 783d e2ff bdbd
00000010: 92d5 7c3d 19eb 8fbb 330b 9eba 1fa7 033e
00000020: b45c 003b 1c3e e7bc f24e d6bd 1fb3 0f3d
00000030: 36da e93c ba24 8a3d fee1 a2bd 9b1c 963b
00000040: e6f1 3d3d a424 223d ce5d fbbb c889 283d
00000050: 64df f23d e952 47bd 0332 953b 2e25 0dbd
00000060: 6686 d73d 140f 1f3d 4804 5fbd 41cd 70bd
00000070: 33ee d7bb f79b 293e 1d8a 9c3c 3798 43bd

conv4.weight f4 [32, 32, 3]
-0.033457972 -0.0141846975 0.021814138 -0.041905034 0.093515195 -0.0009574215 0.009396366 0.10567374
-0.00982023 0.003960993 0.0028692014 0.019259771 0.05367514 0.0076466775 -0.038562216 -0.01565145
-0.027562216 0.00779935 -0.0033240307 0.040599175 -0.07713664 0.0048906924 0.0069148615 0.11350418
0.015290914 0.07525284 -0.019585269 -0.07167932 -0.052545883 -0.065754585 -0.019666309 0.020598749
-0.018021304 -0.058637068 0.029187461 0.08483588 0.02300409 -0.0076209633 0.051140353 0.030379334
-0.020162812 -0.0067325598 0.04509184 0.106346294 -0.10393975 0.08647625 -0.02039808 0.02141678
0.018294135 -0.038574956 -0.0064857868 -0.038544893 0.08406356 0.035129663 0.064704105 0.010809874
-0.081179865 0.07560209 0.026263917 -0.06653187 -0.03072594 -0.021579122 -0.008826899 0.025843304
-0.018971115 0.004893156 0.013445038 0.048651163 -0.0010155062 0.007111068 0.03166989 -0.019727781
-0.018541956 -0.007868158 0.025788356 0.02797155 -0.0052793385 -0.0923704 -0.13300943 0.0051458008
0.010622227 -0.0032708098 -0.007010595 0.069562644 0.037310034 -0.024283748 0.020893268 0.037828587
-0.012747524 0.01889831 0.0383857 0.056197975 0.037556924 -0.05026022 0.0032719276 -0.025374189
0.010491299 -0.0060633733 0.028437156 0.05439931 0.03767619 -0.06874618 -0.024712043 -0.042790793
-0.014894506 0.06483572 0.051295433 -0.027077934 -0.015623398 0.0010756239 -0.098587595 0.07273142
-0.03679066 -0.13767456 0.005914302 -0.060725123 0.050510626 -0.06677882 0.043110497 0.089559235
0.086156584 -0.03640243 0.018701036 0.056173243 0.031324744 0.04310064 -0.04484763 -0.07391421
-0.12360492 0.055638246 -0.043359198 0.014809299 -0.023698479 0.031537604 0.015790613 0.021251895
-0.030223675 -0.031941637 -0.0007825627 -0.035707623 0.0051701367 0.02581933 -0.041908138 -0.0503521
-0.0146595035 -0.008761808 0.034182504 0.038270026 -0.062181085 0.070623465 0.042998344 -0.055090103
-0.09349654 0.037937727 -0.033243712 -0.055259775 -0.0047659217 -0.047895327 0.014792244 0.014039582
-0.03033447 -0.035685685 -0.078024395 1.3578066e-05 0.051147055 0.02245974 0.012575525 0.02234023
0.032200795 -0.072977826 -0.08838903 0.0700737 0.060663566 -0.023448959 -0.012884757 -0.014262677
0.008974593 0.013877429 0.009646259 -0.11126905 -0.022402598 0.03065675 -0.006270502 -0.010880294
0.020243097 -0.0741464 -0.062957816 -0.023217026 0.078237616 0.057636328 -0.018475676 0.042971447
-0.03593127 -0.014435035 0.014385687 -0.024784079 -0.021499423 0.030842533 -0.08859597 0.037955698
-0.03440866 0.009260255 -0.0039662486 0.07204375 0.04246158 0.022458736 -0.0096084 -0.02323778
0.10240517 -0.024521451 0.009328435 -0.07834843 0.001673325 0.046653528 0.05253453 0.045663908
-0.03508413 -0.009535644 0.10698809 0.044053447 0.041268747 -0.045165412 0.0033326629 -0.0064988835
0.0024251742 0.061848976 -0.017089993 -0.012349855 0.058659773 0.021017082 -0.019685445 0.009614247
0.022598391 0.06559207 -0.015112326 0.057649847 -0.044100173 -0.08449507 0.07627093 -0.019658174
-0.071504526 0.006479185 0.0700895 -0.0138068255 0.039532807 -0.0073023094 0.011417638 -0.019113164
0.03724425 0.021717712 0.0031967051 0.010525238 -0.053345658 0.06419601 -0.049247984 -0.026997
00000000: 3a0b 09bd ef66 68bc 90b3 b23c 9da4 2bbd
00000010: e584 bf3d 78fb 7aba 37f3 193c 796b d83d
00000020: 08e5 20bc 38cb 813b 3609 3c3b abc6 9d3c
00000030: 77da 5b3d fb90 fa3b 6af3 1dbd 7837 80bc
00000040: 28ca e1bc b191 ff3b fbd7 59bb 524b 263d
00000050: d1f9 9dbd 1a42 a03b 1096 e23b e174 e83d
00000060: be86 7a3c 291e 9a3d 4971 a0bc 9bcc 92bd
00000070: 5a3a 57bd 57aa 86bd 3d1b a1bc b5be a83c
00000080: 6aa1 93bc 6c2d 70bd 8b1a ef3c 6fbe ad3d
00000090: 1373 bc3c 46b9 f9bb 8c78 513d 15de f83c
000000a0: 7b2c a5bc ce9c dcbb 39b2 383d 16cc d93d
000000b0: 5dde d4bd 761a b13d e019 a7bc 3e72 af3c
000000c0: 95dd 953c c600 1ebd b986 d4bb 40e1 1dbd
000000d0: 8429 ac3d 1fe4 0f3d 9683 843d e61b 313c
000000e0: a141 a6bd 45d5 9a3d 6d27 d73c dc41 88bd
000000f0: f7b4 fbbc b3c6 b0bc b39e 10bc 56b5 d33c
00000100: 5069 9bbc c456 a03b 9448 5c3c 7146 473d
00000110: bc1a 85ba f603 e93b 49b8 013d 289c a1bc
00000120: 4de5 97bc 72e9 00bc 1a42 d33c 9824 e53c
00000130: 4dfe acbb b12c bdbd a033 08be 1b9e a83b
00000140: d908 2e3c 155b 56bb 22b9 e5bb dc76 8e3d
00000150: 68d2 183d b6ee c6bc 5c28 ab3c 26f2 1a3d
00000160: feda 50bc a1d0 9a3c 533a 1d3d d92f 663d
00000170: 4ad5 193d a9dd 4dbd d66d 563b 88dd cfbc
00000180: b3e3 2b3c 43af c6bb 0af5 e83c d0d1 5e3d
00000190: 5952 1a3d ccca 8cbd e970 cabc 6645 2fbd
000001a0: 1608 74bc 97c8 843d 291b 523d 8bd2 ddbc
000001b0: 48f9 7fbc f3fb 8c3a 4be8 c9bd 36f4 943d
000001c0: ceb1 16bd 8ffa 0cbe c3cc c13b e8ba 78bd
000001d0: 3be4 4e3d 55c3 88bd a294 303d d56a b73d
000001e0: dd72 b03d b71a 15bd ea32 993c ea15 663d
000001f0: 604e 003d 4c8a 303d 26b2 37bd 5560 97bd
00000200: 9424 fdbd eee4 633d 6a99 31bd b4a2 723c
00000210: 5023 c2bc 932d 013d 515b 813c 7418 ae3c
00000220: a497 f7bc 3cd5 02bd e524 4dba 2842 12bd
00000230: 406a a93b 0f83 d33c dea7 2bbd 013e 4ebd
00000240: 6a2e 70bc b08d 0fbc f402 0c3d 08c1 1c3d
00000250: 98b1 7ebd 09a3 903d 081f 303d 29a6 61bd
00000260: 1d7b bfbd 9764 1b3d 8f2a 08bd 1358 62bd
00000270: 732b 9cbb e42d 44bd 2b5b 723c 4606 663c
00000280: ff7f f8bc 272b 12bd 41cb 9fbd 59cd 6337
00000290: 937f 513d 7dfd b73c 9309 4e3c dc02 b73c
000002a0: fbe4 033d 6675 95bd 4f05 b5bd cd82 8f3d
000002b0: 5c7a 783d 0818 c0bc 961a 53bc 01ae 69bc
000002c0: 2c0a 133c 285e 633c 580b 1e3c 07e1 e3bd
000002d0: a785 b7bc dd23 fb3c c978 cdbb 4343 32bc
000002e0: dad4 a53c 11da 97bd 07f0 80bd a231 bebc
000002f0: 0b3b a03d 1214 6c3d 4d5a 97bc d402 303d
00000300: ab2c 13bd ed80 6cbc f2b1 6b3c fb07 cbbc
00000310: 8f1f b0bc 7ba9 fc3c ce71 b5bd 6f77 1b3d
00000320: 18f0 0cbd 53b8 173c 4ef7 81bb ac8b 933d
00000330: 32ec 2d3d 62fb b73c 8d6c 1dbc 285d bebc
00000340: cdb9 d13d 36e1 c8bc 4bd6 183c 2475 a0bd
00000350: 7853 db3a c517 3f3d 732e 573d 140a 3b3d
00000360: 60b4 0fbd 643b 1cbc 921c db3d 6371 343d
00000370: 6b09 293d 5eff 38bd ce68 5a3b 96f4 d4bb
00000380: acef 1e3b 5a55 7d3d 5000 8cbc 0c57 4abc
00000390: 3b45 703d 042c ac3c 5f43 a1bc 1385 1d3c
000003a0: 4320 b93c 2355 863d b099 77bc 3f22 6c3d
000003b0: 62a2 34bd c00b adbd ef33 9c3d 2e0a a1bc
000003c0: f770 92bd 584f d43b 158b 8f3d 0636 62bc
000003d0: 27ed 213d 3648 efbb 0b11 3b3c 3693 9cbc
000003e0: 6d8d 183d 58e9 b13c d07f 513b 0c72 2c3c
000003f0: fa80 5abd 3379 833d 41b8 49bd d028 ddbc

conv4.bias f4 [32]
-0.019251794 0.041659553 -0.0033749137 -0.14801502 0.0055676857 -0.03989077 0.051837746 -0.11069073
-0.07528019 -0.04172158 0.028739324 -0.12868145 -0.052733913 0.010599278 0.021077434 -0.051807474
-0.015329486 0.09289511 0.0421813 0.07465968 0.05303596 0.013901455 -0.15532728 -0.010785151
0.13272776 -0.08886167 0.019048933 -0.025841206 -0.044955406 0.15235396 -0.051296595 0.0052348888
00000000: f0b5 9dbc 35a3 2a3d a82d 5dbb 4091 17be
00000010: 2271 b63b 8164 23bd d153 543d d2b1 e2bd
00000020: 802c 9abd 3fe4 2abd bb6e eb3c 12c5 03be
00000030: 84ff 57bd 98a8 2d3c 95aa ac3c 1334 54bd
00000040: 8628 7bbc cb3f be3d 4dc6 2c3d 2de7 983d
00000050: 3c3c 593d eec2 633c 1d0e 1fbe 34b4 30bc
00000060: c9e9 073e 1bfd b5bd 820c 9c3c f0b0 d3bc
00000070: 2923 38bd ad02 1c3e 611c 52bd 6e89 ab3b

conv5.weight f4 [32, 32, 3]
0.0035471504 -0.072409235 -0.030403567 -0.026148282 0.010609419 0.016622152 0.055535678 -0.05719886
0.0029980575 0.046820585 -0.08939136 0.07224587 -0.02013213 0.033504825 0.024487955 0.053046126
0.04437183 0.057356272 0.026362725 -0.007481788 0.078715295 -0.0470331 0.03538512 -0.14755149
-0.011497029 0.026968278 0.07170441 -0.01838102 -0.07557237 -0.03565229 -0.0015978598 -0.006769644
0.02830373 -0.0709745 0.0041507343 0.002401183 -0.030618647 -0.037651204 -0.07227767 -0.016051954
0.022332488 -0.05224819 -0.1182566 -0.04987686 -0.08483568 0.02790133 -0.04760284 -0.035736587
0.06788695 0.0010034832 0.018116195 0.024231326 -0.076820806 -0.017848736 -0.048679665 -0.028574161
0.029421106 -0.024536332 -0.023325294 -0.08839568 0.046428885 -0.06138003 -0.029607221 0.05626453
0.04265753 0.00020819787 0.053000532 -0.060980402 -0.04108487 0.022622215 -0.03873922 -0.034700945
0.01959411 0.0550033 0.027096605 -0.018684579 -0.049429365 0.06775645 -0.019075684 0.035986617
-0.01953508 0.0610584 0.030522786 0.009241602 0.031211508 0.022058902 0.037653685 0.016535185
-0.048336096 0.04366765 0.024829444 0.044503342 -0.035443187 0.036785956 0.05455035 -0.02142543
-0.022241648 -0.08420889 -0.025110243 0.010514132 -0.0100302305 -0.14570141 -0.033065677 0.07416765
-0.04523596 -0.10936425 -0.010950927 -0.13579938 0.03961025 -0.0091603715 -0.011743559 0.08929731
0.022943052 0.020546837 -0.06535429 -0.014552503 0.05901168 0.045152795 -0.10161184 0.043229584
0.010016601 0.035509452 -0.044277586 -0.114418276 -0.049587328 0.012707428 0.002441229 0.00083801185
0.080626905 -0.057016317 -0.0116413925 -0.06764583 -0.020254623 -0.0882612 -0.085229315 0.038372867
-0.004049611 -0.028962104 -0.02617778 -0.049212072 -0.08978978 -0.042838722 -0.10464508 0.004248825
-0.054337785 0.06973669 -0.060765427 0.07545248 -0.06146507 -0.039592165 -0.06723958 -0.05464511
-0.053052112 -0.022830145 -0.041069552 -0.048413754 -0.03807209 0.08171664 0.019995565 0.062374968
-0.010305823 -0.051384177 -0.08962234 -0.032893103 0.054192267 -0.023411391 -0.065907806 0.04671031
-0.07204954 -0.022788942 0.015016764 0.04250798 -0.05110351 0.028103339 0.01073355 0.011947213
0.014980809 0.00424999 -0.0021946465 -0.09140455 0.0713139 -0.046480045 0.027450217 -0.017460985
-0.049598157 -0.057937555 -0.030628666 0.048350725 -0.034518298 0.058837038 -0.005888125 -0.07520868
0.07176816 0.052006204 -0.044543967 0.06738702 0.029858287 -0.05471698 -0.07760994 -0.109310314
-0.039666224 0.035105094 0.03185608 -0.018554522 0.04148502 0.07529261 0.039345317 0.07357878
0.08098661 -0.04603258 -0.024834776 0.08934686 0.09803257 0.07027063 0.03672645 -0.03541755
-0.029414665 -0.0464583 0.014989165 -0.0022473685 -0.07426171 -0.017089544 -0.0029800534 -0.027991498
0.005149001 0.0005057641 0.037479356 -0.009100197 -0.047839846 -0.06152323 -0.040681303 0.055053376
0.037217617 -0.01209868 -0.044298083 -0.06771959 -0.01090013 0.00438358 -0.020608945 -0.017021842
0.004280395 -0.011018281 -0.014043149 0.010374712 -0.0074275592 -0.03300125 0.0039620292 0.030538972
0.09859837 0.0684772 0.05531327 0.020745268 0.05853197 0.02360005 0.0528828 0.04858169
00000000: 4f77 683b 4b4b 94bd e710 f9bc ec34 d6bc
00000010: 21d3 2d3c 2e2b 883c 6179 633d 5a49 6abd
00000020: 0f7b 443b f1c6 3f3d d112 b7bd a5f5 933d
00000030: 23ec a4bc 5b3c 093d f79a c83c e546 593d
00000040: 3cbf 353d 69ee 6a3d a4f6 d73c c929 f5bb
00000050: 7c35 a13d c8a5 40bd fdef 103d bd17 17be
00000060: 095e 3cbc 94ec dc3c c3d9 923d cb93 96bc
00000070: b0c5 9abd 2308 12bd 476f d1ba e4d3 ddbb
00000080: 39dd e73c 145b 91bd e202 883b 2a5d 1d3b
00000090: f5d3 fabc 2638 1abd 5106 94bd 637f 83bc
000000a0: 9ff2 b63c 3302 56bd 8430 f2bd ae4b 4cbd
000000b0: 54be adbd 5491 e43c 32fb 42bd 8760 12bd
000000c0: 5008 8b3d 4f87 833a 6a68 943c c680 c63c
000000d0: 3a54 9dbd 8337 92bc 5464 47bd 5c14 eabc
000000e0: 8804 f13c 6b00 c9bc b014 bfbc cb08 b5bd
000000f0: 372c 3e3d a069 7bbd d88a f2bc a375 663d
00000100: aab9 2e3d b14f 5a39 1617 593d 96c6 79bd
00000110: 9c48 28bd 3952 b93c 04ad 1ebd 9422 0ebd
00000120: d483 a03c 244b 613d b3f9 dd3c 6710 99bc
00000130: 7276 4abd e5c3 8a3d 9c44 9cbc b466 133d
00000140: 0808 a0bc 5f18 7a3d ec0a fa3c 176a 173c
00000150: 47af ff3c dfb4 b43c c03a 1a3d cc74 873c
00000160: 12fc 45bd dadc 323d 1e67 cb3c 2349 363d
00000170: e02c 11bd dfac 163d 3070 5f3d 6284 afbc
00000180: 1e34 b6bc b675 acbd ffb3 cdbc 7743 2c3c
00000190: d655 24bc c032 15be e06f 07bd 35e5 973d
000001a0: 5849 39bd 5dfa dfbd 846b 33bc fe0e 0bbe
000001b0: 5c3e 223d 6215 16bc 0e68 40bc 82e1 b63d
000001c0: 11f3 bb3c d751 a83c 78d8 85bd 9f6d 6ebc
000001d0: 3bb6 713d 23f2 383d de19 d0bd 8111 313d
000001e0: ab1c 243c 5c72 113d 6a5c 35bd 2154 eabd
000001f0: 151c 4bbd d132 503c 07fd 1f3b 06ae 5b3a
00000200: b81f a53d f189 69bd 8abb 3ebc e689 8abd
00000210: 06ed a5bc 4ac2 b4bd b58c aebd de2c 1d3d
00000220: 99b2 84bb ef41 edbc c972 d6bc 9992 49bd
00000230: b4e3 b7bd a877 2fbd 2950 d6bd ba39 8b3b
00000240: 4c91 5ebd 1cd2 8e3d 2be5 78bd d486 9a3d
00000250: ccc2 7bbd 652b 22bd e8b4 89bd 8dd3 5fbd
00000260: 2c4d 59bd 4906 bbbc 8c38 28bd 804d 46bd
00000270: 7bf1 1bbd 0e5b a73d bdcd a33c e57c 7f3d
00000280: c1d9 28bc 3778 52bd eb8b b7bd ebba 06bd
00000290: b6f8 5d3d 3fc9 bfbc acfa 86bd 4f53 3f3d
000002a0: b68e 93bd e0af babc e008 763c d91c 2e3d
000002b0: ea51 51bd f938 e63c c6db 2f3c 3ebe 433c
000002c0: 1172 753c 8043 8b3b 0fd4 0fbb 4f32 bbbd
000002d0: 060d 923d dc61 3ebd 47df e03c 570a 8fbc
000002e0: 7027 4bbd ee4f 6dbd f8e8 fabc 690b 463d
000002f0: 0f63 0dbd 1bff 703d 2cf1 c0bb 0207 9abd
00000300: 2ffb 923d 7504 553d bc73 36bd 3502 8a3d
00000310: 5e99 f43c e91e 60bd f6f1 9ebd 16de dfbd
00000320: 0d79 22bd 5cca 0f3d 857b 023d a7ff 97bc
00000330: 32ec 293d 0333 9a3d 8e28 213d 79b0 963d
00000340: 4fdc a53d a98c 3cbd 4d72 cbbc 7dfb b63d
00000350: 4dc5 c83d 0cea 8f3d 796e 163d fe11 11bd
00000360: 06f7 f0bc 0f4b 3ebd 1d95 753c 9648 13bb
00000370: 8616 98bd 5fff 8bbc 004d 43bb 6d4e e5bc
00000380: f3b8 a83b 4195 043a f483 193d fe18 15bc
00000390: b7f3 43bd c8ff 7bbd 70a1 26bd a67f 613d
000003a0: 8071 183d 8b39 46bc e871 35bd 92b0 8abd
000003b0: 7596 32bc 22a4 8f3b 17d4 a8bc 6471 8bbc
000003c0: 8e42 8c3b 0586 34bc 3c15 66bc b2fa 293c
000003d0: e262 f3bb 522c 07bd e9d3 813b de2c fa3c
000003e0: f1ed c93d c63d 8c3d 2b90 623d fbf1 a93c
000003f0: 38bf 6f3d e454 c13c a39b 583d 98fd 463d

conv5.bias f4 [32]
0.028363831 0.035776768 -0.10315385 -0.06551472 -0.06769468 0.015121417 -0.09279744 -0.013301823
0.16440688 -0.05145773 -0.02901459 -0.103292026 -0.058071576 -0.14278026 -0.066997446 -0.013581697
-0.11504029 0.028852604 -0.048267923 -0.041758407 -0.016862841 -0.07299582 -0.13831356 0.03930894
-0.06938132 0.048746433 -0.02571077 -0.022803243 -0.1417771 -0.13442653 -0.04542606 -0.042673636
00000000: 445b e83c a98a 123d 5342 d3bd 952c 86bd
00000010: 82a3 8abd d2bf 773c 960c bebd e4ef 59bc
00000020: 475a 283e 57c5 52bd 01b0 edbc c58a d3bd
00000030: 76dc 6dbd fd34 12be f535 89bd c485 5ebc
00000040: 3e9a ebbd 4c5c ec3c 96b4 45bd dd0a 2bbd
00000050: f123 8abc d57e 95bd 12a2 0dbe 6902 213d
00000060: cb17 8ebd 57aa 473d 659f d2bc decd babc
00000070: 042e 11be 1ca7 09be ad10 3abd 8dca 2ebd

conv6.weight f4 [32, 32, 3]
0.024392074 0.006636176 -0.036893368 -0.029504674 -0.03107514 0.039541557 0.062602274 -0.007415472
-0.022326065 0.093461715 0.046672966 0.06745899 0.015644109 -0.0728323 -0.052661024 0.07809605
0.043817382 0.007882075 0.008001223 -0.004782028 -0.027619421 0.00036776008 0.027939793 -0.0011916452
-0.0073969825 -0.02768278 0.027207907 0.062215835 0.066914394 -0.011276104 -0.06841822 -0.0793357
-0.14481972 0.038757674 0.017253892 -0.025194516 -0.020846305 -0.03417198 -0.023415824 -0.031137811
-0.010553055 0.056422085 -0.039394245 -0.0345211 0.004433219 0.09902178 0.0326662 -0.019285716
-0.0013503153 -0.033655614 -0.021818323 0.06871651 0.050755493 -0.03984255 0.0065596523 0.032546405
0.036812514 -0.028802462 -0.038161725 -3.4926223e-05 -0.040095538 0.042073384 -0.014169234 -0.005729405
-0.051556334 -0.0030863616 -0.09258033 0.022524217 -0.011596695 -0.03202885 -0.017272376 0.04014897
0.0614696 -0.002447901 0.067016326 -0.027741013 -0.050458595 0.015630221 0.0039120642 -0.0008723852
-0.052815735 -0.0048950193 -0.055629782 -0.074335694 0.050741438 -0.039531022 -0.0352633 0.13743886
0.07952572 -0.003402228 -0.0640204 0.04193782 -0.05429046 0.051343292 0.069884874 -0.008364665
-0.06106025 0.067479394 0.012976253 0.023840405 -0.031189963 0.0050769816 -0.054205175 0.0062517338
-0.014243931 -0.03879433 -0.025631765 -0.02185942 -0.039919063 -0.08144986 -0.14706239 0.028656932
0.037047844 -0.017004227 -0.008057176 -0.005284268 -0.008868279 -0.030457307 0.0019761645 0.034148138
-0.028433653 0.057700653 -0.022025324 0.005445196 -0.06311949 -0.005665285 0.025413247 -0.007069883
0.013066776 -0.10757733 -0.013718915 -0.022243902 -0.0013391702 0.01638489 -0.049597047 -0.06217269
0.0035782827 -0.026696682 -0.08062121 -0.017904984 -0.04935443 -0.15453771 -0.039224464 -0.041247148
-0.058519345 -0.03459281 -0.004904692 0.069173224 -0.06304123 -0.05814813 -0.13445546 -0.055317186
-0.03171482 -0.050682988 -0.037864964 -0.01070617 0.019382479 0.02647581 0.06622471 -0.04042201
0.04991707 0.07351454 0.025575435 0.034253266 0.009031913 0.03071829 -0.01997133 0.008438536
-0.059537645 -0.08768287 -0.06282466 -0.036960665 0.025680482 -0.04974049 -0.16285181 -0.039221562
-0.07027362 -0.015933955 0.019643696 0.019015325 -0.06322553 -0.10098926 -0.13124709 -0.026003389
-0.07322133 -0.08756989 -0.018831138 0.039070543 0.016159093 -0.07895249 0.019872386 -0.026004875
0.036402762 -0.07921598 0.063162416 -0.0443945 0.0110825775 0.043465376 -0.050771624 -0.12620303
-0.09323957 -0.042485356 -0.016096842 -0.020108497 -0.060625058 -0.14841631 -0.052215315 -0.0040194495
0.053670567 -0.07899392 -0.015823886 -0.035373013 0.034989625 0.013731389 -0.0805492 -0.14114127
0.045613755 -0.10679243 -0.06270119 -0.07026374 -0.019505605 0.044544328 0.0058524213 -0.05189141
-0.08486452 -0.022944782 -0.060966782 0.00055461435 0.037569024 -0.021207638 -0.0070867515 -0.0076769153
-0.02454591 -0.03326977 0.0003616803 0.019064218 -0.037391435 0.049157407 -0.037492562 0.005669526
-0.037728053 -0.014298251 -0.027786821 -0.008980496 -0.08303327 -0.03250202 -0.04113692 0.010396119
0.025617434 -0.021774719 0.019681254 -0.027170489 -0.012426612 -0.005009491 0.0017852805 -0.004662293
00000000: e3d1 c73c 4774 d93b 801d 17bd c9b3 f1bc
00000010: 4b91 febc 54f6 213d 9f35 803d 7dfd f2bb
00000020: 27e5 b6bc db68 bf3d 272c 3f3d f027 8a3d
00000030: 1328 803c 1a29 95bd 16b3 57bd d2f0 9f3d
00000040: db79 333d d223 013c 9017 033c 8fb2 9cbb
00000050: 2042 e2bc eccf c039 fee1 e43c fa30 9cba
00000060: 6362 f2bb ffc6 e2bc 1ee3 de3c 08d6 7e3d
00000070: 6a0a 893d 68bf 38bc da1e 8cbd c17a a2bd
00000080: 9f4b 14be 5ec0 1e3d 0958 8d3c bb64 cebc
00000090: dfc5 aabc ebf7 0bbd 8bd2 bfbc b914 ffbc
000000a0: b9e6 2cbc d81a 673d dc5b 21bd ff65 0dbd
000000b0: 8944 913b eecb ca3d fecc 053d 14fd 9dbc
000000c0: 10fd b0ba 78da 09bd 57bc b2bc 3ebb 8c3d
000000d0: fee4 4f3d f131 23bd 5af2 d63b 614f 053d
000000e0: b8c8 163d 24f3 ebbc 784f 1cbd bf7d 12b8
000000f0: 383b 24bd 2455 2c3d 1326 68bc bcbd bbbb
00000100: bc2c 53bd 8e44 4abb c29a bdbd b584 b83c
00000110: 1000 3ebc af30 03bd cc7e 8dbc 3f73 243d
00000120: 8cc7 7b3d f76c 20bb db3f 893d 1f41 e3bc
00000130: acad 4ebd f30a 803c c630 803b c8b0 64ba
00000140: 5055 58bd 6666 a0bb 0edc 63bd 503d 98bd
00000150: 41d6 4f3d 48eb 21bd 4070 10bd c6bc 0c3e
00000160: 61de a23d eaf7 5ebb 211d 83bd fec6 2b3d
00000170: ac5f 5ebd 584d 523d cd1f 8f3d f30b 09bc
00000180: 501a 7abd a332 8a3d 5a9a 543c f44c c33c
00000190: 1882 ffbc cf5c a63b 3f06 5ebd 58db cc3b
000001a0: 605f 69bc cee6 1ebd b5f9 d1bc 8712 b3bc
000001b0: 2c82 23bd 2fcf a6bd 8697 16be f1c1 ea3c
000001c0: 7bbf 173d 734c 8bbc 3f02 04bc a727 adbb
000001d0: 424c 11bc 9a81 f9bc 8a82 013b ebde 0b3d
000001e0: b1ed e8bc 8557 6c3d 746e b4bc 9d6d b23b
000001f0: cb44 81bd dba3 b9bb 712f d03c 7aaa e7bb
00000200: 0816 563c 8151 dcbd 4dc5 60bc d838 b6bc
00000210: 1887 afba 9b39 863c 4626 4bbd caa8 7ebd
00000220: 9f81 6a3b 00b3 dabc bc1c a5bd 79ad 92bc
00000230: df27 4abd 223f 1ebe d5a9 20bd c5f2 28bd
00000240: fbb1 6fbd 31b1 0dbd 8ab7 a0bb b1aa 8d3d
00000250: c31b 81bd bc2c 6ebd b1ae 09be 4694 62bd
00000260: 66e7 01bd f798 4fbd 4b18 1bbd ef68 2fbc
00000270: 01c8 9e3c cce3 d83c d2a0 873d 8d91 25bd
00000280: d775 4c3d cb8e 963d 9383 d13c 274d 0c3d
00000290: 97fa 133c eca4 fb3c ea9a a3bc c941 0a3c
000002a0: bfdd 73bd 1493 b3bd 37aa 80bd 1164 17bd
000002b0: e05f d23c afbc 4bbd a0c2 26be caa6 20bd
000002c0: 9eeb 8fbd ed87 82bc d1eb a03c 07c6 9b3c
000002d0: 637c 81bd 75d3 cebd a365 06be 0f05 d5bc
000002e0: 11f5 95bd d857 b3bd c243 9abc 6f08 203d
000002f0: 1360 843c d8b1 a1bd 6acb a23c 2d08 d5bc
00000300: 101b 153d fd3b a2bd 4c5b 813d 02d7 35bd
00000310: b393 353c c008 323d e8f5 4fbd 5e3b 01be
00000320: 63f4 bebd 2005 2ebd 86dd 83bc 93ba a4bc
00000330: fb51 78bd 72fa 17be badf 55bd 96b5 83bb
00000340: abd5 5b3d 90c7 a1bd 18a1 81bc 4be3 10bd
00000350: 4851 0f3d 9ff9 603c fbf6 a4bd 5687 10be
00000360: 7dd5 3a3d fdb5 dabd 7b69 80bd 70e6 8fbd
00000370: 38ca 9fbc 1d74 363d abc5 bf3b 168c 54bd
00000380: 73cd adbd b2f6 bbbc 4eb8 79bd 8a63 113a
00000390: fae1 193d a4bb adbc fb37 e8bb a28e fbbb
000003a0: 8114 c9bc e245 08bd e89f bd39 902c 9c3c
000003b0: c327 19bd 4759 493d cd91 19bd 6ec7 b93b
000003c0: bb88 1abd 3643 6abc 30a1 e3bc ee22 13bc
000003d0: 590d aabd d720 05bd 307f 28bd 7c54 2a3c
000003e0: a7db d13c e560 b2bc 953a a13c a594 debc
000003f0: fd98 4bbc a826 a4bb 1300 ea3a 26c6 98bb

conv6.bias f4 [32]
-0.010139186 -0.0006658534 0.057367418 -0.18755965 -0.06882689 -0.071722664 0.101962976 0.029005576
-0.16978975 -0.03752738 -0.07358843 -0.12767504 -0.13413484 -0.032711964 0.033525713 0.07017394
-0.061658587 0.09238325 -0.039771255 -0.017422006 -0.054955788 0.07486504 -0.03752202 -0.006259284
-0.07734861 -0.13925323 0.13446626 -0.06920069 -0.11837885 -0.023527816 0.007670012 0.0033011066
00000000: d41e 26bc aa8c 2eba 19fa 6a3d a30f 40be
00000010: 1df5 8cbd 55e3 92bd f7d1 d03d 1a9d ed3c
00000020: 5ddd 2dbe 4fb6 19bd 88b5 96bd 3fbd 02be
00000030: a55a 09be fbfc 05bd 4252 093d 5bb7 8f3d
00000040: b78d 7cbd 6e33 bd3d 2fe7 22bd 98b8 8ebc
00000050: 5219 61bd d852 993d b1b0 19bd ae1a cdbb
00000060: f368 9ebd 6698 0ebe 86b1 093e 17b9 8dbd
00000070: 9c70 f2bd 68bd c0bc b954 fb3b 6157 583b

conv7.weight f4 [32, 32, 3]
0.07500766 0.04946846 0.028338734 -0.052189298 -0.077121355 0.04541744 -0.018687647 -0.050380997
-0.011747475 0.048764512 -0.047543734 -0.04449648 0.028083561 0.018417545 0.0021449174 0.041388355
0.06815179 -0.103647225 0.022800155 -0.021349868 -0.10931682 -0.004146723 0.030126076 0.036594424
-0.0064061265 -0.04967607 -0.121962525 0.0001603718 0.01896468 -0.0008377311 0.0032745337 0.020612042
0.035787072 8.6537e-05 0.008880122 0.020258786 0.011673825 0.025493843 0.019741312 -0.031402472
-0.00065283553 0.06296798 0.0028955052 0.03973124 -0.040145095 0.010419132 -0.020143576 -0.072640136
0.037568074 0.05854013 -0.14329304 0.02300931 0.06168819 0.11529562 -0.0031863789 -0.010401909
-0.062236134 0.020642973 0.041596387 0.055783506 -0.060001586 -0.058925 -0.06407014 0.028310511
0.028502582 -0.07063777 0.004391298 0.07646843 0.022183824 -4.1160543e-05 -0.05068376 -0.07679562
-0.073269 -0.036478236 -0.07908652 -0.026015384 0.07009819 0.05512927 0.037912406 0.07197431
0.0044777975 0.04692406 0.0076981327 -0.04816563 0.006381409 0.025245013 -0.08316073 0.00076921145
-0.009877652 -0.07649238 -0.08938922 0.024805408 0.031395666 0.021246864 -0.013184604 -0.031193506
-0.0230531 0.038405336 0.048695367 -0.039981775 -0.02747244 0.061903376 -0.021969598 -0.00526386
0.029424202 -0.07955873 -0.16972959 -0.13652466 -0.031316604 -0.042012133 -0.044819232 -0.0414597
-1.8100616e-05 0.016391419 -0.014824278 -0.028451571 -0.019612694 0.023788942 0.019016445 0.003958648
-0.071505 0.0047030402 -0.015760377 0.00552477 -0.017008493 -0.056636583 0.01963293 0.0453415
0.06010822 0.027447643 0.033145256 0.066562355 0.040493738 0.059843402 0.015708046 -0.019087752
0.025744157 0.014369534 -0.020773567 -0.013426998 -0.03970341 0.029696282 0.019509042 0.008462823
0.014618609 0.017641902 -0.064320855 0.046062466 0.041864965 0.03179706 -0.09160362 -0.052849043
-0.003418402 0.02235224 0.02611142 0.010641361 -0.02515323 -0.05431469 -0.02994272 0.012910195
0.027134636 0.039029334 0.022212379 0.05817006 0.03598885 -0.011145501 -0.061935164 -0.005747972
-0.052225783 0.010258964 0.020481206 -0.0632633 0.032241575 0.074209675 -0.026396468 0.030641677
0.037380904 0.030020509 0.051801097 -0.0040340438 -0.048075646 -0.070999585 -0.09684895 -0.06020619
-0.08344061 -0.055797417 0.033929702 -0.009158515 -0.034009207 0.021987934 0.0035243758 -0.036887392
-0.029478762 -0.0731311 -0.0431079 0.025218975 -0.026634598 -0.006764441 -0.04717989 0.06409567
0.0112566 -0.047791544 -0.08937899 0.011545621 -0.018275397 -0.037208736 0.048969626 0.054623313
-0.013757909 -0.019617302 0.052114736 0.03004952 -0.05961394 0.0686695 0.0035286571 -0.030037513
0.08345431 -0.034005247 -0.043482628 0.08173549 -0.036170315 0.018642504 0.02047025 0.07173809
-0.005314208 -0.020594789 -0.005045878 -0.10238135 0.022008078 0.027421065 0.117012314 0.0060785497
-0.010038879 0.0023910294 0.034576703 0.0064596157 0.009618834 -0.008286107 0.07194946 -0.048808858
-0.029748933 0.002680302 0.03389605 -0.046913955 0.061115522 -0.052694276 0.013219097 -0.089522816
-0.04664718 0.009280243 0.031971145 0.02883424 0.06195478 -0.05098926 -0.045836918 -0.06916597
00000000: 9e9d 993d 719f 4a3d a226 e83c 72c4 55bd
00000010: cdf1 9dbd a307 3a3d d616 99bc 4e5c 4ebd
00000020: 7b78 40bc 4cbd 473d 38bd 42bd f141 36bd
00000030: 7f0f e63c 64e0 963c be91 0c3b d686 293d
00000040: 2a93 8b3d ff44 d4bd 64c7 ba3c ebe5 aebc
00000050: 7fe1 dfbd 3ce1 87bb f6ca f63c 09e4 153d
00000060: 7cea d1bb 2379 4bbd 7dc7 f9bd 7a29 2839
00000070: d15b 9b3c 2f9b 5bba 8f99 563b 96da a83c
00000080: 7795 123d 337b b538 ee7d 113c c1f5 a53c
00000090: 9243 3f3c 77d8 d03c 88b8 a13c e19f 00bd
000000a0: 0d23 2bba 5bf5 803d 84c2 3d3b 3abd 223d
000000b0: 2f6f 24bd 02b5 2a3c 2404 a5bc 5ac4 94bd
000000c0: fbe0 193d c6c7 6f3d 69bb 12be 057e bc3c
000000d0: c1ac 7c3d 1c20 ec3d 91d2 50bb c56c 2abc
000000e0: 51eb 7ebd 741b a93c f960 2a3d 3f7d 643d
000000f0: 39c4 75bd 575b 71bd 3537 83bd 72eb e73c
00000100: 3f7e e93c 89aa 90bd e1e4 8f3b 7b9b 9c3d
00000110: daba b53c cca3 2cb8 c699 4fbd 0647 9dbd
00000120: 0f0e 96bd 346a 15bd 1df8 a1bd 371e d5bc
00000130: a48f 8f3d 3bcf 613d 0a4a 1b3d 4467 933d
00000140: 7dba 923b 7133 403d 9e40 fc3b 5349 45bd
00000150: 231b d13b a1ce ce3c 2c50 aabd e8a4 493a
00000160: e0d5 21bc 09a8 9cbd b211 b7bd b634 cb3c
00000170: be98 003d e70d ae3c 3d04 58bc 8689 ffbc
00000180: dbd9 bcbc ea4e 1d3d cb74 473d eec3 23bd
00000190: e20d e1bc 658e 7d3d 96f9 b3bc 757c acbb
000001a0: 060b f13c b0ef a2bd 98cd 2dbe 1fcd 0bbe
000001b0: d745 00bd ea14 2cbd 5f94 37bd a5d1 29bd
000001c0: c7d6 97b7 4c47 863c 87e1 72bc 4513 e9bc
000001d0: cdaa a0bc 07e1 c23c 60c8 9b3c 8cb7 813b
000001e0: 3771 92bd f61b 9a3b e81b 81bc 2109 b53b
000001f0: 6555 8bbc c3fb 67bd 3dd5 a03c 02b8 393d
00000200: 0934 763d e1d9 e03c 52c3 073d d851 883d
00000210: c3dc 253d 5b1e 753d 29ae 803c eb5d 9cbc
00000220: 69e5 d23c 326e 6b3c 542d aabc e9fc 5bbc
00000230: 0ba0 22bd 9e45 f33c 6dd1 9f3c a7a7 0a3c
00000240: e482 6f3c c085 903c a7ba 83bd ffab 3c3d
00000250: 997a 2b3d a23d 023d ae9a bbbd 3d78 58bd
00000260: 4507 60bb 0b1c b73c 9ee7 d53c 1a59 2e3c
00000270: 260e cebc 1579 5ebd 6f4a f5bc 4885 533c
00000280: 7549 de3c 39dd 1f3d bcf6 b53c bb43 6e3d
00000290: 0b69 133d 9f9b 36bc baaf 7dbd 7c59 bcbb
000002a0: b4ea 55bd 3715 283c 34c8 a73c 3090 81bd
000002b0: be0f 043d 3efb 973d 683d d8bc 4104 fb3c
000002c0: b81c 193d 92ed f53c 632d 543d 0330 84bb
000002d0: f8ea 44bd 3b68 91bd be58 c6bd c49a 76bd
000002e0: e9e2 aabd d58b 64bd dff9 0a3d 990d 16bc
000002f0: 3d4d 0bbd 0a20 b43c 37f9 663b 3c17 17bd
00000300: 727d f1bc c2c5 95bd e991 30bd 0698 ce3c
00000310: cd30 dabc 3ea8 ddbb b33f 41bd 9744 833d
00000320: 9a6d 383c 11c1 43bd 550c b7bd d829 3d3c
00000330: 49b6 95bc 3068 18bd 6094 483d b2bc 5f3d
00000340: da68 61bc 77b4 a0bc 4376 553d 692a f63c
00000350: bf2d 74bd 98a2 8c3d 0b41 673b 3b11 f6bc
00000360: 18ea aa3d 1649 0bbd d71a 32bd f064 a73d
00000370: 5327 14bd 2ab8 983c 3ab1 a73c 6beb 923d
00000380: cf22 aebb 67b6 a8bc e457 a5bb 50ad d1bd
00000390: 494a b43c 24a2 e03c 27a4 ef3d 922e c73b
000003a0: 1c7a 24bc d1b2 1c3b 4da0 0d3d 2fab d33b
000003b0: 5098 1d3c 74c2 07bc 3d5a 933d cceb 47bd
000003c0: 09b4 f3bc 01a8 2f3b 96d6 0a3d d928 40bd
000003d0: 4554 7a3d f4d5 57bd e994 583c bd57 b7bd
000003e0: 1d11 3fbd 290c 183c 2df4 023d c935 ec3c
000003f0: 4cc4 7d3d 1dda 50bd 7ebf 3bbd e3a6 8dbd

conv7.bias f4 [32]
0.09437215 -0.017297056 0.015581396 -0.0073326277 -0.1552357 0.09100299 -0.0119655365 -0.1459117
0.08765851 0.09432318 -0.05606314 -0.047320273 -0.025255717 -0.006298044 0.021243297 0.11457458
0.005994067 -0.0816925 0.030841582 0.016154181 0.055479623 0.072788864 -0.048893474 0.11018726
0.056679774 0.10192339 -0.0015025404 0.010328176 -0.036769483 -0.06449204 0.071642876 -0.03489641
00000000: 3046 c13d 8eb2 8dbc 1d49 7f3c 8a46 f0bb
00000010: 1bf6 1ebe c75f ba3d 190b 44bc e069 15be
00000020: 4e86 b33d 832c c13d 77a2 65bd e7d2 41bd
00000030: 14e5 cebc d35f cebb 6c06 ae3c 14a6 ea3d
00000040: e169 c43b 664e a7bd 7ca7 fc3c c655 843c
00000050: 9a3e 633d 5412 953d 8644 48bd dca9 e13d
00000060: 0d29 683d 36bd d03d e4f0 c4ba 8337 293c
00000070: 999b 16bd 6714 84bd 80b9 923d 8aef 0ebd
