FedAvg_2_clients/server_model_parameters.pth (torch, 767202 bytes, 51 tensors)

conv1.weight f4 [32, 2, 3]
00000000: ff95 ba3e 5228 04be 7b68 84be e876 61bd
00000010: 3c70 bd3d b610 5e3e 6e63 18be ae64 6dbe
00000020: a444 273e d869 45be 80cc 1c3d 025f 723e
00000030: 8c8f 853e f5c4 0c3e 84f5 20be b035 073d
00000040: f29e 803e a082 5b3d 0241 b9be 7538 a3be
00000050: e269 67be bcf3 05bd c8fe 5fbe e475 703d
00000060: 65d9 1bbd 265f dbbd f216 473e a3ee a9be
00000070: 7a63 93bd dff6 3abe 0622 3bbe 1cd9 063b
00000080: e1c8 493e a81b a43e 8293 7abe d83e f6bd
00000090: b377 803e 6936 423d 616a 1fbe 4783 883e
000000a0: 3450 ecbd 4437 39be 20f0 733e d003 053d
000000b0: b8b2 75be c862 1e3c 2e34 073e 20d0 a93b
000000c0: ce11 2ebe 6976 f3bd af35 863e 5443 f33d
000000d0: 0004 3abe 1af0 18be a10e 3a3e e8a6 2e3c
000000e0: 2af7 97be 80e0 993d 5048 773e c68d 003e
000000f0: ed16 403e 2805 283e e269 a03c a848 9b3c
00000100: b055 7e3d 9276 293e 5297 1f3e 1cd9 233d
00000110: f273 5b3e ed11 13be 624a 42be 8310 1cbe
00000120: f874 84be e219 e1bd cc5c cabd 58c4 d4bd
00000130: 10b0 1abe 982b c53c 3abc 5ebe 59ad 84be
00000140: 40e5 c73c 10a5 06be d03e 27bd 7866 233d
00000150: 52dd 5e3c 8b1b 563e 9ec9 63bd 73c0 81bd
00000160: 361f c0be 3b07 343e 06c9 343e 2806 0b3e
00000170: 488b 493d 6746 92be c087 753d ed16 6dbe
00000180: 4616 e83a fa43 78bd 9250 623d f28d 03be
00000190: 0857 90bc 06f5 6bbe 28c8 ba3d 778a b73c
000001a0: d23f 1f3d 5475 ca3e 82d2 323e 1693 a03d
000001b0: 181a 2bbe bd0c 30bd a7d6 3e3e 7005 1fbe
000001c0: ddc1 6dbe dc68 3a3e 7e63 83bd f454 473e
000001d0: 5c03 1bbe d464 063e 08e6 463e 2ced b83d
000001e0: 2861 3abc 4036 f5bd a07c bdbd 5c89 75be
000001f0: 9cd6 3c3e 0086 333a a531 063d ba7c 67be
00000200: c20c e33d 5cf0 f53d 8643 e23d b39a 2fbe
00000210: 404b abbe b882 acbd 2c94 183c 0cc0 ffbd
00000220: 2404 1c3e c153 14be bc91 153d ce8c 6e3d
00000230: 30a1 f4bd 74dd d73d 0822 51bd 2237 633e
00000240: c668 683e b814 1d3e 9bb3 c3be fb07 10be
00000250: 00be a0bc 4dcf 8a3e 2d9d e9bd 4403 eebd
00000260: 6fd3 98be 6ac9 493d 32c6 593e 96ee 743e
00000270: 31ba 9ebd a183 0cbe 0508 af3c 27ca 45be
00000280: 6a75 7b3e 8221 84be 3833 72bd d0ea cbbd
00000290: bc3c afbe dd97 513e ce18 8bbe 3336 b93e
000002a0: 2653 c43c da72 373e 9692 433e 64eb 503e
000002b0: 2e22 513d 463a 9f3e a2a2 a23d e510 14be
000002c0: 6f39 7a3e d0e5 f23b 9a5d babd 5a22 583e
000002d0: 21d0 423d fe0b 4ebd fd94 a0bc 4c16 723d
000002e0: 8622 4fbe ac98 713d 82f2 6d3e dec8 12be
000002f0: 15d7 a1bd 1439 7d3d e077 ddbc e434 a4bd
0.36442563 -0.12906006 -0.25860962 -0.05504504 0.09249923 0.21686062 -0.1488168 -0.23182938
0.16334778 -0.19278657 0.038280964 0.23669055 0.2608608 0.13747008 -0.15718657 0.033010185
0.25121266 0.05359137 -0.3618241 -0.3187901 -0.22598985 -0.032703146 -0.21874535 0.05870618
-0.03804912 -0.107115075 0.19442347 -0.33189878 -0.07196708 -0.18258236 -0.18274698 0.0020576185
0.19705535 0.3205235 -0.24470332 -0.12023705 0.25091323 0.04741517 -0.15567924 0.26662657
-0.11538735 -0.18087488 0.23822069 0.03247434 -0.23993957 0.009667106 0.13203499 0.005182281
-0.1699898 -0.11887819 0.26212832 0.11878076 -0.18165588 -0.14935341 0.18169643 0.010659911
-0.2968076 0.07513523 0.24148679 0.12554082 0.18758745 0.16408217 0.019581739 0.018955544
0.062093437 0.16549137 0.15585068 0.040001974 0.21430948 -0.14362307 -0.18973687 -0.15240674
-0.2587049 -0.10991265 -0.09880981 -0.10389012 -0.15106225 0.024068639 -0.2175149 -0.25913504
0.024401307 -0.13148904 -0.040831387 0.039892644 0.013602572 0.20908944 -0.0556122 -0.06335535
-0.37523812 0.17580883 0.1765481 0.13576567 0.049205095 -0.28569338 0.059943914 -0.23153277
0.0017706833 -0.060611703 0.05525262 -0.12847117 -0.017619625 -0.23042688 0.09120208 0.022404892
0.038879223 0.3954264 0.17463115 0.078405544 -0.16709173 -0.0429809 0.18636571 -0.15529418
-0.23218484 0.18204063 -0.06415461 0.19466001 -0.15138 0.131244 0.19423687 0.09029612
-0.011375703 -0.11973238 -0.09252286 -0.2397818 0.18441242 0.00068482757 0.03276219 -0.22606173
0.11086418 0.120087355 0.11048035 -0.17148857 -0.3345585 -0.0842337 0.009312671 -0.12487802
0.15235955 -0.14485075 0.036515936 0.05823975 -0.119448066 0.10540286 -0.051057845 0.22189
0.22696218 0.15339935 -0.38222966 -0.14065544 -0.019621849 0.27111283 -0.11406932 -0.116217166
-0.2984881 0.04926435 0.21267012 0.23919138 -0.07750357 -0.13722087 0.021366129 -0.19315396
0.24556509 -0.25806814 -0.059130877 -0.09956896 -0.34226024 0.20468087 -0.27167362 0.36174163
0.02396543 0.17914906 0.19098887 0.20402294 0.051057987 0.31099147 0.07941176 -0.1445957
0.24435972 0.0074126497 -0.09099884 0.21106854 0.04756177 -0.050304405 -0.019602293 0.059103295
-0.20228013 0.05898349 0.2323704 -0.14334437 -0.07902352 0.061822012 -0.0270347 -0.080179006

conv1.bias f4 [32]
00000000: a22f 01bd 4e20 433e 3efc 15bd f845 593e
00000010: 9a41 453e 69b4 1f3c 14b6 993b 1823 ec3c
00000020: 58b0 333d 3805 6abe 8a42 be3d 1656 66bd
00000030: b5f4 e0bd 46e0 21bd b821 a13e 30ef 80be
00000040: 150a b73b b4f6 0abe 9c50 a63e fc6f 073d
00000050: eec5 3f3c 06bc 26bd 9690 76be f196 85bd
00000060: 8ec6 463c b50d 84be 98d7 883e 0e40 473e
00000070: 8187 71be 0e7e b93b 2e6d 973e 7239 c33c
-0.031539567 0.19055292 -0.03661751 0.21218097 0.19263306 0.009747603 0.004690895 0.028825328
0.043869346 -0.22853553 0.09290035 -0.05623444 -0.10984174 -0.039520524 0.31471038 -0.25182486
0.0055859187 -0.13570672 0.32483375 0.03306578 0.011704905 -0.040706657 -0.24078593 -0.065229304
0.0121323 -0.25791708 0.26726985 0.19458029 -0.23586847 0.005660779 0.29575485 0.023831103

conv2.weight f4 [32, 32, 3]
00000000: 9646 263d eb2a 4bbd cd5c 3fbc 1e09 2cbd
00000010: 27e0 973c 9ebc 7dbd 9415 873d 4664 443c
00000020: 0636 debc d22c 2cbd 50fc 833d 2a25 36bd
00000030: a805 f93c 9a5b 573d 1ee1 adbd 5e46 bfbc
00000040: 927c 6ebd b8c2 2fbd 1402 23bc f857 f53c
00000050: 8deb 183d fadb 96bd f2aa a83c 4cfe 3fbd
00000060: 0851 12bd db4d 08bd 6660 433d 810d 4dbd
00000070: 2cb1 2b3c de7a 43bd 5d09 983d 96e0 263d
00000080: 2ae6 9dbc fb49 8cbc c6ea 7e3c 90a6 583c
00000090: fed1 673c 8191 853c b215 d0ba f77a 1abc
000000a0: c0dc 34b9 81da 7d3c ac2c a2bd 5050 39bd
000000b0: 4625 7ebd f69e d4bd ab0f b4bc a440 e6bd
000000c0: 98c5 033d 981b 01bd f054 623b 8cab 153c
000000d0: 0f19 00bc ae5f 8bbd b84a c13b 3922 84bd
000000e0: 6893 58bd 9f10 173c 9c55 603c 6ba7 a63c
000000f0: db7b 123c eaf9 cf3c dd93 6ebc 8e89 e93d
00000100: 694d 2d3d c7d3 e43c 62c0 f8bb 7a5f eb3c
00000110: cf4c 8c3d 3260 543d b2d0 573d da05 f4bd
00000120: a6db 2c3c dbe6 173c 8d09 963d e47d 39bd
00000130: 21e7 9ebd be0c 043d 8401 813d 5ec3 0bbd
00000140: fc56 b8bc f4b4 27bd 98ed ecbd 88fc 97bd
00000150: e2dc 6e3b 2a1d e1bc 16e0 03bd f778 163d
00000160: 08ff bebd c0c0 893d 5636 51bd 62bb c13c
00000170: 1148 cbbb e07d 8b3a 3a9e f93c e804 933b
00000180: 76f8 873d 2d8d 873d aa38 e4bb 406c a4bd
00000190: f2ae 0a3c 74dc 6f3a a837 753d c431 7e3d
000001a0: b2f7 463b 4b0c d8bc 6aa9 81bd ccae 93bd
000001b0: bdcf 383d 22ba 763c cc6b 4fbd f4cf 2f3c
000001c0: b3cd c6bc 503c 87bc ff2b 0f3c 9a70 1fbd
000001d0: 7ab9 ef3b 8df1 863b 3638 e1bc a375 8fbc
000001e0: 550e 2abc af01 823d a674 b2bd 834e 60bb
000001f0: cedc a0bc 788a fbbc ae5e 8d3c 678b d83c
00000200: e932 973d 8d6d debc 9da6 413d ae3c 233d
00000210: b07f 6fbd 3d03 d2bc 68ce 15bd dafb 0f3d
00000220: 9aad 583c e249 14bd d29f 33bc 22e2 22bd
00000230: e486 ad3d 6256 573c 1551 6b3d 3610 023e
00000240: 2417 75bd 7e6d 55bb d3f0 20bc 884d 593c
00000250: 90c0 3cbc a889 883d 4615 953d b7d6 81bc
00000260: c4c0 9f3d 7bc0 17ba 5a49 ef3c 1944 78bc
00000270: 3536 b33c 0a11 8a3c c0cc 2abc fe5a 083d
00000280: d398 c3bc 8c5d 093c b822 f1bc 6573 8fbd
00000290: 785f 5839 c156 afbd 828f 0abd 1853 1dbc
000002a0: 90ff 5cbd b0c2 b5ba de17 4abc 0a73 edbc
000002b0: d715 adbd e9a0 81bd 6f9e 78bc f0aa 563d
000002c0: 76a9 c7bb 34bb 80bb 530f a13b 15cb d6bc
000002d0: 17aa 8b3d cccf 8e3d 9a80 c73c 96c2 9a3d
000002e0: 0213 00bd 8979 0abc b8b5 a03c 7f71 ecbb
000002f0: a661 b03c 4b2b 803d 535a 1d3c 009d 283d
00000300: 977a 63bd 5e36 d2bd 6ffb cabc 90d5 edbc
00000310: 4417 b8bc b400 003d b95f 0dbc 420b 60bd
00000320: 7f6d 21bd 208d 993c 101b 6f3d 1e21 5e3d
00000330: 9ebd 5c3d c86f fd3b 5ad1 17bd d8a3 1d3d
00000340: f815 42bd 8f71 98bd 8002 cfb9 6ab1 b93d
00000350: b8fc ee3c eab3 51bb f32a 443d 1069 46bc
00000360: 4490 1fbd 061e 08bd 0a7c 88bd 09a1 1d3d
00000370: 7f93 683d f802 113e 8c73 48bd 12b8 29ba
00000380: a2d6 13bc 02c6 a1bd 3a7c 433b ae74 c63b
00000390: 193a d33d 799a c03d e917 a43d 8292 67bd
000003a0: 96bf 8abd 9831 d2bb a81f 9ebc c1b8 fe3c
000003b0: 5451 23bd 5369 5d3d be26 54bd ea4d a63c
000003c0: 3b94 9b3d 9495 8abc c6cc 42bd 99c5 d2bc
000003d0: 5219 31bd 7024 4abd 3341 ce3b 4057 613d
000003e0: b81d 0f3c 693a a13c dcd7 0dbd 468f 843d
000003f0: c385 183d 724d 2dbd e2c2 353d 14ab 89bd
0.04059466 -0.049601477 -0.01167984 -0.042000882 0.018539501 -0.061947457 0.065959126 0.011986798
-0.02712537 -0.04203493 0.06444609 -0.044469036 0.030398205 0.052577592 -0.08490203 -0.023348983
-0.05822427 -0.042910308 -0.009949226 0.029949173 0.037334014 -0.07366176 0.020589326 -0.046873376
-0.03572181 -0.033277374 0.047699355 -0.050061706 0.010479253 -0.047724597 0.07423661 0.040741526
-0.01927479 -0.01712512 0.015558904 0.013223305 0.014149187 0.016304733 -0.0015875606 -0.009428731
-0.00017248373 0.01549399 -0.07918677 -0.045242608 -0.062047265 -0.10381882 -0.021980127 -0.11242798
0.032170862 -0.031520456 0.003453549 0.009135138 -0.007818474 -0.06805359 0.0058987997 -0.0645184
-0.052874953 0.009220271 0.013692286 0.020343503 0.008940662 0.025387723 -0.014561621 0.114031896
0.042310152 0.027933015 -0.007591293 0.02873205 0.068505876 0.05184955 0.05268926 -0.119151786
0.010550415 0.009271349 0.073260404 -0.045286074 -0.07758928 0.032238714 0.06299117 -0.034121864
-0.022502415 -0.040944055 -0.11568755 -0.074212134 0.0036447574 -0.027479727 -0.032196127 0.036736455
-0.09325987 0.06726217 -0.05107721 0.023648921 -0.0062036593 0.0010642372 0.030470956 0.004486669
0.06639187 0.06618724 -0.0069647627 -0.080284595 0.008464562 0.00091499765 0.05986753 0.06205918
0.003036004 -0.02637305 -0.06331141 -0.07211074 0.04511999 0.015059026 -0.050639912 0.010730732
-0.024268007 -0.016508251 0.008738517 -0.038925745 0.0073158117 0.0041181506 -0.027492624 -0.017512148
-0.010379394 0.06347977 -0.08713655 -0.0034226484 -0.019636538 -0.030705675 0.01725706 0.02643366
0.07382757 -0.027151847 0.047278035 0.03985279 -0.05847138 -0.02563631 -0.036573797 0.035152294
0.013224984 -0.036203273 -0.010963397 -0.03976644 0.08472994 0.013143154 0.057450373 0.12701496
-0.05983652 -0.0032566483 -0.009823042 0.013263114 -0.01152052 0.06666881 0.07279448 -0.015849454
0.07800439 -0.00057888747 0.029209781 -0.0151529545 0.021876434 0.016853828 -0.010424793 0.033289902
-0.023876583 0.00838412 -0.0294355 -0.07004432 0.0002063493 -0.08561469 -0.033828266 -0.009602331
-0.05395466 -0.0013867225 -0.012334792 -0.028985519 -0.08451431 -0.06329519 -0.015174492 0.052409112
-0.0060931994 -0.0039285664 0.004915157 -0.026219884 0.068195514 0.06973228 0.024353314 0.075566456
-0.031268127 -0.008451828 0.0196179 -0.007215678 0.021530937 0.062582575 0.0096040545 0.041165352
-0.055536833 -0.10264276 -0.024778096 -0.029032499 -0.022472031 0.03125067 -0.008628779 -0.054698236
-0.039411064 0.018744051 0.05837542 0.0542308 0.05389177 0.0077342726 -0.037064888 0.03848633
-0.047384232 -0.074435346 -0.0003948398 0.09067042 0.02917324 -0.0031998106 0.047892522 -0.01211001
-0.03895594 -0.033231758 -0.066642836 0.038483653 0.05678129 0.14161289 -0.04893832 -0.0006474267
-0.00902334 -0.07899095 0.0029828683 0.00605639 0.103138156 0.09404463 0.08012373 -0.056536205
-0.06774823 -0.0064146034 -0.019302204 0.031093957 -0.039872482 0.054055523 -0.05179476 0.020300824
0.07596632 -0.016917028 -0.04755857 -0.025728988 -0.043237038 -0.049351156 0.0062943934 0.05501485
0.008735113 0.019681172 -0.034629688 0.0647264 0.03723694 -0.042310186 0.044375308 -0.06722084

conv2.bias f4 [32]
00000000: 5c94 4abd b092 243d 17ae d43d 8e50 cdbb
00000010: 3fa8 35bd c8e8 5fbc c8b5 babd c8e1 a03c
00000020: e5f3 a1bd 05be d23c 0cbe 413d eed9 6cbd
00000030: 2712 7dbb bcc6 133e 68f3 45bb aa0a cabc
00000040: 90b1 0cbc b86c 973d 73e6 003d 0f42 ae3d
00000050: 483a d73d 5451 763c 03ff 6bbd 1a53 6c3d
00000060: 0e30 663d 2000 81bd b25c fbbc 6083 9f3d
00000070: b2c6 dc3d e475 27bd c339 7a3d ccb9 a43d
-0.049457893 0.040178955 0.103847675 -0.0062657064 -0.044349905 -0.013666339 -0.09116703 0.01963891
-0.07907847 0.025725374 0.047300383 -0.05782502 -0.0038615556 0.1443128 -0.0030204896 -0.024663288
-0.008587256 0.07393783 0.031469774 0.085086934 0.10509163 0.015034039 -0.057616245 0.05769644
0.056198172 -0.06298852 -0.030683849 0.0778873 0.107800856 -0.040883914 0.061090242 0.080432504

conv3.weight f4 [32, 32, 3]
00000000: bc3a 1abc 5d7e 93bb e3e1 ef3b e848 073d
00000010: ff90 c53b 5c72 80bc 0a6d 6d3d 322b 4dbc
00000020: 6739 a8bd e05b bcbd 6245 c4bd aec6 d2bd
00000030: 60da 523b b47e debd 1454 90bd fcca 413d
00000040: 289c 883d b6e3 50bc c897 2cbd e356 f9bc
00000050: db0d 24bd 2859 1bbb 4a6f 95bd 34a8 7ebd
00000060: ccc6 b53c d05b a6bd 5e30 b7bc ac9b 0e3d
00000070: 3b48 b7bd fd53 b0bd 9a34 793c 3c08 003d
00000080: 1e5c 3dbc d987 a1bc 6c25 04bd d7ee c53c
00000090: 32ab aabb 5080 0f3d 4251 29bc dc5e 273d
000000a0: b09d 0cbd fad1 33bd 62b4 9abd f669 9d3c
000000b0: 28d7 563c 3228 00bc 0e05 1a3d ceeb 5e3d
000000c0: 399f bf3b 0739 6ebc 94c7 dfbc 075e e53d
000000d0: 0377 d53c 3a7a 22bd b971 ba3c 27be 08bd
000000e0: 18f0 3b3d b151 053b ee73 6f3d 5cb7 983d
000000f0: 11af 913d f558 45bc 6345 ce3b e0d0 bd3a
00000100: dd0a 073c 526d c93c 24bc 8d3d f92e 71bb
00000110: 0038 dfbc 20c3 d63a 9228 883d 3d28 193d
00000120: 8f00 aa3c 8ba6 0bbe 86da b3bd 52d6 a8bd
00000130: 96d4 423d 1eaf 563c 1753 9f3c 0843 b53c
00000140: 94ad bfbc 3b81 5ebd c0e1 6bbd ea20 8fbc
00000150: c7df 52bc 3a48 b43c 2874 c0bc 120d 87bd
00000160: 872d ab3c 9ea0 8dbd 27ea 84bd a741 213d
00000170: 8d0b 02bd cd25 3c3c 4bfe 03bd 7156 2ebc
00000180: 1351 293c 7ce6 41bb 6c55 c1bc 474a 0abd
00000190: 5383 4bbc 9294 923d 2878 983c b269 313d
000001a0: d4f5 56bd 92f4 b53c b3d7 4dbd 9193 d3bc
000001b0: 61f9 3b3d 5a2f f5bb dfeb dbbc 6328 7b3d
000001c0: efae 75bc 2fdd d63b 3696 343c 769d a33c
000001d0: b160 60bd d22b 12bd 9b18 8a3d 6a8a 25bd
000001e0: 808d ffbc 58ca a2bd f4e3 b9bd 0446 bb3d
000001f0: 873c 263c fdda 2dbc 9a3f 55bd 94f9 863d
00000200: 4625 ce3d 8a9a a13b 6bb2 53bd cf74 0e3b
00000210: d4a8 f83c fc0e ce3a 2476 193d 95ca ae3c
00000220: 70f3 51bd 6adf bdbd 1818 4e3d c566 73bd
00000230: bf22 703d da6e 4a3d 75d1 fd3c 72d9 1c3d
00000240: 5b1d 083d b414 ac3c 1af1 8a3d d084 a0bc
00000250: 74e1 30bd a55a 163d 472d 4b3d 68af 38bd
00000260: 0ac2 bb3c 9884 f6bc f131 c2bb 805d fa3d
00000270: 0ae9 933d 7f27 023d 636c d03b a82c 6b3d
00000280: 90fb debb 6a05 86bd 0250 4a3d 08d1 e0bb
00000290: e478 b03c d602 59bd 8999 a8bc f6a1 ed3b
000002a0: 084b cb3d 7df3 b03c 2120 1abc b29c 54bc
000002b0: c44a c7bc ba71 67bd 144f f93c 8e68 97bd
000002c0: be54 1c3d e92e 32bc f6f3 35bd 0cf1 583d
000002d0: 115c 00bc 16b7 a2bc 5880 963d 74d7 75bd
000002e0: bae7 be3c a41b 1c3d 728d bb3d 32d2 81bd
000002f0: 1a79 793c e046 80bc 548c 6a3d ccbe d73c
00000300: 4672 92bd 860f ef3b 3822 153b b4ec 14bd
00000310: 5a44 053d 4bf6 62bd f6db 38bc d83c 613b
00000320: a9f4 473b 29b6 6d3d 0869 25bd 15b1 0abe
00000330: 504a a3bd 58b0 33bd 3aa1 cbbc f91a aabb
00000340: b414 0a3d 5b48 d4bb a49d e7bd 35a7 65bb
00000350: 0238 aebc bc99 9dbc ca1d 98bc 4006 a2bc
00000360: b646 0f3d 86a6 8c3d 1826 0ebd 6adf 1c3d
00000370: e73a aebc 5f1f b7bd f2ac 52bc c868 9bbc
00000380: d2d3 863d acd5 e0bc 476b a63c 3f63 8bbd
00000390: 7a62 b83c edef aebd 6a8a 6a3b b26f ee3c
000003a0: 9bcf bbbc e2e0 33bd 56da 9abc d2d4 35bc
000003b0: b0e6 443c ce2b 6dbb 4366 503d 8603 abbd
000003c0: b758 94bc 1466 0d3c 66b2 453c 6205 a4bc
000003d0: fe09 143d 2053 613d 0574 5cbc 30e5 ffbc
000003e0: 05b4 00bd 6040 f5bc 61d5 943d 12e5 1abd
000003f0: aa7e ad3c 7e59 7cbd 00a2 87bc 5fd1 75bd
-0.009413417 -0.0045011477 0.007320629 0.033028513 0.006029248 -0.01567953 0.057965316 -0.012522506
-0.08214074 -0.09197211 -0.09583546 -0.102918014 0.0032173619 -0.108640105 -0.07047287 0.04731272
0.066704094 -0.012749603 -0.042136937 -0.030436939 -0.040052276 -0.0023704264 -0.07296617 -0.06217213
0.02218952 -0.081229806 -0.02236193 0.03481643 -0.08949324 -0.086097695 0.015210295 0.031257853
-0.011557607 -0.019718098 -0.03226225 0.02416174 -0.0052083964 0.035034478 -0.010334315 0.04086195
-0.03433007 -0.04390142 -0.075539365 0.019215565 0.013112821 -0.007822083 0.037602477 0.0544241
0.0058478382 -0.014539964 -0.027316846 0.11199575 0.026057726 -0.039667346 0.022759305 -0.03338447
0.045883268 0.0020342881 0.05846017 0.07456848 0.071134694 -0.012045135 0.0062948926 0.0014481805
0.008242336 0.02458826 0.069206506 -0.003680168 -0.027248383 0.0016385056 0.06648363 0.03739189
0.02075222 -0.1363775 -0.087819144 -0.08244003 0.04756602 0.013103275 0.0194488 0.02212669
-0.023398198 -0.054322463 -0.05758834 -0.01747175 -0.0128707355 0.022007097 -0.023492888 -0.0659429
0.020895733 -0.06915401 -0.064899735 0.03936925 -0.031749297 0.011483622 -0.032224935 -0.010640726
0.010334271 -0.0029586842 -0.023600303 -0.033762243 -0.012421447 0.07157244 0.018611982 0.04331369
-0.052480534 0.022211347 -0.050254535 -0.025827201 0.045892123 -0.0074824514 -0.02684587 0.061317813
-0.014995321 0.006557129 0.011022141 0.019972544 -0.054779712 -0.03568632 0.06742974 -0.040415205
-0.031195402 -0.0794875 -0.09076682 0.09144214 0.010146267 -0.010611293 -0.05206261 0.06590572
0.10065703 0.0049317526 -0.051683825 0.0021737104 0.030353941 0.0015721018 0.037466183 0.021336833
-0.05125755 -0.092711285 0.050315946 -0.05942418 0.058626886 0.049422123 0.030983666 0.03829331
0.03323112 0.021005966 0.06784268 -0.01959458 -0.04318376 0.03670754 0.049603727 -0.045089155
0.022919673 -0.030092523 -0.0059263636 0.12224865 0.07222183 0.031775948 0.006360577 0.057415634
-0.006804891 -0.065440014 0.049392708 -0.006860856 0.02154202 -0.05298122 -0.020581024 0.0072519733
0.099264205 0.02160048 -0.009407074 -0.012976812 -0.024327643 -0.056504942 0.030433215 -0.07392989
0.038166754 -0.010875442 -0.044422112 0.052964255 -0.00783445 -0.019862693 0.073486984 -0.060019925
0.023303855 0.038112298 0.09157838 -0.0633892 0.015226627 -0.015658796 0.057262734 0.026336096
-0.07150702 0.0072955517 0.0022755992 -0.03635855 0.03253589 -0.055410665 -0.0112829115 0.003436854
0.003051082 0.05803505 -0.04038337 -0.13544114 -0.07973158 -0.043869346 -0.024857152 -0.0051912037
0.03371115 -0.006478352 -0.113093644 -0.003504229 -0.021266941 -0.019238345 -0.018568892 -0.01977837
0.034979545 0.06867699 -0.034704298 0.038299 -0.021268321 -0.089415304 -0.012858616 -0.018970862
0.0658337 -0.027445637 0.020314826 -0.06806039 0.022507895 -0.08541856 0.0035788068 0.029105995
-0.022926142 -0.043915637 -0.018902939 -0.011098104 0.012017891 -0.003618944 0.050878774 -0.083502814
-0.018108709 0.008630294 0.012066459 -0.020022098 0.03614234 0.055010915 -0.013455396 -0.031237215
-0.03142168 -0.029937923 0.07267261 -0.037816115 0.021178562 -0.061608784 -0.01655674 -0.060014125

conv3.bias f4 [32]
00000000: 4ad5 823c 51e6 84bd ce44 533d 7f74 d0bd
00000010: 68da 5c3d 507c 6339 a85c e1bb 9d00 f73d
00000020: 5fa5 8b3c 4098 d0bc 5a99 fabd e389 a53c
00000030: dd67 1d3d 58b3 753d 15ff a3bd ccfd cfbb
00000040: b8d7 753d 2119 8c3c 2d18 08bc 3eb9 333d
00000050: 3532 c43d ce32 34bd 6396 38bc e120 1cbd
00000060: 1c04 b23d 47a1 7b3d 34b1 8bbd f8ae 83bd
00000070: 9c04 b1bc 72d2 213e 0b2f 5d3c 08dc 03bd
0.015970845 -0.06489242 0.05157929 -0.1017847 0.053919226 0.00021694717 -0.0068775006 0.12060664
0.017046629 -0.025463223 -0.12236281 0.020207351 0.03842913 0.05998549 -0.080076374 -0.0063473936
0.06002018 0.017101826 -0.008306545 0.043877833 0.09579889 -0.043993764 -0.011266324 -0.038117293
0.0869219 0.061433103 -0.06820908 -0.06429857 -0.021608643 0.15802935 0.013499985 -0.03219226

conv4.weight f4 [32, 32, 3]
00000000: c66e 16bd 9050 19bc 68c2 aa3c 8188 2abd
00000010: 4e5f ad3d 86e1 00bb c0e7 653a 7409 d13d
00000020: 2a59 83bc 0a39 153c b3ac 213c 306c 0f3d
00000030: 7360 8f3d a729 c83c b1bf dcbc a89c 863a
00000040: c3a8 43bd 9a2d 1d3b 2e1d 093c a78f 343d
00000050: 30e4 89bd c09c 6abb 963a 8c3b 5dc6 bf3d
00000060: 2ad4 b33c 0f91 853d 26a8 d3bc 22c4 acbd
00000070: 182a 75bd b6bf 81bd 71be 05bd e52f ac3c
00000080: fadb a0bc c1aa 90bd ffa7 e03c 7ce7 a63d
00000090: 6296 d33c 004c c039 2d60 723d 4d80 0f3d
000000a0: 0eb7 88bc fa54 423b 6fda 4a3d 0ae4 dd3d
000000b0: 6401 adbd 1985 b23d c09e a4bc 1b4a e93c
000000c0: 4c95 953c 48b5 00bd 58f7 babb 1e7e 18bd
000000d0: 204a 9b3d 3f67 f93c 3d41 813d baa2 1c3c
000000e0: d0c3 98bd f937 9e3d 4877 1e3d c1e7 6fbd
000000f0: 1a30 d0bc 625e d6bc 935e debc 8628 0e3d
00000100: 6e7c 35bc 6b12 5c3c 6e11 903c ac04 463d
00000110: f2ab c33b 9c6d 1a3a 58b1 f43c 72f8 9ebc
00000120: 7ef6 d7bc 2dd2 18bc 4822 483c f601 d43c
00000130: 9a12 5ebc 65a3 bebd 5a4e 0bbe 5b63 d03b
00000140: 2904 253c 6e25 273a c44b fbbb fe5c 993d
00000150: c0a3 3a3d 1c8a 23bd 5775 813c 0b69 143d
00000160: 9801 b9bc 5eb6 313c d48e bb3c 30e6 4e3d
00000170: 18bc 153d 4083 59bd b69a 8d3b f0b5 08bb
00000180: 4439 723c 2878 9fbc 97cc fa3c b603 483d
00000190: 7235 1b3d 6664 8bbd c21b d5bc 5a54 24bd
000001a0: 8cd7 5b3b 10fd 883d 4b7c 513d 9639 cfbc
000001b0: 94b7 26bc 2a80 9539 7ed4 a5bd 7a97 923d
000001c0: 24b5 14bd 5a12 03be c50c 123c fa17 4ebd
000001d0: e564 373d 0ac0 81bd 0ce3 573d 84eb bd3d
000001e0: 5c0e b23d 00fd e5bc 2ab7 653c cc79 493d
000001f0: b62d 143d 7a9b 2b3d c2cf 42bd 70eb a3bd
00000200: 4042 ebbd 002d 663d d532 62bd 170d 9a3c
00000210: 2715 09bd f416 f63c d1d0 b03c 718d dd3c
00000220: 773d dabc 4cd1 f8bc b09c 4a3b 9850 0bbd
00000230: d8ce 673b 8253 eb3c 22ca 2cbd 3b84 2bbd
00000240: 0f80 8bbc 1114 a4bc da8c 1b3d caf9 4c3d
00000250: f91c 91bd a2e0 7a3d 9c21 3a3d 4283 5ebd
00000260: f2da bebd 2a8b f33c 46a1 13bd f86b 47bd
00000270: 6ea0 50bb ec89 57bd 8891 be3c 3159 a33c
00000280: 7a99 d7bc 096e f0bc bc52 9abd f4b7 a03a
00000290: 82f3 4a3d 81a6 893c 9d7a 213c 689b cf3c
000002a0: efd7 1c3d c872 9fbd 1a95 8bbd 2c61 8c3d
000002b0: 5e2a 593d 861e e5bc 58d3 4fbb 0a54 72bb
000002c0: d460 4c3c 6aed 483c 4e47 893c 58bd bfbd
000002d0: 2dab bcbc cce7 f23c 55a6 18bd 881c 93bb
000002e0: e8fa ba3c 4d5e 3dbd bca1 83bd 08a2 51bc
000002f0: aee8 b33d 0b80 763d 2688 d8bc 9cb0 2d3d
00000300: e60d cebc 0e90 f3bb 3423 8d3c ba88 69bc
00000310: 1ac4 e5bc 32fa fb3c 46c5 93bd d9c6 213d
00000320: ec96 0dbd 73a1 933b 6c09 763b ec45 953d
00000330: 3ebb 083d e2fd c43c f9bf 25bb 818b 9dbc
00000340: 98dc b33d 887e d8bc 1815 84bc 9a4d 98bd
00000350: 30d8 203c 88b7 0b3d f015 533d f9f7 293d
00000360: acfe 17bd 3030 99b9 a232 e43d f078 1b3d
00000370: b6b3 283d 15d6 5ebd 9aac 7e3b b445 3fbc
00000380: f237 1fbc debf 953d 2bf6 24bc 543e acbc
00000390: c04f 7f3d 283d 503c 4869 d6bc 42f3 553b
000003a0: b85a 423c f35e 9c3d ae79 1dbd 6e5a 8c3d
000003b0: ce4e 25bd a600 96bd fb54 963d 39c1 e8bc
000003c0: 0ccd 65bd 20e6 613c 7f12 863d 5718 afbc
000003d0: 294e 133d 64df 6cbc 09b9 973c c14d debc
000003e0: b099 3a3d 6e18 f03c 6c3d 61bb 8908 0c3c
000003f0: 00f0 1abd e906 883d ff32 27bd 4dde c2bc
-0.036726736 -0.0093575865 0.020844653 -0.041634087 0.084654436 -0.0019665672 0.000877019 0.10206881
-0.016033728 0.009107837 0.009867835 0.035015285 0.07000818 0.024433924 -0.026946874 0.0010270076
-0.047768366 0.002398348 0.008368773 0.04408231 -0.067329764 -0.0035798997 0.004279445 0.09364007
0.021951754 0.06521808 -0.025837015 -0.08435847 -0.059854597 -0.06335394 -0.032652322 0.021018932
-0.019636143 -0.07063819 0.027423857 0.08149621 0.025828544 0.00036677718 0.05917375 0.035034467
-0.01668885 0.00296527 0.04952472 0.108345106 -0.08447531 0.087167926 -0.02009523 0.028477719
0.018259667 -0.031422883 -0.005705755 -0.03722965 0.075824976 0.03044474 0.06311271 0.009560281
-0.07459223 0.0772552 0.038687974 -0.058570627 -0.025413562 -0.026168052 -0.027144706 0.034706615
-0.01107703 0.013432126 0.017586436 0.0483443 0.005971425 0.0005890967 0.02986972 -0.019405577
-0.026362654 -0.009327454 0.012215205 0.025879841 -0.01355424 -0.09308509 -0.13604107 0.0063595003
0.010071793 0.0006376122 -0.007668944 0.0748844 0.04556632 -0.039926633 0.015803022 0.03623299
-0.022583768 0.010846702 0.022895254 0.050512493 0.036556333 -0.053103685 0.0043214215 -0.0020860396
0.014784161 -0.019466475 0.030615134 0.048831664 0.037892766 -0.06806259 -0.026014213 -0.040119506
0.0033545224 0.06688893 0.051143926 -0.025296014 -0.010175604 0.00028514984 -0.0809717 0.07157798
-0.03630556 -0.1279997 0.008914177 -0.050315835 0.044773955 -0.06335457 0.052706763 0.09273437
0.08694145 -0.028074741 0.0140207205 0.04918842 0.036176406 0.04189632 -0.047561415 -0.080038905
-0.114872456 0.05619526 -0.05522426 0.01880507 -0.033467438 0.030040242 0.021583946 0.027044984
-0.026640637 -0.030373238 0.0030916147 -0.034012407 0.0035371091 0.028726343 -0.042184956 -0.04187415
-0.017028837 -0.0200291 0.037976123 0.050042905 -0.07085604 0.061249383 0.04544221 -0.054324396
-0.09319104 0.029729445 -0.036042474 -0.04868695 -0.0031833905 -0.052621767 0.023262754 0.01993999
-0.0263183 -0.029349344 -0.075353116 0.0012261854 0.049548633 0.016803028 0.009855893 0.025342658
0.038291868 -0.07785565 -0.06815548 0.068544716 0.05301892 -0.027968656 -0.0031711664 -0.003697636
0.0124742575 0.012263635 0.016757634 -0.09362286 -0.023030842 0.029651545 -0.037268 -0.004489485
0.02282472 -0.04623251 -0.06427333 -0.012794979 0.087846145 0.060180705 -0.026432108 0.042404756
-0.025153112 -0.007432944 0.0172287 -0.01425379 -0.02804761 0.03075895 -0.07215361 0.039496277
-0.03456776 0.00450533 0.0037542237 0.07288727 0.033381693 0.024046842 -0.0025291427 -0.01923156
0.08782309 -0.026427522 -0.01612334 -0.07436676 0.009817168 0.034110576 0.051534593 0.04149625
-0.03710811 -0.00029218337 0.1114247 0.03795713 0.04118701 -0.054403383 0.0038860203 -0.011674333
-0.009717928 0.073119864 -0.010068457 -0.021025814 0.062331915 0.012709893 -0.026173249 0.0032646214
0.011862449 0.076352976 -0.03844612 0.068531856 -0.040358357 -0.073243424 0.073404275 -0.028412448
-0.05610375 0.013787776 0.065464966 -0.02137391 0.03596321 -0.014457557 0.018520849 -0.027136685
0.045556724 0.029308524 -0.0034368886 0.008546957 -0.037826538 0.06641943 -0.040820118 -0.023787642

conv4.bias f4 [32]
00000000: 8bc7 71bc 14b7 6d3d 3e41 80bb 9a0b 0fbe
00000010: 801e 49bb d3ac 15bd 6ba0 893d 60b1 02be
00000020: 3a9e 91bd b1be 24bd 42a7 b33c 3940 06be
00000030: bc05 5abd 542b 323c 47e9 fe3b 12f4 62bd
00000040: b018 a8bc 7c6a ca3d 6ca5 363d b552 853d
00000050: d6da 3a3d 8c1e ba3c 24a8 04be c874 3fbc
00000060: 369a fa3d 02d1 a7bd 76a9 d73c 5c8d b9bc
00000070: 16a3 4fbd 1c52 103e 7cdc debc 16fc 973c
-0.014757047 0.058035925 -0.0039140275 -0.1396927 -0.0030688345 -0.03654177 0.067200504 -0.12762976
-0.071102574 -0.04022092 0.02193034 -0.13110436 -0.053228125 0.010874588 0.0077792737 -0.055408545
-0.020519584 0.098835915 0.044591352 0.06509916 0.045618854 0.022719644 -0.12954766 -0.011685558
0.12236445 -0.08194162 0.026325922 -0.022650413 -0.05069264 0.14093822 -0.027204745 0.018552821

conv5.weight f4 [32, 32, 3]
00000000: 3e1d e9bc bc3c 81bd feb1 e3bc 3850 04bd
00000010: 751d 3a3c 088b 153c 12dd 483d b8b8 4bbd
00000020: 3320 9d3a a377 4c3d 8dd1 adbd fc6a 893d
00000030: 9093 9bbc 996a 0f3d a165 883c 984a 483d
00000040: 1e19 533d 5686 813d ced6 d73c b320 07bc
00000050: a432 993d be73 51bd 1a02 2b3d 1e27 14be
00000060: 10f5 4fbc 827c a53c 78ce 913d c42d 0bbd
00000070: 9434 8dbd 1aa0 d3bc c051 8a3a 256b 82bc
00000080: ba87 b83c dbd6 8cbd b2b4 5fbb 6a50 a0ba
00000090: 050a efbc 3037 11bd 5ba8 99bd d22b 62bc
000000a0: d898 d13c e5b5 92bd c48b f5bd ca41 1dbd
000000b0: 0211 a2bd 2c6d 263d a59f 57bd 256f 1fbd
000000c0: 1071 7b3d f31a 45bb e21f 293c 4c51 b03c
000000d0: d9eb 9abd b265 a9bc 8419 55bd 8552 cebc
000000e0: 20ef 073d d717 81bc adb5 84bc 7a9b 9dbd
000000f0: 9012 663d 127d 4cbd b6d7 cabc b6f6 613d
00000100: 2060 4a3d 2c4d 793b 756c 223d a4f8 4ebd
00000110: 6cdb 1cbd 1f20 f33b 4fac 03bd f09c f5bc
00000120: e14a ea3b c233 6d3d a649 ca3c 7a8c 01bd
00000130: 737e 5fbd 337f 813d a84b cdbc f7aa 0e3d
00000140: 5a43 91bc 5f72 813d db33 db3c 1cc1 18bc
00000150: 32a9 d33c 5199 0c3d 414c fa3c 1230 113c
00000160: f1e2 42bd 44ee 4d3d 58d4 833c 1a26 573d
00000170: 9edf 1cbd b50f 1d3d 1caa 463d e441 82bc
00000180: d5f7 97bc 3104 cdbd 7b67 15bd 84d3 943c
00000190: be8e 7abc 82af 02be 881b a5bc c839 8d3d
000001a0: d0a8 87bd 082a dcbd 881e 8ebc 1cbd 1cbe
000001b0: 7fa6 da3c 37b4 7abc 8a8e 65bc 12f4 a13d
000001c0: 7062 633c 62c2 283c 7ec5 46bd 70bc 05bc
000001d0: f2ae 813d 165e 583d 4f47 cbbd 70d3 073d
000001e0: e05b 4939 1f59 063d ff6e 30bd 1476 d6bd
000001f0: ecc7 48bd 4cae f73a 7f53 70bc 4320 23ba
00000200: 0cd8 a33d bee5 96bd 1f51 13bd 0683 92bd
00000210: f4bf afbc 4685 adbd 426f a3bd ed4a 263d
00000220: 2d2d 44bc ecb6 28bd fa32 01bd 7d5f 87bd
00000230: 5517 aabd dd0f 82bd a8f3 d5bd 669d 493b
00000240: 564b 69bd 96a8 903d 10b6 55bd cdc9 8d3d
00000250: f230 3ebd 00c5 fdbc 980d 79bd 6243 51bd
00000260: 36fd 5abd af84 8cbc 9d00 1abd e7d5 2abd
00000270: 6dba 13bd 8046 ab3d 30a3 c43c bd79 983d
00000280: 70a3 39bc b881 56bd 42d8 bebd 65a0 42bd
00000290: 7274 5a3c ba03 75bc aebd 94bd c7aa 2f3d
000002a0: 7ebe a3bd 9ae7 e7bc 5fb7 623c 1234 363d
000002b0: 28fd 64bd 3171 21bc 3f76 273c 28b5 be3b
000002c0: fec6 143c 43b3 903c 843d ffba feaf a9bd
000002d0: b82b 743d 709f 42bd 5a36 953c 2d20 96bc
000002e0: c5ab 70bd 426d 74bd b5e2 b0bc a6c0 193d
000002f0: fc22 1abd cc63 823d 4969 9cba 3704 a9bd
00000300: 8956 9f3d a86d 533d 8e03 1fbd 3c64 993d
00000310: 36f2 eb3c e194 81bd 5253 97bd 9476 c2bd
00000320: d8a3 0ebd c05c 093d 77a4 0b3d 5a83 edbc
00000330: 78fb 1d3d aaff a93d 7e5a 4d3d 8169 923d
00000340: be22 a23d 67a0 21bd 630f a8bc 10db bd3d
00000350: ed04 c93d a2cf 983d ce05 273d 36e2 debc
00000360: 6ad9 d8bc 71ba 3ebd 6f8a 223c 48c0 07bc
00000370: 3f6e 99bd 1224 8abc e8a6 14bc babb 01bd
00000380: f9c4 463c b654 5a3c 00a4 533d de3d afbc
00000390: 4aa6 33bd 4423 4fbd b12f 2ebd 0f22 633d
000003a0: 7d40 f93c 035b 58bc ec67 2fbd cab8 a7bd
000003b0: 6f6d e9bc c5ca 2d3b 00ab b5bc 1ea3 e2bb
000003c0: fa13 473c 1d03 bbbb 39fc b1bc 283d 093c
000003d0: c4c1 24bc 9569 5dbd a862 d13b 196a e83c
000003e0: 27ce bc3d 3c01 783d b0b1 463d cbad 653c
000003f0: 60d7 6d3d 720c b73c 5cf3 6a3d 1db6 363d
-0.028456327 -0.06310412 -0.027794834 -0.032303065 0.011359562 0.009127386 0.049038954 -0.04973671
0.0011987746 0.049918782 -0.08487234 0.06709859 -0.018991262 0.03501377 0.016650023 0.048899263
0.051537625 0.06324451 0.026347544 -0.008247542 0.07480362 -0.05113577 0.04175005 -0.14468047
-0.012692705 0.020200972 0.07119459 -0.033979192 -0.06894794 -0.025833178 0.0010552928 -0.015920231
0.022525657 -0.06876918 -0.0034134802 -0.0012230997 -0.029179582 -0.03545302 -0.075028144 -0.013804393
0.025585577 -0.071636 -0.11989549 -0.03839282 -0.079134 0.04063146 -0.052642483 -0.038924355
0.06138712 -0.0030075877 0.010322543 0.02152314 -0.075645156 -0.020678375 -0.052026287 -0.025185833
0.03318703 -0.015758438 -0.016199911 -0.076956704 0.056170046 -0.049923964 -0.024761062 0.055166923
0.04940808 0.0038040383 0.039654214 -0.05053009 -0.038295195 0.0074196006 -0.03214675 -0.02998206
0.0071500395 0.05791069 0.024693321 -0.03162811 -0.05456395 0.063230895 -0.02506049 0.034831014
-0.017732311 0.06320643 0.026758125 -0.009323385 0.025837515 0.0343259 0.030553939 0.0088615585
-0.04757971 0.050276056 0.016092464 0.05252657 -0.038299195 0.038345058 0.048502073 -0.01590056
-0.018550793 -0.10010565 -0.03647564 0.018167265 -0.015292821 -0.12762263 -0.02015473 0.068957865
-0.06623995 -0.10750204 -0.017348543 -0.15306515 0.02669072 -0.015301756 -0.014011035 0.07907881
0.01387845 0.010300251 -0.048528187 -0.008162603 0.06332196 0.052824102 -0.099257104 0.033160627
0.0001920308 0.032799836 -0.043074604 -0.1047174 -0.049018785 0.0018896549 -0.0146683445 -0.0006222764
0.08000192 -0.073680386 -0.035966035 -0.07153897 -0.021453835 -0.084726855 -0.07980205 0.0405988
-0.011973661 -0.041190073 -0.031542756 -0.0661001 -0.083052315 -0.06350682 -0.10446864 0.0030763983
-0.05695661 0.07063405 -0.05217558 0.06923256 -0.046433397 -0.030977726 -0.06080398 -0.051089652
-0.053464137 -0.017153112 -0.03759824 -0.0417079 -0.03606646 0.08363056 0.024003595 0.07445095
-0.01133047 -0.052369803 -0.09318592 -0.047516245 0.013333427 -0.014954502 -0.07262741 0.042887475
-0.07995318 -0.028308678 0.013837664 0.044483252 -0.05590549 -0.009853647 0.010221063 0.0058199354
0.009080647 0.017663604 -0.0019473289 -0.08285521 0.059612006 -0.047515333 0.018214393 -0.01832589
-0.058757562 -0.05967451 -0.021592477 0.03753724 -0.03763102 0.06366691 -0.0011933233 -0.08252757
0.07780177 0.05161825 -0.03882175 0.07489821 0.028802019 -0.063272245 -0.07388939 -0.09495273
-0.034824222 0.03353572 0.034092393 -0.028993297 0.038569897 0.08300717 0.05013513 0.071490295
0.07916783 -0.039459612 -0.02051515 0.092702985 0.09815393 0.07461478 0.04077702 -0.027207475
-0.026470859 -0.046564523 0.0099207 -0.0082855895 -0.07491731 -0.016862903 -0.009072997 -0.03167317
0.012131923 0.013325861 0.051670074 -0.021391805 -0.043859757 -0.05057074 -0.04252595 0.055452403
0.030426258 -0.013205293 -0.042823717 -0.081895426 -0.028494565 0.0026518565 -0.022176266 -0.0069164177
0.012150759 -0.0057071582 -0.021726714 0.008376397 -0.010055963 -0.05405577 0.0063899346 0.028370904
0.09219008 0.060548052 0.0485093 0.014018486 0.058066726 0.022344802 0.05736099 0.04460727

conv5.bias f4 [32]
00000000: 6336 1a3d f531 2c3d 714d d4bd f0dd 49bd
00000010: e619 b7bd b49a 6f3c a462 b6bd 282e 1bbc
00000020: 7ac9 083e 8240 1abd 2044 a5bc ab3b c3bd
00000030: f226 50bd 0eb7 1abe 0210 68bd c304 b3bb
00000040: 7de8 04be be11 2a3d 37ab 69bd a3a5 49bd
00000050: 32bc b8bc 3430 9ebd a0f8 11be 7865 273d
00000060: bea0 7abd 5192 123d a27f 0cbd f447 b3bc
00000070: 7cae 02be 1efc fdbd 9692 1cbd d3d2 43bd
0.037649523 0.04203983 -0.10366333 -0.04928392 -0.089404866 0.014624286 -0.08905533 -0.009471454
0.13358107 -0.037659176 -0.020174086 -0.09532865 -0.05081839 -0.15108892 -0.05665589 -0.005463214
-0.12979312 0.041520827 -0.05704805 -0.04923023 -0.022550676 -0.07724038 -0.14254999 0.040868253
-0.061188452 0.03578407 -0.034301408 -0.021884896 -0.12761873 -0.12401603 -0.038225733 -0.04780848

conv6.weight f4 [32, 32, 3]
00000000: 3037 d03c 3b8d 843c 8140 6bbd 26b4 a8bc
00000010: e4e5 cfbc 1a3d 0f3d a247 7d3d e619 17bb
00000020: 48e1 eabc b901 ab3d 80e2 333d 20b3 853d
00000030: 6792 333c b1a3 a0bd fa28 47bd 5480 a63d
00000040: 35e8 4a3d 109b f6ba a607 7c3c 84b7 82bb
00000050: 3804 eebb b905 0abc 2d4f af3c fdb7 fb3a
00000060: 8ef0 f73a 2547 63bc be24 be3c acf4 753d
00000070: b08c 6a3d b885 8abc 444e 8cbd d9f2 a2bd
00000080: f2e1 15be 42c9 1f3d 6f49 4d3c 3664 f8bc
00000090: 3426 dbbb e851 6abc 2743 53bc dae7 f3bc
000000a0: e010 1c39 86c5 563d 0aa2 e5bc f84b a4bc
000000b0: 9a7d 123c 903a b43d ee3e 003d aced cbbc
000000c0: 244a 8abc e074 09bd 0423 f7bc 8010 763d
000000d0: 1401 473d 36c1 15bd 318c cbbb 2a95 073d
000000e0: e20b 183d b72e 84bc 724c bbbc 2ca3 993c
000000f0: 513b 55bd 1b88 233d 64ac 80bc 8380 57bc
00000100: 195c 71bd 571b 43bc 3c3a 94bd 4aeb 1c3d
00000110: b03a 33ba 5eea 44bd 0fe8 32bd f8a4 113d
00000120: 8829 3a3d d75c b13a da36 6c3d f78a b7bc
00000130: 08ee 2cbd eab6 cd3c e7d4 e5bb 5895 453a
00000140: 30d7 89bd 228c 5a3c 4cad 41bd de36 9dbd
00000150: 488e 463d ca63 c6bc 43b7 e3bc 8159 0e3e
00000160: faa4 873d 47eb 95ba 1a5f 88bd c802 593d
00000170: e223 35bd d064 553d 4a00 8a3d 5e53 50bc
00000180: f428 7ebd 8217 5a3d f81e 6c3c 82ee b33c
00000190: a2ba fbbc baba dd3b 62e3 49bd 2c74 09bd
000001a0: 0318 d7bc be1c 98bc 728b 00bd 3dbc b4bc
000001b0: 965b 1fbd b255 95bd ece8 0fbe 18d3 ef3c
000001c0: eecd 463d fc86 b6bc 0033 6038 0094 8fbc
000001d0: 088d 9d3a 9010 acbc 0079 f739 9655 ed3c
000001e0: a895 79bc 4a45 5d3d 7f83 4ebd b9eb 7abb
000001f0: 1097 84bd 40bd fcbb e2fa f03c c63e 41bc
00000200: f8b8 59bc bf2a b9bd e070 8cbc 3ffe 08bd
00000210: a620 fbb9 c88f 9d3b ef27 6dbd 4022 6cbd
00000220: 79bf bbba f6b4 90bc 5f33 81bd daa0 9dbc
00000230: e72e 58bd e29a d7bd 0f27 42bc 2f11 c5bc
00000240: 7660 40bd a21c 2bbd ac2f 56bc 9c47 923d
00000250: 941a 9abd 2caf 9bbd 0a2d e8bd 36d8 76bd
00000260: 005f abbc 0fcc 59bd 10e5 27bd 33c4 8dbb
00000270: 7ef2 f73c f80d 103d ad1f 883d 5a20 46bd
00000280: 6a14 a53c 26f7 623d 769f d43b 63fe 993c
00000290: a618 7f3b d1bc c63c 7054 82bc 284f be3a
000002a0: 0aea 18bd 1ce0 d5bd a5df 82bd 7ede eebc
000002b0: 74aa 1b3d 2b6d 05bd f0c9 e1bd f618 17bd
000002c0: 643a 8ebd a03c 99bc 9ed4 5b3c 38f9 fb3c
000002d0: 6ae1 5cbd 0635 cfbd 78b3 febd ef41 1ebd
000002e0: c237 b3bd c0fc e0bd 087b e3bc 6004 f33c
000002f0: 0de7 3f3c 3a40 c2bd 905f 8f3b 8632 24bd
00000300: ec57 a13c cee3 94bd 4e6f 613d 34ee 5abd
00000310: 2e24 bd3b aa44 063d ab60 4cbd 9a5e ecbd
00000320: 0a81 bdbd 4640 82bd f0fe d8bb 34b1 8dbb
00000330: ccdd 86bd 34ea 17be f217 00bd cdad 8a3b
00000340: c46d 593d 0e9c b5bd a27a 00bd 1625 3fbd
00000350: 7296 023d 8a86 0d3d ddc4 44bd b85e 0ebe
00000360: e3c4 233d 60ca d7bd 8dd4 a4bd bc0a 82bd
00000370: 51a2 aabc c844 393d d6d2 9abb 4932 7cbd
00000380: 22c5 bbbd 06dd a0bc 4ff8 36bd b15d 4d3c
00000390: c01b 1a3d 4cbf a9bc b049 65bb db44 99bc
000003a0: bfd5 1cbc 909e e9bc b08b cdba b60d c93c
000003b0: 94fb 2cbd 6112 023d 4e46 12bd ecba 05bc
000003c0: ccf0 05bd e0b8 953a 7710 1dbc e158 96bc
000003d0: c6db 7cbd 6676 e0bc b05b 4abd 3ae1 2cbc
000003e0: 48ea f33c 1429 68bc 8e55 eb3c 462c b2bc
000003f0: 51ff a4bb 703f 80bc 372a 70bc 369d fcbb
0.02541694 0.016180625 -0.057434563 -0.020593714 -0.025378175 0.03497038 0.061835892 -0.0023056208
-0.028671876 0.08349938 0.04391718 0.06528306 0.010960198 -0.07843722 -0.048623063 0.081299454
0.049537856 -0.0018814523 0.015382683 -0.003989162 -0.0072636865 -0.008424216 0.021400059 0.0019204613
0.0018916295 -0.013871943 0.02321088 0.06004779 0.057263076 -0.016909465 -0.068508655 -0.07956476
-0.14636973 0.039010294 0.012529715 -0.030321222 -0.006687904 -0.0143017545 -0.012894428 -0.029773641
0.00014883606 0.052434467 -0.028031368 -0.020055756 0.008941079 0.088002324 0.031310014 -0.024893604
-0.016881056 -0.033558726 -0.030168064 0.06007433 0.048585013 -0.036561213 -0.0062117805 0.03310124
0.037120707 -0.016135557 -0.0228636 0.018754564 -0.05205852 0.039924722 -0.015707202 -0.013153198
-0.05892572 -0.011908374 -0.0723767 0.038310327 -0.0006837053 -0.048075072 -0.04367834 0.035557717
0.045449764 0.0013531697 0.057669498 -0.02240513 -0.04221919 0.025111634 -0.0070139053 0.00075372076
-0.06730497 0.013339074 -0.04728441 -0.07676481 0.048475534 -0.024217505 -0.027797347 0.1390133
0.06623264 -0.0011437916 -0.06658764 0.052981168 -0.044223674 0.052098095 0.067383364 -0.012715189
-0.062050775 0.053245075 0.01441168 0.021964315 -0.030728642 0.0067666443 -0.049289115 -0.033558056
-0.026256567 -0.018568393 -0.031382985 -0.022062415 -0.038905703 -0.07291736 -0.14053696 0.029275462
0.048536234 -0.022281162 5.345326e-05 -0.017526627 0.001202018 -0.021003991 0.00047201663 0.028971475
-0.015233435 0.054021157 -0.050418373 -0.0038287474 -0.064741254 -0.00771299 0.029416505 -0.0117947515
-0.013288729 -0.09041356 -0.017143667 -0.033445593 -0.00047898776 0.0048084 -0.05789941 -0.05764985
-0.0014324031 -0.017664414 -0.063086264 -0.019241739 -0.052779105 -0.105275884 -0.011850133 -0.024056045
-0.046966992 -0.041775353 -0.013072889 0.07142565 -0.075246006 -0.07601771 -0.113367155 -0.06026479
-0.020919323 -0.05317312 -0.040989935 -0.0043263673 0.030266996 0.03516957 0.06646667 -0.048370697
0.020151336 0.05541148 0.006488736 0.018798059 0.0038924604 0.024259957 -0.015909404 0.001451944
-0.037332572 -0.10443136 -0.06390313 -0.029158827 0.038004354 -0.032574814 -0.11024845 -0.03688904
-0.06944731 -0.018705666 0.013417391 0.030758485 -0.05392591 -0.10117535 -0.12436575 -0.038637098
-0.08750869 -0.10985708 -0.027768627 0.029665172 0.011712802 -0.094849065 0.0043754056 -0.040087245
0.019695245 -0.07270013 0.05503779 -0.053449824 0.005772135 0.032780327 -0.049896877 -0.11541481
-0.09253128 -0.063599154 -0.006622188 -0.004324103 -0.06585273 -0.14835435 -0.031272836 0.0042321444
0.053083196 -0.08867656 -0.03136695 -0.046666227 0.031881757 0.034552135 -0.048039306 -0.1390332
0.039982688 -0.10536647 -0.08048353 -0.06349704 -0.020829352 0.04523161 -0.0047248406 -0.061571393
-0.091684595 -0.019636642 -0.0446704 0.012534545 0.03762412 -0.0207211 -0.0034986548 -0.01870959
-0.009572445 -0.028517991 -0.0015681889 0.02454267 -0.04223211 0.03175581 -0.03571158 -0.008162241
-0.032700345 0.0011422895 -0.009586445 -0.018352928 -0.06173303 -0.027400207 -0.049403846 -0.010551745
0.0297748 -0.01416995 0.02872732 -0.021749627 -0.005035319 -0.01565525 -0.014658502 -0.0077091707

conv6.bias f4 [32]
00000000: 687c 01bd 13bf 8f3b 2220 383d c028 48be
00000010: 7ac5 92bd b09f a7bd 2c96 f33d 3c55 253d
00000020: 861d 3abe 72e0 b4bc 9bbe 8bbd ea9c f2bd
00000030: cab2 17be 77c1 1bbd 38f5 c83c 5fd0 2b3d
00000040: ea9c 72bd 9e7f e63d 5426 79bd 0c31 29bd
00000050: 44ad 46bd 4251 9d3d a4cf 39bd 98c0 9b39
00000060: b94d 8bbd b8ed efbd 8cb9 ea3d b793 91bd
00000070: 4ed3 eebd 5f44 bbbc 3421 0c3b a981 96ba
-0.031612784 0.0043867915 0.04495252 -0.19546795 -0.07166572 -0.08184755 0.118938774 0.04036449
-0.18175325 -0.02207968 -0.068234645 -0.11846335 -0.14814296 -0.0380263 0.024530992 0.041946765
-0.059231676 0.1125481 -0.06082757 -0.04130654 -0.048505083 0.07681514 -0.045364037 0.00029707397
-0.06801934 -0.11715263 0.114611715 -0.071082525 -0.11661397 -0.02285975 0.0021382095 -0.0011482734

conv7.weight f4 [32, 32, 3]
00000000: bce8 653d e44f 5a3d 6ca6 0c3d 076b 2dbd
00000010: 8218 76bd d63d 823d b7d5 e7bc a1ed 1bbd
00000020: 9afb 5e3c ae8b 393d 981f 0cbd 3b9b 52bd
00000030: 770a 223d bdee 2e3d b3aa 91bc 4424 123d
00000040: 2491 8f3d 629e b3bd 038a fe3c af31 b5bb
00000050: d183 9abd e4da 05bb 0245 c93c fc9b 023d
00000060: be0f b2bc c747 23bd 9bc4 fbbd 65f3 1e3c
00000070: 68d9 6c3c 6e7e 13bc e56b 9f3c 34a9 c73c
00000080: a58d a43c abc7 8cbb 85aa 343c 72c7 593b
00000090: 52c7 e83c a27a 1b3d 76d8 d03c 248e 12bd
000000a0: 2764 cfba f79a 513d f012 ef3b 1007 053d
000000b0: d034 38bd 3ade 0e3c b60c 0bbc 3aae 49bd
000000c0: 0ed5 413d afc8 913d cd84 19be e522 813c
000000d0: 46ef 3a3d e8e8 e23d c89f d8bb 2e0b acbb
000000e0: e022 72bd afb7 df3c c6e9 623d 7a7b 613d
000000f0: b6df 7cbd 6980 3dbd 828e 52bd 3677 173d
00000100: bfd0 3a3d 3923 73bd a21f e93b 1059 9b3d
00000110: 5ae7 d63c 8d0e 13bb 58f4 26bd 82a5 76bd
00000120: ce81 7ebd 0cc7 dbbc 13f8 c5bd 7de0 51bc
00000130: 6f3d a23d caf6 683d a4a0 153d 7c1e a13d
00000140: dce1 e33b f88e 1f3d 263f b53c 8447 5ebd
00000150: d405 86bb e281 cb3c f6d2 b5bd 7228 98bb
00000160: d49b 84bc 1b13 a2bd 8839 89bd 62e2 ec3c
00000170: a97b 283d 2bf3 c23c 4d64 03bc 32d4 1bbd
00000180: 32e8 d2bc 924a 133d 8b97 623d 94ae 23bd
00000190: 1f5c 1bbd 3ffd 423d 8efe 86bc 18b3 c4bb
000001a0: 0e82 c23c 0478 66bd 0611 27be 131b 01be
000001b0: 471f a5bc f00d 35bd 9d4c 1cbd 6a47 d4bc
000001c0: 500a d63a 2667 373d 8095 05bb 92a7 32bc
000001d0: b297 93bc 04e0 d03c aa94 c73c 2f36 723c
000001e0: 0c97 39bd b6ee 6cbc 6f13 e5bc 096b 7b3c
000001f0: 87f5 03bc 3450 57bd 1020 d93c 18af 6b3d
00000200: 0143 753d 66b7 d13c 92d1 f33c f6e0 713d
00000210: 984d 2c3d 321e 823d 1643 d13c aefb 69bc
00000220: 3457 b83c f2bd 5f3c 6daf cfbc c556 62bc
00000230: 469d 47bc 0c0e 113d ba48 f23c aff8 213c
00000240: 63c8 af3c 5a37 9e3c 3075 4cbd 64da 543d
00000250: af6a 213d 5cc3 553d 94b5 a1bd b425 5ebd
00000260: 2afd e7bb 806a e33c aad5 143d 74b6 053d
00000270: 2a01 cbbc 56b4 77bd 59ca 24bd e833 283b
00000280: a3e8 513c 5082 ed3c f43d b63c be40 843d
00000290: 7ba9 073d 34f3 4abc 153d 6cbd 3e0e 6cbc
000002a0: acf4 3abd 525e 7e3c 54c3 e93c 48c5 60bd
000002b0: c76f 4c3d bda6 623d 47ca d3bc 76fa c23c
000002c0: 0e87 2c3d b21a 243d 0c6d 563d f0e7 383c
000002d0: a21c 25bd 5a53 97bd 58d7 b8bd eeed 54bd
000002e0: 5dfe a0bd d090 3cbd 7105 e93c b9da babc
000002f0: ccbe 25bd c1c6 f63c 5213 683c 4954 d7bc
00000300: 5695 b5bc 8d14 4cbd 8bef 1cbd 006d 9f3c
00000310: aa33 f2bb eaa1 2a3b f1a0 81bd bb37 ac3d
00000320: b0a6 95ba 86a7 40bd eea4 c2bd 340f e0ba
00000330: 9441 3cbb 8a73 3abd 170f 033d d03c 793d
00000340: 343e 89bc 40be a9ba dd13 293d 8742 b63c
00000350: c07f 73bd 6054 983d 7500 08bc 9b36 23bd
00000360: 36fa ab3d ef46 93bc 80a0 09bd e8c9 b03d
00000370: 59a8 16bd 7e9a 8c3c 4c71 b33c e8b2 a43d
00000380: f7a7 b3bc 2617 38bc 8b94 64bc bcda 88bd
00000390: c942 073d ffc3 bb3c f0f8 cb3d 2db0 bf3a
000003a0: 96e4 97bc 4e36 2fbc b307 ca3c 75cd 933b
000003b0: 1fff 28bc 646a ffbb 32f3 963d 2ecd 14bd
000003c0: 79e5 87bc fa69 24ba c0a0 8e3c 96f2 babc
000003d0: ccc1 583d 36c9 81bd 27f1 8d3c 6bd9 90bd
000003e0: d0f6 18bd 9649 d73c ef7f de3c 6519 bc3c
000003f0: 8a69 7d3d 989c d6bc f529 34bd 3c9e 9dbd
0.056130156 0.053298846 0.0343384 -0.042338397 -0.060081966 0.063594505 -0.02830015 -0.038068417
0.013609791 0.045299225 -0.034209818 -0.05141757 0.03956076 0.042708147 -0.017781591 0.035679117
0.07010105 -0.087704435 0.031071668 -0.0055296044 -0.07544673 -0.0020424658 0.024569038 0.03188704
-0.021736022 -0.039863374 -0.12293359 0.0097015845 0.014456131 -0.009002311 0.019460628 0.024372675
0.020087073 -0.004296263 0.011026983 0.003323045 0.028415356 0.03795875 0.025493842 -0.035780087
-0.0015822694 0.051173177 0.0072959587 0.03247744 -0.04497224 0.008719975 -0.008486917 -0.04923842
0.047322325 0.071183555 -0.14992066 0.01576371 0.045638345 0.110795796 -0.0066108443 -0.005250356
-0.05911529 0.027309267 0.055398725 0.055049397 -0.061736785 -0.04626504 -0.051405437 0.036978923
0.045609232 -0.059359763 0.0071143666 0.07585347 0.026233364 -0.0022439093 -0.040760368 -0.060216434
-0.06213551 -0.026828311 -0.09666457 -0.01280987 0.07921874 0.05687598 0.036530152 0.078671426
0.006954415 0.038954705 0.022124838 -0.05426742 -0.0040900502 0.024842206 -0.08878128 -0.0046434933
-0.016187586 -0.079138 -0.06700426 0.028916541 0.041133557 0.023797592 -0.008019519 -0.038044162
-0.025745485 0.035959788 0.055320304 -0.039961413 -0.03792965 0.047604796 -0.016478803 -0.006002795
0.023743656 -0.0562668 -0.16315088 -0.12607984 -0.020156516 -0.044202745 -0.038159 -0.02591296
0.0016329978 0.044776104 -0.0020383298 -0.01090421 -0.01801667 0.025497444 0.02436288 0.014783426
-0.045310065 -0.01446121 -0.027963368 0.015345343 -0.008054144 -0.052566722 0.026504546 0.05754003
0.059878353 0.025600147 0.029763017 0.05905243 0.042066187 0.063534155 0.025544684 -0.0142811965
0.02250252 0.013656126 -0.025352204 -0.013814633 -0.012183493 0.035413787 0.029575694 0.009885951
0.021457857 0.019313503 -0.049916446 0.051966086 0.039408382 0.052188262 -0.078959614 -0.054235175
-0.00707974 0.027760744 0.03633658 0.032644704 -0.024780829 -0.060474716 -0.040232036 0.0025665704
0.012811813 0.028992802 0.022246338 0.06457661 0.033120614 -0.012387086 -0.05767544 -0.0144076925
-0.045643494 0.015525417 0.028535523 -0.054875642 0.049911287 0.055334795 -0.02585329 0.02380107
0.042120986 0.04006452 0.05235009 0.011285767 -0.04031051 -0.07388945 -0.090254486 -0.05198472
-0.07861016 -0.04603654 0.028444977 -0.022809373 -0.04046516 0.03012407 0.014164763 -0.026285307
-0.022165935 -0.049824286 -0.038314383 0.019461155 -0.0073914127 0.002603645 -0.06329525 0.08409067
-0.0011417475 -0.047034763 -0.09504114 -0.0017094375 -0.002872561 -0.045520343 0.031996813 0.06084901
-0.016753294 -0.0012950376 0.04127871 0.02224852 -0.059448004 0.07437968 -0.00830089 -0.039846998
0.08397333 -0.01797816 -0.03360033 0.086322606 -0.036781643 0.017163511 0.02190461 0.08041936
-0.021930678 -0.011235988 -0.013951431 -0.06682345 0.033022676 0.022920607 0.099595904 0.0014624648
-0.018541615 -0.0106941 0.024661874 0.0045105764 -0.010314732 -0.007794665 0.073706046 -0.036328487
-0.016588913 -0.0006271895 0.017410636 -0.022820752 0.052919194 -0.06337206 0.017326904 -0.07072719
-0.037344754 0.026280206 0.027160613 0.022961328 0.061868228 -0.026197717 -0.043985326 -0.076961964

conv7.bias f4 [32]
00000000: c4dc b23d 5a79 99bc 78c1 1a3d c2ba 07bc
00000010: 79e7 0fbe bedd a83d 09a9 fe3b 804c f1bd
00000020: 21e6 bd3d b790 a33d 0b71 24bd 2685 6ebd
00000030: f5eb 7abc 60a6 483c 0d50 043c 44ba e13d
00000040: 2bab 1a3c 1429 46bd adea cc3c 97cf 063d
00000050: 63a4 5a3d 22d5 823d 0f42 85bd c22f c53d
00000060: 40f8 7e3d 55a3 ca3d cf10 67bb 4888 323c
00000070: 2aee 01bd c7f9 5cbd 4fa1 a03d e8d9 e1bc
0.08733514 -0.018734623 0.037782162 -0.008284273 -0.14053144 0.08245419 0.0077716154 -0.11782169
0.09272409 0.079865865 -0.04014687 -0.05823245 -0.015315046 0.012246698 0.008075726 0.110218555
0.009440224 -0.04837902 0.025014246 0.032912817 0.053379428 0.06388308 -0.0650674 0.0962825
0.06224847 0.09894434 -0.0035257821 0.01089675 -0.03172127 -0.053949144 0.07843267 -0.027569726
