SCAFFOLD_2/cli1_model_parameters.pth (torch, 767010 bytes, 51 tensors)

conv1.weight f4 [32, 2, 3]
0	0x3dfaf78f	0.12254249
1	0x3dec7717	0.11546152
2	0x3eb9aee3	0.3626624
3	0x3ea58a68	0.32332158
4	0xbdecadbc	-0.11556575
5	0x3ec8d426	0.39224356
6	0x3e20828c	0.156748
7	0x3e707788	0.23483098
8	0x3ea5c887	0.32379553
9	0x3e7c4870	0.24637008
10	0x3c885ca0	0.01664573
11	0x3d91e310	0.07123387
12	0x3ca9b192	0.020714555
13	0x3e96a79c	0.2942475
14	0xbea20edb	-0.3165196
15	0xbd9353e4	-0.07193735
16	0xbc9117a0	-0.01771146
17	0xbe60b5b8	-0.2194432
18	0xbea19bae	-0.31564087
19	0xbe95d17c	-0.29261386
20	0x3dc5ca58	0.09657735
21	0xbea686bb	-0.32524666
22	0xbe36c91d	-0.17850156
23	0x3d757cd0	0.059933484
24	0x3bd07318	0.0063613765
25	0xbe46c0e9	-0.19409527
26	0x3e2185bf	0.15773676
27	0xbd71acc0	-0.059002638
28	0xbe868232	-0.26271206
29	0xbd8a546c	-0.067543834
30	0xbdef3c41	-0.116814144
31	0x3d4ad8a7	0.049523022
32	0x3c32fc37	0.0109243905
33	0x3eb0fe82	0.34569174
34	0xbdaa64a4	-0.08319977
35	0xbc422800	-0.011850357
36	0xbebfed91	-0.37485936
37	0x3e931a1c	0.28730857
38	0xbe91876c	-0.2842363
39	0x3daf2f20	0.0855391
40	0xbe2908b0	-0.1650722
41	0x3ec64cf4	0.38730586
42	0x3e835ae0	0.2565527
43	0xbd39fb30	-0.045405567
44	0xbe2cc210	-0.16870904
45	0x3eaacbd0	0.33358622
46	0xbe31c441	-0.17360021
47	0x3e0a34e4	0.13496739
48	0xbe739c23	-0.2379003
49	0xbe64dcfc	-0.22349924
50	0x3e9fcd79	0.3121145
51	0xbecd0ab9	-0.40047243
52	0x3dae01d0	0.084964395
53	0x3bcd1c00	0.0062594414
54	0xbdc53fd1	-0.09631313
55	0x3ea45b2f	0.32100818
56	0x3e04b24f	0.12958644
57	0x3e0268b8	0.1273526
58	0x3e5fb9d0	0.21848226
59	0xbe883a31	-0.26606897
60	0x3e144458	0.14479196
61	0x3e007ad0	0.12546849
62	0xbe956bfb	-0.29183945
63	0xbe2addf8	-0.16686237
64	0x3ea0ef6c	0.31432664
65	0x3eb40262	0.35158068
66	0x3d343d80	0.044003963
67	0xbe8d56e6	-0.2760536
68	0xbecd4515	-0.40091768
69	0x3dc22590	0.09479821
70	0xbde237b4	-0.11045781
71	0x3dd4b8f8	0.103868425
72	0xbd21ef88	-0.039535075
73	0xbeaedba5	-0.3415195
74	0xbd8dd0b0	-0.069245696
75	0xbdce1b50	-0.10063803
76	0x3ed0f276	0.40809983
77	0xbe93052d	-0.28714886
78	0x3c1105fe	0.008851526
79	0xbe9b5ea6	-0.3034565
80	0xbeb8b567	-0.360759
81	0xbe2ebb79	-0.17063703
82	0xbca42710	-0.020038158
83	0x3e6be7c4	0.2303763
84	0x3eb6abdf	0.35678002
85	0x3d958495	0.07300679
86	0xba0ededf	-0.00054500805
87	0x3ea0ed72	0.31431156
88	0xbe045004	-0.12921149
89	0xb9781000	-0.00023657084
90	0x3e00f42e	0.12593147
91	0xbd29ca72	-0.041452833
92	0x3eaba75f	0.33526132
93	0xbe2083ac	-0.15675229
94	0x3e854486	0.26028842
95	0x3e8806f2	0.265678
96	0xbdb46ec0	-0.088101864
97	0x3e97b470	0.2962985
98	0x3e9c31ca	0.30506736
99	0x3ea4f2f8	0.3221662
100	0xbe162c7c	-0.14665407
101	0x3ea56bdc	0.32308853
102	0x3e26e441	0.1629801
103	0x3ea65e24	0.324937
104	0xbeb99f44	-0.36254323
105	0xbd0dcba8	-0.03461805
106	0x3ec6b1da	0.38807565
107	0x3ebe9aa4	0.37227356
108	0xbe82baca	-0.25533134
109	0xbe4e0ace	-0.20121309
110	0x3b61d5c4	0.003445969
111	0xba934a00	-0.0011237264
112	0xbdd59980	-0.104296684
113	0x3e93a8d6	0.2883975
114	0xbec279b4	-0.37983477
115	0x3e97e98c	0.2967037
116	0xbe5fbf3c	-0.21850294
117	0xbeaa8ca3	-0.33310422
118	0xbe137738	-0.14400947
119	0x3ea4f0b4	0.32214892
120	0x3eb68294	0.35646498
121	0x3e9e6a0b	0.3094028
122	0x3e78fc6f	0.24315046
123	0x3e995c2c	0.29953134
124	0xbdc172f8	-0.09445757
125	0xbd76ea10	-0.060281813
126	0x3ebdd217	0.37074348
127	0x3e617ebd	0.22021003
128	0x3dffdc8a	0.12493236
129	0x3ec37ca8	0.38181043
130	0xbe837702	-0.25676733
131	0xbebeac30	-0.37240744
132	0x3ec7a693	0.38994274
133	0x3e752f8e	0.23943922
134	0xbe5f33c0	-0.21797085
135	0xbe81ea74	-0.25374186
136	0xbe894354	-0.2680918
137	0x3daf9b3c	0.085745305
138	0x3ed2de9a	0.41185457
139	0xbeb2c861	-0.34918502
140	0xbe98ef09	-0.2986987
141	0xbe55303e	-0.20819184
142	0xbde7a6f8	-0.11311144
143	0xbebe3fd2	-0.37158066
144	0xbee471a3	-0.44617948
145	0xbd16b0ab	-0.036789577
146	0x3e845e04	0.25852978
147	0x3e7868a8	0.24258673
148	0x3e287638	0.16451347
149	0x3e175760	0.14779425
150	0xbbbdfc90	-0.00579793
151	0xbe16a302	-0.1471062
152	0xbec24e89	-0.37950543
153	0xbdffc08c	-0.12487897
154	0xbea4cdeb	-0.32188353
155	0xbe2e0aee	-0.16996357
156	0x3e9119f6	0.2834012
157	0x3e1554d4	0.1458314
158	0xbed58310	-0.41701555
159	0xbec4fe6c	-0.38475358
160	0x3e9a65ee	0.3015589
161	0x3ec5d5be	0.38639635
162	0xbe2960e3	-0.16540866
163	0x3e293e31	0.1652763
164	0xbe033f6a	-0.1281716
165	0x3e58c8d4	0.2117036
166	0x3cc1e100	0.023666859
167	0xbe739bcf	-0.23789905
168	0x3ea17ebf	0.31542012
169	0xbdced1e9	-0.10098631
170	0xbdf75681	-0.12077046
171	0xbd050ac8	-0.032480985
172	0x3e034288	0.12818348
173	0x3e96f05e	0.2948026
174	0x3ea011c2	0.31263548
175	0xbe83a08a	-0.2570842
176	0xbde0bcfc	-0.10973546
177	0xbe38881c	-0.18020672
178	0xbe63e2f3	-0.22254543
179	0xbe9260e4	-0.28589547
180	0xbe94adbe	-0.29038805
181	0xbe8312cc	-0.25600278
182	0x3dd9022e	0.10596119
183	0x3ebc350e	0.36759228
184	0xbe90800e	-0.28222698
185	0x3d0e0f38	0.034682482
186	0xbe7c2881	-0.24624826
187	0x3e3140f5	0.17309935
188	0xbe4a3ec3	-0.19750504
189	0x3e8e8b08	0.27840447
190	0xbea5f76a	-0.32415324
191	0xbe42ce18	-0.19023931

conv1.bias f4 [32]
0	0x3ec76e02	0.38951117
1	0x3e23d3bb	0.15998738
2	0xbe667c0f	-0.22508262
3	0xbd5f5040	-0.05451989
4	0xbe456887	-0.19278155
5	0x3db8c8cc	0.09022674
6	0xbebc419c	-0.36768806
7	0xbec284e8	-0.37992024
8	0xbe2375c2	-0.1596289
9	0xbe6a954a	-0.22908512
10	0xbe7af770	-0.24508452
11	0x3eb7ca44	0.35896504
12	0x3eba990c	0.3644489
13	0x3e3ffa8b	0.18747918
14	0xbc72e3d3	-0.014824825
15	0xbe81c806	-0.25347918
16	0xbebc52ce	-0.36781925
17	0xbe86708e	-0.26257747
18	0xbe9030bc	-0.2816218
19	0xbe9413d7	-0.28921387
20	0x3cb835c6	0.022486579
21	0xbe5e8318	-0.21729696
22	0xbe8d96dc	-0.2765416
23	0x3e3f44cf	0.18678592
24	0xbe646ff9	-0.22308339
25	0xbebe52ae	-0.37172455
26	0x3e284716	0.16433367
27	0xbcd8f30b	-0.02648308
28	0xbe8eb90f	-0.27875564
29	0xbea6fe1c	-0.32615745
30	0xbc7388bb	-0.014864142
31	0xbdac7c8f	-0.08422195

conv2.weight f4 [32, 32, 3]
0	0x3da1dfbd	0.07904003
1	0xbc18bb39	-0.009321981
2	0x3d7d2d1a	0.06181059
3	0xbdbc0f7d	-0.09182642
4	0x3ccb2221	0.024796547
5	0x3c85a363	0.01631326
6	0xbcaccd14	-0.021093883
7	0xbb56480f	-0.003269676
8	0x3b8803ff	0.004150867
9	0xbcbd5871	-0.023113461
10	0xbcdec96e	-0.027195659
11	0xbd95f264	-0.07321623
12	0x3d821306	0.06351285
13	0x3cee47d3	0.029086983
14	0xbcee9233	-0.029122448
15	0x3c62f7d1	0.013853029
16	0x3b5dbab1	0.00338332
17	0x3d21f024	0.039535657
18	0x3cbf8528	0.023378924
19	0xbd24b64b	-0.04021291
20	0xbd940604	-0.0722771
21	0xbd1b0c0e	-0.037853293
22	0x3db1100d	0.086456396
23	0xbd680007	-0.05664065
24	0x3d8cfb57	0.06883877
25	0x3af3f42f	0.0018612201
26	0x3d8f1489	0.06986339
27	0x3dccaf98	0.09994429
28	0xbc83adba	-0.01607405
29	0xbb7fda77	-0.0039040127
30	0x3da7197f	0.0815916
31	0x3d39c293	0.045351576
32	0xbc84ad07	-0.016195787
33	0x3dbe1126	0.092806146
34	0x3ca63fa6	0.020294022
35	0xbc863fcb	-0.01638784
36	0xbd60b3ca	-0.05485896
37	0xbd8a0b15	-0.06740395
38	0xbce1e934	-0.02757702
39	0x3c44b153	0.012005168
40	0x3dbf556a	0.09342463
41	0xbd761163	-0.060075175
42	0x3daa2f68	0.08309823
43	0xbde2eeac	-0.11080679
44	0x3bafa0f0	0.0053597614
45	0x3db82f4c	0.08993396
46	0xbd65e9e5	-0.056131262
47	0xbc8336ba	-0.016017307
48	0x3d625a7c	0.055262074
49	0x3aaef0a9	0.0013346869
50	0xbcc61f7d	-0.024184937
51	0xbc042d21	-0.0080674
52	0xbdb01c30	-0.08599126
53	0xbd54ddd2	-0.051969357
54	0x3d6d1741	0.057883505
55	0x3ce9f462	0.028558914
56	0xbbbf7058	-0.00584225
57	0x3d9bbcdf	0.07604384
58	0x3dbb4ac9	0.091451235
59	0x3d106890	0.03525597
60	0xbd88438f	-0.06653511
61	0x3daad59a	0.083415225
62	0x3dc74f79	0.09731955
63	0x3d30a4a7	0.043125775
64	0xbdb02d4f	-0.08602392
65	0xbae1568c	-0.0017191931
66	0xbce6f6e2	-0.028193895
67	0xbd7c2401	-0.061557774
68	0x3cb6abff	0.022298811
69	0xbdb1efaf	-0.08688294
70	0xbda4e256	-0.08050983
71	0xbd2462a6	-0.04013314
72	0x3d0255b1	0.031820003
73	0x3b994433	0.0046773194
74	0x3d80e674	0.062939554
75	0x3d5817d1	0.052757088
76	0xbd9d5d68	-0.076838315
77	0xbbbddee8	-0.0057943948
78	0xbc94bb29	-0.018155651
79	0x3d5c27d9	0.05374894
80	0x3dca0738	0.09864658
81	0xbc7625f4	-0.015023697
82	0xbd6233fe	-0.055225365
83	0xbd2cf5cb	-0.042226594
84	0xbd8dbf27	-0.06921225
85	0x3d332060	0.043732047
86	0xbcd193ef	-0.025583236
87	0x3cf70fb4	0.030158855
88	0xbd3738f3	-0.044732045
89	0xbd73f2f3	-0.059557866
90	0xbd8bf19f	-0.06833195
91	0x3c0437f5	0.008069982
92	0x3d95d1df	0.0731542
93	0x3aebee6b	0.0018000131
94	0x3c8743ec	0.01651188
95	0x3b1206ca	0.0022281879
96	0xbd1dfb62	-0.038569815
97	0xbcbf203e	-0.023330804
98	0xbd2e8251	-0.04260475
99	0x3d9265ef	0.071483485
100	0xbd26b7af	-0.040702518
101	0x3dcd71cb	0.1003147
102	0xbdb26697	-0.08710974
103	0x3db79a82	0.08965017
104	0x3d38e11a	0.04513655
105	0xbdc6f88a	-0.09715374
106	0x3c93e387	0.01805283
107	0xbda492fc	-0.080358475
108	0xbd81f28e	-0.06345092
109	0x3c31b4d5	0.010846336
110	0x3cb8b9e1	0.022549571
111	0x3c492bd7	0.012278519
112	0x3db30561	0.0874126
113	0xbd1c6deb	-0.038190763
114	0xbda20c75	-0.07912532
115	0x3cc62d8f	0.024191646
116	0xba5b0632	-0.000835511
117	0x3d8bacfe	0.06820105
118	0x3d4e8637	0.050420966
119	0xbd776b2c	-0.06040494
120	0x3d0ba6df	0.034094688
121	0x3cdd7805	0.027034769
122	0x3c4fe19f	0.01268807
123	0x3c8965f5	0.01677225
124	0x3d6442dd	0.05572783
125	0x3c39725e	0.011318771
126	0xbd6bd15e	-0.057572715
127	0xbd441e17	-0.04788026
128	0x3d91ea8b	0.07124814
129	0xbd900ff9	-0.070342965
130	0x3b90fc85	0.004424634
131	0xbd50d1bb	-0.050981265
132	0x3cef8226	0.029236864
133	0xbd21a865	-0.039467234
134	0xbdd3c386	-0.103400275
135	0xbcf5fbcd	-0.030027295
136	0x3d122f87	0.035689857
137	0x3cba3842	0.022731904
138	0xbd0bc2a1	-0.03412116
139	0x3d5c6841	0.05381036
140	0x3dc4164d	0.09574566
141	0xbdaf0fec	-0.08547959
142	0xbd193a11	-0.037408892
143	0x3d69caaf	0.05707806
144	0x3d1848cd	0.037178803
145	0x3d2ecdeb	0.042676847
146	0x3af239ab	0.0018480321
147	0x3c8e99f1	0.01740739
148	0x3d16c04b	0.03680448
149	0x3dba40d9	0.090944
150	0xbd86c5d6	-0.06580703
151	0xbd975385	-0.07388977
152	0xbda309b0	-0.07960832
153	0xbb5fa647	-0.0034126209
154	0x3d8232ec	0.06357369
155	0xbd505d0a	-0.05086998
156	0x3bdf9a4c	0.0068238135
157	0xbd504d90	-0.05085522
158	0x3d014f34	0.031569675
159	0x3dfed0bc	0.12442157
160	0x3cac0b55	0.021001497
161	0xbd7ab5a0	-0.061208367
162	0xbd9f0a5f	-0.0776565
163	0x3c30b781	0.010785938
164	0x3d2d8e4c	0.042372033
165	0x3d3122cc	0.043246076
166	0x3cdd3013	0.027000463
167	0xbae0e495	-0.0017157967
168	0x3c4183ac	0.011811178
169	0xbdb7b7e1	-0.08970619
170	0x3cd0d140	0.025490403
171	0xbb9427d1	-0.004521348
172	0x3d3b3fe4	0.045715228
173	0xbb209eac	-0.0024508638
174	0x3d9a6cf8	0.075403154
175	0x3bde4b9d	0.006783916
176	0x3d1df86a	0.038566984
177	0xbdb5d38b	-0.08878239
178	0x3dd2e44c	0.102974504
179	0xbcf8203f	-0.030288814
180	0x3d6f07d4	0.058357075
181	0x3d83ea8b	0.0644122
182	0x3db2a704	0.08723262
183	0x3c0e674e	0.008691622
184	0xbd83701d	-0.06417868
185	0x3c8d5470	0.017252177
186	0xbc46adaf	-0.01212637
187	0x3cad1122	0.021126334
188	0x3db37408	0.087623656
189	0xbd6d63a6	-0.05795636
190	0xbd48bb7b	-0.04900692
191	0xbd0aff93	-0.03393514
192	0x3d1f7324	0.038928166
193	0x3d4b4096	0.04962214
194	0xbd502154	-0.050813034
195	0x3dc3a9e2	0.09553887
196	0xbd4aeb9e	-0.04954111
197	0x3dc47760	0.095930815
198	0x3d5d6099	0.0540472
199	0xbc541202	-0.0129437465
200	0x3c810fe8	0.015754655
201	0xbc132c7b	-0.008982773
202	0x3c08924a	0.008335659
203	0x3d817e59	0.06322927
204	0xbd8647d7	-0.06556671
205	0x3d877092	0.06613268
206	0xbd1aaa63	-0.03776015
207	0xbcd3c18a	-0.025849123
208	0x3d8b0ae7	0.06789189
209	0x3dc097d6	0.094039604
210	0xbdb1e65f	-0.08686518
211	0xbcc0f76a	-0.023555476
212	0x3db7a0ef	0.089662425
213	0x3cf2ee54	0.02965466
214	0xbc68659f	-0.014184385
215	0x3dd05b99	0.10173721
216	0xbb0e8730	-0.0021748058
217	0x3c6c0f30	0.014407918
218	0x3d984e89	0.074368544
219	0xbd521f72	-0.05129952
220	0xbd830061	-0.06396557
221	0xbdde9faa	-0.10870297
222	0xbd22b791	-0.039725844
223	0xbd253d59	-0.04034171
224	0x3c413fc1	0.011794985
225	0xbaaaf473	-0.0013042822
226	0xbdf004ec	-0.11719689
227	0xbcfb9389	-0.030709999
228	0x3db61bda	0.08892031
229	0xba9afbc6	-0.0011824302
230	0x3dae6708	0.085157454
231	0x3cf67b28	0.030088022
232	0xbce1dac9	-0.027570145
233	0x3d3fb532	0.04680366
234	0x3d97a0a1	0.074036844
235	0x3d27dc2f	0.040981468
236	0x3da1fd09	0.07909591
237	0xbdb293df	-0.087196104
238	0xbde498f3	-0.11161985
239	0xbdb8a15d	-0.090151526
240	0xbda54aff	-0.08070945
241	0xbd66da0d	-0.056360293
242	0xbb0b91ee	-0.0021296698
243	0x39f80f82	0.000473138
244	0xbd38e7fb	-0.04514311
245	0x3cfd5337	0.030923469
246	0x3cecaa6e	0.028889861
247	0xbd0edc41	-0.03487802
248	0xba81accd	-0.0009893418
249	0xbd926e3b	-0.07149931
250	0xbdd671d0	-0.10470927
251	0x3c365223	0.011127981
252	0x3c8bf6fa	0.017085541
253	0x3d310d8a	0.043225802
254	0x3b02cefb	0.0019959796
255	0xbc1a6252	-0.009422855

conv2.bias f4 [32]
0	0xbcce8030	-0.025207609
1	0xbcdbe89b	-0.026844313
2	0xbaecd4e4	-0.0018068817
3	0x3d5da69c	0.05411397
4	0xbd191be1	-0.037380103
5	0xbd3797ba	-0.044822432
6	0xbcf56ae5	-0.029958198
7	0x3ca9490b	0.020664712
8	0xbd9e44c2	-0.07727958
9	0xbdc2126d	-0.09476171
10	0xbcf7bbf1	-0.030240985
11	0xbd817389	-0.06320865
12	0x3d9d9c53	0.07695832
13	0x3dde4ba4	0.10854271
14	0xbbfae214	-0.007656345
15	0xbdfa9d1a	-0.12236996
16	0x3ca77305	0.020440588
17	0xbdbdafd4	-0.09262052
18	0x3c2b0a76	0.010439506
19	0x3d9b259a	0.07575531
20	0x3c009a5c	0.007849302
21	0xbd9a4f8b	-0.07534703
22	0x3cb5d7d4	0.022197641
23	0x3d5ab29a	0.053392984
24	0x3a082790	0.00051938836
25	0x3d7b8526	0.061406277
26	0x3c844153	0.01614443
27	0x3db25c4a	0.08709009
28	0x3cbd5cd2	0.02311555
29	0xbd42584e	-0.047447495
30	0x3dc1ec1e	0.09468864
31	0xbc1cedb5	-0.009578158

conv3.weight f4 [32, 32, 3]
0	0xbcb1fc55	-0.021726767
1	0xbd13f7eb	-0.036125105
2	0xbd31852c	-0.043339893
3	0x3d3d407e	0.046204083
4	0x3debe9dc	0.115192145
5	0x3c745396	0.014912507
6	0xbca0c65e	-0.019625839
7	0xbc420411	-0.01184179
8	0xbd6dfec5	-0.058104295
9	0x3da6288e	0.08113204
10	0x3dc68953	0.09694161
11	0xbd92edca	-0.07174261
12	0x3c10e802	0.0088443775
13	0x3b05d930	0.0020423643
14	0x3da5e6e8	0.081006825
15	0xbbba74e3	-0.0056902035
16	0x3dbb0409	0.09131629
17	0x3cfd3e0e	0.030913379
18	0xbdab85af	-0.083751075
19	0x3d7db783	0.06194259
20	0x3dced55b	0.10099288
21	0x3d323e90	0.043516695
22	0x3ce42248	0.027848378
23	0x3dbf16b2	0.09330501
24	0x3d5b9db8	0.05361721
25	0x3dd24f80	0.1026907
26	0x3d8254fd	0.063638665
27	0x3d6d205e	0.057892196
28	0x3d68566f	0.056723054
29	0xbdbc961a	-0.09208317
30	0x3d81038b	0.06299504
31	0x3c2f59dc	0.0107025765
32	0x3dce3383	0.10068419
33	0x3da6ea11	0.081501134
34	0x3dc86268	0.097843945
35	0xbd49d26a	-0.049272932
36	0xbd1c1e14	-0.038114622
37	0xbd166a6a	-0.036722578
38	0xbd57f33a	-0.052722193
39	0x3d807aff	0.0627346
40	0x3db7dd84	0.089777976
41	0x3dad5240	0.084629536
42	0xbc53154c	-0.012883496
43	0xbc1b078b	-0.009462248
44	0xbcf50a64	-0.029912181
45	0xbd3758c1	-0.044762377
46	0xbdd49d96	-0.1038162
47	0xbd9cd088	-0.07656962
48	0x3d92c4b6	0.07166426
49	0xbd31992a	-0.04335896
50	0xbd972419	-0.07379932
51	0xbd8a35dd	-0.06748555
52	0x3d6c4d65	0.057690997
53	0x3d77595d	0.060387958
54	0xbd900490	-0.0703212
55	0x3d8dfadb	0.069326125
56	0xbd12dcb9	-0.03585503
57	0xbd2badad	-0.041913677
58	0x3db9d644	0.09074071
59	0xbb8bf3ff	-0.00427103
60	0x3d0b36aa	0.03398768
61	0x3da75da0	0.081721544
62	0xbce81663	-0.028330987
63	0x3d32b547	0.04362991
64	0x3de4eebf	0.1117835
65	0x3e006966	0.12540206
66	0xbd91c1c0	-0.07117033
67	0xbc285ef7	-0.010276548
68	0xbc5d56a4	-0.013509426
69	0x3d9caa97	0.07649725
70	0x3c5644f0	0.013077959
71	0x3d904f7a	0.07046409
72	0xbd9d692c	-0.076860756
73	0xbc7c0997	-0.015383146
74	0xbd17ccdd	-0.037060607
75	0x3d9f6d36	0.07784502
76	0xbb4e0ff7	-0.0031442621
77	0x3d64e271	0.055880014
78	0xbd8d2789	-0.06892306
79	0xbd262195	-0.04055937
80	0xbdbc5070	-0.0919503
81	0xbd07cee0	-0.033156276
82	0xbd7e631b	-0.062106233
83	0x3dbc2220	0.09186196
84	0xbd197065	-0.037460703
85	0xbda6ba4f	-0.08141004
86	0xbd83e3ed	-0.06439958
87	0xbd9bb838	-0.07603496
88	0xbd935e05	-0.07195667
89	0xbdceb6e7	-0.100934796
90	0x3dcbe731	0.09956206
91	0x3ce11ee6	0.027480554
92	0x3d4522e4	0.048128977
93	0x3dadbbd3	0.0848309
94	0xbd25ee3a	-0.040510394
95	0x3b5fa66b	0.0034126292
96	0xbd1e751d	-0.038685907
97	0xbdc09059	-0.09402532
98	0x3d880ed3	0.066434525
99	0xbd605d6c	-0.054776594
100	0x3d6fef2e	0.05857771
101	0x3d7b9a4d	0.06142645
102	0x3d0ffd14	0.035153463
103	0x3d87e640	0.066357136
104	0x3da4c5ea	0.080455616
105	0x3d4603f0	0.0483436
106	0xbdb9f34f	-0.090796106
107	0x3da633a5	0.08115319
108	0xbd13c935	-0.036080558
109	0xbd85b834	-0.065292746
110	0x3bd53911	0.006507047
111	0xbd88cd1a	-0.06679745
112	0x3d2dd642	0.04244066
113	0x3da43ba4	0.08019188
114	0x3d515b4c	0.051112458
115	0x3d484937	0.048897948
116	0xbd474d23	-0.048657548
117	0x3ce50d8a	0.027960557
118	0x3d9ef296	0.07761113
119	0x3c3c1a94	0.011480946
120	0xbdc18200	-0.09448624
121	0xbce3bf95	-0.027801314
122	0x3cc2ee3f	0.023795245
123	0x3b18b5bb	0.002330168
124	0x3cb2b902	0.021816734
125	0x3dd8a71d	0.10578749
126	0xbd10c2db	-0.03534208
127	0xbdd5f091	-0.10446275
128	0xbd2cf6f1	-0.04222769
129	0xbd89a39d	-0.0672066
130	0xbcfb3a21	-0.030667366
131	0x3d9b1949	0.07573182
132	0x3cb1e042	0.02171338
133	0xbda9569d	-0.08268473
134	0xbd051fe3	-0.032501113
135	0x3dbe7cf2	0.09301175
136	0x3db9c22d	0.09070239
137	0xbd47595a	-0.048669197
138	0x3d50e40e	0.05099874
139	0x3de3f0e0	0.11129928
140	0xbd963451	-0.07334197
141	0xbd0dbbf3	-0.03460307
142	0x3cfe17ee	0.03101727
143	0xbc47a8de	-0.012186257
144	0xbdb18a15	-0.08668915
145	0x3d909af6	0.070608065
146	0x3cfdbe60	0.030974567
147	0x3d5f30aa	0.05448977
148	0x3d805539	0.06266255
149	0xbdd2374e	-0.10264455
150	0x3c842ad9	0.016133713
151	0xbcd90f41	-0.026496531
152	0xbd9014ab	-0.07035192
153	0x3bc3059d	0.005951597
154	0xbd715b5f	-0.05892503
155	0xbd432c96	-0.047649942
156	0x3c827f35	0.015929798
157	0x3d839860	0.064255476
158	0xbc31ca41	-0.010851444
159	0x3c26f14c	0.010189366
160	0x3c6b9660	0.014379114
161	0x3da0849f	0.078377955
162	0xbd5967f9	-0.05307767
163	0xbcf1b9cb	-0.029507538
164	0xbd89495f	-0.067034476
165	0xbb913474	-0.0044313017
166	0x3dc01677	0.09379285
167	0x3cd45cab	0.025923094
168	0xbccc9657	-0.024974031
169	0x3cadfbcf	0.021238236
170	0x3ca1894b	0.019718787
171	0xbdccc784	-0.09998992
172	0xbd8e1410	-0.0693742
173	0x3d5ece0f	0.05439573
174	0xbd1dccd0	-0.038525403
175	0x3d0e102c	0.03468339
176	0x3cc4e960	0.024037063
177	0xbc00aeeb	-0.007854204
178	0x3dc3294d	0.09529362
179	0xbdc9fd89	-0.09862811
180	0x3c5f1536	0.013615897
181	0xbd033609	-0.032033954
182	0x3d8d4b7c	0.06899163
183	0x3d0bc926	0.034127377
184	0xbd954b40	-0.072897434
185	0x3da7c09f	0.081910364
186	0x3cb749a3	0.02237398
187	0xbc301cc4	-0.010749046
188	0xbd9b9727	-0.075971894
189	0x3d20a825	0.039222855
190	0xbd7f9c26	-0.062404774
191	0xbcc701ab	-0.024292788
192	0xbd98797f	-0.074450485
193	0x3d443898	0.047905535
194	0xbb592fe8	-0.0033140127
195	0xbd98f076	-0.07467739
196	0xbc510363	-0.012757155
197	0xbd8754a8	-0.06607944
198	0x3de96718	0.11396617
199	0x3dbc27fa	0.091873124
200	0x3c516a34	0.012781668
201	0x3da00b3f	0.07814645
202	0x3d22fcf2	0.03979201
203	0x3da253a4	0.079261094
204	0xbd0bf8df	-0.03417289
205	0x3c524ffb	0.012836452
206	0x3c6aeec8	0.014339156
207	0xbd42e813	-0.047584604
208	0xbdc55041	-0.09634448
209	0x3d007a96	0.031366907
210	0xbc613e14	-0.013747711
211	0xbd351487	-0.04420903
212	0xbd51ce08	-0.051221877
213	0xbd9fb08d	-0.07797346
214	0xbd973b1f	-0.07384323
215	0xbcc43081	-0.02394891
216	0xbd3e46d3	-0.046454262
217	0x3d86ae50	0.06576216
218	0x3d4a8379	0.04944179
219	0x3d56f518	0.052479833
220	0x3bfe7e99	0.0077665565
221	0x3d9bac17	0.07601183
222	0x3d12997a	0.035790898
223	0xbaffd1dd	-0.00195175
224	0x3d932240	0.07184267
225	0x3d4e3093	0.050339293
226	0x3a74687f	0.00093234325
227	0x3d580f39	0.052748892
228	0x3e1e0214	0.1543048
229	0xbda8c9fd	-0.08241651
230	0xbdc5af6b	-0.09652599
231	0x3da82c43	0.08211567
232	0x3d3bb564	0.045827284
233	0x3d628045	0.05529811
234	0xbcf5b1d5	-0.029992023
235	0x3cd2a928	0.025715426
236	0x3d353bd6	0.044246517
237	0x3d73ffee	0.059570245
238	0x3d5f17e3	0.05446614
239	0xbd70cbd2	-0.05878813
240	0xbc270130	-0.010193154
241	0x3d0f10b1	0.034928028
242	0xbd09a5d0	-0.033605397
243	0x3dc0efa6	0.09420709
244	0xbc26c249	-0.010178157
245	0xbdb4d890	-0.088303685
246	0xbd93040a	-0.07178505
247	0x3d968df5	0.07351295
248	0xbd77c610	-0.06049162
249	0x3cfa25c2	0.030535582
250	0xbd4ccced	-0.05000012
251	0xbdb055f0	-0.08610141
252	0xbdc97b1e	-0.09837936
253	0x3c733457	0.014844022
254	0x3cd404c9	0.025881188
255	0xbd7666c8	-0.060156614

conv3.bias f4 [32]
0	0xbdaab502	-0.08335306
1	0xbdaf206f	-0.08551108
2	0xbb8dff67	-0.004333425
3	0xba26551a	-0.00063450786
4	0x3cd20fb6	0.025642257
5	0x3d044e61	0.03230131
6	0xbd975695	-0.07389561
7	0x3dab4153	0.08362069
8	0xbda2fedf	-0.07958769
9	0x3d326e01	0.04356194
10	0x3dab0f1a	0.0835249
11	0xbd9f5612	-0.077800885
12	0xbc9d38dd	-0.019192154
13	0xbdba9830	-0.09111059
14	0xbbfe201a	-0.0077552916
15	0x3d945a3a	0.07243772
16	0x3d88006c	0.066407055
17	0x3dccdd16	0.10003106
18	0x3d7615b1	0.06007928
19	0x3d78f9a5	0.060784955
20	0xbd4b7a18	-0.049676985
21	0x3e0229ff	0.12711333
22	0x3dbf4019	0.093383975
23	0xbd344a15	-0.044015963
24	0x3c6ec8ee	0.014574273
25	0x3de0d699	0.10978431
26	0x3ccd6da5	0.025076697
27	0x3d4412b7	0.04786941
28	0x3da0cd6f	0.07851683
29	0xbd295623	-0.041341912
30	0xbce9b8a9	-0.028530436
31	0x3db59e14	0.08868042

conv4.weight f4 [32, 32, 3]
0	0x3db799f9	0.08964915
1	0xbd4fd707	-0.050742175
2	0xbc8de4ad	-0.017320955
3	0xbd75511a	-0.059891798
4	0xbc916598	-0.017748639
5	0x3c61b9fb	0.013777251
6	0x3d53279b	0.051551443
7	0x3b9eab03	0.0048421635
8	0xbd20b549	-0.039235387
9	0xbd8763d7	-0.0661084
10	0x3ce1de80	0.027571917
11	0xbd9bdc1b	-0.07610341
12	0x3d511d8f	0.05105358
13	0xbca9b233	-0.020714855
14	0x3d2fdf52	0.042937584
15	0xbd5f8f9b	-0.054580312
16	0x3d917e46	0.07104163
17	0xbb4107e7	-0.0029454173
18	0xbc5170b3	-0.012783217
19	0x3a8cd899	0.0010745703
20	0xbdcf3062	-0.1011665
21	0xbd948415	-0.07251755
22	0xbcf3ddb8	-0.02976881
23	0xbd9bbb95	-0.07604138
24	0x3dc17a28	0.094471276
25	0xbd9881e4	-0.0744665
26	0x3d657387	0.05601838
27	0x3da5cbae	0.080954894
28	0x3dd27400	0.102760315
29	0x3d571849	0.052513395
30	0xbcad834c	-0.021180771
31	0xbcb5dbc7	-0.022199525
32	0xbb7f46c9	-0.0038952103
33	0xbdc2cd4a	-0.09511812
34	0xbd10fae8	-0.035395533
35	0x3d2f5630	0.042806804
36	0x3d4951e6	0.04915037
37	0x3d432a17	0.047647562
38	0xbd451784	-0.04811813
39	0x3dc2d47c	0.095131844
40	0xbd16c284	-0.0368066
41	0xbddf7205	-0.109104194
42	0x3dd6d4a0	0.10489774
43	0x3de590fd	0.11209295
44	0x3d59794e	0.0530942
45	0xbd0ab58c	-0.033864543
46	0x3d86a2ee	0.06574045
47	0xbd68adfb	-0.056806546
48	0x3d08ac01	0.03336716
49	0x3c97c518	0.018526599
50	0x3deef59f	0.11667942
51	0xbd9fadee	-0.07796846
52	0x3d0222db	0.031771522
53	0xbcfff17d	-0.03124308
54	0x3dd0e31a	0.10199566
55	0x3c08751b	0.008328701
56	0xbdd5e9a0	-0.10444951
57	0xbd1994a2	-0.037495263
58	0x3d93933b	0.07205816
59	0xbdab05c3	-0.08350708
60	0x3cab0334	0.02087555
61	0x3a69a168	0.0008912296
62	0x3d34d77b	0.04415081
63	0x3df0f87b	0.11766144
64	0x3b383e77	0.0028113404
65	0xbd5a6f8c	-0.053329036
66	0xbcc13274	-0.023583628
67	0x3d5113fd	0.051044453
68	0x3d19a790	0.037513316
69	0x3d974df5	0.07387916
70	0xba5bb5fa	-0.00083813036
71	0xbd5a96f0	-0.0533666
72	0x3d93fc96	0.07225911
73	0xbd0b337d	-0.03398465
74	0x3c37cc55	0.01121815
75	0x3d761428	0.060077816
76	0x3c0c0e04	0.008548263
77	0xbdbe9402	-0.09305574
78	0x3ca24ed9	0.019812988
79	0xbdbf896b	-0.09352382
80	0xbde1e9a4	-0.110308915
81	0xbdc63472	-0.09677972
82	0x3a62c756	0.0008650919
83	0x3db17683	0.086651824
84	0xbd9a622e	-0.075382575
85	0x3dac5e15	0.08416382
86	0x3b8f8bb9	0.00438067
87	0xbd9e2312	-0.07721533
88	0xbda85b33	-0.0822052
89	0x3d0aa886	0.033852123
90	0x3d353c31	0.044246856
91	0x3d881c97	0.06646078
92	0xbdafd44f	-0.085854165
93	0xbcb247d9	-0.021762775
94	0xbda5c176	-0.0809354
95	0xbd69a262	-0.057039626
96	0xbd0c50d4	-0.03425677
97	0x3d6a754d	0.057240773
98	0xbcbd7789	-0.023128288
99	0x3da3f10f	0.08004963
100	0x3dbd9e07	0.09258657
101	0xbc661046	-0.014041966
102	0x3ca4e666	0.020129394
103	0x3daabfbd	0.083373524
104	0x3dc42f3a	0.0957932
105	0xbc0786bb	-0.008271868
106	0x3bd1cddc	0.006402714
107	0xbdae145b	-0.08499976
108	0xbda4b654	-0.08042589
109	0xbd68e2b0	-0.05685681
110	0x3d2c7fdb	0.04211412
111	0xbd266969	-0.04062787
112	0x3cbb7d07	0.022886766
113	0xbd9aeb46	-0.07564406
114	0x3cbd6be3	0.023122733
115	0xbdb8d18b	-0.09024342
116	0x3cb9d6a3	0.022685355
117	0xbd761093	-0.0600744
118	0x3d46b9f5	0.048517186
119	0x3d588843	0.052864324
120	0xbcf16e30	-0.029471487
121	0x3d91e697	0.0712406
122	0xbcb39f3b	-0.021926513
123	0x3a6548f7	0.00087465293
124	0xbd11069d	-0.035406698
125	0xbd0bb7d6	-0.034110866
126	0x3d5a6d4e	0.053326897
127	0x3d9cda20	0.076587915
128	0x3d1d44b3	0.038395595
129	0xbd95a7aa	-0.0730737
130	0xbda44e17	-0.08022707
131	0xbd8cb995	-0.068713345
132	0xbdae99e5	-0.08525447
133	0x3da7887a	0.08180328
134	0xbc8296b1	-0.015940996
135	0x3cdb10ec	0.026741467
136	0x3c597573	0.013272631
137	0x3dc2268f	0.09480011
138	0x3e063bb2	0.1310871
139	0xbd9fc0db	-0.07800456
140	0x3dbeaa89	0.09309871
141	0xbd204693	-0.039129805
142	0xbb8b2f55	-0.004247586
143	0x3d905b46	0.07048659
144	0x3d81e3a1	0.06342245
145	0xbd44dbf3	-0.048061322
146	0xbda1a862	-0.078934446
147	0x3c282d46	0.0102647
148	0x3dbd1ab1	0.092336066
149	0xbd92a040	-0.071594715
150	0x3cb18ca9	0.021673517
151	0xbd0a55c7	-0.03377321
152	0x3d458cb6	0.048229896
153	0x3cada345	0.021196017
154	0xbd2152bb	-0.03938554
155	0xbd8cdd8f	-0.068781964
156	0x3d978719	0.07398815
157	0x3d93e558	0.07221478
158	0x3da2dd58	0.07952374
159	0xbd7a3026	-0.061081074
160	0x3cc444d9	0.02395861
161	0xbd265c09	-0.040615115
162	0xbc3f952e	-0.011693282
163	0x3caa8546	0.020815503
164	0x3ba7386c	0.0051031616
165	0x3d076fb6	0.03306552
166	0xbcb8166b	-0.022471627
167	0xbc8a7c2a	-0.01690491
168	0x3b22f057	0.0024862492
169	0xbd029644	-0.031881586
170	0x3db0330a	0.08603485
171	0x3c9a6225	0.018845627
172	0xbd708acf	-0.05872613
173	0xbda0bf27	-0.078489594
174	0xbdd11725	-0.102094926
175	0x3dc5e905	0.096635856
176	0x3d79bc55	0.060970623
177	0x3cda704e	0.02666488
178	0xbd758ada	-0.059946872
179	0xbca59b85	-0.020215759
180	0x3d1e693c	0.038674578
181	0x3d4bf367	0.049792673
182	0x3dbeccdc	0.093164176
183	0x3dc9417e	0.09826945
184	0xbd974d59	-0.073878
185	0x3d9127c5	0.070876636
186	0xbdc1105b	-0.09426948
187	0x3dbe0133	0.092775725
188	0xbcdb017e	-0.02673411
189	0xbcc09fd3	-0.02351371
190	0xbd2b862c	-0.041876003
191	0xbd1d29f0	-0.038370073
192	0xbd913800	-0.07090759
193	0xbce48b9b	-0.0278986
194	0xbce2d108	-0.027687564
195	0xbd973630	-0.07383382
196	0xbd927cea	-0.07152732
197	0xbc68ec29	-0.014216461
198	0x3ded02bf	0.115727894
199	0x3d8b1dfa	0.06792827
200	0x3d053a2a	0.032526173
201	0x3dbf9e7f	0.093564026
202	0xbc8dbc6d	-0.017301762
203	0xbca062c5	-0.019578347
204	0xbbbd86c7	-0.005783889
205	0x3d4eebad	0.050517727
206	0xbd46700e	-0.048446707
207	0xbdaa0042	-0.083008304
208	0xbd7f8771	-0.062385026
209	0xbdae3581	-0.08506299
210	0xbd5a47f4	-0.053291276
211	0xbd4cd9af	-0.050012287
212	0x3db8fd65	0.09032706
213	0x3b885a6d	0.00416117
214	0x3d633d22	0.055478223
215	0xbd1a38a7	-0.037651684
216	0x3c99bcce	0.018766787
217	0x3d28fce5	0.041256804
218	0x3dae52b0	0.08511865
219	0xbddd9856	-0.108200714
220	0xbcb4ff9a	-0.022094537
221	0xbd168ecc	-0.036757275
222	0x3d0fb6c1	0.035086397
223	0x3adcc6b6	0.0016843888
224	0x3c8278fb	0.015926829
225	0x3d6e41a4	0.05816807
226	0x3da27208	0.07931906
227	0x3b5f45fe	0.0034068818
228	0x3d11e082	0.035614498
229	0xbd9c1e1e	-0.07622932
230	0xbd60a536	-0.054845057
231	0x396247e5	0.00021579822
232	0x3d6681a2	0.05627597
233	0x3c5bb153	0.013408977
234	0xbcc3e4f5	-0.023912886
235	0x3d916006	0.07098393
236	0x3d8084d3	0.06275334
237	0x3abb39f0	0.0014284234
238	0x3d937942	0.072008625
239	0xbdbcd6fd	-0.09220693
240	0xbd11896f	-0.035531458
241	0x3d888569	0.06666071
242	0x3da50e55	0.08059374
243	0x3c9557a5	0.018230269
244	0xbd34fc6a	-0.044186033
245	0x3d62e6d2	0.05539591
246	0x3d28b091	0.04118401
247	0x3b6b2723	0.0035881482
248	0xbd61b25f	-0.05510175
249	0xbd88c531	-0.06678236
250	0x3dab5d44	0.083673984
251	0xbcdb36ae	-0.026759472
252	0xbde5d133	-0.11221542
253	0xbcc03944	-0.023464806
254	0x3d51c1c3	0.051210176
255	0xbdb969fa	-0.090534166

conv4.bias f4 [32]
0	0xbdb41d6e	-0.08794676
1	0x3da6173c	0.081099
2	0x3d033fb8	0.03204319
3	0xbd7d9743	-0.061911833
4	0x3dd3a4bb	0.10334154
5	0x3d4f947b	0.05067871
6	0x3d16b6b4	0.036795333
7	0xbdcbbacb	-0.09947737
8	0x3e068b89	0.13139166
9	0xbd144f3e	-0.036208384
10	0x3d8ca6f6	0.06867783
11	0x3cbe3e2e	0.023223009
12	0xbd2d9021	-0.04237378
13	0x3d61a992	0.055093355
14	0xbcabbb78	-0.020963416
15	0x3c723b64	0.014784668
16	0x3db1d102	0.08682443
17	0xbdd1b08a	-0.1023875
18	0xbd7349f3	-0.059396695
19	0xbc49174c	-0.012273621
20	0x3d68a06c	0.056793615
21	0xbde831ac	-0.11337599
22	0x3baab6da	0.005209786
23	0xbc08cef7	-0.0083501255
24	0x3c36d2ce	0.011158658
25	0x397f461d	0.00024344814
26	0xbd80fca3	-0.06298187
27	0x3d1331c6	0.03593614
28	0xbcb4168d	-0.02198341
29	0xbd09256b	-0.03348295
30	0xbc9d0915	-0.01916937
31	0x3cd6a975	0.02620385

conv5.weight f4 [32, 32, 3]
0	0xbd5f3d0f	-0.05450159
1	0x3d4212ca	0.0473812
2	0x3c947bd0	0.018125445
3	0xbd08b51b	-0.03337584
4	0x3d203d34	0.039120868
5	0x3dba9b51	0.091116555
6	0x3d83cd11	0.06435598
7	0xbc11693d	-0.008875188
8	0x3d47b257	0.048754063
9	0xbdc96c9b	-0.09835168
10	0x3d34f2f4	0.04417701
11	0xbd475ab0	-0.04867047
12	0xbd1ae015	-0.037811358
13	0x3c8ee730	0.017444223
14	0x3d553d31	0.05206031
15	0xbbfbd746	-0.0076855747
16	0x3d376208	0.044771224
17	0xbd14a800	-0.03629303
18	0x3dc2a638	0.0950436
19	0xbd1c77c1	-0.038200144
20	0xbd1cea12	-0.038309164
21	0x3d5cb5ef	0.053884443
22	0x3dcb5911	0.099290974
23	0xbd593c3f	-0.05303597
24	0x3d115b53	0.035487484
25	0xbcc45931	-0.023968311
26	0x3dae2670	0.08503425
27	0x3d5ec83d	0.05439018
28	0x3d82a2c6	0.06378703
29	0xbc83ff0b	-0.016112825
30	0xbd65155d	-0.055928577
31	0xbc78a6e2	-0.015176507
32	0x3b3e4a2b	0.0029035907
33	0xbd9d51d4	-0.07681623
34	0x3c9ce67d	0.019152874
35	0xbd58e8d9	-0.052956436
36	0xbd9bf54d	-0.07615147
37	0x3d95fab8	0.073232114
38	0x3d8d38ca	0.06895597
39	0xbd536940	-0.051614046
40	0xbd2cd9b8	-0.04219982
41	0xbd9f3c9f	-0.077752344
42	0x3d090963	0.033456217
43	0xb932b983	-0.00017044511
44	0xbd4c9783	-0.04994918
45	0xbd8655b6	-0.06559317
46	0x3c891331	0.016732784
47	0xbd612efb	-0.054976445
48	0x3bba417e	0.005684077
49	0xbd4a7258	-0.049425453
50	0x3d8236c4	0.06358102
51	0xbdb0b5d3	-0.0862843
52	0xbd8c9b4b	-0.06865557
53	0x3cf6a9de	0.030110296
54	0x3da7285a	0.08161993
55	0x3d4b1be5	0.04958715
56	0x3d5b41c5	0.05352952
57	0x3db1ef17	0.08688181
58	0x3d069fdc	0.032867298
59	0xbd7d0b3a	-0.061778285
60	0x3cabba93	0.020962989
61	0x3a14484b	0.00056565244
62	0xbd2e4e9e	-0.042555444
63	0xbc83a9b7	-0.016072137
64	0x3d533dde	0.051572673
65	0x3c326736	0.010888865
66	0xbcd38050	-0.02581802
67	0x3da78828	0.081802666
68	0xbd3e2dcb	-0.04643039
69	0x3dac8a2c	0.08424792
70	0x3d76c886	0.060249828
71	0xbd625ee9	-0.055266295
72	0xbd4a7b92	-0.049434252
73	0x3d31e2b0	0.043429077
74	0xbc0c75ed	-0.008573038
75	0xbd2a19a9	-0.041528378
76	0x3d98d63e	0.074627385
77	0x3d42f5b1	0.04759759
78	0xbb805edf	-0.0039175595
79	0xbd80f1db	-0.0629613
80	0xbc199839	-0.009374672
81	0xbcbb5cde	-0.022871431
82	0x3bac162c	0.0052516665
83	0x3d9c76fc	0.07639882
84	0x3de2cf8b	0.11074742
85	0xbd6d64c4	-0.057957426
86	0x3c78faf1	0.015196548
87	0xbdb015ed	-0.08597932
88	0xbd300742	-0.04297567
89	0xbc55145a	-0.0130053405
90	0xbd885238	-0.06656307
91	0xbc8a0151	-0.01684633
92	0x3d81c809	0.06336982
93	0xbd7dcb48	-0.061961442
94	0xbd25638b	-0.040378135
95	0xbdb3a97e	-0.087725624
96	0xbd94450f	-0.072397344
97	0xbd10177b	-0.035178643
98	0x3c35beec	0.011092883
99	0xbcc47cca	-0.023985285
100	0x3d788464	0.060673133
101	0xbd69675e	-0.056983344
102	0xbddc5f09	-0.10760314
103	0xbd5394fe	-0.051655762
104	0xba2ed2cf	-0.0006668986
105	0x3da46dcc	0.080287546
106	0xbcd95f33	-0.026534652
107	0xbd9da138	-0.07696766
108	0x3c8185bd	0.015810842
109	0xbdd27b4a	-0.10277422
110	0xbc72201b	-0.014778162
111	0xbac467cc	-0.0014984547
112	0xbdb99938	-0.09062427
113	0xbd0d2caf	-0.03446644
114	0x3c140d95	0.009036441
115	0xbc16b561	-0.009198518
116	0x3db1eda5	0.08687905
117	0xbd5a0c72	-0.053234525
118	0x3d45f743	0.04833151
119	0xbde8bf78	-0.11364645
120	0x3d91448a	0.07093151
121	0x3d26eec6	0.040755056
122	0xbd74fd0b	-0.059811633
123	0xbd050108	-0.032471687
124	0xbdae6bf2	-0.08516683
125	0xbd280ed6	-0.041029774
126	0x3d5c2fae	0.05375641
127	0xbdae0f90	-0.08499062
128	0xbcccace8	-0.024984792
129	0x3d1ed170	0.038773954
130	0x3d9ee19d	0.07757876
131	0xbc5bc000	-0.013412476
132	0xbc0ab84d	-0.008466792
133	0xbc1fa6a6	-0.009744322
134	0xbde515e5	-0.11185817
135	0x3d86431c	0.06555769
136	0xbc9372a0	-0.017998993
137	0x3ddfeeef	0.10934245
138	0x3ce99c38	0.028516874
139	0xbd3a4189	-0.045472655
140	0xbacecedc	-0.0015778202
141	0xbd9928e8	-0.074785054
142	0x3d93b2e5	0.07211856
143	0x3d372b4e	0.044719033
144	0x3dca8f74	0.09890643
145	0x3dbb2edf	0.09139799
146	0xbd81718d	-0.06320486
147	0x3da60c53	0.081078194
148	0xbdca1868	-0.098679364
149	0xbdc3ff75	-0.09570209
150	0xbd92e83c	-0.071732014
151	0x3cdcb33d	0.026940936
152	0xbd5c7c40	-0.05382943
153	0x3d2fb32f	0.042895492
154	0x3c8b03bd	0.016969556
155	0xbcf263e4	-0.029588647
156	0x3cfd3756	0.030910175
157	0xbb9106e6	-0.004425871
158	0x3d995746	0.07487349
159	0xbd5f89bc	-0.054574713
160	0x3dc51c2a	0.096245125
161	0x3ad0fed3	0.0015945084
162	0xbdba4504	-0.09095195
163	0xbddf2932	-0.10896529
164	0xbc6fc4f8	-0.014634363
165	0xbc151377	-0.009098879
166	0xbc0a10d8	-0.008426867
167	0x3cb32a5c	0.021870784
168	0x3dad411a	0.08459683
169	0xbb4001ee	-0.0029298025
170	0x3d176913	0.03696544
171	0xbd4f516a	-0.050614752
172	0xbc71595b	-0.014730777
173	0xbcc65ab5	-0.024213174
174	0x3d4872c8	0.04893759
175	0xbdc7e162	-0.09759785
176	0x3d2b8771	0.041877214
177	0x3d8411e6	0.06448726
178	0x3c6db5f6	0.014508715
179	0xbda66ab6	-0.08125822
180	0x3d77b0fb	0.060471516
181	0xbd060590	-0.03272015
182	0xbd220334	-0.039553836
183	0xbca06174	-0.01957772
184	0xbd86e2ca	-0.06586225
185	0xbd899ade	-0.06718992
186	0x3d6493d8	0.055805057
187	0xbcf928c9	-0.030414956
188	0x3dc90120	0.09814668
189	0x3c8a8e44	0.01691354
190	0xbd8b6568	-0.06806451
191	0xbdac4376	-0.08411305
192	0x3d764daf	0.06013268
193	0xbd3902d7	-0.045168724
194	0xbd9dfa1a	-0.07713719
195	0xbd65771d	-0.0560218
196	0xbb4c6e95	-0.0031193842
197	0x3dc9e75b	0.09858581
198	0x3db5cb96	0.088767216
199	0xbd8f6967	-0.07002526
200	0xbd931c96	-0.07183187
201	0xbd3823a0	-0.04495585
202	0xbc3d30ca	-0.011547277
203	0x3d4c13e5	0.04982366
204	0xbdcb065b	-0.099133216
205	0xbd608d62	-0.054822333
206	0xbd92da87	-0.07170587
207	0xbcce2c79	-0.02516769
208	0xbb028035	-0.0019912843
209	0xbd6c5298	-0.057695955
210	0xbbb4d95c	-0.0055190753
211	0x3d19d5ee	0.037557535
212	0x3db2dd3c	0.08733603
213	0x3dbebaa3	0.09312942
214	0x3d95fa4c	0.07323131
215	0xbd9fadf2	-0.07796849
216	0xbd0b5d2c	-0.034024402
217	0x3d317093	0.04332025
218	0x3dcaa5f5	0.09894935
219	0xbdbe2c0f	-0.09285747
220	0xbd8c5ed5	-0.06854025
221	0x3d46e310	0.048556387
222	0xbd884505	-0.066537894
223	0xbcb1b278	-0.021691546
224	0xbc2e5108	-0.010639437
225	0xbcfb8da8	-0.030707195
226	0xbd9cfa7f	-0.07664966
227	0x3c4d2487	0.012520916
228	0xbca2e42d	-0.019884193
229	0x3d5d3791	0.05400807
230	0xbd186e0e	-0.03721433
231	0xbd8227f8	-0.0635528
232	0x3c33f2db	0.010983194
233	0x3d6acbc6	0.05732324
234	0xbd4f4827	-0.05060592
235	0xbd033d3c	-0.03204082
236	0xbd8e4b39	-0.06947941
237	0x3dd16421	0.10224176
238	0x3da2faa3	0.079579614
239	0x3c6682ad	0.0140692415
240	0xbd8e161c	-0.06937811
241	0xbd8bb29e	-0.06821178
242	0xbdab8ad6	-0.0837609
243	0x3d415a52	0.047205277
244	0xbceec32a	-0.029145796
245	0xbd83213f	-0.064028256
246	0x3dccbbf0	0.09996784
247	0xbdb8f4a6	-0.09031038
248	0xbd01f452	-0.031727143
249	0x3d45065d	0.04810177
250	0x3dc01f72	0.09380998
251	0x3d5a90cd	0.05336075
252	0x3d3a6495	0.04550608
253	0xbda44c1a	-0.08022328
254	0x3dadebe3	0.084922574
255	0x3c9ea480	0.01936555

conv5.bias f4 [32]
0	0x3d1fe98f	0.0390411
1	0x3d49c9a7	0.049264576
2	0xbdd19f44	-0.10235456
3	0x3d34165d	0.04396664
4	0x3d60b2f3	0.05485816
5	0x3d2e772f	0.04259413
6	0xbd37ccd8	-0.04487309
7	0xbd76ff7a	-0.060302235
8	0xbda396e4	-0.079877645
9	0x3c8e9108	0.01740314
10	0x38ff6227	0.0001217763
11	0xbadc90f4	-0.0016827867
12	0x3d8155ce	0.06315194
13	0x3dbf31da	0.0933568
14	0xbc9bcf9b	-0.019019892
15	0x3c8ffcb1	0.017576547
16	0x3d961273	0.07327738
17	0x3d9c3a11	0.07628263
18	0x3d5d50bd	0.054032076
19	0xbd84be2d	-0.06481586
20	0xbe2811b4	-0.16413003
21	0xbdd26588	-0.10273272
22	0xbdc7c137	-0.0975365
23	0xbe18a5ac	-0.14906949
24	0x3dc5b4bd	0.09653614
25	0xbc26fd79	-0.0101922685
26	0xbd10aeea	-0.03532306
27	0xbdbceade	-0.09224485
28	0xbd39f38c	-0.04539828
29	0xbdc6201c	-0.09674093
30	0x3c9d489a	0.019199658
31	0xbd9a3a62	-0.07530667

conv6.weight f4 [32, 32, 3]
0	0x3ba65901	0.005076528
1	0xbd8a200c	-0.06744394
2	0xbd4f554d	-0.05061846
3	0xbb4d97af	-0.0031370928
4	0x3cb93eff	0.022613047
5	0xbc6f2460	-0.014596075
6	0xbcde7fe4	-0.027160592
7	0xbda11f77	-0.078673296
8	0xbc6f77a2	-0.014615925
9	0xbd74dc09	-0.059780154
10	0x3db550be	0.08853291
11	0xbc8b7454	-0.017023243
12	0xbcaaefd4	-0.020866312
13	0x3db70cec	0.089380115
14	0xbd4cdeef	-0.050017294
15	0x3df1ebe3	0.1181257
16	0xbbc721fc	-0.0060770493
17	0x3d8758e2	0.0660875
18	0xbd63e63a	-0.055639483
19	0xbd104179	-0.03521869
20	0x3d16ce60	0.03681791
21	0x3d2831ee	0.04106324
22	0x3cce6cf2	0.025198434
23	0x3d6fb8f7	0.058526006
24	0x3d5e7c44	0.054317728
25	0xbcb6b615	-0.02230362
26	0xbc860225	-0.016358444
27	0x3c103a0a	0.0088029
28	0x3c89a3f6	0.016801815
29	0xbde9804f	-0.11401426
30	0xb93f066a	-0.00018217569
31	0xbdba8e9d	-0.091092326
32	0xbc0dcac6	-0.008654302
33	0x3c98c3cd	0.018648053
34	0x3c0273e6	0.007962203
35	0x3db0cdac	0.08632979
36	0x3c4c8080	0.012481809
37	0xbdb2c535	-0.087290205
38	0x3d8bc7c1	0.068252094
39	0xbcc152d6	-0.02359907
40	0xbdaba71c	-0.08381483
41	0xbd65d5e3	-0.05611218
42	0x3d2a9a8c	0.041651294
43	0x3d438449	0.04773358
44	0xbd04446a	-0.032291807
45	0xbd194974	-0.037423566
46	0xbd143033	-0.03617878
47	0x3d1f5b3f	0.03890538
48	0xbdaec93b	-0.085344754
49	0x3d01cead	0.031691242
50	0xbd21ecc8	-0.039532453
51	0x3a627738	0.0008638981
52	0x3de0cc94	0.1097652
53	0x3c967e95	0.018370906
54	0x3cfce084	0.030868776
55	0x3da80888	0.08204752
56	0x3bb05a5c	0.0053818654
57	0xbdc47020	-0.09591699
58	0x3d84428e	0.06458007
59	0x3dd3de80	0.10345173
60	0xbcf58cc1	-0.029974343
61	0x3e115e82	0.14196208
62	0x3dc55f77	0.09637349
63	0x3cc3c228	0.023896292
64	0xbd8772aa	-0.06613667
65	0xbd6ac7f7	-0.057319608
66	0x3dc25d2b	0.09490427
67	0x3d96e265	0.073674
68	0x3da2883d	0.07936142
69	0xbd5618a9	-0.05226961
70	0xbbe55a83	-0.006999315
71	0x3ce57364	0.028009124
72	0xbdc31cd1	-0.09526981
73	0x3d8c69c2	0.06856109
74	0xbcc7f86d	-0.02441045
75	0xbde3c731	-0.11121977
76	0x3daad96e	0.08342253
77	0xbdaf5bc3	-0.08562424
78	0xbd20f2c7	-0.03929403
79	0x3aee3eb6	0.0018176648
80	0x3cba0f05	0.02271224
81	0xbd8e6c2d	-0.06954227
82	0x3d413842	0.047172792
83	0xbe08d873	-0.13363819
84	0xbde9142e	-0.11380802
85	0x3c6518b5	0.013982941
86	0xbd95c8d6	-0.07313697
87	0x3d60b994	0.05486448
88	0xbdbe71df	-0.09299063
89	0x3c386f11	0.011256949
90	0xbd175bb7	-0.0369527
91	0xbcdf553c	-0.027262323
92	0x3d524c5c	0.051342353
93	0xbd03b43a	-0.0321543
94	0xbccab9d5	-0.024746815
95	0x3d2bb6e3	0.04192246
96	0xbd702a9e	-0.058634393
97	0x3db32a57	0.0874831
98	0xbda215ba	-0.079143
99	0xbcb715ee	-0.022349324
100	0xbd90c4b7	-0.070687704
101	0x3d469546	0.048482202
102	0x3d80a14a	0.062807634
103	0xbd580d29	-0.052746926
104	0x3c3570e6	0.01107428
105	0xbd0e07c8	-0.03467539
106	0x3ce5b0e1	0.028038444
107	0xbcbf3d54	-0.023344673
108	0xbdbc6289	-0.091984816
109	0x3ce56038	0.027999982
110	0xbcc1bacc	-0.023648642
111	0x3c2a9479	0.010411375
112	0xbdca949c	-0.09891626
113	0x3d5004dd	0.050785888
114	0xbd7face8	-0.062420756
115	0x3d746b79	0.059672806
116	0xbd96c2ad	-0.0736135
117	0x3d56d395	0.052447874
118	0xbd9ca9db	-0.07649585
119	0x3c8d4e2e	0.017249193
120	0xbda576c4	-0.08079293
121	0xbdbbfe17	-0.09179323
122	0x3d26192e	0.040551357
123	0x3d7bfd5f	0.06152093
124	0x3c6a0295	0.014282842
125	0xbd602fd9	-0.05473313
126	0x3c9492a3	0.018136328
127	0xbd6c1b9d	-0.05764352
128	0x3d197a7f	0.037470337
129	0x3dae4700	0.08509636
130	0xbc007a1b	-0.007841612
131	0x3d8c0a4e	0.06837903
132	0xbcb58540	-0.022158265
133	0xbd6c1212	-0.05763442
134	0x3c72cc44	0.0148192085
135	0xbc5534ea	-0.013013104
136	0xbdafc547	-0.085825495
137	0x3ceb9a30	0.028760046
138	0x3d9987af	0.07496583
139	0x3d4e4caa	0.05036608
140	0x3d4d0c3d	0.0500605
141	0xbdc4f14b	-0.096163355
142	0xbdb34e3d	-0.08755157
143	0xbc41ad90	-0.011821166
144	0xbdf80bb3	-0.121116064
145	0xbc8698bf	-0.016430257
146	0x3cb27fc5	0.02178944
147	0xbd335f5a	-0.043792106
148	0xbd842b40	-0.06453562
149	0x3d4a09c7	0.04932573
150	0xbc88900f	-0.016670255
151	0xbb8d0eab	-0.004304727
152	0x3d6f3401	0.058399204
153	0x3d7f2e70	0.062300146
154	0x3d4b951b	0.049702745
155	0xbdbaa089	-0.09112651
156	0xbd70d24c	-0.058794305
157	0xbdc75dfe	-0.097347245
158	0x3d45e03e	0.048309557
159	0xbc7703fb	-0.015076633
160	0x3de0d2b0	0.109776855
161	0xbdb8026a	-0.089848354
162	0x3cd318d6	0.025768679
163	0x3dc0d6b7	0.094159536
164	0xbd8eae56	-0.06966846
165	0x3c56f3c5	0.013119643
166	0x3a147436	0.0005663069
167	0x3da31c77	0.079644136
168	0xbdc57f84	-0.09643462
169	0xbcb1d822	-0.021709505
170	0x3c935efd	0.01798963
171	0xbcaa193a	-0.020763982
172	0x3d663953	0.056207012
173	0x3d36df4a	0.04464654
174	0xbd8ceb86	-0.0688086
175	0x39abb2d3	0.00032748896
176	0xbde0cedd	-0.10976956
177	0x3dc0ac6e	0.09407888
178	0xbc3e68a5	-0.011621629
179	0x3d998855	0.074967064
180	0xbca614ba	-0.020273555
181	0x3d4ca84e	0.049965195
182	0x3d921679	0.071331926
183	0xbc17e7a0	-0.009271532
184	0xbcf90a1a	-0.030400325
185	0x3dc81c39	0.09771008
186	0xbbdc874a	-0.006729995
187	0xbc8493ad	-0.016183699
188	0x3c02b1ca	0.0079769585
189	0x3d733ea6	0.059385918
190	0xbd93e995	-0.072222866
191	0x3d485813	0.04891212
192	0xbdad49a7	-0.08461314
193	0x3d13cba7	0.03608289
194	0x3dad50a3	0.08462646
195	0xbc8240b2	-0.01589999
196	0x3d263fd2	0.040588208
197	0x3d9ab5cf	0.075542085
198	0x3d653c3a	0.05596564
199	0xbd3dd32d	-0.04634397
200	0xbb3f201b	-0.0029163423
201	0x3c0f5e66	0.008750534
202	0xbd991d68	-0.07476312
203	0xbd9df931	-0.07713545
204	0x3d46d20f	0.04854017
205	0xbd1a79e9	-0.03771392
206	0x3c865067	0.01639576
207	0xbd304d3b	-0.043042403
208	0xbd9515c6	-0.072795436
209	0x3d32fda4	0.04369892
210	0x3d2c93ad	0.042133022
211	0xbd5638b4	-0.05230017
212	0xbd3e6bf9	-0.04648969
213	0x3dbe2bed	0.09285722
214	0xbd2267ce	-0.039649777
215	0x3d40276f	0.046912607
216	0x3d52e7df	0.05149066
217	0xbdbea767	-0.09309273
218	0x3d7b6aad	0.06138103
219	0xbdd0481e	-0.10170005
220	0xbda26505	-0.07929424
221	0xbdec132c	-0.11527094
222	0x3d2d60c5	0.042328615
223	0x3d092fe6	0.033492945
224	0xbdaed9d9	-0.08537645
225	0xbda9dba3	-0.082938455
226	0x3d5191f1	0.05116457
227	0x3cb24b99	0.021764563
228	0x3cedecb1	0.029043527
229	0x3d1be25f	0.03805768
230	0xbd2eab38	-0.042643756
231	0xbb54dfc5	-0.003248201
232	0x3dbc75a1	0.092021234
233	0xbd8e5225	-0.069492616
234	0xbdd6c14b	-0.104860865
235	0x3d8f5e0c	0.0700036
236	0xbcdd6654	-0.027026333
237	0x3d0cfd73	0.034421396
238	0x3d6e2b6c	0.05814688
239	0xbcb1fc4c	-0.02172675
240	0x3c848653	0.016177332
241	0xbc7290e5	-0.014805053
242	0x3d86a5bc	0.0657458
243	0xbcb7ff2c	-0.022460543
244	0xbd8be324	-0.06830433
245	0xbd6efde5	-0.0583476
246	0xbdc55d00	-0.09636879
247	0xbd391781	-0.04518843
248	0xbcf164ce	-0.029467013
249	0x3db6f8d3	0.08934178
250	0x3bf07f89	0.007339422
251	0xbaa2a49b	-0.0012408675
252	0xbcd988a1	-0.026554408
253	0x3d29c342	0.041445978
254	0xbd6d59b4	-0.057946876
255	0x3bb944ce	0.005653954

conv6.bias f4 [32]
0	0x3daa5567	0.083170705
1	0x3cc85609	0.024455087
2	0xbd0789ff	-0.033090588
3	0xbbd6fe4d	-0.0065610767
4	0x3d1ca50b	0.038243335
5	0x3ddcec4a	0.10787256
6	0xbd76313c	-0.060105547
7	0x3d3e1178	0.04640338
8	0xba1819fe	-0.0005802213
9	0xbccb00e8	-0.024780706
10	0x3c508cb1	0.012728856
11	0xbd44eb18	-0.048075765
12	0xbd31fb3b	-0.043452483
13	0x3d5c27ac	0.05374877
14	0xbc35833c	-0.011078652
15	0x3c677e04	0.014129166
16	0x3d9393c2	0.07205917
17	0x3d975f18	0.073911846
18	0x3d496d60	0.049176574
19	0x3bd9c3ee	0.006645671
20	0xbcc3592e	-0.023846235
21	0x3d497298	0.04918155
22	0xbd9af34d	-0.07565937
23	0xbdbab767	-0.091170125
24	0x3d8ae8b4	0.06782666
25	0xbd926fe6	-0.07150249
26	0xbce87a4f	-0.028378634
27	0xbd73189a	-0.059349634
28	0xbd2a32f8	-0.041552514
29	0x3d96d7c9	0.073653765
30	0xbdc19517	-0.09452265
31	0x3d739c72	0.05947537
