SCAFFOLD_2/cli2_model_parameters.pth (torch, 767010 bytes, 51 tensors)

conv1.weight f4 [32, 2, 3]
000000 f8 5c 01 3e c6 d1 f5 3d f0 c9 bc 3e 68 8a a5 3e
       0.12633121 0.12002902 0.36872816 0.32332158
000010 bc ad ec bd 26 d4 c8 3e ef de 15 3e 79 0b 6c 3e
       -0.11556575 0.39224356 0.14635824 0.23051251
000020 99 30 a8 3e 70 48 7c 3e a0 5c 88 3c 10 e3 91 3d
       0.32849577 0.24637008 0.01664573 0.07123387
000030 f0 ab c3 3c f6 57 99 3e 80 dc a1 be e4 53 93 bd
       0.023885697 0.2994992 -0.3161354 -0.07193735
000040 a0 17 91 bc b8 b5 60 be 0e 86 a2 be dc bb 96 be
       -0.01771146 -0.2194432 -0.317429 -0.294402
000050 d8 20 c2 3d bb 86 a6 be 1d c9 36 be d0 7c 75 3d
       0.09478921 -0.32524666 -0.17850156 0.059933484
000060 90 9d 6e 3c 49 64 3e be 3f ac 25 3e c0 ac 71 bd
       0.014563933 -0.18592943 0.16178988 -0.059002638
000070 32 82 86 be 6c 54 8a bd 4a f8 1a be 4e 32 2c 3d
       -0.26271206 -0.067543834 -0.15133777 0.04204016
000080 3b eb 31 3d 82 fe b0 3e a4 64 aa bd 00 28 42 bc
       0.043437224 0.34569174 -0.08319977 -0.011850357
000090 51 c2 c1 be 5c 45 91 3e cc 71 92 be 20 2f af 3d
       -0.37843564 0.2837323 -0.28602445 0.0855391
0000a0 b0 08 29 be f4 4c c6 3e e0 5a 83 3e b0 51 36 bd
       -0.1650722 0.38730586 0.2565527 -0.044511497
0000b0 50 ed 2a be d0 cb aa 3e 41 c4 31 be e4 34 0a 3e
       -0.1669209 0.33358622 -0.17360021 0.13496739
0000c0 3a 4a 7e be b3 81 67 be c4 f2 9c 3e b9 0a cd be
       -0.24833003 -0.2260807 0.30653965 -0.40047243
0000d0 d0 01 ae 3d 00 1c cd 3b e8 5a a5 bd 0d 6b b3 3e
       0.084964395 0.0062594414 -0.080739796 0.3504261
0000e0 20 5b 29 3e b8 68 02 3e d0 b9 5f 3e 31 3a 88 be
       0.16538668 0.1273526 0.21848226 -0.26606897
0000f0 d8 f9 15 3e 90 4f 02 3e 9b 81 94 be f8 dd 2a be
       0.14646089 0.12725663 -0.2900513 -0.16686237
000100 6c ef a0 3e 62 02 b4 3e db a2 9d 3c 2f 0d 9b be
       0.31432664 0.35158068 0.019242695 -0.30283496
000110 55 7e dd be 90 25 c2 3d b4 37 e2 bd f8 b8 d4 3d
       -0.43260446 0.09479821 -0.11045781 0.103868425
000120 9a 6c b6 bc a1 6d a8 be 50 4c 8c bd 50 1b ce bd
       -0.022268582 -0.3289614 -0.06850493 -0.10063803
000130 76 f2 d0 3e 2d 05 93 be 20 85 a9 bc 4f e1 a9 be
       0.40809983 -0.28714886 -0.020693362 -0.3317971
000140 91 cf c9 be 79 bb 2e be 10 27 a4 bc c4 e7 6b 3e
       -0.39416173 -0.17063703 -0.020038158 0.2303763
000150 6c 74 ba 3e b4 cb a7 3d 71 d7 10 3c 72 ed a0 3e
       0.36416948 0.0819315 0.008840428 0.31431156
000160 04 50 04 be 00 10 78 b9 a0 e9 00 3e 64 b2 06 bd
       -0.12921149 -0.00023657084 0.12589121 -0.03288497
000170 9b 95 b5 3e ac 83 20 be 86 44 85 3e f2 06 88 3e
       0.35465702 -0.15675229 0.26028842 0.265678
000180 f6 9a 8d bd 04 6d 9b 3e 5d a3 99 3e f8 f2 a4 3e
       -0.06914322 0.3035661 0.3000745 0.3221662
000190 7c 2c 16 be dc 6b a5 3e b3 4c 24 3e b7 12 a7 3e
       -0.14665407 0.32308853 0.16044883 0.32631466
0001a0 01 ed bc be a8 cb 0d bd da b1 c6 3e a4 9a be 3e
       -0.3689957 -0.03461805 0.38807565 0.37227356
0001b0 ea 79 85 be 2e d7 53 be 58 85 16 bb 00 4a 93 ba
       -0.26069576 -0.20687553 -0.0022967663 -0.0011237264
0001c0 80 99 d5 bd d6 a8 93 3e d4 38 c5 be 0c 40 94 3e
       -0.104296684 0.2883975 -0.3851992 0.28955114
0001d0 3c 95 66 be a3 8c aa be 38 77 13 be b4 f0 a4 3e
       -0.22517866 -0.33310422 -0.14400947 0.32214892
0001e0 33 e4 b3 3e 6b c3 9c 3e ba 26 79 3e 2c 5c 99 3e
       0.3513504 0.30617842 0.2433118 0.29953134
0001f0 f8 72 c1 bd 10 ea 76 bd af 59 cb 3e 3c 71 78 3e
       -0.09445757 -0.060281813 0.3971686 0.24261945
000200 f6 b1 11 3e a8 7c c3 3e 02 77 83 be 30 ac be be
       0.14228043 0.38181043 -0.25676733 -0.37240744
000210 c2 73 ce 3e ce d1 86 3e eb af 3f be 74 ea 81 be
       0.4032269 0.26331943 -0.18719451 -0.25374186
000220 54 43 89 be 3c 9b af 3d a7 11 ea 3e 63 a0 a4 be
       -0.2680918 0.085745305 0.45716593 -0.32153615
000230 14 e3 90 be 3e 30 55 be f8 a6 e7 bd d2 3f be be
       -0.28298247 -0.20819184 -0.11311144 -0.37158066
000240 c2 dd df be 0a 2d 06 bd 5c e0 87 3e a8 68 78 3e
       -0.43723875 -0.032757796 0.2653836 0.24258673
000250 38 76 28 3e 60 57 17 3e 70 0d c3 bb 02 a3 16 be
       0.16451347 0.14779425 -0.0059525296 -0.1471062
000260 89 4e c2 be 8c c0 ff bd eb cd a4 be ee 0a 2e be
       -0.37950543 -0.12487897 -0.32188353 -0.16996357
000270 0c 96 94 3e 93 87 0f 3e 34 3d c7 be 6c fe c4 be
       0.29020727 0.14016561 -0.38913882 -0.38475358
000280 ee 65 9a 3e be d5 c5 3e 2e 5b 56 bd 03 31 89 3e
       0.3015589 0.38639635 -0.05233305 0.26795205
000290 c1 ae 94 bd d4 c8 58 3e 00 e1 c1 3c cf 9b 73 be
       -0.07259894 0.2117036 0.023666859 -0.23789905
0002a0 bf 7e a1 3e e9 d1 ce bd 81 56 f7 bd c8 0a 05 bd
       0.31542012 -0.10098631 -0.12077046 -0.032480985
0002b0 88 42 03 3e 5e f0 96 3e 22 fc a0 3e 2a b6 82 be
       0.12818348 0.2948026 0.31442362 -0.25529605
0002c0 9c 67 dc bd 1c 88 38 be f3 e2 63 be e4 60 92 be
       -0.107619494 -0.18020672 -0.22254543 -0.28589547
0002d0 45 68 82 be d8 da 50 be 3e 69 3a 3e 0e 35 bc 3e
       -0.25470176 -0.20395982 0.18204209 0.36759228
0002e0 0e 80 90 be 38 0f 0e 3d c1 53 7a be 9e 14 33 3e
       -0.28222698 0.034682482 -0.24446012 0.17488334
0002f0 ad 54 49 be 08 8b 8e 3e 6a f7 a5 be 18 ce 42 be
       -0.19661207 0.27840447 -0.32415324 -0.19023931

conv1.bias f4 [32]
000000 cd 7e ca 3e 74 2a 20 3e 11 af 60 be 40 27 51 bd
       0.39549866 0.15641195 -0.21941783 -0.051062822
000010 e7 05 3e be e1 a8 bd 3d 9c 41 bc be 88 9a c1 be
       -0.18556939 0.09260727 -0.36768806 -0.3781321
000020 49 e0 2f be c6 f4 38 be 50 38 78 be 48 56 99 3e
       -0.17175402 -0.18062124 -0.24240232 0.2994864
000030 30 5f c3 3e b8 e6 06 bc ac 21 bf bd 10 00 66 be
       0.3815856 -0.008233719 -0.09332594 -0.22460961
000040 8f 53 b8 be 4f 2e 86 be 9c c4 94 be 97 e8 95 be
       -0.3600125 -0.26207206 -0.2905625 -0.29279014
000050 0f 76 80 3c ee 80 0c be 81 ab 89 be 16 6c 21 3e
       0.015681295 -0.13721058 -0.2688866 0.15763888
000060 be 17 5e be ae 52 be be 20 41 41 3e 92 9b 05 3d
       -0.21688744 -0.37172455 0.188725 0.032619067
000070 0f b9 8e be 5c 29 a5 be f7 40 22 3e 08 1a a8 bd
       -0.27875564 -0.32258117 0.15845095 -0.0820809

conv2.weight f4 [32, 32, 3]
000000 90 34 ab 3d 8f f8 b3 3a a2 e8 9c 3d 9d 44 ba bd
       0.08359635 0.0013730692 0.07661559 -0.09095118
000010 00 c7 09 3d 2b 0c f5 3c 1d 1d ac bc 36 a9 4f bb
       0.033637047 0.029913029 -0.021009976 -0.003168655
000020 f6 e1 8b 3b 0d 4a b8 bc ca a4 dd bc d0 07 96 bd
       0.00426888 -0.022496248 -0.027056117 -0.07325709
000030 a4 05 81 3d a2 56 d5 3c 24 dd 02 bd ff 57 71 3c
       0.06299904 0.026042286 -0.031949177 0.014730453
000040 ff 52 aa 3b 07 f1 e0 3c 88 c5 ce 3c b5 bf 1c bd
       0.005197882 0.02745868 0.025240675 -0.038268764
000050 dd f6 91 bd d3 da 17 bd b8 0a b4 3d 15 49 62 bd
       -0.071271636 -0.03707392 0.08791107 -0.055245478
000060 e6 36 8c 3d a5 aa 64 3b a8 2e 97 3d d4 2c c1 3d
       0.068464085 0.003489175 0.07381946 0.094323784
000070 b6 ac 7c bb 5b 53 a3 3c 24 81 a6 3d 56 da 3b 3d
       -0.0038555092 0.019937208 0.081301 0.04586252
000080 b2 38 78 bc e8 01 b4 3d 22 e9 87 3c 3e 25 90 bc
       -0.015150236 0.08789426 0.016590659 -0.017595883
000090 03 6c 6c bd db 3d 93 bd eb 9b 0a bd 4e fd 4f 3c
       -0.057720196 -0.07189532 -0.0338401 0.01269467
0000a0 81 c5 c3 3d a0 37 6b bd 89 00 aa 3d 8c 6d d7 bd
       0.09559155 -0.057426095 0.08300883 -0.10518941
0000b0 91 a9 94 3c 3d a9 9a 3d dd 97 51 bd cc 6d 81 3a
       0.018147262 0.07551811 -0.05117022 0.0009874641
0000c0 42 a5 11 3d 88 e1 f3 ba 55 41 3b bb fa 05 56 bc
       0.035557993 -0.0018606642 -0.0028572876 -0.013062948
0000d0 ce 63 c2 bd db d4 62 bd 34 eb 6e 3d 6c 78 01 3d
       -0.094916925 -0.055378776 0.058329776 0.031608984
0000e0 a8 0a f9 ba 63 92 97 3d 78 ea b6 3d 0d 45 f9 3c
       -0.0019000368 0.07400968 0.0893144 0.030428434
0000f0 62 fe 81 bd 93 85 b8 3d 5e 02 da 3d 96 9a 31 3d
       -0.06347348 0.09009852 0.10644983 0.043360315
000100 0d b0 a4 bd bc 4f 4c 3c 59 71 22 bd ce 5b 97 bd
       -0.080413915 0.012470182 -0.039658878 -0.07390557
000110 ab 0d cf 3c dc 2f c1 bd 58 97 c1 bd 1d b9 57 bd
       0.025275072 -0.094329566 -0.09452695 -0.052666772
000120 7e 02 01 3d d5 cb 1c 3b 75 96 70 3d 8f 2e 5e 3d
       0.031496517 0.0023925204 0.058737237 0.05424362
000130 be 6d 9a bd 03 b2 84 bb b9 8e 0e bd 67 9c ab 3c
       -0.07540463 -0.004049541 -0.03480408 0.020948602
000140 52 28 ba 3d d5 27 97 bc 3f a4 5e bd d9 e0 0d bd
       0.09089722 -0.01845161 -0.054355856 -0.03463826
000150 45 b2 88 bd 37 0d 44 3d 73 5e a6 bc b7 8c 03 3d
       -0.06674627 0.047864165 -0.020308709 0.032116618
000160 b2 88 24 bd 51 84 5d bd 14 ae 87 bd 18 d0 0b 3c
       -0.040169425 -0.054081265 -0.06625 0.0085335
000170 bc 43 8b 3d 9c f5 f1 3a 7d ed 85 3c 33 38 dd 3a
       0.06800029 0.0018460038 0.016348595 0.0016877711
000180 32 a0 7c bd fa bb 36 bd 10 b5 66 bd a0 9a 45 3d
       -0.06167621 -0.044612862 -0.05632502 0.048243165
000190 ae a0 85 bd 54 b3 a9 3d 2d ad b2 bd 16 7c b7 3d
       -0.06524788 0.08286157 -0.08724437 0.089592144
0001a0 dd 98 38 3d 1c 08 c8 bd a3 c6 94 3c d1 da a2 bd
       0.045067657 -0.09767172 0.018161124 -0.07951892
0001b0 b4 b4 83 bd 3d 5f 60 3c 04 16 d5 3c 98 90 08 3d
       -0.06430951 0.013694582 0.026011474 0.03334102
0001c0 47 79 df 3d 0d 98 4c bc b4 0f a5 bd f0 20 bf 3c
       0.10911804 -0.012487424 -0.08059636 0.023331136
0001d0 53 59 c5 ba 1c d9 82 3d 85 16 49 3d 9d 33 78 bd
       -0.0015056528 0.063890666 0.049093742 -0.060596097
0001e0 d0 15 04 3d f8 5a d2 3c 29 d2 2d 3c 3f a0 a2 3c
       0.032247365 0.025678143 0.010609188 0.019851802
0001f0 82 27 68 3d bc 9e 41 3c ac 31 65 bd 5c aa 40 bd
       0.056678303 0.01181763 -0.055955574 -0.047037467
000200 69 7c 92 3d b6 03 10 bd 5e 31 0e 3d dd 27 0b bd
       0.071526356 -0.03515979 0.03471505 -0.033973563
000210 cd 82 6f 3d 90 b8 66 bc ac 3d b0 bd 24 49 28 bd
       0.05847435 -0.014082089 -0.08605513 -0.041085377
000220 f6 97 f5 3c 87 8d 39 3c d3 e1 6e bd 1f 8f 01 3d
       0.029979687 0.011325247 -0.05832083 0.03163063
000230 36 02 9a 3d 4a f0 b0 bd fe 32 24 bd 6e 08 55 3d
       0.07519953 -0.086395815 -0.040087692 0.052009992
000240 70 22 15 3d e4 0d 11 3d 43 28 0f bc cf c4 6d 3c
       0.036409795 0.035413638 -0.0087376265 0.014512255
000250 ea ff 00 3d 0a f0 be 3d 1c 2e 8b bd 74 97 97 bd
       0.03149406 0.093231276 -0.06795904 -0.07401934
000260 47 b6 a2 bd d2 8b fd ba a3 1b 85 3d 5f 14 4b bd
       -0.07944923 -0.0019344038 0.06499412 -0.049579974
000270 79 5b 95 bc 46 ba 93 bd fb a0 7a 3c 54 f1 b2 3d
       -0.018232094 -0.07213263 0.01529717 0.08737436
000280 05 7f 54 bc 06 db b9 bd 7b 02 95 bd 7b 3b 36 3c
       -0.012969737 -0.090749785 -0.07275864 0.01112258
000290 a9 01 2d 3d a8 28 99 3d 04 ad 56 3d 1f 9d fb 3a
       0.04223791 0.07478458 0.052411094 0.0019196606
0002a0 5a 73 50 3c 27 16 b7 bd 63 f2 cd 3c f8 38 56 bb
       0.012722814 -0.08939772 0.025139993 -0.0032687765
0002b0 39 0f 3e 3d 4b 9a 1e bb 50 1a 83 3d 57 09 b8 bc
       0.046401236 -0.0024200852 0.06401503 -0.022465391
0002c0 9d 6f 86 bc c0 b1 e4 bd a6 ef ab 3d 1e e0 2c bd
       -0.016410643 -0.111667156 0.08395319 -0.042205922
0002d0 c3 e9 6c 3d b7 41 83 3d b4 70 b0 3d 2d 79 0e 3c
       0.05784012 0.064090185 0.086152464 0.008695883
0002e0 bd 67 82 bd 2d 0b 83 3c 79 6f 57 3b 9e 31 0e 3d
       -0.06367443 0.01599654 0.003287284 0.034715287
0002f0 0a 32 d2 3d ad 9b 6c bd 4a 9a 47 bd a5 7f 0a bd
       0.102634504 -0.05776565 -0.048731126 -0.033813138
000300 bb a8 43 3c 34 50 3d 3c 89 49 c7 bd 6a 4e 86 3d
       0.011942084 0.011554766 -0.097308226 0.06557925
000310 1c 3b b3 bd c1 3f 4c 3d 2f ba 5e 3d cc 2e 4e bc
       -0.087515086 0.049865488 0.054376777 -0.012584399
000320 df bd 83 3c ac d9 15 bc 6d 13 e7 3b 3f aa 74 3d
       0.016081749 -0.009146135 0.0070518763 0.05973267
000330 65 1f 84 bd ae 60 86 3d 5b 24 1f bd 19 67 07 bb
       -0.064513005 0.06561409 -0.03885303 -0.0020660816
000340 5c 53 a9 3d 1a 1e 04 3e 2e c2 b4 bd ac f6 cf bc
       0.08267853 0.12902108 -0.08826099 -0.025386177
000350 dc 06 b2 3d 70 0c f4 3c ea ba 74 bc be 04 cc 3d
       0.086927146 0.029791087 -0.014937142 0.09961842
000360 e3 1b 31 bb 8d 64 85 3c 00 70 a0 3d a6 31 11 bd
       -0.0027024678 0.016283298 0.07833862 -0.03544774
000370 8a a9 4e bd 07 e0 b9 bd 84 0f 24 bd 18 a6 22 bd
       -0.050454654 -0.09075933 -0.04005386 -0.03970918
000380 f7 62 5b 3c 17 22 43 3d 77 bd 61 bd 88 04 1a 3d
       0.013390294 0.047639932 -0.05511233 0.037601978
000390 9b 71 f1 3d 04 b8 15 3d e2 28 04 3e 71 e7 2c 3d
       0.11789247 0.036552444 0.1290622 0.042212907
0003a0 1b fe 14 bc 6a 94 8b 3d 72 34 55 3d 69 2c a0 3c
       -0.009093787 0.06815417 0.05205197 0.019552426
0003b0 fc 9f 56 3d 7d 60 89 bd e1 d7 c7 bd a6 3c 9f bd
       0.052398667 -0.06707857 -0.097579725 -0.0777524
0003c0 6f ea 94 bd c9 65 3e bd cc d1 12 3c 45 18 6f 3b
       -0.07271277 -0.04648379 0.008961152 0.0036482972
0003d0 64 9c 26 bd 0e fe 0e 3d e5 4c eb 3c 35 c3 10 bd
       -0.04067649 0.034910254 0.02872319 -0.035342414
0003e0 f4 7b 94 ba 71 c7 94 bd 7a 32 d5 bd 99 3f 69 3c
       -0.0011328445 -0.07264603 -0.10410018 0.014236354
0003f0 af 98 3c bc 3b 00 f4 3b e3 95 2a bd 39 e5 1d bd
       -0.011511012 0.0074463165 -0.04164685 -0.038548682

conv2.bias f4 [32]
000000 c4 2b 07 bd da 1e f2 bc 08 d4 4a bd c9 60 b7 3d
       -0.033000723 -0.029555727 -0.049518615 0.08954007
000010 b0 61 54 bd f7 6c de 3b b3 8c e9 bc 0f c4 b1 3c
       -0.051850975 0.006787892 -0.028509473 0.021699933
000020 b3 31 4e bd a6 f9 a1 bd 8a a7 ce bb a9 56 a0 bd
       -0.050340366 -0.07908945 -0.0063065933 -0.07829029
000030 3d 1f bd bc 49 ad fb 3d bf 3d 1d bc 33 e6 01 be
       -0.023086185 0.12288911 -0.009597241 -0.1268547
000040 e5 4d c5 3c cc 26 93 bd 97 ba a8 3c 44 06 36 3d
       0.024084995 -0.07185134 0.020596785 0.04443957
000050 16 47 90 3c 92 15 c9 bd 64 ff 82 3d ad 35 ed 3c
       0.017612021 -0.09818567 0.06396368 0.028956259
000060 fc 77 d5 bd d1 4c 3d 3d 33 ec a0 3d 5a 3d be 3d
       -0.10423276 0.046215836 0.078575514 0.09289046
000070 13 72 2c 3c e7 e1 89 bc c5 e3 a8 3d b2 68 17 3c
       0.010525244 -0.016831351 0.082465686 0.00924127

conv3.weight f4 [32, 32, 3]
000000 ad 6c ee bc 07 d6 1c bd 56 ea 2e bd 4a 67 5d 3d
       -0.029104555 -0.03829005 -0.04270395 0.054053582
000010 03 60 e9 3d 1f a1 0f 3c 48 39 84 bc 17 64 7d bc
       0.11395266 0.008766442 -0.016140595 -0.015465758
000020 7d cf 8a bd 6f eb 9f 3d cb 8b d6 3d 62 15 97 bd
       -0.067778565 0.07808577 0.10475882 -0.07377125
000030 e3 f7 1f 3c b7 6a cb 3b 65 f5 a2 3d 58 80 31 bb
       0.009763691 0.0062077898 0.079569615 -0.0027084555
000040 0a c9 b7 3d 8c f2 af 3c e1 c2 b2 bd 86 42 6a 3d
       0.08973892 0.02147796 -0.087285765 0.057192348
000050 8f 59 d2 3d 19 56 11 3d 71 b0 02 3d 0f b9 c6 3d
       0.10270988 0.0354825 0.03190655 0.09703266
000060 dc be 50 3d 59 26 d5 3d 59 1f 73 3d ac e7 7a 3d
       0.050963268 0.10407705 0.059356067 0.061256096
000070 cd 37 53 3d 99 cd c7 bd 72 9d 8c 3d eb e3 9a 3c
       0.051566888 -0.097560115 0.06865968 0.018907508
000080 41 f5 cb 3d a3 43 95 3d 70 48 bd 3d ad 81 57 bd
       0.09958888 0.07288291 0.09242332 -0.052613903
000090 45 2d 20 bd 26 93 38 bd 60 d6 65 bd dc 8e 40 3d
       -0.039105672 -0.045062207 -0.056112647 0.04701124
0000a0 f6 7c bd 3d 65 56 ba 3d b7 1f 8b bc 56 a1 d3 bb
       0.0925235 0.0909851 -0.016982896 -0.0064584417
0000b0 70 55 07 bd 60 f8 4a bd 47 b4 ca bd 92 c9 9e bd
       -0.033040464 -0.049553275 -0.098976664 -0.0775329
0000c0 4b f2 92 3d b2 a5 3e bd 24 05 9f bd a9 be 73 bd
       0.0717512 -0.046544738 -0.07764652 -0.059508
0000d0 be af 5a 3d 88 c9 76 3d 96 56 61 bd 73 6b 94 3d
       0.053390257 0.06025079 -0.055014215 0.07247057
0000e0 55 ad 14 bd e5 a9 1e bd 54 8e a0 3d 42 b4 1a bc
       -0.036298115 -0.038736243 0.07839647 -0.009442391
0000f0 5c 16 2d 3d 41 77 9c 3d 5d ac 0c bd 8d de 49 3d
       0.04225765 0.076399334 -0.034344066 0.049284507
000100 93 7c d3 3d 74 99 f0 3d 12 9e 9c bd 36 8c 8e bc
       0.10326495 0.11748019 -0.07647337 -0.017400842
000110 62 6a a1 b9 43 96 93 3d b5 13 65 3c fb 7e 81 3d
       -0.00030787574 0.072063945 0.013981749 0.06323048
000120 96 2d 9b bd 09 bd 84 bc cf da e0 bc ff 2e af 3d
       -0.07577054 -0.01620342 -0.027448086 0.08553886
000130 29 7b da ba 88 d7 5d 3d 11 42 99 bd 08 27 17 bd
       -0.0016668785 0.054160625 -0.07483304 -0.036902457
000140 6f 17 b6 bd dc fd 29 bd 11 53 74 bd 0a 58 bf 3d
       -0.08891188 -0.041501865 -0.05964953 0.09342964
000150 22 df 27 bd 09 0a b6 bd 09 75 85 bd 55 8d a0 bd
       -0.04098428 -0.08888633 -0.06516463 -0.07839457
000160 70 9a 90 bd a4 01 cd bd 12 7f b8 3d 35 d1 fc 3c
       -0.070607066 -0.100100785 0.09008612 0.030861476
000170 35 46 81 3d a2 2b b1 3d 1d 41 30 bd 82 72 b4 3b
       0.06312219 0.086509004 -0.043030847 0.0055068145
000180 5a 0d 03 bd 7c 62 b0 bd 96 57 8d 3d fa f1 93 bd
       -0.031995155 -0.086125344 0.06901471 -0.07223888
000190 78 bd 29 3d 3e f1 40 3d e4 e7 9a 3c 06 f7 5c 3d
       0.041440457 0.047105066 0.018909402 0.053946517
0001a0 06 a0 a1 3d b3 ec 8b 3d 2e e4 94 bd 2a 07 8e 3d
       0.0789185 0.06832256 -0.07270084 0.0693496
0001b0 e7 02 63 bd c8 12 cd bd 04 e6 ac bc a4 3a c6 bd
       -0.05542269 -0.10013348 -0.021105774 -0.096791536
0001c0 34 65 09 3d 69 d0 ab 3d c1 77 44 3d a7 94 6f 3d
       0.03354378 0.083893605 0.04796577 0.058491375
0001d0 2b b8 36 bd 9b 42 12 3d 5d 26 a7 3d a0 6f d9 3b
       -0.04460923 0.03570805 0.08161614 0.006635621
0001e0 fb a3 ec bd ca b4 2b bd c4 be 6e 3c a4 67 3a bc
       -0.11554714 -0.04192046 0.014571849 -0.011377249
0001f0 05 58 6e 3b 4f 8e bb 3d a4 c8 3a bd aa 56 f0 bd
       0.0036368382 0.091580026 -0.045601502 -0.1173528
000200 16 5b 59 bd 0f 51 b7 bd fa a1 5a bd 41 2e 4d 3d
       -0.053065382 -0.089510076 -0.05337713 0.05009294
000210 3b 87 88 3c 63 78 b5 bd b7 ea 28 bd 69 6b 9f 3d
       0.016666045 -0.088608526 -0.041239467 0.07784159
000220 27 34 79 3d 01 98 9e bd 9d c7 3f 3d a0 66 c8 3d
       0.060840752 -0.07743836 0.046821225 0.09785199
000230 07 e1 b2 bd 84 83 0e bc fb d3 2f 3d ee 32 1c bb
       -0.08734327 -0.008698348 0.04292677 -0.0023834067
000240 40 12 ad bd 0a 53 83 3d cb 95 a2 3c 44 8d 24 3d
       -0.084507465 0.06412323 0.019846817 0.040173784
000250 3b 8e 55 3d 56 c6 d4 bd 7b 47 2f 3c 0f df 04 bd
       0.052137595 -0.10389392 0.010698195 -0.032439288
000260 1c b0 92 bd 28 cc 9f bc a5 a1 83 bd 6f f6 63 bd
       -0.071624964 -0.019506529 -0.064273156 -0.05565494
000270 76 44 95 3b ef 8a 96 3d 9b f5 36 bb 23 2a 40 bc
       0.0045552803 0.07350718 -0.0027917388 -0.011728796
000280 da a4 85 3b 4e a4 8b 3d 9e 71 5a bd 3a 0c e4 bc
       0.0040784897 0.06818448 -0.05333101 -0.027837861
000290 24 cb 98 bd 14 db 43 bb a6 77 9d 3d a9 89 49 bb
       -0.07460621 -0.002988522 0.07688837 -0.0030752218
0002a0 76 83 e9 bc 2d 7d d5 3c 18 cf b0 3c b6 f5 d9 bd
       -0.028505068 0.026060665 0.021583125 -0.10642569
0002b0 1c c6 9a bd f6 47 5b 3d fd 65 6c bd ee f6 6b 3c
       -0.075573176 0.053535424 -0.05771445 0.014402134
0002c0 51 39 2a 3b e8 92 00 bd ef f4 6a 3d 89 08 08 be
       0.0025974105 -0.0313901 0.057362493 -0.13284506
0002d0 22 a7 9b 3c cf ff ce bc 4f 2b 8f 3d d8 86 05 3d
       0.019000594 -0.025268463 0.06990682 0.0325993
0002e0 5c fc a5 bd 3d c3 91 3d 0e 13 0c 3d d5 12 0a 3c
       -0.08104774 0.07117317 0.03419786 0.0084273415
0002f0 f3 47 a9 bd 25 73 f2 3c a9 b2 8f bd 87 33 e8 bc
       -0.08265676 0.02959592 -0.070164986 -0.028344883
000300 25 8c 9a bd bc 85 36 3d 36 37 25 3a bb 16 b5 bd
       -0.07546262 0.044561133 0.00063024776 -0.08842226
000310 1e 65 7f bc 73 28 58 bd e3 09 c9 3d 54 87 e5 3d
       -0.015588073 -0.05277295 0.09816339 0.112074524
000320 08 62 a6 3c ca 0f 9e 3d 96 27 c0 3c f7 04 a7 3d
       0.020310417 0.07717855 0.023456376 0.08155244
000330 06 26 18 bd 81 35 20 3c 16 22 23 3d ed 03 8a bd
       -0.037145637 0.009778381 0.03982743 -0.0673903
000340 31 c3 d2 bd 16 ea b5 3c 2f 4a af bc ba 4a 42 bd
       -0.10291136 0.022206347 -0.021397678 -0.047434546
000350 82 38 48 bd 33 b1 8a bd 8b a8 b9 bd 40 79 ef bc
       -0.048882015 -0.06772079 -0.0906535 -0.029232621
000360 88 c0 ba bc 78 5d a1 3d 00 21 73 3d a4 91 2a 3d
       -0.022796884 0.07879156 0.059357643 0.0416428
000370 fd f7 92 3c 5e 86 9c 3d e1 bd 11 3d 31 c4 86 bc
       0.017940516 0.07642816 0.035581473 -0.016450973
000380 43 15 86 3d 4c b0 80 3d 62 55 0d bc 27 be 4e 3d
       0.06547024 0.06283626 -0.008626314 0.050474312
000390 8f a4 a9 3d 0f e2 52 bd 46 58 b8 bd 4f fb bc 3d
       0.0828334 -0.051485118 -0.09001212 0.09227621
0003a0 4f 92 34 3d 5f 23 89 3d 6f 81 83 bc dd 97 f7 3c
       0.044084843 0.066961996 -0.01605293 0.030223781
0003b0 2c e9 7c 3d f3 33 78 3d 70 41 74 3d 71 f3 30 bd
       0.061745808 0.060596418 0.05963272 -0.043200914
0003c0 7c 54 25 3b 3e fe 34 3d d8 cb aa bc 26 33 bd 3d
       0.0025227359 0.044187777 -0.020849153 0.092382714
0003d0 3d 93 95 bc 95 a3 ad bd 42 a1 b2 bd f4 73 4f 3d
       -0.018258685 -0.084784664 -0.08722164 0.05064769
0003e0 0c 80 8c bd 4a db a8 3c bc 5f 43 bd 88 8a bf bd
       -0.068603605 0.020612378 -0.04769872 -0.093525946
0003f0 e4 4e 91 bd db 55 c2 3b e8 46 28 3c 63 d5 84 bd
       -0.07095125 0.005930645 0.010270812 -0.06486013

conv3.bias f4 [32]
000000 6c 02 b1 bd b1 4d 8a bd 19 59 54 3c c6 23 cc b9
       -0.0864304 -0.067531 0.012960696 -0.00038936565
000010 6c e4 54 3c 9a 6f 2b 3d dc a8 89 bd 1b 07 b7 3d
       0.012993913 0.04185448 -0.067216605 0.08936902
000020 25 fb ab bd 87 5a 67 3d af ed 9f 3d cc e7 c9 bd
       -0.083975114 0.056482818 0.078090064 -0.09858665
000030 69 2a 85 bc 00 42 c7 bd 69 a7 7c 3c 0a 23 94 3d
       -0.016255574 -0.097293854 0.015420773 0.07233246
000040 16 78 bf 3d 66 4c c6 3d 4b 20 1b 3d 4b cd b2 3d
       0.093490764 0.096825406 0.037872594 0.08730563
000050 4b 92 a7 bd 58 06 0a 3e d5 19 c5 3d 87 51 c9 bc
       -0.081822 0.13478982 0.09624068 -0.024575008
000060 46 fd ae 3c a5 83 84 3d 4c 37 b3 3c ca 77 21 3d
       0.021361005 0.06470422 0.021876954 0.03942088
000070 4e 2d 85 3d 18 5b 4b bd 7f 6e c5 bc ce eb cd 3d
       0.06502782 -0.04964742 -0.02410054 0.10054742

conv4.weight f4 [32, 32, 3]
000000 43 5d c7 3d 79 0b ea bc c1 e1 54 bc 5b 0a 64 bd
       0.09734585 -0.028569924 -0.012993277 -0.05567394
000010 18 e3 c1 bc c0 92 af 3c 9f 24 ac 3d a4 f4 78 3c
       -0.023667857 0.02143228 0.084054224 0.015195046
000020 88 53 03 bd cb df 52 bd 1b 99 a1 3c 4e 40 bb bd
       -0.032062083 -0.051482957 0.019726327 -0.091431245
000030 9f 7e 52 3d d8 0c 78 bc 99 2e cc 3c 4b 0d 3d bd
       0.051390287 -0.015139781 0.024924563 -0.046155255
000040 8b e5 8e 3d b8 21 3a bc 0f b8 cf 3b e1 bd d0 bb
       0.069773756 -0.011360578 0.00633908 -0.0063702916
000050 6c 7f e1 bd 67 7d 82 bd 5f b4 20 bd 2b d6 8a bd
       -0.11010632 -0.06371575 -0.039234515 -0.067791305
000060 02 b9 43 3d 9a 50 4a bd cb 15 b2 3d 2e ce 7d 3d
       0.04778386 -0.049393274 0.08695563 0.061964206
000070 7c 0e a2 3d 7c 04 fa 3c fc fa 1c bd 18 0d 32 bc
       0.07912919 0.030519716 -0.038325295 -0.01086738
000080 0a 13 9b bc 74 06 a6 bd 78 e1 1c bd 40 38 19 3d
       -0.018929977 -0.081066996 -0.03830096 0.03740716
000090 29 50 5f 3d 16 c7 81 3d 07 33 66 bd 3f eb ce 3d
       0.054519806 0.06336801 -0.056201007 0.101034634
0000a0 06 f3 1e bd 52 af f9 bd c4 e3 a4 3d 6c 5f 9c 3d
       -0.038805984 -0.12191643 0.08051255 0.07635388
0000b0 aa 53 54 3b 29 82 d1 bc e2 ed b6 3d 61 5f 84 bd
       0.00323985 -0.02557476 0.08932091 -0.064635046
0000c0 23 41 7c bb e5 38 52 3d 8b ba 38 3e 5c d9 b2 bd
       -0.0038490973 0.05132379 0.1803991 -0.08732864
0000d0 72 6d 0e 3d f7 53 ca bc 42 d1 8c 3d 11 57 94 ba
       0.034772344 -0.02469824 0.0687585 -0.0011317452
0000e0 bb 25 8d bd f1 1e 1d bd 8d aa 81 3d 90 df ca bd
       -0.06891962 -0.038359586 0.06331358 -0.099059224
0000f0 4b 13 2e 3d 14 55 92 bc 5e c6 87 3d 5c d1 c1 3d
       0.042498868 -0.017862834 0.066296324 0.0946376
000100 db de a0 3b 4a bc 65 bd 3b 78 22 bd 1f a7 14 3d
       0.004909379 -0.05608777 -0.039665442 0.03629219
000110 60 7c 36 3c b2 0e 9a 3d 12 b5 8f bc 7e 75 1b bd
       0.011138052 0.07522334 -0.017542396 -0.037953846
000120 d2 0f 9e 3d 30 13 7b bd ed 3a 59 3d 6a b0 ea 3c
       0.07717861 -0.061297596 0.05303471 0.028648574
000130 b2 ec c3 ba 1a 85 f8 bd 84 7d bb bb 0b 6f bb bd
       -0.001494786 -0.12134762 -0.0057217497 -0.09152039
000140 0a 07 bc bd da da c2 bd 10 8d 66 bc f2 74 da 3d
       -0.0918103 -0.09514399 -0.014071718 0.10666837
000150 e4 8e a2 bd 19 97 80 3d 33 b5 a2 3b e8 94 a7 bd
       -0.079374105 0.062788196 0.0049654483 -0.081826985
000160 c9 68 ba bd cc 6e ae 3c c1 26 15 3d e6 33 77 3d
       -0.091020174 0.021293066 0.03641391 0.06035223
000170 85 11 bf bd 39 7b dd bc 8a 99 c4 bd f4 db 7f bd
       -0.093295135 -0.027036296 -0.09599598 -0.062465623
000180 b3 88 eb bc ca 0d 51 3d 23 07 00 bd 60 71 ab 3d
       -0.028751707 0.05103854 -0.031256806 0.08371234
000190 25 a4 a2 3d fb bc e3 bc 96 c9 a2 3c 67 a3 9e 3d
       0.07941464 -0.027800074 0.019871514 0.0774601
0001a0 10 58 77 3d 10 e1 30 bc f2 14 94 bc 4b 06 df bd
       0.060386717 -0.010795847 -0.018076394 -0.10889872
0001b0 c9 16 b9 bd 2c cb 8d bd e8 6d 07 3d e8 b9 f6 bc
       -0.09037549 -0.069235176 0.0330638 -0.030117944
0001c0 86 9b 07 3d 78 24 c9 bd aa 70 c6 3c 37 a9 db bd
       0.033107303 -0.09821409 0.024223644 -0.107256345
0001d0 8b 58 be 3b 1f 7f 63 bd 12 4f 82 3d e4 1d 8d 3d
       0.005808895 -0.055541154 0.06362738 0.06890467
0001e0 4f ba ef bb 29 69 63 3d a0 ad a5 bc e4 d5 a8 bb
       -0.007315911 0.05552021 -0.020224392 -0.005152451
0001f0 60 6a 68 bd 3c b4 4c bd 69 b5 41 3d f1 95 a6 3d
       -0.056742072 -0.049976572 0.047292147 0.08134068
000200 a2 64 6d 3d 05 45 d9 bd 5f 24 e6 bd 33 cc 88 bd
       0.0579573 -0.106088676 -0.11237406 -0.06679573
000210 7a 7c b6 bd 8d 0b 63 3d d8 2b 9d bc ee 5f ac bb
       -0.08910461 0.055430938 -0.019185945 -0.005260459
000220 6f 9c 1b bc 12 77 67 3d 01 56 d6 3d 5c 8e ce bd
       -0.009497746 0.05651004 0.10465623 -0.10085747
000230 fb c8 71 3d 56 e5 33 bd 7e 06 86 bc ba b4 51 3d
       0.05902956 -0.043919884 -0.016360518 0.051197745
000240 50 22 a9 3d 84 31 67 bd 41 d4 9f bd 31 8d af 3c
       0.08258498 -0.056443706 -0.07804156 0.02142963
000250 97 6d a1 3d b2 d3 aa bd 34 0d ce 3c 9c f4 b6 bd
       0.07882231 -0.08341159 0.02515278 -0.08933374
000260 45 42 7d 3d 51 00 f1 3c 5e f5 35 bd bb cb 6e bd
       0.061830778 0.029419096 -0.044423454 -0.05829976
000270 51 b4 54 3d ca c4 8e 3d d0 95 7d 3d 17 cb 41 bd
       0.051929776 0.06971128 0.06191045 -0.047312822
000280 a9 0e 70 3d 84 21 c0 bc 4b e6 c9 bc aa 4a d7 bb
       0.05860773 -0.023453481 -0.024645945 -0.00657018
000290 55 78 f4 bc 17 05 61 3c 69 5e e3 bc 17 76 05 bd
       -0.029842535 0.013734124 -0.02775498 -0.032583322
0002a0 08 20 14 3c 08 17 13 bd 9a 23 83 3d 4b e8 a7 3c
       0.00904084 -0.035910636 0.06403275 0.020496508
0002b0 0b e0 8c bd 0e 94 8f bd 0e ad ed bd 4c 56 77 3d
       -0.0687867 -0.07010661 -0.11605273 0.060385033
0002c0 73 ad 1b 3d 34 58 11 3d 0a 26 8a bd 36 d7 0f 3c
       0.03800721 0.035484508 -0.067455366 0.008779338
0002d0 66 a1 6f 3c 40 09 03 3d 9a 39 c9 3d a9 c0 b3 3d
       0.014625883 0.031991243 0.0982544 0.087769814
0002e0 16 f0 b5 bd 64 ab 7b 3d e4 33 cd bd a7 f4 87 3d
       -0.088836834 0.061442748 -0.10019663 0.066384606
0002f0 d1 ac 6e bd 61 54 f3 bc 9f ed 1a bd 3c c4 64 bd
       -0.05827028 -0.029703321 -0.03782427 -0.055851206
000300 1f cf a4 bd 01 a9 5c bc 13 06 b9 bb 73 4a b8 bd
       -0.08047318 -0.013468028 -0.005646476 -0.08998575
000310 34 56 9e bd bb f3 ca 3b d9 7f ae 3d 6b 91 a1 3d
       -0.07731286 0.0061936057 0.08520479 0.078890644
000320 34 a0 a8 3d 5c 9b c3 3d e4 04 90 bb 92 a4 84 bc
       0.08233681 0.09551117 -0.0043951143 -0.016191754
000330 b6 ad 22 bb 4c 45 89 3d 0b 95 e9 bc 11 56 b6 bd
       -0.0024822778 0.067026705 -0.028513452 -0.089031346
000340 d7 2c 92 bd 95 d6 b4 bd c8 d2 3f bd 32 dd 27 bd
       -0.07137459 -0.08829991 -0.046831876 -0.040982433
000350 d7 e4 c1 3d 48 24 49 3c ec d7 52 3d 2f fb 27 bd
       0.09467476 0.0122767165 0.05147545 -0.04101103
000360 4f 80 72 3b 36 70 12 3d 96 80 c1 3d 88 ad cd bd
       0.0037002747 0.035751544 0.09448354 -0.10042864
000370 4e 8f 4e bc e1 87 10 bd b8 ee 02 3d d6 2b 97 3c
       -0.012607409 -0.035285834 0.03196594 0.01845352
000380 d6 c9 b6 3b 8c 5c 1b 3d 64 5e 90 3d 12 9b 65 3c
       0.00557826 0.037930056 0.070492536 0.014014022
000390 ee 82 f4 3c ba cf b2 bd 51 9d 78 bd c3 3c a3 3c
       0.029847588 -0.08731027 -0.060696904 0.019926434
0003a0 4d cc 94 3d f0 08 cf 3c cd 3c 8b bc 17 9f b0 3d
       0.0726553 0.025272816 -0.016996766 0.08624094
0003b0 2d 5c 9c 3d f6 74 8f bc ea 73 82 3d 5c b4 bd bd
       0.07634769 -0.017511826 0.06369765 -0.092629164
0003c0 db 24 8d bd 0d 12 79 3d 59 54 d2 3d 99 cb b7 3c
       -0.06891795 0.06080823 0.10269994 0.02243595
0003d0 4e 6b ec bc de e9 9e 3d f2 96 25 3d 57 43 c4 3b
       -0.02885976 0.077594504 0.040427156 0.005989473
0003e0 d2 9d 40 bd 6f 72 b7 bd c1 ec a5 3d ea bc e5 bc
       -0.04702551 -0.08957373 0.08101798 -0.028044183
0003f0 60 ad bd bd 77 b2 02 bc d3 e2 9f 3d 29 66 8d bd
       -0.09261584 -0.00797712 0.07806935 -0.06904251

conv4.bias f4 [32]
000000 06 6f de bd db dd a1 3d 9c 12 41 3d 65 26 c1 bd
       -0.1086102 0.07903644 0.047136888 -0.09431151
000010 81 b6 e8 3d 86 31 c7 3c 6d ab a7 3c 5d ac 0e be
       0.11362935 0.024315607 0.020467484 -0.13932939
000020 36 3b c2 3d 8b b7 bb bc 9a ef ba 3d 12 29 e1 3c
       0.0948395 -0.022914669 0.091277316 0.027485404
000030 9d 31 69 bd 54 a7 66 3d a5 2f ef ba ef 73 cb bb
       -0.05693208 0.05631192 -0.0018248452 -0.0062088887
000040 96 68 9b 3d d5 bf 9b bd 2e d0 78 bd 97 9e 00 bd
       0.075883076 -0.076049484 -0.06074541 -0.031401243
000050 ff e6 83 3d 5d 14 ec bd 95 01 81 bc d2 c3 71 3c
       0.064405434 -0.115273215 -0.015747825 0.01475616
000060 22 e3 20 3d 38 69 8c bb c9 97 83 bd 7a ed 54 3d
       0.03927911 -0.004285004 -0.06425435 0.051984288
000070 98 f9 c9 bc c7 f0 bb bc 4f aa 12 bd 32 12 8e 3b
       -0.024655148 -0.02294196 -0.03580695 0.004335665

conv5.weight f4 [32, 32, 3]
000000 d9 aa 97 bd bf b2 b1 3c c7 c2 9a 3b c2 0b a5 bc
       -0.074056335 0.021691678 0.0047229263 -0.020147208
000010 9d e5 2f 3d 12 db c1 3d 13 f5 76 3d 2a dd 99 bc
       0.042943586 0.094656125 0.060292315 -0.018782217
000020 5d c5 3c 3d 41 34 8b bd e8 81 5d 3d f5 84 c8 bc
       0.046086658 -0.06797076 0.054078966 -0.024477461
000030 ed df 64 bd bc e6 e9 3a c9 d9 ff 3c 3f a5 d5 bc
       -0.055877615 0.0017845253 0.031231778 -0.026079772
000040 e7 9b 13 3d ca 7a 27 bd 04 7c ce 3d c3 ea cb bc
       0.036037352 -0.040888585 0.10082248 -0.024892217
000050 54 86 9c bc cc 04 92 3c d7 dd 9d 3d 5f e7 99 bd
       -0.019107021 0.017824553 0.07708328 -0.07514834
000060 9d 8d b2 3c fb 1b 18 bd 6a 33 9e 3d 45 48 a2 3d
       0.021796042 -0.03713606 0.0772465 0.079239406
000070 02 e0 9a 3d 9e 11 e6 ba 27 84 2e bd e3 30 85 bc
       0.07562257 -0.0017552858 -0.0426065 -0.016258663
000080 0a db 9e bc 39 83 a9 bd b6 a9 8f 3b 48 84 9d bd
       -0.019391555 -0.08276982 0.004384245 -0.07691246
000090 bc 86 98 bd 41 e4 4a 3d 32 54 49 3d 84 57 ac bc
       -0.074475735 0.049534086 0.04915256 -0.021037824
0000a0 d7 09 1c bc 37 6d 68 bd 5a 0b e1 3c 2c 6b 83 3c
       -0.00952383 -0.05674478 0.027471233 0.016042314
0000b0 e1 a7 4f bd 19 d1 bf bd 4f 5e 92 bc 4e 2f 8b bd
       -0.05069721 -0.09366054 -0.017867235 -0.06796132
0000c0 be c3 06 3d ff d3 8a bc 00 b2 9f 3d 86 40 ba bd
       0.032901518 -0.01694679 0.07797623 -0.09094338
0000d0 aa 20 9d bd 54 4a 7d 3c dd 54 d7 3d 73 ab 85 3d
       -0.07672246 0.015459616 0.10514233 0.06526842
0000e0 26 87 45 3d 42 c5 83 3d fa 16 85 3c 5f 29 ac bd
       0.04822459 0.06434108 0.016246308 -0.084063284
0000f0 f3 6d b0 ba 64 23 61 bc e6 66 8d bd f2 79 85 bc
       -0.0013460502 -0.013741348 -0.06904392 -0.0162935
000100 27 1a 89 3d b3 d9 8d 3c 78 62 25 3b df 93 ac 3d
       0.06694441 0.017315721 0.0025235694 0.08426642
000110 4b 94 6c bc a0 d5 a3 3d 9a c1 59 3d f5 ef 35 bd
       -0.014439653 0.0799973 0.05316315 -0.044418294
000120 04 89 8e bd 98 8b f5 3b f0 ca 02 bc 59 bb 4f bd
       -0.069597274 0.0074934475 -0.007982954 -0.050715778
000130 52 f1 aa 3d de 9b f8 3c 24 39 96 bb e8 13 8d bd
       0.083468094 0.03034776 -0.0045844484 -0.068885624
000140 52 1f 9c bc 31 bb 4a bd 0d dd 5f bc db 14 83 3d
       -0.019057903 -0.049494926 -0.013663542 0.06400462
000150 85 cc ea 3d 6e 14 4f bd 5d d0 b7 ba 4b 0d a3 bd
       0.1146479 -0.050556593 -0.0014023889 -0.0796152
000160 13 9a 2b bd 83 e5 92 bb b6 8b 82 bd ea e1 a9 bb
       -0.041894984 -0.0044829263 -0.06374304 -0.0051844018
000170 f3 53 91 3d d6 77 95 bd 07 8c 52 bd 17 09 bd bd
       0.0709609 -0.072982475 -0.05140307 -0.092302494
000180 34 c0 78 bd fd 47 8a bd 58 07 df 3c 9c 14 91 bc
       -0.060730174 -0.06752012 0.027225181 -0.017710023
000190 26 42 a8 3d 8e 97 32 bd ea 2d d9 bd d4 c3 64 bd
       0.08215742 -0.043601565 -0.106044605 -0.05585082
0001a0 d3 1d 3b bc db dc 16 3d 9b e1 d0 bc 08 c4 7d bd
       -0.011420685 0.036831718 -0.025498202 -0.061954528
0001b0 bd 57 59 3c 87 d4 f7 bd 3f b5 a6 bc 64 3f 92 bc
       0.013265547 -0.12101083 -0.020350097 -0.017852493
0001c0 ac 4b b6 bd 59 a6 2b bd 89 f8 28 bd be 36 07 bc
       -0.08901152 -0.04190669 -0.041252647 -0.008252798
0001d0 3c e0 b3 3d cd ed 17 be e5 dd 6c 3d 95 8e aa bd
       0.08783004 -0.14836808 0.057828803 -0.083279766
0001e0 25 5e 91 3d 50 c7 6a 3d de 70 78 bd 53 a9 94 bc
       0.07098035 0.057318985 -0.060654514 -0.018147146
0001f0 da 00 86 bd 34 ad 5f bd 20 0c c0 3d 7a 1c e3 bd
       -0.06543131 -0.05460854 0.09377313 -0.11089416
000200 29 56 e3 bc 42 4d 8c 3c 16 60 55 3d b0 e7 4c bd
       -0.027751045 0.017126683 0.052093588 -0.050025642
000210 21 1d 01 bb 65 68 a6 3b 09 78 e7 bd 6b 3a 8d 3d
       -0.00197012 0.0050783628 -0.11302192 0.06895908
000220 5f 16 02 bd 02 95 ba 3d 24 7a 1a 3c 2d de a7 bc
       -0.031759616 0.09110452 0.009428535 -0.020491684
000230 8a a5 8a 3a 35 1a 8d bd 65 23 ad 3d f9 d8 12 3d
       0.0010577899 -0.06889764 0.084540166 0.035851452
000240 56 12 b0 3d 5e 71 c4 3d fc ab 24 bd 4a ae 3f 3d
       0.08597247 0.095919356 -0.04020308 0.046797074
000250 61 00 af bd bb 49 bd bd 8d 59 3d bd 20 ab 6b 3d
       -0.08544994 -0.092425786 -0.04622798 0.057536244
000260 9c a8 7b bd bf 53 bd 3c e7 03 9f 3c 5e b1 25 bd
       -0.061440095 0.023111222 0.01941104 -0.040452354
000270 8a 28 4d 3d a7 fa ea 3c b5 e0 85 3d fc 0e 8b bd
       0.05008749 0.028683973 0.06537 -0.067899674
000280 96 f1 b1 3d 64 e8 35 bd 1b e0 c6 bd 08 cb d5 bd
       0.08688657 -0.044411078 -0.097107135 -0.10439116
000290 28 84 cd 3c c3 60 04 bd e9 c0 ba bc b7 fe f6 3c
       0.025087431 -0.03231884 -0.022797065 0.030150754
0002a0 33 30 71 3d ca 54 a5 bc 53 2d f9 3c 8f 8c 9a bd
       0.058883857 -0.020182032 0.03041712 -0.07546341
0002b0 39 57 dc 3b 62 41 ef bc cb bb 19 3d 73 32 c5 bd
       0.006724265 -0.029205982 0.03753261 -0.09628763
0002c0 08 ae b3 3d 77 0a 28 3d 4f 28 1a 3d 56 5b 2f bd
       0.08773428 0.041025605 0.037636098 -0.042811714
0002d0 2c cc b9 3d 47 6f a9 bc d5 b2 27 bd 26 d9 f4 bc
       0.09072146 -0.020682944 -0.040942032 -0.0298887
0002e0 19 66 63 bd a8 e5 15 bd 74 ba 85 3c b2 2e d6 bc
       -0.05551729 -0.03659597 0.01632426 -0.026145313
0002f0 8f 3e ef 3d fd 7e d9 bc 59 94 f1 bc 99 a5 ee bd
       0.11681854 -0.02654981 -0.029489683 -0.11652679
000300 52 5a 59 3d 85 65 53 bd 0e 3f b0 bd ec 43 78 bd
       0.05306465 -0.05161049 -0.08605777 -0.06061165
000310 07 b7 82 bc e3 a2 c8 3d 2f 91 86 3d 50 1e bd bd
       -0.015956415 0.09796693 0.0657066 -0.09234297
000320 c3 bb b1 bd e5 9b fa bc 3d 86 cb bc 0a 40 57 3d
       -0.08678391 -0.030591914 -0.024844283 0.052551307
000330 b8 f9 b9 bd 72 ce 62 bd ec 6a b0 bd 27 c1 c8 bc
       -0.09080833 -0.055372663 -0.08614144 -0.024506165
000340 46 2a eb 3b f0 ec 54 bd cb 66 5e bc 6a 4b 38 3d
       0.0071766702 -0.051983774 -0.013574312 0.044993795
000350 7e 1e cf 3d e1 ff fa 3d ee 4e 24 3d 84 70 8f bd
       0.10113238 0.12255836 0.040114336 -0.070038825
000360 3b 58 55 bc 90 ba 23 3d 3f 40 cb 3d 9d 6e c8 bd
       -0.013021524 0.03997284 0.09924363 -0.09786723
000370 94 91 8b bd c1 7a 26 3d 09 72 a7 bd af ac 7d bc
       -0.06814876 0.04064441 -0.08176047 -0.0154830655
000380 17 4a bd b9 42 0d 10 bd 70 0e 9a bd 9a 9b 8a 3c
       -0.0003610409 -0.035168894 -0.07522285 0.0169199
000390 0e ed b3 bc 95 2c 19 3d 57 a3 28 bd 69 ef 94 bd
       -0.021963622 0.037396032 -0.041171398 -0.07272226
0003a0 af 47 56 3c 8f 6c 62 3d 13 c9 72 bd 47 b5 fa bc
       0.013078614 0.05527931 -0.05927379 -0.030604018
0003b0 ef 2f 62 bd 26 fb b0 3d ec 12 96 3d 4d 6e ed 3b
       -0.055221494 0.08641653 0.07327828 0.007245815
0003c0 42 6e 8f bd 2e ae 69 bd c5 5d 96 bd 17 f3 36 3d
       -0.07003452 -0.057050876 -0.07342104 0.044665422
0003d0 79 3d 0c bd b9 ce 8f bd c8 4a b7 3d d6 7a c4 bd
       -0.034238312 -0.07021851 0.0894981 -0.095937416
0003e0 ae f1 22 bd be bf 5a 3d e2 a9 be 3d 19 c3 58 3d
       -0.039781265 0.053405516 0.09309746 0.052920435
0003f0 03 ae 2f 3d 9e af 9e bd cb ff bb 3d 3d eb 5d 3c
       0.04289056 -0.0774834 0.09179648 0.013544855

conv5.bias f4 [32]
000000 7d 86 1e 3d 11 05 1c 3d 4f 39 d4 bd 11 cb 70 3d
       0.038702477 0.03809077 -0.10362493 0.05878741
000010 c2 9c 9e 3d 18 0b 80 3d 13 cb 16 bd 73 54 4a bd
       0.07744743 0.06252116 -0.03681476 -0.049396943
000020 9b 6a c0 bd 71 d1 01 3d 3e b0 f4 bc 2f 45 68 3b
       -0.093953334 0.03169388 -0.029869195 0.0035441627
000030 d6 1d 82 3d 1e ea c5 3d a1 f1 3d bc 52 9f 87 3c
       0.06353347 0.09663795 -0.011593253 0.016555462
000040 2a 6f 7c 3d 8a 5c 81 3d 6f e9 73 3d 93 62 a1 bd
       0.06162945 0.063164786 0.05954879 -0.0788013
000050 ef cd c2 bd 39 b3 90 bd c6 0f 9f bc 49 de 13 be
       -0.09511935 -0.07065434 -0.019416701 -0.14440264
000060 ce 43 b5 3d 37 8b 01 bd de 36 f7 bc d5 fe 97 bd
       0.08850823 -0.031626906 -0.03017753 -0.07421652
000070 3b 57 f0 bc f3 77 eb bd 88 04 96 3c 55 64 38 bd
       -0.02933847 -0.11497488 0.018312708 -0.04501756

conv6.weight f4 [32, 32, 3]
000000 49 dc ff bc 9f 82 f0 bd 62 69 80 bd 78 8f 69 bd
       -0.03123297 -0.11743664 -0.062701 -0.057021588
000010 c7 75 46 bd 4a bf 37 bd cb 2f 90 bd 33 2e 94 bd
       -0.048452165 -0.04486016 -0.07040366 -0.07235374
000020 64 62 29 bc 3c d6 07 bd 7a d4 a1 3d 43 da e1 bc
       -0.0103384 -0.033163294 0.07901855 -0.027569896
000030 a6 31 83 bc 6f fc 98 3d b1 03 83 bd 83 3a 05 3e
       -0.016014885 0.07470023 -0.063971885 0.13010602
000040 13 cb d2 3c 86 50 c6 3d 4b 6d 6f bd 35 b0 f3 bc
       0.025731599 0.096833274 -0.05845384 -0.029747108
000050 2f 7d 38 3d cc a5 8e 3c 50 02 05 bc 29 35 62 3d
       0.04504126 0.017413042 -0.008118227 0.05522648
000060 d5 14 3c 3c 08 f9 9f bc 7a 5b 13 bd 7a 37 14 3c
       0.011479576 -0.019527927 -0.03597591 0.00904643
000070 8d 3b ad 3c 85 ff b6 bd ac 7e a8 bc e2 18 94 bd
       0.02114656 -0.08935455 -0.020568214 -0.072313085
000080 39 13 e6 bc 4c a3 5e 3c 1e 37 da 3c 18 d8 13 3d
       -0.028085338 0.013588738 0.02663761 0.036094755
000090 8a 3e cb 3c 00 10 db bd 8b ff 99 3d 40 0f 19 bd
       0.024810094 -0.10696411 0.07519444 -0.03736806
0000a0 08 34 97 bd 6b bd 5e bd b5 8a 7f 3d 1b 8d 70 3d
       -0.07382971 -0.05437986 0.06238814 0.05872832
0000b0 00 f3 01 bb e7 3c 9c bc 0b 8e 41 bc fe e2 46 3d
       -0.0019828677 -0.01907201 -0.011813651 0.04855632
0000c0 98 46 c6 bd 75 7c 04 3d 36 aa e7 bb 86 4c c4 3a
       -0.096814334 0.032345254 -0.0070698513 0.0014976419
0000d0 2f 27 d5 3d eb ec 1a 3d 38 54 9e 3b aa 8b 83 3d
       0.10407864 0.0378236 0.004831817 0.06423123
0000e0 32 07 84 3c 5c 81 e6 bd f4 2d 8f 3d 74 38 bd 3d
       0.016116712 -0.11255142 0.06991187 0.09239283
0000f0 04 70 5e bd 08 e8 b4 3d 07 c8 75 3d c0 8d 95 3d
       -0.054306045 0.08833319 0.060005214 0.07302427
000100 8d b2 24 bd 71 9c 86 bd b0 10 9b 3d 6e 60 33 3d
       -0.04020934 -0.065728076 0.07571542 0.043793134
000110 93 80 6a 3d 9c f2 1a bd b6 d0 5f bc 43 a1 8c 3c
       0.057251524 -0.037829027 -0.0136606 0.01716674
000120 aa b2 c7 bd 44 28 99 3d e8 86 78 bc 14 e0 d7 bd
       -0.09750874 0.07478383 -0.015168883 -0.105407864
000130 79 99 f2 3d 20 d3 ae bd d0 c2 0a bd 5d cd c0 bc
       0.11845679 -0.08536363 -0.033877194 -0.023535425
000140 ae 01 15 3d ee 63 1c bd 44 50 cb 3d ee d7 b5 bd
       0.036378555 -0.038181238 0.09927419 -0.08879076
000150 0b 7f 99 bd bd 8f ff 3c 99 f5 9c bd 33 8c a3 3c
       -0.07494935 0.03119647 -0.076640315 0.019964313
000160 41 ae ac bd c1 55 1c 3d ae 0d 88 bc 45 4f 40 bd
       -0.08431674 0.03816772 -0.016608085 -0.046950597
000170 c1 5e 45 3d eb 97 c3 bc 7b 59 48 bd 08 db bf 3d
       0.048186067 -0.023876151 -0.04891346 0.09367949
000180 2d a9 99 bd 3f 53 b6 3d e6 ee 92 bd 71 3e 00 3c
       -0.07502971 0.08902597 -0.071744725 0.007827387
000190 d9 ee af bd 9a a3 f6 3c 3c d7 52 3d 85 7e 62 bd
       -0.085904785 0.030107308 0.051474795 -0.05529644
0001a0 77 f8 7f bc 45 ac 7f bc 5a 84 38 3d 0e de ae bb
       -0.0156232035 -0.015605037 0.045048095 -0.0053365296
0001b0 38 77 b3 bd 8a c9 29 3d 33 8b 1e bd f7 8e 43 3d
       -0.087629735 0.04145197 -0.03870697 0.047743764
0001c0 18 b4 92 bd be e1 27 3d 82 81 8d bd 24 a9 80 3d
       -0.071632564 0.04098677 -0.06909467 0.06282261
0001d0 cc 2e 8b bd f1 b4 42 3d b7 51 99 bd 6d 47 9e 3c
       -0.06796035 0.04753584 -0.07486289 0.019321168
0001e0 27 c5 a0 bd e6 9d a5 bd c8 de 6c 3d 47 ca 3f 3d
       -0.07850104 -0.08086757 0.05782965 0.046823766
0001f0 e5 36 68 bc 27 4a 89 bd 33 0d 90 3b 72 58 97 bd
       -0.014173244 -0.067035966 0.0043961047 -0.073899165
000200 b6 ec 03 3d 9b e4 9d 3d 5a 13 13 bc 05 42 5c 3d
       0.032208167 0.07709619 -0.008976782 0.0537739
000210 88 eb 13 bd 3e 2f 91 bd 0f 3d d9 3b 3b 1a 3d bc
       -0.036113292 -0.07089089 0.006629593 -0.011541898
000220 b8 04 bd bd a2 dd 09 3d 2f e4 6a 3d 2d 6f 3d 3d
       -0.09229416 0.03365863 0.05734652 0.046248604
000230 85 38 77 3d 65 66 95 bd 06 63 a8 bd 38 0e 0f ba
       0.060356636 -0.07294921 -0.08222012 -0.0005457136
000240 04 e1 e6 bd c2 87 04 3c 4f ef 05 3d bc af 2a bd
       -0.11273387 0.008089008 0.032698926 -0.0416715
000250 64 67 8d bd 6f 9e 41 3d b4 22 f0 bc d7 07 10 3c
       -0.06904486 0.047270235 -0.029313423 0.008790932
000260 da 27 58 3d 2d 6f 4b 3d 0b 0c 44 3d 8d 6a aa bd
       0.05277238 0.049666572 0.047863048 -0.08321104
000270 df c7 85 bd 28 ca cc bd 51 98 b0 3d 65 13 aa 3c
       -0.06532263 -0.09999496 0.08622802 0.020761201
000280 3b 41 00 3e 22 9f 8e bd 89 13 5b bc be 26 d9 3d
       0.12524883 -0.06963946 -0.013371357 0.106030926
000290 fb ca 95 bd fd 00 3a bc 27 57 fd 39 2b 2b aa 3d
       -0.07314106 -0.011352775 0.00048320854 0.08309015
0002a0 b0 58 c2 bd 9c da b5 bc 29 e4 81 3c fa 71 04 bd
       -0.09489572 -0.022198968 0.015855866 -0.03233526
0002b0 98 27 6a 3d 5a b4 1f 3d 4c e9 1f bd 56 7f a7 bc
       0.057166666 0.038990356 -0.03904085 -0.02044646
0002c0 9f f9 f1 bd fc 84 d6 3d dd 16 5a 3c 33 c2 99 3d
       -0.118151896 0.104745835 0.013311115 0.07507744
0002d0 39 b2 3b 3a 49 ae 8c 3d c0 75 ad 3d b6 87 5d 3b
       0.0007160041 0.0686918 0.08469725 0.0033802814
0002e0 2b ea 4e bd 85 58 83 3d 8b 93 7f bb 3a 97 20 3b
       -0.05051629 0.06413368 -0.0038997855 0.00245042
0002f0 21 1c b3 3c 36 6b 8a 3d cb 50 1c bd 47 f5 8e 3d
       0.021863999 0.0675873 -0.038162988 0.06980377
000300 54 74 21 bd f7 19 be 3d c9 0f e0 3d 84 14 95 bd
       -0.03941758 0.09282296 0.10940511 -0.07279304
000310 53 be a0 3d dc 18 bd 3d 95 77 ad 3d a5 36 12 bd
       0.078488015 0.09233257 0.08470074 -0.035696644
000320 9f 05 95 bc fc cb 35 3b 59 0e ac bd 30 3a 7b bd
       -0.018191157 0.0027739992 -0.08401174 -0.06133479
000330 8a a8 80 3d 18 96 1b bd b0 4f 6c bc b6 dc a1 3b
       0.06282146 -0.037984937 -0.014423296 0.004939641
000340 62 cc 82 bd c7 76 74 3c df d2 96 bb bc 93 df bc
       -0.06386639 0.014920897 -0.0046027745 -0.027292125
000350 bd 89 6d bd c2 aa e5 3d 9e 45 d7 bc 0a c0 03 3c
       -0.057992686 0.1121421 -0.026278313 0.008041391
000360 8a b2 02 3d 25 98 62 bd ae f8 99 3d 41 92 68 bd
       0.03190855 -0.055320878 0.07518135 -0.056780104
000370 73 d2 9c bd d1 05 f7 bd 11 ca 3d 3d a4 27 2b 3d
       -0.076573275 -0.12061656 0.046335284 0.04178585
000380 de 99 96 bd c4 6d d9 bd 08 e2 47 3d 79 61 bf 3c
       -0.073535666 -0.10616639 0.048799545 0.023361908
000390 3f 4b 05 3d 45 90 2e 3d 36 68 62 bd 5e 3f 2b 3c
       0.032542463 0.042618055 -0.055275165 0.01045212
0003a0 ff 73 d4 3d 7c 41 50 bd 09 75 cb bd bb a4 a4 3d
       0.10373687 -0.0508437 -0.09934432 0.08039232
0003b0 ea b6 09 bc fe e6 69 3d 27 19 e4 3c 7d 47 3a bd
       -0.0084054265 0.057105057 0.027844025 -0.045478333
0003c0 41 b6 04 bc da 08 81 3b 25 1f 65 3d 79 16 ab bc
       -0.008100093 0.0039378228 0.055937905 -0.02088474
0003d0 c1 ba 9c bd c8 b3 93 bd 35 02 c8 bd 09 3d ed bc
       -0.07652808 -0.07212025 -0.09766046 -0.028959768
0003e0 bc 7a f3 bc 26 9c 87 3d f6 67 1b bb 6e bf 68 3c
       -0.02972161 0.0662158 -0.0023713089 0.014205797
0003f0 c0 14 a2 bc 6c 8f 34 3d a6 61 89 bd c6 5c 59 3c
       -0.019785285 0.04408209 -0.06708078 0.013266748

conv6.bias f4 [32]
000000 ee 2a a4 3d a4 27 44 3d 40 96 90 bd 4d a1 87 3b
       0.08016001 0.047889367 -0.07059908 0.0041391016
000010 2f eb 1f 3d 8c ee c6 3d 66 58 b7 bc ff d3 45 3c
       0.039042648 0.09713468 -0.022381019 0.01207447
000020 bb 7e 43 bb 56 88 ce bc 2e dd 13 3c 2e a7 6c bd
       -0.0029830176 -0.025211494 0.009024901 -0.057776622
000030 d7 71 20 3b 67 d3 0f 3d 1d 68 4c 3c f6 d7 0f 3d
       0.0024481916 0.03511372 0.012475994 0.035118066
000040 7a ca 80 3d 0d d2 ab 3d b0 1f 8a 3d 9e 70 9a bc
       0.06288619 0.083896734 0.06744325 -0.018852528
000050 94 ee 2e bd dd ce 42 3d 43 35 c7 bd a4 14 b8 bd
       -0.042707995 0.04756056 -0.09726956 -0.08988312
000060 b6 44 ab 3d 46 f6 ec bd fb a7 8e bc e4 99 05 bd
       0.08362715 -0.115704104 -0.017414084 -0.032617465
000070 bb 28 33 bd 8b e5 9e 3d 40 3a e2 bd 44 38 76 3d
       -0.043740015 0.077586256 -0.110462666 0.060112253
