SCAFFOLD_2/server_model_parameters.pth (torch, 767202 bytes, 51 tensors)

conv1.weight f4 [32, 2, 3]
000000 f2 b6 9a be c0 0f 71 be 08 27 b1 3e 3c 4d a4 3e
       -0.302177 -0.23541164 0.3460009 0.32090175
000010 f8 47 47 3d 98 ce 43 3e 30 77 b9 3e b3 3e be be
       0.04865262 0.19121778 0.36223745 -0.3715721
000020 68 1f 17 bd 63 e4 85 be 3c a1 1e 3e 3e aa 86 be
       -0.036895186 -0.26150808 0.15491194 -0.2630176
000030 78 85 44 3e 3b 43 c9 be f9 9b 38 be 10 2c 65 be
       0.1919154 -0.39309105 -0.18028249 -0.2238009
000040 e6 fb b3 3e e8 44 ef 3d d3 43 ce be 20 d0 74 3e
       0.3515312 0.11683065 -0.4028612 0.23907518
000050 16 e1 9c 3e 98 3e 91 be 60 8c 5f 3e 3c 7d 68 3e
       0.30640477 -0.28368068 0.21830893 0.22704023
000060 7e 4d 3f 3e b2 04 b3 3e b4 8f b6 3d 5a bc b0 3e
       0.18681905 0.3496452 0.08914128 0.345187
000070 18 05 a1 3e f8 e0 8e 3e 08 55 80 be af 6a b4 be
       0.314492 0.27906013 -0.25064874 -0.35237643
000080 ba 99 59 3e 48 f2 49 bd 73 5a 88 be c2 2f 9e be
       0.21250048 -0.049303323 -0.26631507 -0.3089581
000090 60 6d 4f 3e 70 84 44 3e 96 6c 30 be fe fd bb be
       0.20256567 0.19191146 -0.17228922 -0.36717218
0000a0 30 c0 f0 3d 80 69 c7 3b 7e ec bc 3e 20 a0 7b 3e
       0.11755407 0.0060855746 0.3689918 0.24572802
0000b0 b0 14 ec 3c ca b1 ad 3e 62 93 91 3e 7a 40 96 3e
       0.028818458 0.33924705 0.28432757 0.29346067
0000c0 ae f6 31 3e 6c 18 37 3e 07 3f 1c 3e 4c a9 c9 bd
       0.17379257 0.1788041 0.15258418 -0.09846744
0000d0 bb f3 b7 be f8 b1 c2 be 25 65 df 3d 39 47 b8 be
       -0.3592814 -0.38026404 0.10907964 -0.3599184
0000e0 17 b6 f5 3d 54 93 32 3e 60 f7 e0 3c 98 89 0a 3d
       0.119976215 0.17439014 0.027461708 0.033822626
0000f0 3c 15 c8 3e 80 a8 bc 3b f0 df c3 bd 58 66 4d 3d
       0.390787 0.0057573915 -0.09564197 0.05014643
000100 37 0e cc be 0c 3c 56 3e fa d7 97 be 32 0d a1 bd
       -0.39854595 0.20921344 -0.29656965 -0.07863845
000110 58 ce 80 be 38 72 f7 3d c8 27 97 3e 84 95 0b 3e
       -0.25157428 0.120823324 0.29522538 0.13631254
000120 18 4d 86 be 28 bf d4 bd 36 3f 52 be 9a a3 8f 3e
       -0.26230693 -0.10388023 -0.20531926 0.28054506
000130 20 8c 61 bd e4 5a cc 3e bd 69 d1 be 8f 4e 72 3e
       -0.055065274 0.39913094 -0.40900984 0.2366278
000140 00 db 22 3e 54 75 b7 3e 9c 5d b9 3e 20 34 9f 3d
       0.15903854 0.35831702 0.3620423 0.07773614
000150 91 34 01 be 2e 60 48 3e 08 16 53 3d f0 b4 e1 bd
       -0.12617709 0.1956794 0.051534683 -0.11020839
000160 4a d2 d0 3e 64 f1 aa be 25 b5 24 be 76 c9 7d be
       0.40785438 -0.3338729 -0.16084726 -0.24783882
000170 f6 a0 86 3e 6c d2 a5 3d aa 1d 07 be 40 55 db bb
       0.26294678 0.080967754 -0.1319491 -0.006693512
000180 8e 80 24 bd be 6f aa 3e 9c 2b 91 be b4 85 55 3e
       -0.04016166 0.33288378 -0.28353584 0.20851785
000190 90 5f 93 3e 35 95 c5 be 46 63 04 be 4a d0 3f be
       0.28783846 -0.38590398 -0.12928495 -0.187318
0001a0 f8 c9 ca be 11 fc 25 be 08 88 2d 3e 98 c2 79 3e
       -0.39607215 -0.16209437 0.16946423 0.24390638
0001b0 dc 26 5b be 70 77 9f 3e bb ff b6 3e 32 36 bb be
       -0.21401542 0.3114581 0.35741982 -0.36564785
0001c0 58 bb f4 3d 4b 76 71 be 90 76 37 3e 81 c7 a7 be
       0.119497955 -0.23580281 0.17916322 -0.32769397
0001d0 b8 23 2b bd 74 fd 19 be 70 2a 69 3e c0 27 11 3e
       -0.04178211 -0.15038091 0.22770095 0.1417532
0001e0 70 67 cc 3e 9c 8d 80 3d e0 c6 69 3e a2 9d 73 be
       0.39922667 0.0627701 0.22829771 -0.23790601
0001f0 82 44 6d be 50 45 fb 3d 92 74 c6 3e 5f cd 25 3e
       -0.23170665 0.1226908 0.3876081 0.16191624
000200 16 f8 85 be cc c9 18 3e 66 a6 97 be 0c 32 fd bd
       -0.26165837 0.1492073 -0.2961914 -0.12363061
000210 ed d4 9a 3e 52 29 92 3e ce cf 68 bd 7c 19 93 3e
       0.30240574 0.2854715 -0.056838803 0.2873038
000220 ba 11 39 be e0 f5 10 3e d9 af 04 be 9d 77 48 be
       -0.18073168 0.14156294 -0.12957706 -0.19576879
000230 6d 18 20 3e a8 52 06 3e 7e 56 a6 3e 7c 74 d0 3e
       0.15634318 0.13117468 0.32487863 0.4071387
000240 25 ca 20 3e 0e ce ba 3e 90 a2 ea bd 5d d5 ac be
       0.15702112 0.36485332 -0.114567876 -0.33756533
000250 28 a0 50 3d 58 fd 20 3d c6 c0 a2 3e 00 1c 8e 3a
       0.050933987 0.039304107 0.317877 0.0010842085
000260 72 3b d0 3e 0e de bb 3e e6 f0 02 be fe f7 a3 3e
       0.40670353 0.36692852 -0.12787208 0.3202514
000270 8e c1 cd be 0e 9d a2 be e8 5c 2a 3e d0 42 95 be
       -0.40186733 -0.31760448 0.16637003 -0.29152536
000280 08 e3 51 bd 7b 2e 3a be 62 de dc bd d8 11 d1 be
       -0.051241904 -0.18181793 -0.10784604 -0.40833926
000290 96 70 e0 bd 84 c4 84 3d 2d 34 58 be 5c 08 1c 3e
       -0.10958974 0.06482795 -0.21113653 0.15237564
0002a0 6c 5b a1 3e ae b3 c7 3e 2a 86 15 be f8 2c 3e 3e
       0.31515062 0.39004272 -0.14601961 0.18571842
0002b0 ba 2c aa 3e 61 28 69 be ec 6e 38 3e 16 5b c1 be
       0.3323725 -0.2276931 0.18011063 -0.37764806
0002c0 dc 1c 20 3e 40 ec 5c 3c 10 eb 58 3d 6c 64 84 be
       0.15636009 0.013484061 0.052958548 -0.25857866
0002d0 f1 07 ca 3e 40 5f a3 bc 0c 7a d3 3e 84 ee 8a be
       0.39459184 -0.01994288 0.41304052 -0.27135098
0002e0 48 36 57 3e c0 88 41 3c 1b 92 8a be e4 9a 84 bc
       0.210168 0.011812389 -0.27064595 -0.016187139
0002f0 64 67 d0 be a2 fb b7 be c0 a4 bf bc 34 f1 9c 3d
       -0.4070388 -0.35934168 -0.023393989 0.07663193

conv1.bias f4 [32]
000000 3b c0 05 3e 7e b5 84 3e 84 30 58 be 23 e4 cd be
       0.13061611 0.25919718 -0.21112257 -0.40213117
000010 3c 3b 93 3e 89 c5 4f 3e 90 ff 4a bd de bd 46 be
       0.2875613 0.20290197 -0.04956013 -0.19408366
000020 7a 95 15 bd 37 bf 9d 3e 0b 1d 4f be f8 d6 cf be
       -0.036519505 0.30809948 -0.20225923 -0.40593696
000030 08 be ca 3e 84 06 b6 3e 0c e9 e7 3e fe 7e 8e be
       0.39598107 0.35551846 0.45294988 -0.27831262
000040 f0 b8 82 3e e5 93 65 be 28 f0 a2 bd 5e 1a 88 3e
       0.2553172 -0.22419699 -0.079559624 0.26582617
000050 6e 76 15 3e 1c a4 b4 be 12 bf a0 bd 93 2c e4 bd
       0.14595959 -0.35281456 -0.07848944 -0.11141314
000060 16 0c cc be e6 bb 9f 3e 1c b2 8c bd 7d c0 b4 3e
       -0.3985297 0.31198043 -0.06869909 0.35303107
000070 f6 3c cd 3e c0 04 51 3c d8 4b b7 3b c2 5c 05 3e
       0.40085572 0.01275748 0.005593758 0.13023666

conv2.weight f4 [32, 32, 3]
000000 12 5c 6f bd d5 35 98 bd 08 a2 bb bd 48 e5 29 3d
       -0.058437414 -0.07432143 -0.091617644 0.041478425
000010 be d3 59 bd 50 08 bb 3a 21 22 10 bd 39 f3 eb bc
       -0.05318045 0.0014269445 -0.035188798 -0.028802501
000020 80 11 d0 bd 38 d5 2f bb f7 8d 32 3d 40 56 88 3d
       -0.10159588 -0.002682997 0.04359242 0.06657076
000030 54 99 9f bd c6 9f a2 bd 23 3b a8 3d 18 bc 19 3d
       -0.07792917 -0.079406306 0.082144044 0.037532896
000040 f2 11 ce bc 30 89 67 3d 2c 63 aa bd 51 0c ca bd
       -0.025155041 0.056527317 -0.08319697 -0.098656304
000050 92 c4 ce 3d 1a 49 35 bd 20 ef f9 ba 78 4c 4f bd
       0.100960866 -0.04425917 -0.0019068457 -0.050610036
000060 68 e6 a1 bd b2 08 1d bc 4b 42 c8 3d c9 11 2b bd
       -0.07905275 -0.009584593 0.097782694 -0.041765008
000070 4d 3d 3c 3d fa 4d b9 3c af 2b bf bd bf 4c 33 bd
       0.0459569 0.02262019 -0.09334504 -0.043774363
000080 70 00 44 3b 32 e3 22 3d 88 21 d8 bb 63 49 90 3c
       0.0029907487 0.03976745 -0.006595794 0.017613119
000090 90 ab 42 3d 18 62 ba bc de ed c1 bd 3b 30 47 bd
       0.047526896 -0.022751853 -0.09469198 -0.04862998
0000a0 d6 b3 c0 bd a4 f9 cf 3b 21 e5 24 3d 56 1c a2 3d
       -0.09409301 0.006346898 0.040257577 0.07915561
0000b0 20 e4 49 bd 50 79 7c 3b c2 5f b8 3d b6 37 b1 bd
       -0.049289823 0.0038524456 0.09002639 -0.08653204
0000c0 df ce 10 3d 59 b8 57 3d 32 e4 77 3b da 3b a0 bd
       0.035353538 0.052666042 0.0037825224 -0.07823916
0000d0 96 4b 3d 3d 0d f4 f4 bc 69 ef c6 3c 45 d3 7a 3d
       0.046214662 -0.029901529 0.024284082 0.06123664
0000e0 57 14 10 3d fa 5f 09 3d 0e bd b5 bd 73 93 21 bc
       0.035175648 0.033538796 -0.0887395 -0.009861815
0000f0 51 94 48 3d b4 6c 94 3d 83 2b 81 bd 72 d5 6a 3c
       0.04896957 0.07247296 -0.06307127 0.014333116
000100 a4 60 ad 3c 19 fa 9a 3d f2 1e 9b bc 5b 68 ae 3c
       0.021164246 0.075672336 -0.018935654 0.021289995
000110 4e 3b 39 bc 7f 5f a1 bd e0 eb 00 bb 3e 3b 5e 3d
       -0.011305643 -0.078795426 -0.0019671842 0.054255717
000120 d8 9b 0d bb 18 61 b4 bd d3 eb c2 bd 15 ad 91 3d
       -0.0021607783 -0.08807582 -0.09517636 0.07113091
000130 62 71 72 bd bf 4f 5d 3c a3 f3 2c bd 03 43 4f 3d
       -0.05919016 0.0135077825 -0.042224538 0.050601017
000140 ec 2a 86 bd 0b c1 76 bd ac f7 be 3d 59 d9 1c 3d
       -0.065511554 -0.060242694 0.093245834 0.038293216
000150 ab 17 a4 bd 06 ef 49 3d f1 3a 39 3d 17 04 a6 bd
       -0.08012327 0.049300216 0.045222227 -0.08106249
000160 9d 9c c6 bc 00 eb 85 3a e2 0a ea 3c 69 27 47 bd
       -0.0242446 0.001021713 0.028569642 -0.04862157
000170 26 e7 9f bd 06 20 cd bc ad c5 f2 3c d9 97 ba 3d
       -0.0780776 -0.025039684 0.029635275 0.09110994
000180 b8 7c b0 3d f4 e9 5b 3d 02 7a 45 bd e0 b4 94 ba
       0.08617538 0.053689912 -0.04821206 -0.0011345409
000190 30 45 a5 ba b6 13 e0 bc 85 b0 3b bd 28 10 a0 bc
       -0.001260912 -0.027353149 -0.04582264 -0.019538954
0001a0 ec 44 9a bb c0 67 12 3d e0 da 90 3d e4 16 3c bc
       -0.004707923 0.035743475 0.07072997 -0.011480067
0001b0 49 4f a5 bd 9e 3e 42 bd dd 34 00 3c f6 a2 be bd
       -0.08071763 -0.047422998 0.007825104 -0.09308426
0001c0 08 7b c2 bc 98 10 08 3d 23 3e 5f bd 53 dd 91 bd
       -0.023740306 0.03321895 -0.054502618 -0.07122292
0001d0 67 dd 72 3d 05 c2 87 bd b9 d8 05 bd 07 61 37 3d
       0.059293177 -0.06628803 -0.032677386 0.044770267
0001e0 b1 92 cb 3d be aa 77 3d 4f d0 52 3d a2 99 f3 bc
       0.099400885 0.060465567 0.05146819 -0.029736344
0001f0 d3 6c 41 3d c4 11 7f 3b 6c f3 2b 3d a7 05 dc bc
       0.047222923 0.0038920501 0.041980192 -0.026858164
000200 9f 3d 99 bd eb cf 8b bd ff 28 ae bd ec 8f 16 bd
       -0.074824564 -0.068267666 -0.08503913 -0.03675835
000210 c2 c3 21 bd bb 0f cf bd 08 65 fc bc b3 c1 b7 3d
       -0.03949333 -0.10110422 -0.030809894 0.08972492
000220 00 70 91 bc 7c 32 a8 3d db 5b aa 3d bc 6e 5c bd
       -0.017753601 0.08212754 0.08318301 -0.053816542
000230 a2 fc 97 bd 80 59 d2 bb 6e aa aa bd 76 ac 1d bd
       -0.07421233 -0.0064193606 -0.08333288 -0.03849455
000240 29 af 9e 3c a4 2b a4 3d f9 6c 91 3d a1 c2 67 bd
       0.019370632 0.08016136 0.07100863 -0.056582097
000250 c2 68 3f 3c da 46 92 3c e6 c2 57 3d 80 d9 d0 bd
       0.011682691 0.01785605 0.052676104 -0.10197735
000260 f8 79 a2 bd f7 13 5d 3d 19 ac 54 3d 9a 5f 48 bc
       -0.0793342 0.053974118 0.051921938 -0.012229824
000270 87 31 71 bc e4 25 0e 3c 8e 06 b0 3d dc 16 e0 3c
       -0.014721281 0.008676026 0.08595 0.02735465
000280 85 a1 8f bc 57 f7 9e 3d 0a 18 27 3d ab d4 27 bd
       -0.017533073 0.0776202 0.04079441 -0.0409743
000290 11 44 1a bd 9c 92 03 3d 06 3c 27 3d 20 d4 44 bd
       -0.03766257 0.03212224 0.040828727 -0.04805386
0002a0 64 5f 23 bd 68 12 26 3c d6 48 f8 3c cd 92 ce 3d
       -0.039885893 0.010136224 0.030308168 0.10086594
0002b0 6c 7f 88 3d 9a 80 9c bd 40 ae c0 3b b3 30 3a 3c
       0.06664929 -0.07641716 0.005880147 0.01136415
0002c0 5d 96 1e bd 28 9a a7 bb 04 01 5b 3d 38 32 8c 3d
       -0.038717616 -0.0051148124 0.053467765 0.06845516
0002d0 72 81 2e 3c 4c c5 8f bd e8 05 74 3c 34 f6 a0 3d
       0.010650979 -0.07020053 0.014893986 0.078594595
0002e0 00 c1 b9 3d 4a 92 85 bd 6f 3e f5 3c b6 03 4b bd
       0.09070015 -0.06522043 0.029936997 -0.049564086
0002f0 9e e5 4a bd 44 79 87 bd 6e 99 d0 3d 52 3c a6 3d
       -0.049535386 -0.066149265 0.101855144 0.08116974
000300 0a 54 ee 3c 3b c5 b1 bd fd 02 a9 3d 78 1e 99 3d
       0.029092807 -0.08680197 0.08252523 0.074765146
000310 a5 34 0a 3d a2 81 5c 3d a0 7f ec 3b 6b 77 af bd
       0.033741612 0.053834565 0.0072173625 -0.08567699
000320 37 db cb bd 3d d5 b3 bd e4 9b 10 3d fe 50 2e 3c
       -0.09953921 -0.08780906 0.03530492 0.010639427
000330 82 2c 9a bd 94 5e f7 bc 00 27 1e bb 19 da bb 3d
       -0.075280204 -0.030196466 -0.0024132133 0.09172458
000340 2b e3 72 3d 90 76 9f bb 16 c0 f1 bc a0 d8 da bc
       0.059298676 -0.0048664287 -0.029510539 -0.026714623
000350 74 fd 9e 3d cd 1d b7 3d 45 ae a1 3d ec f7 09 3c
       0.07763186 0.08941231 0.078945674 0.008420926
000360 59 4e a0 bb ec 38 21 bb f0 52 a2 bd 7f b6 43 bd
       -0.0048921523 -0.0024600578 -0.07925975 -0.047781464
000370 cc 46 ba 3d 90 06 b4 3d c7 2c 80 3d 05 4b ce bd
       0.09095535 0.08790314 0.062585406 -0.100729026
000380 a6 48 ba 3d 5e a4 2e bd 0d 70 91 3c c3 1b 89 3d
       0.09095888 -0.04263722 0.017753625 0.06694748
000390 8a 10 85 3c 70 7c 16 3c f8 71 e8 3d d3 bf 97 3d
       0.016243238 0.009184942 0.11349863 0.074096344
0003a0 f6 c1 cb bc ce aa a6 3d 64 1c d3 bd 72 fa eb 3c
       -0.024872761 0.08138047 -0.103081495 0.028805945
0003b0 c8 28 d0 bd 50 91 e8 3b 6c ed 56 bd f5 2f 42 3d
       -0.101640284 0.0070974007 -0.052472517 0.047409017
0003c0 0c da a4 bd 78 e6 b5 bb 4a d5 79 bd 19 c5 41 bd
       -0.08049402 -0.0055511557 -0.060994424 -0.047307108
0003d0 fe fa 4b bc cb 33 10 3d e5 1e b5 3d ca a4 64 3d
       -0.012449978 0.035205644 0.08843783 0.055821218
0003e0 e2 21 83 3d c9 7a a5 3d 40 a4 9f bb f1 7f 91 3d
       0.06402947 0.0808006 -0.004871875 0.07104481
0003f0 b4 cf 96 3b 40 50 1d b9 26 52 9c 3d f1 dc cc 3d
       0.004602397 -0.00015002582 0.07632856 0.10003079

conv2.bias f4 [32]
000000 7a 96 5d 3c b1 a8 87 bd 93 10 b8 bd d1 56 75 3d
       0.013524646 -0.06623972 -0.08987536 0.059897248
000010 52 1e 8a 3d 1b 40 ae 3c c2 50 32 bd fa 5a e9 bd
       0.067440644 0.021270802 -0.043534048 -0.113943055
000020 e2 b0 4b 3d 96 75 fd bd 18 ea 4a 3d 28 96 bc bd
       0.049729235 -0.12375943 0.049539655 -0.092083275
000030 2e 12 15 3d 98 1b 85 3d ca 50 3c bd 72 48 e3 bd
       0.03639429 0.06499404 -0.045975484 -0.11097802
000040 a9 b2 89 bd c0 00 ec 3c 5a 1f 0e bc 8a 1d 4a bd
       -0.0672353 0.028808951 -0.008674467 -0.049344577
000050 95 3b be bd 6f 30 0f 3d 28 7e e2 bd e1 bf b9 bd
       -0.09288708 0.0349583 -0.11059219 -0.09069801
000060 1d ab 29 bd c9 53 9f bd 50 fe e0 bc 00 5a 7c 3d
       -0.041422952 -0.077796526 -0.027465016 0.06160927
000070 89 59 c5 bd 61 f5 5e 3d f0 69 75 3b a3 eb 1b bd
       -0.09636218 0.05443323 0.0037447177 -0.038066518

conv3.weight f4 [32, 32, 3]
000000 fd 46 c0 bd ae cf 6a 3d 26 7a 6e bd 52 1d b3 bd
       -0.0938854 0.057326965 -0.05822196 -0.08745827
000010 7d de 13 bd be ab 90 bd be 45 c7 bd d8 e4 83 bc
       -0.036100853 -0.07064007 -0.09730099 -0.016100332
000020 e9 af 61 3d 9f c1 ac 3d 67 00 c7 bd f4 cc 78 3d
       0.0550994 0.08435368 -0.097168736 0.060742334
000030 0c 66 8b 3d 2e 15 dd bc 67 92 58 bd 5f 1b b0 3d
       0.06806573 -0.026987638 -0.052873995 0.085989706
000040 30 a8 c5 3d 78 9a 4f 3b f8 f8 49 bc 23 91 aa 3d
       0.0965122 0.0031677764 -0.012327425 0.08328464
000050 c8 58 1f 3c 3c 52 3e 3d 71 6f a0 3d da 4f 94 3d
       0.009725757 0.046465144 0.07833756 0.07241793
000060 52 96 71 3d 54 1f 86 3d 57 de ec 3c 1a 27 a1 bc
       0.058981247 0.06548944 0.028914614 -0.019671965
000070 cb 08 d3 3d fa a7 ca 3c 8e 9f c2 3c 9d ec 6f 3d
       0.103044115 0.0247383 0.023757722 0.05857526
000080 e2 5a 97 bd 2c 4c df bc a4 eb 88 3d 86 b7 74 3d
       -0.073903814 -0.027258001 0.0668557 0.059745334
000090 13 18 4a 3d 04 39 7e bc fe a3 0a 3d 4a 46 c1 bc
       0.049339365 -0.015516523 0.0338478 -0.023593087
0000a0 c1 44 8d bd e4 b4 14 bc 14 a5 35 3d a4 3b 95 bd
       -0.068978794 -0.009076331 0.044346884 -0.07286766
0000b0 86 0e 1a 3d f4 9c 25 bd ae 50 e7 bc 20 17 a6 bd
       0.037611507 -0.040432885 -0.028236713 -0.081098795
0000c0 d8 05 e7 3b 1a 44 a7 bd d0 d0 3e 3b 5e b5 ac bd
       0.007050257 -0.08167286 0.0029116161 -0.084330305
0000d0 fc 3b 8d bd 04 68 86 bb 94 9d 66 3d c0 11 a9 3a
       -0.06896207 -0.004101755 0.056302622 0.0012898967
0000e0 b6 01 8a bc 42 e9 bb 3d 28 d8 19 3d 4c 89 27 3d
       -0.016846519 0.0917535 0.03755966 0.04090242
0000f0 b2 2d 4b 3d 90 e7 5e 3b ec 0d 9a 3c 38 ac b6 bc
       0.049604125 0.0034012534 0.018805467 -0.022298917
000100 fc 07 75 3d bc 83 ed 3c 27 b1 b3 3d 8d e6 57 3d
       0.059822068 0.02899348 0.087740235 0.052710105
000110 87 d6 59 3d 08 69 0b bd 7b ea 80 bd 12 67 aa bc
       0.053183105 -0.034035712 -0.062947236 -0.0208011
000120 28 5c a3 bd c6 77 c6 3d 26 39 cb 3b fe cf ab bd
       -0.07976562 0.09690814 0.006201881 -0.08389281
000130 95 52 b9 bd 90 98 6f 3d 1a 79 0f 3d 87 ba 46 bd
       -0.090489544 0.058495104 0.0350276 -0.04851773
000140 0c 74 58 3c c0 f0 83 3d cd 37 8e 3d a4 fa e6 3c
       0.0132112615 0.06442404 0.06944237 0.028195687
000150 d8 c8 bd bd dc 10 dd 3c a0 b7 88 3d a6 8b e1 3c
       -0.092668235 0.026985578 0.06675649 0.02753241
000160 76 ec 1d bd c6 71 f7 bc 7a aa 9a bc 0c de 87 3d
       -0.038555585 -0.030205619 -0.018880118 0.06634149
000170 94 d0 b5 3d e7 27 0d bd 3b 75 27 bd 10 92 7c 3b
       0.08877674 -0.034461882 -0.040883284 0.0038539208
000180 88 ad 3b 3b ac d2 5c 3c 6c fb 45 bd 00 c1 8b bd
       0.0028637368 0.013477962 -0.048335478 -0.06823921
000190 76 10 d0 bd d4 0d af 3d f3 b6 95 bd 58 d6 7e 3c
       -0.1015939 0.085475594 -0.073102854 0.015554033
0001a0 cc 60 f6 bc 8a 3f ee 3c 96 af cd bc 63 0b 8c bd
       -0.030075453 0.029083032 -0.02510814 -0.06838109
0001b0 2d 1d 02 bd ba 84 9a bd f4 65 72 3c 20 2d b8 bd
       -0.031766105 -0.07544847 0.014794815 -0.08992982
0001c0 1c 54 51 bc c6 09 cb 3c 7b c2 8f 3d 06 6d 5d bd
       -0.012776401 0.024784934 0.07019516 -0.05405905
0001d0 69 cf 08 3d a8 fc a6 bd ca b1 91 bd d3 ca 2a bd
       0.033400927 -0.08153659 -0.07113989 -0.041697334
0001e0 45 0b 4f bd 78 0b e5 3c 4e 34 04 bd 62 e2 67 3d
       -0.050547857 0.02795957 -0.032276444 0.05661238
0001f0 da 8d 4d 3d d0 fb 1c 3d a3 d8 3e bd 2d ca 91 bd
       0.05018411 0.038326085 -0.04659332 -0.0711864
000200 47 69 8e 3c 24 35 0d 3d 93 fc f2 3c 45 e1 d9 bc
       0.017384185 0.034474507 0.029661452 -0.026596675
000210 5b c5 09 bc 32 e0 28 3d 0e 27 f2 3c 81 61 88 bd
       -0.00840887 0.041229434 0.029559638 -0.066592224
000220 c1 a2 94 bd 54 4d 35 bd 40 4a 88 3d 42 78 b8 3d
       -0.07257605 -0.0442632 0.06654787 0.09007312
000230 d6 a3 95 bd 9c 9c 98 3c f1 27 d2 3d 9e 71 c8 bc
       -0.0730664 0.018629365 0.102615245 -0.02446824
000240 82 41 3f bd 08 9a 3d bc e6 37 43 bd 91 93 bb bd
       -0.046693332 -0.011572368 -0.04766073 -0.091590054
000250 5e 18 46 bc dc e4 6b 3d d5 ab 9a bd 37 eb a2 bc
       -0.0120907705 0.057591304 -0.075523056 -0.01988755
000260 7c 58 b5 3d 82 eb af 3d bd a2 d2 bd 48 15 d6 bd
       0.08854768 0.085898414 -0.10284946 -0.10453278
000270 51 df a4 bd f0 ff 31 3b 30 cc d3 bd 32 1b 5b bd
       -0.08050407 0.0027160607 -0.1034168 -0.053492732
000280 77 f0 4e bd c1 24 cd bd 52 51 17 bc f6 7b 96 3c
       -0.050522294 -0.10016776 -0.009235697 0.018369656
000290 e2 76 b8 bc 37 ea 9f 3d ae 25 d6 bd f1 eb e0 bc
       -0.022517625 0.07808345 -0.104564056 -0.027456256
0002a0 c2 a7 46 bd 70 65 4d bb 60 87 3f 3d b0 18 15 bd
       -0.04849983 -0.003134098 0.046759963 -0.036400497
0002b0 0f 3d 52 bd d8 59 c7 3d ea 25 30 3c 5e 35 c5 bd
       -0.05132776 0.09733933 0.010751227 -0.096293196
0002c0 00 1b 7b b9 42 85 ca bd 66 ce 68 3d aa 1a f9 bc
       -0.00023947284 -0.09888698 0.056837462 -0.030408222
0002d0 7a 3f b5 3c a6 16 c6 3c d6 a8 9d 3d 49 99 9b 3d
       0.022124995 0.024180721 0.076982185 0.07597596
0002e0 ce a5 21 bd 80 f7 15 3b c7 e6 82 bd 3a 7d ae bd
       -0.039464764 0.0022883117 -0.063916735 -0.08519979
0002f0 6e 90 8c bd ba 05 5a 3d 28 25 f9 bc de f3 3a 3d
       -0.06863485 0.053228118 -0.030413225 0.045642726
000300 e8 85 0b 3c bf 86 0d bd 6e c8 1a bd 62 b5 13 bd
       0.008515812 -0.034552332 -0.0377888 -0.036061652
000310 24 aa d4 ba e0 d6 0f bd 22 55 ba 3c a4 3d c6 3c
       -0.0016225022 -0.03511703 0.022745673 0.024199314
000320 a7 55 96 bc 46 ee d0 bd 08 0e 3e bd 00 80 97 bd
       -0.01835139 -0.10201697 -0.0464001 -0.07397461
000330 24 04 a3 bb 83 a6 3e 3d 82 14 d9 bd 17 4d 4f bd
       -0.004974859 0.046545517 -0.10599615 -0.050610628
000340 00 94 ce 3a 60 f2 13 3d 93 6e 72 bd e7 fd a1 3c
       0.001576066 0.03611982 -0.059187483 0.01977439
000350 fa ef 48 bd ea 0f 82 bd 1a 02 b3 bd e2 98 38 bd
       -0.049056984 -0.063506916 -0.08740635 -0.045067675
000360 42 a2 5e 3c 5e 38 8d bd 68 9c 75 bd 68 96 94 bd
       0.01358849 -0.06895517 -0.059963614 -0.0725525
000370 a8 2e 1f bd f0 bd 6d bb 30 c4 91 bd 56 b9 de bc
       -0.038862854 -0.0036276542 -0.07117498 -0.027187984
000380 21 8b 22 bd 2f b3 a3 3d 03 b3 aa 3d bf 51 06 bd
       -0.039683465 0.07993161 0.08334925 -0.032792803
000390 47 cc 1f 3d 6b 0d 58 bd 65 d6 de bd 6a e8 7e bd
       0.039013173 -0.05274717 -0.10880736 -0.062233366
0003a0 d3 7c 58 bd 6e 61 b6 bd f9 b2 59 bd 24 67 71 bd
       -0.052853417 -0.08905302 -0.053149197 -0.058936253
0003b0 36 70 8b bc 3d 64 af bd 7a a1 13 bc 22 37 98 bd
       -0.01702128 -0.08564041 -0.009010667 -0.07432391
0003c0 a6 cf b3 bd 37 b5 4c bd cf 4d b6 3d 00 3d aa ba
       -0.0877984 -0.049977507 0.089015596 -0.001298815
0003d0 47 af 14 3c e0 aa 9e 3d 90 dd e7 bb 05 7a 99 bd
       0.0090749925 0.077474356 -0.007075973 -0.074939765
0003e0 e2 ca d9 3d 62 1a 88 3c 6e 20 b9 bd 50 1f 29 3c
       0.106344 0.016614143 -0.090393886 0.010322407
0003f0 b3 f1 a2 3d f0 98 94 bd 46 4a 64 3d c6 d3 87 3d
       0.07956257 -0.07255733 0.055734895 0.066321895

conv3.bias f4 [32]
000000 40 f8 9e 3c 70 43 19 bd 8b 38 a0 3d 4c 30 bf bb
       0.019405484 -0.03741783 0.07823285 -0.005834615
000010 78 1e ac bd da 8b 93 bd d9 e0 74 bd fc 8d 8a bc
       -0.08404249 -0.07204409 -0.059784744 -0.016913407
000020 aa a1 0a bd d3 15 1e 3d 75 9b 2b 3d b1 ae 98 bd
       -0.03384558 0.038595032 0.041896302 -0.07455195
000030 3e 4e bb 3c 04 ec 91 bc 6a 81 b8 bd 90 c6 cf 3b
       0.022864457 -0.017812736 -0.09009059 0.006340809
000040 d0 39 ab bb 9e a1 b0 3d 38 e5 2c bc 46 22 8c bd
       -0.0052253976 0.08624576 -0.010552697 -0.06842475
000050 b8 9a a8 bd c0 3d 02 3d 4e f6 93 3d f3 88 03 3c
       -0.08232635 0.03179717 0.07224713 0.008028257
000060 42 ca 05 3d f0 db f0 3d 88 27 1b bd 0f ba 8d bc
       0.03266359 0.117607 -0.037879497 -0.017300634
000070 26 25 cd 3d 94 b2 a8 3d 74 96 84 3d b5 cb a7 3d
       0.10016851 0.08237186 0.06474009 0.08193151

conv4.weight f4 [32, 32, 3]
000000 8e 0d 79 bd 92 02 96 bc 15 64 ee bc 0f 75 bf bd
       -0.060803942 -0.018311772 -0.029100457 -0.09348499
000010 aa 46 4d 3d 61 81 91 3d de 9a 91 3d 86 e6 99 3d
       0.05011622 0.07104755 0.07109617 0.07514672
000020 59 c3 57 3d cf 2c 89 3d 2a 4f ed 3c db f3 4c 3d
       0.052676532 0.06698 0.028968412 0.050037246
000030 22 a7 fc 3c ec 46 b4 bc 72 f2 c3 3c c0 02 bb bd
       0.030841414 -0.022006474 0.023919318 -0.09131384
000040 50 cb 01 bb b2 af 82 bc 80 ea 0c 3d 95 e8 25 3b
       -0.0019805022 -0.015952919 0.034403324 0.0025315632
000050 a0 8e 63 bc b8 48 50 3d c0 71 2b 3d 86 6b 82 3d
       -0.013888985 0.0508506 0.041856527 0.06368165
000060 08 30 c9 3b 87 74 25 bd 49 9f 1c bd a6 0c 3f bd
       0.006139759 -0.040394332 -0.038237844 -0.046642922
000070 4c cd 15 bd 0c 79 b5 bd 52 cc 6b 3d 85 6b 63 bd
       -0.03657274 -0.088609785 0.057567902 -0.05552246
000080 98 52 a0 3d 20 b7 7f bb 08 c7 2a bd 46 d1 6c 3d
       0.078282535 -0.0039019063 -0.041693717 0.057816766
000090 78 c6 85 bd d2 c0 49 3d 00 08 51 bd 24 d7 80 3d
       -0.065319955 0.049256153 -0.05103302 0.06291035
0000a0 e0 94 ff ba d1 fd 15 3d 72 e2 ac 3d 53 61 bb bd
       -0.0019499324 0.03661901 0.084416285 -0.091494225
0000b0 e8 e3 75 bd 70 ac 5a 3d 90 40 5a bc 4f 5b 85 3c
       -0.0600318 0.053387105 -0.013321057 0.01627889
0000c0 0e 5a bf 3c 79 d2 63 3d 8e a6 ff bc 00 e1 8e b9
       0.023358371 0.055620644 -0.03120735 -0.0002725199
0000d0 dc 1d 67 bd b7 43 96 3d f1 4e 3d 3d 38 c7 3d 3d
       -0.05642496 0.07337134 0.046217863 0.046332568
0000e0 30 75 83 bc c2 4a af bd 8a a9 8a 3d dc a1 42 3c
       -0.01604709 -0.08559181 0.06770618 0.011879411
0000f0 63 f5 66 bd 30 13 48 3d ce 9f a0 bd 3a 26 de bd
       -0.056386363 0.048846424 -0.0784298 -0.10847135
000100 8b 49 a7 bd 2c 9a 73 3c 7c 67 72 3d 1b 01 89 bd
       -0.08168324 0.0148683 0.05918072 -0.06689664
000110 a8 92 f6 bc 9a ed b1 3d 15 a8 b9 bc c3 2b 87 bd
       -0.030099228 0.08687897 -0.022663156 -0.06600144
000120 d8 d3 56 3d be 8e 9e 3d 1c ef 9f 3d 50 da bd 3d
       0.052448124 0.0774207 0.07809278 0.092701554
000130 07 de c2 3d 7a 94 1e bd fc 88 e3 3d 50 87 0d bc
       0.095150046 -0.038715817 0.11110112 -0.008638218
000140 de ea 53 3d e8 c1 57 bd ba d0 c7 bd b4 b0 8c 3d
       0.05173766 -0.052675158 -0.09756608 0.06869641
000150 be aa 8b bd 90 00 a8 bd fa ee 93 3d bc ba a0 3c
       -0.06819676 -0.08203232 0.072233155 0.019620292
000160 c0 ef df ba b2 fe 1a 3d b6 3b b1 bc 4e ba ba 3d
       -0.0017085001 0.037840553 -0.021634918 0.09117566
000170 4e 74 5a 3d fe a5 7b bd f2 41 55 3d c2 5a 77 bd
       0.053333573 -0.0614376 0.052064843 -0.060389288
000180 de 67 8d bd ad 28 82 bc 07 19 78 bd 11 63 37 3d
       -0.06904577 -0.015888536 -0.060570743 0.04477221
000190 ce a8 91 3d 78 7e be bd 9a d1 04 bd 98 17 ba 3c
       0.07112275 -0.09301466 -0.032426454 0.022716329
0001a0 76 cf 45 3d 69 65 0c bd 37 1e a2 bd 00 78 a5 bc
       0.048293553 -0.0342764 -0.07915919 -0.020198822
0001b0 9a a8 c0 bd b6 58 31 3d 95 cc c8 bd d2 55 fd bc
       -0.09407158 0.043297492 -0.09804646 -0.030924711
0001c0 59 a5 a6 3d 06 d5 1b bd 40 57 f1 bc 76 4b c3 3d
       0.08137006 -0.03804495 -0.02946055 0.095358774
0001d0 0e 67 92 3d 41 02 89 3d fb 6b 56 bd c6 86 bc bd
       0.07148562 0.06689883 -0.052349072 -0.092053935
0001e0 b6 54 9d 3d a6 1a 71 3c 12 9b a3 3b ac 3e 92 bd
       0.07682173 0.014715826 0.004992851 -0.0714086
0001f0 e5 d9 fc bc a0 2b 80 bd b8 83 ba bd 79 a2 a6 3d
       -0.030865619 -0.06258321 -0.091071546 0.08136458
000200 f2 ec 42 3d 94 67 9e 3d 35 d0 42 3d 90 f9 aa bc
       0.04758925 0.077346 0.047561843 -0.020870954
000210 0d ec 1c 3d db 1c b7 bd be 99 f3 bc ee 19 1e 3d
       0.038311053 -0.089410506 -0.029736396 0.038598947
000220 22 79 0f 3d 39 87 8c bd bb 25 39 bd 3a 99 dd 3c
       0.03502763 -0.06861729 -0.045202 0.027050603
000230 2b e6 e6 bc 00 a5 94 38 52 b8 20 3c 54 3f a9 bd
       -0.028185925 7.0879236e-05 0.00980957 -0.08264032
000240 a7 0b 65 bd a8 18 41 3d ab 5d 40 3d 9b 54 4d bd
       -0.055919316 0.047142655 0.04696433 -0.050129514
000250 f1 8d d3 3d 14 66 d8 3c 64 94 b3 3d 50 95 b3 3d
       0.103298075 0.026415862 0.08768538 0.087687135
000260 ca 81 1d bc 71 7d 98 3d 1e e6 1c 3d 87 15 d2 3c
       -0.009613464 0.07445801 0.038305394 0.02564503
000270 4c 83 22 bd e0 ab a9 bb 80 51 3a ba e4 0a 9d bd
       -0.039675996 -0.00517796 -0.00071074814 -0.07668093
000280 42 99 c6 3c 65 cf 84 bc ba e3 89 bd 8c a9 ca bc
       0.024243 -0.016212175 -0.067328885 -0.02473905
000290 f8 ad 8f bd 85 f6 cf bd cc 4c e2 3c 90 40 d7 bc
       -0.07015604 -0.10154442 0.02762451 -0.026275903
0002a0 a6 18 e8 3b 5a 84 d3 3c 3a ef af 3d 50 81 aa 3c
       0.0070830164 0.025819946 0.08590551 0.020813614
0002b0 a4 4e a1 bd 56 26 6c bd e2 e8 cd bd 18 1f 95 3b
       -0.07876328 -0.057653747 -0.100541845 0.004550826
0002c0 3e 6c cf bd c4 f6 98 bd 8e 6b c4 bd 4c 5f 47 bc
       -0.101280674 -0.07468942 -0.09590827 -0.012168717
0002d0 59 4d 99 3d b1 5d c6 bd 10 c8 e3 3c 9e 06 84 3d
       0.07485456 -0.09685839 0.027805358 0.06446575
0002e0 ad a8 02 bd 27 0c 9a 3d ee 37 fb 3c 34 2b 7f 3d
       -0.031899143 0.07521849 0.030666318 0.06229706
0002f0 1e 66 27 bd f6 8f ca 3c 43 20 83 bd 17 b4 b7 3d
       -0.04086887 0.024726849 -0.06402638 0.08969896
000300 5a e6 b3 bd f2 fb 41 bd 12 5b 38 3d 28 7e d3 bb
       -0.087841704 -0.047359414 0.045008726 -0.006454248
000310 99 17 cb bd d3 2e 9c 3d 36 b2 ab 3d 70 41 da 3d
       -0.0991661 0.076261185 0.083836004 0.106570125
000320 af 68 7a 3d d2 ce c7 bd d8 90 cb bd b8 da 81 3d
       0.06113499 -0.09756245 -0.09939736 0.063405454
000330 9d f6 8a bd b2 b3 58 3c 50 bc c0 3c 69 8a 49 3d
       -0.06785319 0.013226436 0.023527294 0.049204264
000340 4e cf 12 bc 00 47 da 3c 10 22 32 bc 23 4a 24 3d
       -0.008960558 0.026645184 -0.010872379 0.040109765
000350 e0 3a 12 bd 00 73 6a bd 82 72 c0 bc 08 87 b1 3d
       -0.03570068 -0.05723858 -0.023492102 0.08668333
000360 80 a5 1f ba 78 d2 8f 3d e4 6c 99 3d 24 1c e2 3c
       -0.000609003 0.070225656 0.07491472 0.02760131
000370 46 05 d6 3c da ab a5 bd f5 b0 99 3c f7 92 91 3d
       0.026125561 -0.08089419 0.018761138 0.071081094
000380 1f 9b b3 3c 84 1d 55 3d 6c 85 1f 3d aa 77 19 bd
       0.021924553 0.0520301 0.0389456 -0.037467636
000390 6a ed 9a bc 1e b6 80 bd 6c 00 84 bb ba 02 8a bc
       -0.018912036 -0.06284736 -0.0040283706 -0.016847003
0003a0 a0 d1 76 bc 0e 3e 83 bd 71 b2 ce 3d 53 df 65 bd
       -0.015064627 -0.0640832 0.10092629 -0.05612118
0003b0 bf e6 ca 3d cb 7f ac bd 7a 65 39 bd f6 dc 82 3c
       0.099072926 -0.08422812 -0.04526279 0.015974503
0003c0 88 f9 74 3d b7 dd bf 3c 18 46 b8 3d b5 52 3f 3d
       0.059808284 0.023421152 0.08997744 0.046709735
0003d0 67 34 ac bd 6e 22 ef 3c e6 7b 4d bd 2b b7 cb bd
       -0.084084325 0.029191222 -0.050166987 -0.09947046
0003e0 b9 80 8f bc 04 1e ba 3d 9a 19 d7 bc 3e 15 09 3d
       -0.017517434 0.09087756 -0.026257325 0.033467524
0003f0 dd 4f 74 bd f4 e8 32 3d fd 44 bc bc bd 0d 12 bd
       -0.059646476 0.043679193 -0.022982115 -0.035657633

conv4.bias f4 [32]
000000 4c f9 a8 3d 0d 06 5c bd da 21 81 bd a2 18 09 bd
       0.082506746 -0.053716708 -0.06305285 -0.033470757
000010 18 43 8e bc b0 89 0e 3d 76 b8 80 3d 9b 5f 12 bd
       -0.017365977 0.034799278 0.06285183 -0.035735708
000020 5c ea b3 bc 53 28 0e bd 00 57 2b 3c fa 6b bd 3d
       -0.021962337 -0.034706425 0.010457754 0.092491105
000030 bb b9 84 bd 56 b2 97 3d 82 66 3c 3c 1c 46 aa bd
       -0.06480738 0.07407062 0.011499049 -0.083141536
000040 da a9 a4 3d 1a 81 9c 3c 0f 5f 95 bd a6 9e 66 bd
       0.08040209 0.01910453 -0.072935216 -0.056303643
000050 f8 3e a3 3d 26 04 c6 3d d0 19 85 bd c0 48 c9 3d
       0.07970995 0.0966876 -0.06499064 0.09828329
000060 67 30 9b 3d 5f 06 57 3d f4 2d a4 3d 7e b2 43 3d
       0.075775914 0.05249631 0.08016577 0.047777645
000070 bc de 68 bd 15 23 bd bd 61 cd 92 bd 70 70 63 3c
       -0.05685304 -0.09235207 -0.07168079 0.013881788

conv5.weight f4 [32, 32, 3]
000000 d1 d2 c5 3d e4 eb 58 bb 74 b4 f4 bb ba c4 5c 3d
       0.09659351 -0.0033099586 -0.0074678008 0.05389855
000010 5b e7 b1 bc eb 9e d3 3d 9c 9e 9c bb fb 70 12 bd
       -0.021716764 0.103330456 -0.00477965 -0.035752278
000020 54 bb 04 bc bd 5d a7 3d 90 3c fa bc 16 de a0 3c
       -0.008101303 0.08172176 -0.030546457 0.019637149
000030 76 ab c1 bd aa b9 08 bd d6 37 9a bd 32 31 85 bc
       -0.09456532 -0.033380188 -0.07530181 -0.01625881
000040 62 ac 3b bc ec 89 6a bd b8 c9 c7 bc 41 c6 36 bd
       -0.0114546735 -0.05726044 -0.02438818 -0.044622663
000050 58 c8 af bc ee 61 e0 3c 39 10 b5 3d cc a4 bd 3d
       -0.021457836 0.027390447 0.08840985 0.09259948
000060 2d d7 8d bd 9f 41 91 bd 4c d9 ea 3c dc 03 aa bd
       -0.06925807 -0.07092594 0.028668068 -0.08301517
000070 8a 9c 68 3d 1b 72 c6 3c 58 2d 5b bd f2 b1 5a 3d
       0.056789912 0.024224332 -0.05351004 0.053392358
000080 c0 79 77 bd c3 04 39 3d aa b7 d0 3d 20 6a 07 ba
       -0.060418844 0.045170557 0.10191281 -0.0005165655
000090 52 a2 8c bd b4 dd 93 bb ea e0 19 3d 94 55 c6 3d
       -0.06866898 -0.004512513 0.03756801 0.096842915
0000a0 60 a1 61 bd 25 0f 9c bd a1 7a 68 3d 25 a4 09 3d
       -0.05508554 -0.07620076 0.056757573 0.033603806
0000b0 1e e7 32 3d d2 2d c5 bd 1c 9c 14 3d ef 5e cb bd
       0.04367744 -0.0962788 0.03628169 -0.099302165
0000c0 e0 f6 10 3c ef 13 91 bd 52 9b 58 3d ec 36 8c bd
       0.008847922 -0.0708388 0.0528825 -0.06846413
0000d0 73 bf 03 bd 22 bf f8 bc 56 42 c1 bd 13 cd 8f bd
       -0.032165002 -0.030364577 -0.09436481 -0.07021537
0000e0 51 1b b0 bd 22 ac ab 3d 8c 02 1e 3d 10 df d9 bb
       -0.0859896 0.08382441 0.038576648 -0.0066489056
0000f0 50 49 84 bd 3b 5e bb 3d e3 e2 b8 bd ca c4 31 bd
       -0.06459296 0.091488324 -0.0902765 -0.043400563
000100 68 b3 c8 3c 25 86 8f bd fe e0 05 3d b8 4e 94 bd
       0.02449961 -0.07008008 0.032685272 -0.07241577
000110 76 89 97 bd 42 dc 0f bd 00 68 12 38 02 22 53 bd
       -0.073992655 -0.035122164 3.490597e-05 -0.051546104
000120 df 8a 1f 3d d6 69 69 3d 6c 84 88 3d 3f b0 ea 3c
       0.038950797 0.0569857 0.066658825 0.028648494
000130 b0 84 a2 bc 4e d3 a4 3d 1f c7 cd bc aa 7e ad 3c
       -0.019838661 0.08048116 -0.025119362 0.021178562
000140 68 10 5e 3d 9d e7 be bd 7a 14 16 3d a9 e9 75 bd
       0.054214865 -0.093215205 0.03664062 -0.06003729
000150 1b da 48 bd 0f 08 19 3d 46 57 25 bd c4 84 01 bd
       -0.049036127 0.0373612 -0.040366434 -0.031620756
000160 73 d1 a9 3d 2f 69 71 3d 85 dd a2 bd 7d 91 a8 3d
       0.082919024 0.0589382 -0.07952408 0.08230875
000170 7c 25 ac 3d d2 6c 24 3d 17 45 b8 3d 08 4b 85 3d
       0.08405587 0.04014284 0.08997553 0.06508452
000180 4b 89 6a 3d 0c e9 74 3d 30 84 c0 bd 00 0b e5 bc
       0.05725984 0.059792563 -0.09400213 -0.027959347
000190 21 fe 92 bd e4 85 cd 3d 6c 90 98 bd 05 3b b0 bd
       -0.071773775 0.10035303 -0.07449421 -0.08605007
0001a0 69 bc 42 3d 79 10 a7 bd 9e 32 43 3d 20 b2 07 bb
       0.047542963 -0.08157439 0.047655694 -0.0020705536
0001b0 fc 0b 0a bc df 61 07 bd 29 7f c2 bc 4c bd dc 3c
       -0.008425709 -0.03305232 -0.023742275 0.026945733
0001c0 22 3a c7 bd 02 6c cc 3d e8 1b a4 bd 5e bc 30 bd
       -0.09727885 0.09981538 -0.08013135 -0.04314839
0001d0 21 47 8c 3d 9e 76 e5 bd ea d0 4b 3d 36 38 c9 3c
       0.06849504 -0.11204265 0.049759783 0.024562936
0001e0 c3 bf 22 bd 21 b8 98 3d a9 32 95 bc 70 20 da 3d
       -0.03973366 0.07456995 -0.018212633 0.10650718
0001f0 2e 5f 78 bd be dd 92 bd 94 a1 47 bd d4 67 9b 3c
       -0.060637645 -0.071712 -0.048738077 0.018970408
000200 c4 95 26 bb 62 a9 a5 bd 44 4b 5a 3d 56 bf 25 3d
       -0.0025418857 -0.08088948 0.053294435 0.040465675
000210 15 02 eb bc 65 03 aa 3d e8 50 d3 3c 82 8a e0 3c
       -0.028687516 0.08301429 0.025795415 0.027409796
000220 1e c2 66 3c 85 fd 00 bd b2 85 73 bc 6a a6 2b bd
       0.014084367 -0.031491775 -0.014863418 -0.04190675
000230 84 ad 01 3c 61 01 14 bd a8 9b 59 3c 86 6b 13 bd
       0.0079149045 -0.036134128 0.01328174 -0.035991214
000240 d2 6f a7 bd d0 6c 9b 3d a2 da c1 3d 78 86 91 3d
       -0.08175625 0.07589114 0.09465529 0.07105726
000250 bd 70 55 3d bc 1d 6f 3d 70 52 9b bd 08 d9 ff bb
       0.05210947 0.058377966 -0.07584083 -0.0078078546
000260 5e a4 32 3d ee 9f c5 bd d9 74 55 3d 53 4b 85 3d
       0.043613784 -0.09649645 0.052113388 0.065085076
000270 4c 8a 74 3d 93 84 54 bc 8a fe a4 3d 28 6b c6 3c
       0.059702203 -0.012971061 0.08056362 0.024221018
000280 d6 6e b7 3d d5 fa f5 3c 83 54 61 3d 9c 8e b0 3d
       0.08956687 0.030026833 0.055012237 0.086209506
000290 34 3e dc bc f7 30 e1 3c 7d 9b 82 bc 52 64 ef bc
       -0.02688513 0.027489169 -0.015943283 -0.029222641
0002a0 bf 8d ad 3d 94 69 5b bc 89 9b a8 bd b8 f8 48 bd
       0.084743015 -0.013391871 -0.08232791 -0.04906532
0002b0 16 f3 7a bd b1 b3 19 bd 9d 4c 9a bd a3 b2 58 3d
       -0.06126698 -0.037524883 -0.07534144 0.052904736
0002c0 d9 9b ad 3c aa 20 7f bc ea 12 8f bd dc 9a 2f 3c
       0.021192478 -0.015571753 -0.069860294 0.010718074
0002d0 28 f5 ba bd 2e 49 d7 3c 00 d2 ce 3d cf 42 e8 bc
       -0.09128791 0.026280012 0.10098648 -0.02835217
0002e0 12 17 37 3d 8b 90 9e 3d f2 ba 7b bd b4 85 c1 bc
       0.044699736 0.07742413 -0.06145758 -0.023623325
0002f0 d4 e6 68 bc f0 2f 9a 3c d7 ea 1c bd fb 83 85 3d
       -0.01421519 0.018821687 -0.0383099 0.06519314
000300 a8 83 b5 3d 6c 49 39 3c 4e a7 92 bd dc 2f 42 3d
       0.08863002 0.011309009 -0.07160817 0.047408924
000310 82 28 b3 bc 00 72 3c ba ec 29 8c 3d f6 3c 8e bd
       -0.021869902 -0.0007188618 0.068439335 -0.06945221
000320 6c 4c 95 bd 17 d8 43 3c c6 a3 37 bd 3c ea b5 3d
       -0.07289967 0.011953375 -0.04483392 0.08882567
000330 e0 dc c7 3a 4e 96 b2 bd b3 42 9d bd 0a 58 b0 3d
       0.0015248321 -0.087200746 -0.076787375 0.08610542
000340 2e a1 b9 3c be a8 25 bd 1e 92 b0 bd 3c d4 7d 3d
       0.022659864 -0.04044413 -0.0862162 0.06196998
000350 8e 07 c1 bd 73 86 6b bd cd a4 a3 3d e1 32 d4 3d
       -0.09425269 -0.057501268 0.07990418 0.10361267
000360 5d f2 88 3d c4 e3 52 bd 9c 23 fc bc 70 76 4d 3d
       0.06686852 -0.051486745 -0.030778699 0.05016178
000370 36 b9 a1 bc 36 b9 79 bd db f0 c1 bd e9 9d 2d bd
       -0.019741636 -0.060967647 -0.09469768 -0.042386923
000380 58 65 8c 3d 9f e2 ad bd e2 3c b8 3d 89 d2 8f 3d
       0.06855267 -0.0849049 0.089959875 0.07022578
000390 ce 51 c9 3d 7a 98 1b 3d 21 1a 85 3d 5c 38 3d bd
       0.09830056 0.03798721 0.06499124 -0.046196327
0003a0 03 da 88 3d 4f d8 ac 3d 6a e3 f7 bc c4 5d bb 3c
       0.066822074 0.08439695 -0.030259807 0.02287186
0003b0 03 89 96 bd 4a d3 94 bc d6 26 da 3c 68 be af bd
       -0.07350352 -0.018167157 0.026629847 -0.08581239
0003c0 48 e2 54 bc ae 70 d5 3c da 74 8f 3c 19 2d ab 3d
       -0.012993403 0.026054706 0.017511774 0.08358211
0003d0 81 b6 af 3d 5c 57 69 bd 00 ba cb 3a 34 7b a6 3d
       0.08579732 -0.056968078 0.0015543103 0.08128968
0003e0 66 92 30 3d 1a 83 4c bd 68 f2 b7 bd 94 03 ab 3d
       0.043108366 -0.049929716 -0.08981782 0.08350292
0003f0 9d c7 a2 3d 46 40 c9 3d 20 bb 57 bb a8 10 c0 bd
       0.079482295 0.09826712 -0.0032917932 -0.09378177

conv5.bias f4 [32]
000000 9c 12 32 3c f3 2f 1c bd 9d 8e 59 3d 93 23 99 bd
       0.010868695 -0.038131665 0.053114522 -0.07477488
000010 a4 12 9a 3d 84 2f 5a bd 23 89 80 bc d6 27 11 bc
       0.07523087 -0.05326797 -0.015690392 -0.008859595
000020 4e f6 83 bc a3 8c 8a 3d 4c bd 50 3d 56 bf 19 bc
       -0.016108658 0.067651056 0.050961778 -0.009383997
000030 c0 bb 1e 3b f8 2f 60 bd 7f 43 94 3d aa 0e a9 3d
       0.0024220794 -0.054733247 0.07239436 0.0825475
000040 c0 93 40 3b c2 ef 85 bd 68 91 cb 3c fe ac 66 3d
       0.002938494 -0.06539871 0.024849609 0.056317322
000050 1a ef 83 bd 6a 74 86 3d 58 21 53 3d f2 8d 5b 3d
       -0.064420894 0.06565173 0.05154547 0.053602166
000060 4e 9f b9 bc b1 41 d9 bd c1 18 95 3d 7e 3b bf bd
       -0.02265897 -0.10608233 0.07280112 -0.09337519
000070 23 a2 73 3d 89 b9 50 bd e3 61 85 bc 2b e4 78 3d
       0.059480797 -0.05095819 -0.016282028 0.060764473

conv6.weight f4 [32, 32, 3]
000000 b6 62 05 3d ee ba 8a bd 1c 70 a8 bd c8 c0 35 3b
       0.03256484 -0.06773935 -0.08224508 0.0027733315
000010 2d 08 e6 3c 52 fe 84 bd 43 42 9b bd de bd 90 3d
       0.02808007 -0.0649382 -0.07580998 0.07067464
000020 ca 57 18 bd ba 45 3c bd ec 74 c2 3d bc e0 e0 3d
       -0.037193097 -0.045964934 0.09494957 0.10980365
000030 9f cd 6c 3d be 99 a9 bd 80 e0 e2 bd ce 78 fa bc
       0.057813283 -0.08281277 -0.11077976 -0.030575182
000040 f6 d4 9a bd fc 7f e4 bc 3f a8 e5 bc 5b 92 c6 3d
       -0.0756015 -0.027893059 -0.028034328 0.09695884
000050 e2 7b b2 bd fa d3 32 bd d8 b6 9f bd 5c 96 70 bd
       -0.08715035 -0.043659188 -0.077985466 -0.058737144
000060 07 b6 0b bd 6f fe 48 3c 6e d8 47 3d e3 da 83 3d
       -0.03410914 0.012267693 0.048790388 0.06438234
000070 1c 09 84 3d 5c 05 8d 3c bb 21 4b 3c 5b b2 12 3d
       0.0644705 0.01721447 0.012398179 0.035814624
000080 af 90 8e 3d 68 af e7 ba e0 6e b5 bd 99 c3 48 3d
       0.0696119 -0.0017676177 -0.08859038 0.04901466
000090 dc 3f 9b 3d 28 2a aa bd aa b8 1f bd 7f f9 c4 3d
       0.075805396 -0.08308822 -0.03899447 0.096179
0000a0 28 46 2a 3d 9c 08 ce 3d 1a 92 49 3d 52 dc cb 3d
       0.041570812 0.10060236 0.0492116 0.09954132
0000b0 7f 2c 89 3d 1a a7 c1 bd 3e f1 92 3d 7e 8a 58 3c
       0.0669794 -0.094557 0.071749195 0.013216613
0000c0 60 40 d1 bd 60 5f bd 3d fc d9 a8 3d da 87 1e 3d
       -0.10217357 0.09246707 0.08244702 0.038703777
0000d0 88 de 3d bd 5e e1 68 bc f0 6b d1 ba b0 3d 10 bd
       -0.0463548 -0.014213888 -0.0015977602 -0.03521508
0000e0 0f 95 a0 bd 00 d6 97 3d d0 40 5b 3c 98 a5 5c bc
       -0.07840931 0.07413864 0.013382152 -0.013467215
0000f0 7e 80 65 bd 40 3a f9 3d 10 44 80 ba 16 cd 7d 3d
       -0.056030743 0.121693134 -0.0009785909 0.061963163
000100 18 51 41 bb 68 1a e4 3d 8c ce 8c bd ca 8f cb 3c
       -0.0029497799 0.11137849 -0.06875333 0.024848837
000110 b0 e8 ad bd 33 97 0e bd eb 2f 56 bd e0 a2 ac 3d
       -0.08491647 -0.034812164 -0.052291792 0.084295034
000120 25 5e 05 bd ab 22 99 bd ea e1 03 3d 3a 85 db bc
       -0.032560486 -0.074773155 0.03219787 -0.026796926
000130 cc ea a2 bd 10 cd 8e 3d 6e a4 be 3d 0c e0 d3 bd
       -0.0795494 0.06972706 0.09308706 -0.10345468
000140 ae 01 3b 3d f6 0e 9f bc 10 fd 06 3b 70 3d 18 3c
       0.0456559 -0.019416314 0.0020597614 0.009291992
000150 c6 51 86 3d b8 35 a1 bd 42 bd aa bd 06 c0 8f 3c
       0.06558566 -0.07871574 -0.08336879 0.017547619
000160 c0 63 ba 3d 75 30 84 bd f5 25 7f bd c1 65 7f 3d
       0.09101057 -0.06454555 -0.062292058 0.0623529
000170 e6 9c 90 3d 6a bc fb 3b 4a 43 45 bd f1 d1 57 bd
       0.07061176 0.007682373 -0.048159875 -0.05269045
000180 04 74 09 3d 58 3a b7 3d ca 89 40 3d 58 a2 1f 3d
       0.033557907 0.08946675 0.047006406 0.038973182
000190 80 7c 31 bb 48 fe 7e 3d 08 4a c8 3d ba 7c 0a 3d
       -0.0027082264 0.06225422 0.09779745 0.033810355
0001a0 c8 c0 8c 3d 33 c5 d1 3b 4d 21 06 bd 90 b3 f4 3c
       0.068727076 0.006401682 -0.0327466 0.029870778
0001b0 c6 fc bd bc a5 2e 6b 3d f9 2a 95 3d 8c 66 a2 3d
       -0.02319182 0.05741753 0.07283587 0.079297155
0001c0 32 0a 62 3d 06 2c 30 3c 5c a3 74 3d 54 2d 0a 3d
       0.055185504 0.0107526835 0.059726104 0.033734635
0001d0 1a 9a 82 3c 51 8b af 3d 9a 14 ba bd be f4 b5 3b
       0.015942622 0.08571494 -0.09085961 0.005552857
0001e0 ec ba 39 bd 8c 81 12 bd bc 27 41 bc 20 9d 54 3d
       -0.04534428 -0.035768077 -0.011789259 0.05190766
0001f0 92 63 ce 3c 93 98 eb bc 32 91 a7 bd f4 ee 29 3d
       0.025193963 -0.028759276 -0.08181991 0.04148765
000200 ac 49 50 3d 42 d2 f3 bc 72 0b b5 3d ba c0 47 3d
       0.05085151 -0.029763345 0.08840074 0.048767783
000210 14 0c 99 3b c3 bf 58 3d 33 ac 69 3c 43 e9 97 3d
       0.0046706293 0.052917253 0.014262247 0.07417538
000220 42 83 a1 3d ca 60 fc 3c 30 dd c3 bd 76 5d ff bc
       0.078863636 0.030807871 -0.095636725 -0.031172495
000230 f8 50 1d 3d 95 3c 7a bd f1 b4 b0 bd 67 9b ab 3c
       0.038407296 -0.06109293 -0.08628262 0.020948125
000240 46 6f ed bc 68 67 16 bc 30 1a 96 bc bb fa 56 bd
       -0.028983723 -0.009179927 -0.018323034 -0.05248521
000250 a0 d5 a4 3c 88 35 ac 3d 8a 31 ae bd 45 b0 f5 3c
       0.020121396 0.08408648 -0.085055426 0.029991278
000260 ca 45 49 bd 45 42 9d 3c ff 8d b4 bd c8 72 05 bd
       -0.04913882 0.019196639 -0.08816146 -0.032580167
000270 d3 a1 b5 3d 10 98 d5 bb fa 16 6c 3d 2c 28 9f bd
       0.08868756 -0.0065183714 0.0576391 -0.07771334
000280 f0 7e 04 3c 75 5c 86 3d 33 b8 fe bc e6 e2 9e 3c
       0.008086905 0.065606035 -0.031093692 0.019395303
000290 af 2e 78 3d 90 6e f7 bc 03 2e 4a bc 6c 0f aa bd
       0.060591396 -0.030204087 -0.012340072 -0.08303723
0002a0 a0 98 f3 3c e2 d9 5b 3d f3 5b 7e bd 30 b8 4b 3d
       0.029735863 0.053674586 -0.06209941 0.0497362
0002b0 fe ff 8b bd 3c 37 54 3c c1 48 87 bd 6a a3 9b 3d
       -0.06835936 0.012952622 -0.066056736 0.07599528
0002c0 08 3f ec 3c 74 97 9e bc d6 c8 56 3c 66 6a 1b bd
       0.02883865 -0.019359328 0.013109406 -0.037943266
0002d0 db 91 d2 bd 04 9d 19 3d 2e 13 f3 bc fa 7e d3 3c
       -0.10281726 0.037503257 -0.029672232 0.025817383
0002e0 4c 3b 98 3d 82 ad 25 bd 5c ef ea 3d 20 99 96 3c
       0.07433185 -0.040448673 0.114714354 0.018383563
0002f0 e7 65 26 3d 50 26 aa bd be ca 72 bd 82 3a 1e bd
       0.040624525 -0.08308089 -0.05927538 -0.038630016
000300 20 04 a7 3d e8 83 d9 3d 60 3e 6c 3d 3b a1 c0 bc
       0.08155084 0.10620862 0.057676673 -0.02351438
000310 a0 8b 49 3b 6b 9e ca 3d 32 82 21 3d e4 d4 ae 3d
       0.003075339 0.09893497 0.039430805 0.085366994
000320 72 76 32 bc 8c 89 a9 3d b5 f1 3c bd f4 86 74 3c
       -0.010892497 0.08278188 -0.046128947 0.014924753
000330 57 05 f0 3c e6 b1 d4 3d 6c 44 ae 3d 16 e9 ba bc
       0.029299421 0.10385494 0.08509144 -0.022816222
000340 68 f4 ab bd 88 01 ac bb 48 6a 76 bb 79 3b cb bd
       -0.08396226 -0.005249206 -0.003759997 -0.09923453
000350 8a c6 3e 3d 66 92 8b 3d ce a2 13 bd 0e fd 29 bd
       0.04657606 0.06815033 -0.036043935 -0.041501097
000360 45 ef ea bc 7d f8 b9 3c 86 61 05 bd 6a 54 0a bc
       -0.028678546 0.022701496 -0.03256371 -0.008442977
000370 ac f6 1f bd 20 63 db 3a 09 d0 e7 3d fe 1b c4 3c
       -0.039053604 0.0016737916 0.113189764 0.023939129
000380 b0 00 67 bd 06 8f 87 bc 06 e1 8f bd 74 2f c9 3d
       -0.05639714 -0.016547691 -0.07025342 0.09823504
000390 6a 23 a2 bc fe 27 b5 3d 8e 23 c1 bd 14 89 a5 bc
       -0.019792277 0.088455185 -0.0943061 -0.020206966
0003a0 3c 02 0a 3d bd 96 be 3d 51 83 d7 bd 5a 95 91 bc
       0.033693537 0.09306095 -0.105230935 -0.017771412
0003b0 04 55 60 3d 9e ce 28 3d 6e 8a 12 bd a2 8a 79 bc
       0.054768577 0.04121267 -0.035776548 -0.015230807
0003c0 74 85 eb bc 24 f8 21 bc e2 f1 bd bd 7b d7 24 3d
       -0.028750159 -0.0098858215 -0.09274651 0.04024456
0003d0 c8 7a 91 bb 96 dd 9e 3d 80 78 82 39 2e 42 2b 3d
       -0.0044396855 0.07757108 0.00024885312 0.04181116
0003e0 22 f1 fe 3c 8a bd a1 3d 98 40 16 bd 40 5e 2a 39
       0.03112084 0.0789748 -0.036682695 0.00016247574
0003f0 af 91 3d 3c 0c 27 07 bc 30 0e 2d 3d e4 02 43 bd
       0.011570378 -0.008249056 0.04224986 -0.04761018

conv6.bias f4 [32]
000000 25 d0 ab bd 56 32 af bd 47 66 22 3d 9c 75 b4 bd
       -0.0838931 -0.08554523 0.03964832 -0.08811495
000010 1e 87 84 bd 70 3c 9a bb 80 f7 84 3b 74 cf 76 3c
       -0.06471084 -0.0047069117 0.0040578246 0.015064109
000020 1b bd 99 bd bf a4 81 bc 7e e2 77 3d d5 35 27 bd
       -0.07506772 -0.015825627 0.060518734 -0.040822823
000030 28 69 84 3a f9 99 25 bd 94 fc 69 bd 78 75 57 3d
       0.001010214 -0.040430043 -0.057125643 0.05260226
000040 c0 02 aa bd 1e 69 9d 3d 7e 01 1e bd f6 77 06 3d
       -0.08301306 0.07686065 -0.03857564 0.032829247
000050 bc 79 54 3b 96 46 57 bd d6 ac ba bd 5c cc 40 3c
       0.0032421192 -0.05255755 -0.09114997 0.011767473
000060 38 bf 64 bc 23 c7 99 bd 88 0c 4a 3c 30 d8 02 3c
       -0.013961606 -0.075086854 0.012332089 0.007986113
000070 fc 0e c6 3d ac 8e 87 3c 58 e2 f8 bb ae 9d 8c bd
       0.09670827 0.016547523 -0.0075953417 -0.068660125
