SCAFFOLD_1/Previous Attempt model parameters/cli1_model_parameters.pth (torch, 767010 bytes, 51 tensors)

conv1.weight f4 [32, 2, 3]
-0.34162164 -0.059270885 -0.41783106 0.36487764 0.28254116 -0.043296844 0.08008856 -0.14721094
-0.009758906 -0.3980293 -0.081998676 0.25640982 -0.38940486 -0.30809876 0.03202609 -0.16040917
0.23863906 -0.3097582 0.4377629 0.10871721 -0.38786605 0.39648688 -0.15064463 -0.08100456
-0.3259088 -0.24071293 -0.059384566 -0.15414456 -0.092939645 -0.11881885 0.26422805 0.03962672
-0.012239919 0.108363986 0.2891057 -0.33559424 -0.33411303 -0.20381263 -0.21062486 0.20058763
0.069729924 -0.3235442 -0.14821957 0.22880708 -0.31464395 -0.039032936 -0.0319269 -0.23524752
0.30700228 0.2652332 0.26350197 -0.049563766 -0.188491 0.15009958 0.14688751 -0.022233324
-0.047853176 -0.21546867 0.16779959 0.3886327 -0.13299665 0.19171831 0.15501188 -0.3979057
0.027786136 0.27707464 0.33547202 0.25084653 0.21298751 0.15153384 0.36782247 -0.16734529
-0.40700236 0.30964962 0.2874024 -0.15810505 0.10977012 -0.23148644 -0.21483092 -0.019163642
-0.05868312 -0.354917 -0.28301996 0.13663763 0.26809195 0.30877092 -0.3721632 0.105823815
0.37777156 0.054003656 0.038867243 -0.38956097 -0.09069025 0.11120772 -0.038253576 0.25403947
0.024155777 0.097017914 0.006410733 -0.25479573 -0.08755717 -0.32959875 0.35275847 0.10870104
0.2812076 -0.28690416 0.27050287 -0.10714954 0.14175372 -0.10065945 0.27629992 0.38477415
0.03504607 -0.38069275 0.29466513 0.6225754 0.20240289 -0.17710458 -0.3559456 -0.39821234
0.012175307 -0.10366811 0.30843967 -0.097660035 0.19739383 0.15756184 0.2765246 -0.10006565
0.04823131 0.34434527 -0.099060506 0.19825906 -0.22364055 0.035905384 -0.050756037 0.3342644
-0.35800835 -0.36592326 -0.25344774 -0.26470473 0.28801376 -0.39017457 -0.40566877 0.13120842
0.16962679 0.19056514 -0.017240442 0.3844933 0.3470838 0.26821446 -0.404592 0.14461106
-0.23672809 -0.12806138 0.17112875 0.010705084 -0.31679365 -0.2602688 -0.01692662 -0.062264293
0.23830903 0.28114814 0.10783754 0.26540858 -0.36032543 -0.33533362 -0.3245185 0.3840164
-0.44077837 0.3156179 -0.13549072 0.060158104 0.021337956 -0.38611466 0.33367985 0.23488967
0.0796904 -0.23831277 0.0088920295 -0.3540982 -0.38430282 -0.06448665 0.013202968 0.26678836
0.09714848 0.31785583 -0.106994435 0.04267752 0.2954386 0.10431039 0.3208961 -0.02293855
00000000: 08e9 aebe 07c6 72bd f4ed d5be 3ed1 ba3e
00000010: 3ca9 903e 0858 31bd 7905 a43d 77be 16be
00000020: d2e3 1fbc 7fca cbbe ecee a7bd 2648 833e
00000030: 1360 c7be 1fbf 9dbe ca2d 033d 4d42 24be
00000040: cc5d 743e a098 9ebe 7522 e03e 21a7 de3d
00000050: 6196 c6be 5400 cb3e 9642 1abe b8e5 a5bd
00000060: 85dd a6be 737d 76be 3b3d 73bd 12d8 1dbe
00000070: 2457 bebd 4c57 f3bd e648 873e a14f 223d
00000080: f189 48bc f0ed dd3d aa05 943e 02d3 abbe
00000090: dd10 abbe 42b4 50be 0bae 57be d866 4d3e
000000a0: 90ce 8e3d 96a7 a5be dfc6 17be 674c 6a3e
000000b0: 0319 a1be 00e1 1fbd c8c5 02bd bae4 70be
000000c0: 672f 9d3e a5cc 873e bbe9 863e 6003 4bbd
000000d0: c903 41be b4b3 193e ae69 163e a922 b6bc
000000e0: b101 44bd d2a3 5cbe a8d3 2b3e defa c63e
000000f0: 4630 08be ce51 443e 6fbb 1e3e 4cba cbbe
00000100: c09f e33c badc 8d3e fdc2 ab3e f56e 803e
00000110: 6619 5a3e b02b 1b3e 3a53 bc3e 905c 2bbe
00000120: 9d62 d0be 658a 9e3e 6826 933e 4ae6 21be
00000130: 28cf e03d c80a 6dbe a3fc 5bbe 12fd 9cbc
00000140: b65d 70bd aeb7 b5be fee7 90be bcea 0b3e
00000150: 5943 893e 3917 9e3e 2d8c bebe 28ba d83d
00000160: 466b c13e f032 5d3d 4233 1f3d 8974 c7be
00000170: cfbb b9bd e0c0 e33d c8af 1cbd 7611 823e
00000180: 56e2 c53c 54b1 c63d 2011 d23b 9674 82be
00000190: 2c51 b3bd 2bc1 a8be c29c b43e a79e de3d
000001a0: 71fa 8f3e 1ae5 92be 5a7f 8a3e 3871 dbbd
000001b0: e327 113e 8b26 cebd 2f77 8d3e 1e01 c53e
000001c0: 788c 0f3d 29ea c2be 59de 963e 1a61 1f3f
000001d0: b442 4f3e e75a 35be 803e b6be 7de2 cbbe
000001e0: f07a 473c f24f d4bd ceeb 9d3e fc01 c8bd
000001f0: 9c21 4a3e e457 213e a294 8d3e 38ef ccbd
00000200: 328e 453d 064e b03e 3ce0 cabd 6c04 4b3e
00000210: 0702 65be 8611 133d 90e5 4fbd b424 ab3e
00000220: df4c b7be 4b5a bbbe e7c3 81be 6187 87be
00000230: 8a76 933e f6c4 c7be d1b3 cfbe 805b 063e
00000240: a5b2 2d3e 8223 433e d43b 8dbc 4edc c43e
00000250: f8b4 b13e 6853 893e af26 cfbe ec14 143e
00000260: d968 72be 8622 03be 603c 2f3e 6064 2f3c
00000270: c732 a2be f441 85be b2a9 8abc d808 7fbd
00000280: 4807 743e a6f2 8f3e eed9 dc3d a2e3 873e
00000290: 937c b8be d9b0 abbe 4a27 a6be cc9d c43e
000002a0: b4ad e1be ab98 a13e 14be 0abe 5868 763d
000002b0: f0cc ae3c d2b0 c5be 16d8 aa3e eb86 703e
000002c0: b834 a33d 4308 74be e0af 113c 5c4c b5be
000002d0: 57c3 c4be 9411 84bd 4351 583c 7c98 883e
000002e0: c8f5 c63d 00be a23e e61f dbbd a0ce 2e3d
000002f0: ba43 973e b0a0 d53d 7e4c a43e a0e9 bbbc

conv1.bias f4 [32]
-0.5648125 -0.22275384 0.31343567 0.27457458 -0.1371733 0.10559906 0.5073611 -0.37726212
0.30260497 -0.21253727 0.06733982 -0.065448925 0.26704815 0.43234888 0.38055128 0.21110679
-0.19151731 -0.24875425 0.13875905 -0.19938113 0.08091462 0.0942536 0.47862488 -0.2793537
-0.35306913 -0.1003918 0.7196942 -0.21377747 -0.17748904 0.35983697 -0.22366379 -0.30320415
00000000: 8d97 10bf 9519 64be a47a a03e 0a95 8c3e
00000010: 2877 0cbe 5244 d83d 6be2 013f 8028 c1be
00000020: 0aef 9a3e 5fa3 59be 76e9 893d 160a 86bd
00000030: 89ba 883e d55c dd3e 9ed7 c23e 612c 583e
00000040: 1d1d 44be 6fb9 7ebe da16 0e3e 912a 4cbe
00000050: 90b6 a53d 0808 c13d 520e f53e 7307 8fbe
00000060: 7ac5 b4be 379a cdbd e13d 383f 7be8 5abe
00000070: b0bf 35be 8d3c b83e 1f08 65be 933d 9bbe

conv2.weight f4 [32, 32, 3]
-0.048589557 -0.04031221 0.10209278 -0.060058743 -0.037414737 -0.10078106 0.07358576 0.077593885
0.12091571 0.12110512 0.10908155 0.042000428 0.026759954 -0.023229174 0.01842353 -0.018835982
0.050122213 -0.093607605 0.08907417 -0.049005315 -0.058946352 0.10572008 0.03508119 -0.0041918564
0.05100551 0.104479715 0.02684351 0.04371068 0.09652195 0.034915432 -0.011948684 -0.00960068
0.014493912 0.09726894 -0.060120907 -0.03826737 0.06128289 -0.12754875 -0.08391705 -0.045377918
-0.02160093 0.054826986 0.14734499 -0.009643885 0.051137205 -0.004478605 0.06566752 -0.034805447
-0.020425372 0.03514157 -0.005730414 0.05163144 0.11365368 -0.043353654 0.03077951 0.097837634
0.035253894 -0.026081368 0.065180555 0.08573639 -0.031099033 -0.088637926 -0.024183549 0.044887755
0.01072508 -0.010454227 -0.010717304 0.051769886 0.027139459 0.07218135 -0.06270922 0.022367472
0.006986317 0.096401505 0.086032905 -0.004128143 -0.096054204 0.06757985 -0.023200147 -0.05942718
-0.016139926 0.019008357 -0.019333825 0.043419316 -0.054850906 0.082855605 0.027901353 0.11317559
-0.020726848 0.022521669 -0.08044636 0.08073457 -0.07764153 -0.0636536 0.08202837 -0.06626722
-0.056779187 0.05936715 -0.067548454 0.08354571 -0.09824917 -0.012999064 -0.057553723 -0.03648701
-0.08557025 -0.017764399 -0.026522083 -0.00481029 0.021587675 0.076704755 0.024587933 -0.017519882
0.08567256 -0.03583917 -0.13350917 0.034055203 -0.10349246 -0.06674651 -0.09805839 0.00301856
-0.0031346297 -0.025391264 -0.075406246 -0.07148802 0.05681991 -0.07137506 0.11017139 -0.06656972
0.037123002 -0.0057610655 -0.035898324 -0.03432019 0.089722 0.007281096 -0.06909795 -0.14920598
-0.052167367 -0.04284039 0.026342701 0.011212817 -0.01411 -0.020117981 0.035832994 0.062359225
0.011022329 -0.076729506 -0.044635434 -0.015870621 0.0163179 0.11407567 -0.06775226 0.11887311
0.047063183 -0.009464679 -0.056005962 0.09804304 0.076964706 0.0031075482 -0.018407803 0.08330587
-0.057888456 -0.030503346 -0.10224683 0.065497145 0.07093854 0.02599461 0.024345769 0.0031116968
-0.09592648 -0.006695291 0.086280555 0.05379709 -0.004584238 0.09655265 0.06828784 -0.057491735
-0.11291182 -0.009586672 0.029381469 -0.08593728 0.04006614 0.11391446 0.069864005 0.028694734
-0.071345955 0.01175578 0.04139453 -0.06464205 0.085816436 -0.0021738622 0.08322554 -0.072205015
-0.05121214 0.07419803 0.033981666 -0.05691902 -0.05180699 0.0045347665 0.0932704 0.06442446
0.009673784 0.13575959 -0.03781448 0.03217342 -0.008724106 -0.023635168 0.008467535 -0.031358827
-0.014364001 0.033290636 0.017464072 0.10028137 -0.022582263 -0.0639288 -0.06217233 0.07685091
-0.032133393 -0.10651426 0.045665827 -0.046499442 0.09517349 0.032591503 0.0029783042 -0.05044415
-0.05898307 -0.08473665 -0.04773979 -0.015759336 -0.16661009 0.003520786 -0.006423138 -0.048543114
0.101031 -0.008967454 -0.046531077 -0.082038864 -0.13224223 0.0016556812 -0.0006450552 0.012182408
-0.08968526 -0.087433025 -0.046964012 -0.038870227 -0.07724006 -0.06664095 0.036217704 -0.013668769
-0.13076049 0.08907916 0.026915338 -0.036212344 0.027385512 0.025718637 0.011412358 -0.12215041
00000000: d805 47bd 6a1e 25bd 0516 d13d 2800 76bd
00000010: 3240 19bd 4d66 cebd 22b4 963d 8be9 9e3d
00000020: a8a2 f73d f605 f83d 2666 df3d a408 2c3d
00000030: b137 db3c 1c4b bebc f1ec 963c eb4d 9abc
00000040: f34c 4d3d 58b5 bfbd 856c b63d ccb9 48bd
00000050: bb71 71bd c583 d83d 4bb1 0f3d d75b 89bb
00000060: 27eb 503d 76f9 d53d ece6 db3c f809 333d
00000070: 4dad c53d 7c03 0f3d 6ac4 43bc 2c4c 1dbc
00000080: e077 6d3c f034 c73d 5741 76bd 3fbe 1cbd
00000090: c503 7b3d 249c 02be b4dc abbd 32de 39bd
000000a0: 6ff4 b0bc 4392 603d 9be1 163e 6301 1ebc
000000b0: 3f75 513d 43c1 92bb b17c 863d 2890 0ebd
000000c0: 1c53 a7bc 9bf0 0f3d 32c6 bbbb 7d7b 533d
000000d0: 43c3 e83d 9a93 31bd 5025 fc3c 195f c83d
000000e0: 6366 103d 98a8 d5bc 627d 853d 8f96 af3d
000000f0: 66c3 febc cd87 b5bd 941c c6bc 39dc 373d
00000100: 3fb8 2f3c 3548 2bbc a297 2fbc a90c 543d
00000110: 9253 de3c d1d3 933d b16d 80bd fd3b b73c
00000120: 7aed e43b 276e c53d 0532 b03d 6045 87bb
00000130: 11b8 c4bd 4e67 8a3d 3c0e bebc ea69 73bd
00000140: e137 84bc 6ab7 9b3c f861 9ebc 74d8 313d
00000150: 58ab 60bd 33b0 a93d 6191 e43c 9bc8 e73d
00000160: 5acb a9bc 5d7f b83c 10c1 a4bd 2b58 a53d
00000170: 8602 9fbd d25c 82bd 7dfe a73d 1cb7 87bd
00000180: 4b91 68bd f82a 733d d856 8abd 031a ab3d
00000190: dc36 c9bd 07fa 54bc 74bd 6bbd 6773 15bd
000001a0: 753f afbd a586 91bc d744 d9bc a39f 9dbb
000001b0: a3d8 b03c 6217 9d3d a26c c93c db85 8fbc
000001c0: 1875 af3d 18cc 12bd a1b6 08be 787d 0b3d
000001d0: dbf3 d3bd 65b2 88bd d6d2 c8bd 08d3 453b
000001e0: 5c6e 4dbb 5701 d0bc 976e 9abd 5068 92bd
000001f0: febb 683d 162d 92bd 8aa1 e13d b555 88bd
00000200: 4a0e 183d 52c7 bcbb 1f0a 13bd 5493 0cbd
00000210: 2bc0 b73d 4396 ee3b 3a83 8dbd 74c9 18be
00000220: 73ad 55bd 6879 2fbd a6cc d73c f7b5 373c
00000230: a12d 67bc 77ce a4bc 9ec5 123d 636c 7f3d
00000240: 0097 343c 5c24 9dbd a5d3 36bd 1b03 82bc
00000250: 1ead 853c 81a0 e93d b2c1 8abd bf73 f33d
00000260: 53c5 403d be11 1bbc 8266 65bd caca c83d
00000270: ac9f 9d3d 02a8 4b3b f6cb 96bc 459c aa3d
00000280: 721c 6dbd 27e2 f9bc c966 d1bd 5e23 863d
00000290: 3a48 913d a6f2 d43c c770 c73c 9ced 4b3b
000002a0: 1a75 c4bd 2c64 dbbb dcb3 b03d 565a 5c3d
000002b0: 6037 96bb 65bd c53d 7fda 8b3d 747c 6bbd
000002c0: 503e e7bd 6b11 1dbc 68b1 f03c e2ff afbd
000002d0: 651c 243d fc4b e93d dc14 8f3d 3811 eb3c
000002e0: d41d 92bd 519b 403c 508d 293d 0d63 84bd
000002f0: 87c0 af3d 5b77 0ebb 2772 aa3d 39e0 93bd
00000300: d2c3 51bd 23f5 973d 5c30 0b3d eb23 69bd
00000310: 9133 54bd 6198 943b 8d04 bf3d f9f0 833d
00000320: ca7e 1e3c 9004 0b3e 5be3 1abd 47c8 033d
00000330: 8def 0ebc 8a9e c1bc 6abb 0a3c 1d72 00bd
00000340: fd56 6bbc c35b 083d d010 8f3c 5260 cd3d
00000350: 70fe b8bc 1aed 82bd 6aa8 7ebd 0364 9d3d
00000360: 4e9e 03bd 2624 dabd 170c 3b3d 3376 3ebd
00000370: 52ea c23d ab7e 053d a72f 433b 869e 4ebd
00000380: 3b98 71bd 698a adbd cc8a 43bd b919 81bc
00000390: d69b 2abe fdbc 663b 3079 d2bb 25d5 46bd
000003a0: 57e9 ce3d 3aec 12bc 5f97 3ebd fe03 a8bd
000003b0: 826a 07be 7103 d93a ec18 29ba b998 473c
000003c0: e8ac b7bd 1610 b3bd 565d 40bd 6336 1fbd
000003d0: 0930 9ebd 0d7b 88bd 0459 143d f9f2 5fbc
000003e0: 14e6 05be 226f b63d 8e7d dc3c 6553 14bd
000003f0: 9557 e03c e4af d23c e6fa 3a3c ff29 fabd

conv2.bias f4 [32]
-0.021363642 -0.07338261 -0.04625849 -0.1302311 0.050020155 -0.030810114 0.06390204 0.08119906
0.08440782 0.07309767 -0.023397136 -0.06170265 0.082914576 -0.15640791 -0.014495002 0.062592916
0.06705741 -0.10654771 0.013168976 -0.044367194 -0.050466876 -0.058773983 0.050162256 -0.07998255
0.08563771 0.030359766 -0.021736117 -0.068979196 0.024212705 0.034763914 0.0028177912 -0.060648493
00000000: ce02 afbc 9f49 96bd 8b79 3dbd 4d5b 05be
00000010: efe1 4c3d 7e65 fcbc 13df 823d b14b a63d
00000020: 02de ac3d 3bb4 953d 5aab bfbc ebbb 7cbd
00000030: 1ecf a93d 6529 20be 727c 6dbc b730 803d
00000040: 6555 893d b035 dabd b0c2 573c 60ba 35bd
00000050: 5bb6 4ebd fdbc 70bd f076 4d3d e4cd a3bd
00000060: d362 af3d 0bb5 f83c f10f b2bc f744 8dbd
00000070: b959 c63c 9b64 0e3d b1aa 383b 8e6a 78bd

conv3.weight f4 [32, 32, 3]
0.015836459 0.055558432 0.108274914 0.053291947 -0.059211794 0.06423235 0.011781855 -0.032734305
-0.057762984 0.089785844 -0.057623796 -0.014314608 0.008282897 0.06274134 0.08240909 -0.0076624313
0.14732303 -0.030873185 0.10071434 0.05338158 -0.06328013 0.012248666 0.016444838 -0.018898815
0.12460586 -0.00050521333 0.025092652 -0.096358106 0.012305171 -0.06341626 0.01713916 -0.0376895
-0.06342971 0.015263864 -0.06310882 -0.08024294 -0.013242475 0.14237095 -0.038362063 0.08279316
0.07647611 -0.04793214 -0.0431807 -0.006088386 -0.096316025 -0.033326436 -0.0065288013 -0.05970953
-0.011563378 -0.007519529 -0.011581792 0.09444041 0.00519077 -0.065133296 -0.040243503 -0.019197507
-0.035671923 0.018512335 -0.025850177 -0.041266568 -0.020351103 -0.033775065 0.06943706 -0.012128412
0.017359773 -0.06989994 0.09150113 0.04837265 0.021457708 0.005667347 -0.07659101 -0.07178196
0.13299623 -0.039656743 -0.055499915 -0.040204957 -0.003871151 0.005102811 0.007522136 -0.0010583294
0.11075933 0.11471475 0.07498556 -0.030430382 0.0151855685 -0.023761544 -0.04527524 0.13477343
-0.026628053 0.025996005 -0.11076271 -0.067155465 0.06214368 0.15084338 0.06261018 0.041723773
-0.02244552 0.05544445 0.050928004 -0.0052321567 -0.019936336 -0.021931935 0.0483131 -0.0025707018
0.11479881 -0.08087816 -0.047337268 0.026688721 -0.0158688 -0.06457793 0.022060651 -0.055878337
0.1006718 0.058696967 -0.04062235 -0.087986834 -0.09374029 -0.021515831 -0.11264807 -0.06181223
0.077836104 0.06847657 0.069094114 -0.068821855 0.0024684474 -0.07844054 0.047556512 0.034540854
-0.0023818247 0.08896105 -0.04431911 -0.019500116 0.028776098 0.01567672 0.117808394 -0.040766194
-0.06760378 0.06911271 0.051326342 -0.002681484 -0.07542223 -0.097299136 -0.02141431 0.065303296
0.00349466 -0.00036433872 0.0061596986 0.0023917113 -0.000701011 0.021344317 -0.07074125 -0.10571021
-0.08151988 0.021356191 0.016528422 -0.10585237 -0.10653639 -0.012732087 -0.12795216 0.03452738
-0.110599965 -0.062461056 -0.04179131 0.0332609 0.07429655 0.041748673 0.03517064 0.024102755
0.027963359 0.02150988 0.013163051 -0.056404132 0.06660971 0.07179552 0.1057564 0.04005855
0.10314408 0.09825482 0.006905927 -0.0012680306 -0.0344889 -0.009294663 -0.07221778 0.053039905
-0.009622161 -0.11639707 -0.08804196 -0.08280332 0.018773612 -0.10110122 -0.0663389 0.0028510282
-0.041233834 0.10693429 -0.008263187 -0.112637185 -0.076499045 -0.07310059 -0.002043755 -0.01585739
0.018693008 -0.07103836 0.06311852 0.027070506 -0.018918062 -0.07076089 0.09088509 0.03895764
-0.04633146 0.07595223 -0.09602216 -0.025051469 -0.010086613 0.058747005 -0.096145004 0.062982135
-0.026659861 0.13867007 -0.03105984 0.066448085 0.0016473009 -0.08889128 -0.09223809 0.016230136
-0.030513681 0.08487712 0.04235228 -0.13399099 0.1597373 -0.02244151 0.042237137 0.06209821
-0.09710345 -0.069103934 -0.03789545 0.023741866 -0.0951502 0.024612494 -0.10619596 0.01055141
0.0076459097 0.031750128 -0.0037583313 0.0814258 -0.06038955 0.028906345 0.055838637 -0.032602243
-0.13321805 0.09395516 -0.021309255 -0.019836104 0.070313044 -0.055589575 -0.08450697 -0.105341725
00000000: 76bb 813c 3d91 633d 3dbf dd3d a848 5a3d
00000010: 1188 72bd 408c 833d ae08 413c 6814 06bd
00000020: e198 6cbd a4e1 b73d ee06 6cbd d187 6abc
00000030: fdb4 073c 887e 803d 19c6 a83d 2215 fbbb
00000040: d9db 163e c3e9 fcbc 5243 ce3d a5a6 5a3d
00000050: 0399 81bd a1ae 483c 53b7 863c b0d1 9abc
00000060: 5b31 ff3d 4b70 04ba 1b8f cd3c 6657 c5bd
00000070: a19b 493c 62e0 81bd 6c67 8c3c 4e60 1abd
00000080: 70e7 81bd 4915 7a3c 323f 81bd 6956 a4bd
00000090: f7f6 58bc b1c9 113e 8a21 1dbd 768f a93d
000000a0: 829f 9c3d 7e54 44bd 3fde 30bd 1581 c7bb
000000b0: 5641 c5bd 4d81 08bd 8eef d5bb fb91 74bd
000000c0: 5374 3dbc 6266 f6bb 8ec1 3dbc f969 c13d
000000d0: 5617 aa3b 9b64 85bd 5fd6 24bd 1744 9dbc
000000e0: b91c 12bd 2ea7 973c c0c3 d3bc 2207 29bd
000000f0: 5bb7 a6bc b957 0abd 0435 8e3d 3fb6 46bc
00000100: 1536 8e3c b327 8fbd f264 bb3d 6622 463d
00000110: 13c8 af3c 27b5 b93b bfdb 9cbd 6c02 93bd
00000120: 2a30 083e 1c6f 22bd e153 63bd f4ad 24bd
00000130: 23b3 7dbb 7b35 a73b 407c f63b a4b7 8aba
00000140: cad5 e23d 91ef ea3d 0792 993d 2349 f9bc
00000150: e4cc 783c 92a7 c2bc 8872 39bd 0c02 0a3e
00000160: 1323 dabc 93f5 d43c 8fd7 e2bd ce88 89bd
00000170: 5f8a 7e3d b076 1a3e c439 803d 8ce6 2a3d
00000180: abdf b7bc b819 633d e299 503d 8372 abbb
00000190: 8751 a3bc 9aaa b3bc f5e3 453d 3879 28bb
000001a0: a31b eb3d 73a3 a5bd b9e4 41bd 4ea2 da3c
000001b0: 49ff 81bc 6f41 84bd 8ab8 b43c afe0 64bd
000001c0: 042d ce3d 3b6c 703d 9f63 26bd 7132 b4bd
000001d0: e9fa bfbd f841 b0bc 08b4 e6bd d22e 7dbd
000001e0: 8968 9f3d 723d 8c3d 3781 8d3d 79f2 8cbd
000001f0: adc5 213b 6fa5 a0bd 9eca 423d b67a 0d3d
00000200: 6318 1cbb 3631 b63d f587 35bd b5be 9fbc
00000210: dabb eb3c 776c 803c 8745 f13d 74fa 26bd
00000220: da73 8abd f78a 8d3d 923b 523d d6bb 2fbb
00000230: f876 9abd c544 c7bd 106d afbc bcbd 853d
00000240: aa06 653b b704 bfb9 4cd7 c93b 42be 1c3b
00000250: 0dc4 37ba 47da ae3c cae0 90bd 987e d8bd
00000260: e5f3 a6bd 2ef3 ae3c 9d66 873c 21c9 d8bd
00000270: c02f dabd 3e9a 50bc e405 03be 956c 0d3d
00000280: 3c82 e2bd 2ad7 7fbd 5d2d 2bbd 953c 083d
00000290: ca28 983d a800 2b3d 170f 103d 2473 c53c
000002a0: 6a13 e53c 7d35 b03c d6a9 573c 0508 67bd
000002b0: ac6a 883d 8809 933d d096 d83d 6f14 243d
000002c0: 343d d33d d339 c93d 1d4b e23b 0c34 a6ba
000002d0: 3c44 0dbd a448 18bc eae6 93bd 5f40 593d
000002e0: 45a6 1dbc 9661 eebd 584f b4bd c994 a9bd
000002f0: 1ecb 993c 280e cfbd b0dc 87bd 51d8 3a3b
00000300: cfe4 28bd 5d00 db3d 5162 07bc 53ae e6bd
00000310: 88ab 9cbd c3b5 95bd 85f0 05bb 5be7 81bc
00000320: 1422 993c 8f7c 91bd 4844 813d f7c2 dd3c
00000330: 0dfa 9abc 16eb 90bd f621 ba3d 0c92 1f3d
00000340: 0fc6 3dbd d88c 9b3d 44a7 c4bd bd38 cdbc
00000350: 5242 25bc b3a0 703d ace7 c4bd c7fc 803d
00000360: c865 dabc 87ff 0d3e 3571 febc ef15 883d
00000370: 3fea d73a a20c b6bd 53e7 bcbd 10f5 843c
00000380: d4f7 f9bc 0ed4 ad3d 9679 2d3d ef34 09be
00000390: 2d92 233e 42d7 b7bc d900 2d3d b15a 7e3d
000003a0: 2cde c6bd 5d86 8dbd 4238 1bbd 4d7e c23c
000003b0: 1cde c2bd 24a0 c93c 447d d9bd d2df 2c3c
000003c0: 8a8a fa3b 6c0c 023d 564e 76bb 92c2 a63d
000003d0: 085b 77bd 00cd ec3c 0eb7 643d ee89 05bd
000003e0: 506a 08be 906b c03d bf90 aebc 537f a2bc
000003f0: 4900 903d e5b1 63bd fe11 adbd 67bd d7bd

conv3.bias f4 [32]
0.016199097 -0.036207266 -0.005337887 -0.013432654 -0.042358845 -0.06235639 0.06338109 0.077866346
0.041632604 -0.08382701 0.06025151 -0.060168546 0.023879597 0.04647568 -0.07501206 -0.021214245
-0.026726916 0.045919955 -0.10368636 -0.09214039 -0.0047506355 -0.026881525 0.03285831 -0.069202
0.0078006433 -0.09626801 -0.054738384 -0.0689369 0.031467795 -0.10352818 -0.06404919 0.088873014
00000000: f8b3 843c 124e 14bd 71e9 aebb a214 5cbc
00000010: 7880 2dbd 6a69 7fbd f2cd 813d 6478 9f3d
00000020: f386 2a3d 7fad abbd 4aca 763d 4b73 76bd
00000030: 259f c33c 485d 3e3d ec9f 99bd 7fc9 adbc
00000040: 68f2 dabc 9016 3c3d 8459 d4bd 1ab4 bcbd
00000050: 38ab 9bbb a536 dcbc 6f96 063d c7b9 8dbd
00000060: 8a9c ff3b 2a28 c5bd 5b35 60bd ca2e 8dbd
00000070: 60e4 003d 9506 d4bd 392c 83bd 0e03 b63d

conv4.weight f4 [32, 32, 3]
-0.08867749 -0.01447829 -0.032032486 0.037708696 -0.10308549 -0.08999862 -0.09912046 0.07434347
-0.044725385 -0.050622635 -0.013308952 -0.04046186 0.034649234 -0.035962097 -0.018756311 0.00012963913
0.005889273 0.11477616 0.041653953 -0.08140017 -0.09717097 0.054754425 0.12694243 0.024207711
-0.085155964 -0.033576578 0.0022244062 -0.016926715 -0.011449462 -0.057377208 0.11272163 0.096946135
0.00821347 0.13945219 -0.064484656 -0.02432949 0.00028487243 -0.004305387 -0.099014536 0.03639448
-0.0778448 -0.10540814 -0.024325233 0.0010804341 -0.07108588 0.06667031 0.07870785 -0.114873156
0.011526517 0.0867854 0.014931559 0.08815814 -0.047362577 0.04557698 0.042800598 0.012915686
-0.005906523 0.1006352 0.10470224 0.0074660922 -0.03177604 0.041253686 -0.04204435 -0.044565834
0.072635345 0.006020972 -0.0016473946 0.09771617 -0.0022795994 0.06067812 -0.0059678894 0.046885982
-0.095108375 0.0075906115 -0.051106784 -0.016312731 -0.025579149 -0.07570493 0.038596205 0.081158005
0.07431638 0.058615267 0.060739618 -0.042204954 -0.0012599236 -0.053470224 -0.0018890646 0.08793624
0.060107797 0.018221965 0.06754433 0.07066784 0.018405749 0.004420298 0.05820467 0.008062529
-0.005409857 0.026208837 -0.05034109 -0.07631671 -0.026842616 -0.11321617 0.12472752 0.015018587
-0.031551678 0.020466136 -0.062459547 0.006468592 0.095875986 0.105840094 0.08544658 0.031209985
-0.021026274 0.12967747 -0.07139863 -0.057157744 -0.06994363 -0.01513579 -0.048111055 0.062406052
0.057084255 0.007783417 0.09192319 0.010220618 -0.035747323 -0.042296473 -0.079005755 0.06299847
0.0019960708 -0.023014495 0.12727894 0.1572166 0.09908884 -0.041580204 0.06928922 -0.0032341452
0.0253633 0.04344516 0.017311482 0.097262226 -0.024902675 0.009357599 0.010731794 -0.03806731
-0.019600086 0.07842718 0.017534908 -0.03728694 0.09909295 -0.07879595 -0.059478708 0.11196912
-0.034469575 0.06734047 0.020281995 0.10017481 0.10163736 0.047595005 0.088522136 0.042946782
-0.060299736 0.05850745 -0.041990124 0.09740349 -0.058506053 0.035396587 0.10270989 -0.013724404
0.132077 0.0633556 -0.057090294 0.10452245 -0.028212104 -0.025065819 0.069539614 -0.041840844
-0.055188905 0.0798199 -0.03844417 0.042073734 0.080583006 -0.004307889 0.08457248 0.008604721
-0.04853945 0.049598683 0.026445035 -0.021492532 0.115731545 0.011849145 0.040450685 -0.05543511
-0.06835059 -0.03706981 -0.07498303 -0.08532745 -0.017753651 -0.029661745 0.06697568 -0.05685049
-0.09188054 0.1102199 0.1029451 0.025766043 0.0593451 0.0401737 -0.105360255 0.07117813
0.016566567 0.0036491272 -0.01593489 -0.07080604 -0.04135476 0.1509199 0.082796484 -0.12837853
-0.053882316 -0.090832606 -0.031131862 0.10567204 0.08327486 -0.056309003 0.099882945 -0.07600981
-0.020117596 0.06490164 0.083533034 -0.10593219 -0.043544214 -0.022255372 0.0012777383 0.05777823
-0.02037493 0.023079736 -0.000936945 -0.03571807 -0.07132319 0.121058874 -0.086905554 0.03847786
0.101174325 0.016566688 -0.1243444 0.069519095 -0.08635273 -0.0044980715 -0.013625617 0.06940816
0.09447076 0.079655856 -0.045142937 -0.05236389 -0.06688242 0.0720691 0.11046089 -0.04648108
00000000: 8b9c b5bd 5a36 6dbc 7f34 03bd 6f74 1a3d
00000010: 7c1e d3bd 3251 b8bd abff cabd 6441 983d
00000020: f731 37bd ae59 4fbd ca0d 5abc 56bb 25bd
00000030: 5bec 0d3d fe4c 13bd d6a6 99bc bdef 0739
00000040: cdfa c03b c30f eb3d 569d 2a3d 22b5 a6bd
00000050: 9301 c7bd 2d46 603d 32fd 013e 404f c63c
00000060: 4066 aebd 9887 09bd 58c7 113b e5a9 8abc
00000070: 8696 3bbc 5d04 6bbd 99da e63d b28b c63d
00000080: ca91 063c 8ecc 0e3e 8810 84bd a34e c7bc
00000090: ee5a 9539 3414 8dbb 22c8 cabd 6112 153d
000000a0: 186d 9fbd 39e0 d7bd b645 c7bc 5a9d 8d3a
000000b0: 7995 91bd 728a 883d 9531 a13d 9e42 ebbd
000000c0: b7d9 3c3c 8bbc b13d 7fa3 743c 418c b43d
000000d0: 43ff 41bd edae 3a3d ae4f 2f3d 509c 533c
000000e0: 828b c1bb d419 ce3d 216e d63d 1fa6 f43b
000000f0: 9827 02bd a0f9 283d b236 2cbd aa8a 36bd
00000100: d7c1 943d 934b c53b 64ed d7ba 6a1f c83d
00000110: 5565 15bb 9f89 783d 498e c3bb 840b 403d
00000120: 2ec8 c2bd aaba f83b 5955 51bd 47a2 85bc
00000130: 5d8b d1bc 300b 9bbd 0e17 1e3d 2b36 a63d
00000140: 3033 983d 9016 703d 1bca 783d 1adf 2cbd
00000150: 0524 a5ba 9803 5bbd 7d9a f7ba ea17 b43d
00000160: 9833 763d 3b46 953c af54 8a3d 4dba 903d
00000170: a7c7 963c 26d8 903b 0568 6e3d b318 043c
00000180: 2b45 b1bb eab3 d63c 7532 4ebd ef4b 9cbd
00000190: 0ce5 dbbc e1dd e7bd 2471 ff3d 8510 763c
000001a0: 553c 01bd 99a8 a73c 95d5 7fbd 7cf6 d33b
000001b0: a15a c43d b1c2 d83d 9efe ae3d 15ac ff3c
000001c0: 4b3f acbc 2cca 043e 7239 92bd 3d1e 6abd
000001d0: 9b3e 8fbd 1bfc 77bc 1910 45bd 7d9d 7f3d
000001e0: 2ed1 693d 090c ff3b 3a42 bc3d 6174 273c
000001f0: c96b 12bd 113f 2dbd c5cd a1bd 5805 813d
00000200: 83d0 023b e588 bcbc 6955 023e 63fd 203e
00000210: 17ef ca3d 0150 2abd 82e7 8d3d f4f3 53bb
00000220: b2c6 cf3c 8df3 313d cfd0 8d3c 6b31 c73d
00000230: b200 ccbc 9d50 193c 68d4 2f3c 78ec 1bbd
00000240: 5c90 a0bc 6e9e a03d 5ea5 8f3c 31ba 18bd
00000250: 3ff1 ca3d c55f a1bd f29f 73bd 1150 e53d
00000260: f82f 0dbd cde9 893d 6d26 a63c 7328 cd3d
00000270: 4027 d03d fbf2 423d 184b b53d f7e8 2f3d
00000280: dbfc 76bd 82a5 6f3d d6fd 2bbd 7b7b c73d
00000290: 0ba4 6fbd 03fc 103d 9059 d23d 53dc 60bc
000002a0: 313f 073e 95c0 813d 83d7 69bd de0f d63d
000002b0: 121d e7bc d556 cdbc c96a 8e3d 4e61 2bbd
000002c0: c30d 62bd 9e78 a33d a277 1dbd 8255 2c3d
000002d0: b408 a53d 3129 8dbb 5634 ad3d d1fa 0c3c
000002e0: 4dd1 46bd fd27 4b3d 42a3 d83c 1b11 b0bc
000002f0: a904 ed3d eb22 423c 9eaf 253d ed0f 63bd
00000300: 65fb 8bbd 83d6 17bd b490 99bd 28c0 aebd
00000310: 1b70 91bc 30fd f2bc 8c2a 893d 0fdc 68bd
00000320: dd2b bcbd f9ba e13d e1d4 d23d 4f13 d33c
00000330: d913 733d 2d8d 243d 1ec7 d7bd d7c5 913d
00000340: 9cb6 873c 3226 6f3b e389 82bc c202 91bd
00000350: 9c63 29bd bf8a 1a3e 3491 a93d a975 03be
00000360: b4b3 5cbd 7206 babd 3f08 ffbc 956a d83d
00000370: 038c aa3d 45a4 66bd 6e8f cc3d 08ab 9bbd
00000380: a8cd a4bc 27eb 843d 5e13 ab3d faf2 d8bd
00000390: 6b5b 32bd e650 b6bc c879 a73a dea8 6c3d
000003a0: 53e9 a6bc b711 bd3c 519d 75ba 1c4d 12bd
000003b0: e511 92bd b7ed f73d 8afb b1bd f69a 1d3d
000003c0: 7c34 cf3d ddb6 873c 47a8 febd 0760 8e3d
000003d0: b3d9 b0bd 8f64 93bb fb3d 5fbc de25 8e3d
000003e0: e379 c13d 9c22 a33d cde7 38bd 857b 56bd
000003f0: a6f9 88bd f798 933d 5239 e23d f262 3ebd

conv4.bias f4 [32]
-0.026741603 0.09316022 0.012822385 -0.088274986 0.022861574 -0.06971069 -0.045294978 -0.064975694
-0.017438123 -0.11803127 0.07019984 -0.013614415 0.05893031 -0.039925903 0.062872596 0.02284705
0.08327642 -0.07957735 -0.01741048 -0.019697012 -0.003115956 0.052404966 0.024984729 -0.12241368
-0.0093296515 -0.027915638 0.076076515 -0.06194906 -0.09935925 -0.019560305 0.07762246 -0.032412555
00000000: 3511 dbbc c9ca be3d fb14 523c 84c9 b4bd
00000010: 3248 bb3c 7ac4 8ebd 3a87 39bd fa11 85bd
00000020: 65da 8ebc 61ba f1bd efc4 8f3d ff0e 5fbc
00000030: e960 713d 5889 23bd 59c3 803d bd29 bb3c
00000040: d48c aa3d 73f9 a2bd 6ca0 8ebc a15b a1bc
00000050: 1135 4cbb 97a6 563d c6ac cc3c 06b4 fabd
00000060: 65db 18bc 56af e4bc 01ce 9b3d 4cbe 7dbd
00000070: dd7c cbbd ef3c a0bc 86f8 9e3d 07c3 04bd

conv5.weight f4 [32, 32, 3]
0.14873531 -0.043446716 -0.0041378047 -0.02675412 0.095973074 0.014924567 0.1829726 0.07179211
-0.06482983 0.03264311 0.04283752 0.08397577 -0.05757401 -0.10668053 -0.003872798 -0.04436115
-0.05399139 0.059084233 0.047518212 -0.03676771 -0.12535965 0.045511913 0.12599117 -0.051666755
0.006311491 0.05331641 -0.14510295 -0.026337782 -0.10303307 0.067607634 -0.078062095 0.046814613
-0.030117853 -0.02662641 -0.09593039 -0.13941991 -0.019420842 -0.09657655 0.019738538 -0.06357666
-0.04166278 -0.03360702 -0.038766786 -0.11677734 0.07241121 -0.04527492 -0.08919247 -0.010323828
0.0185648 0.015711606 -0.0077457633 -0.065374345 0.07295076 0.08367333 0.0781483 -0.08450218
-0.04406587 -0.1142835 -0.063706465 0.04342169 -0.022289654 -0.06064674 0.075488485 -0.10316603
-0.04224126 -0.030335622 -0.084076546 0.067376226 -0.08248033 -0.07105259 -0.055154033 -0.11845496
0.03290386 -0.005093142 -0.027732102 -0.036019716 -0.098902166 0.02105746 -0.012686031 -0.032532107
0.05726271 0.006477095 0.117067896 0.07341448 -0.02220366 -0.04186897 0.07864129 0.0047716964
-0.026768306 -0.12913361 0.023792187 0.0373933 -0.040395968 -0.02715131 0.0071672695 -0.03075096
0.0797768 -0.025818963 0.016953263 0.055964265 0.11980559 0.09576924 0.0065126433 0.03471212
0.011453279 -0.04944557 -0.010424309 -0.09979738 -0.046444714 -0.00092595763 0.04619769 -0.04706954
0.038792808 -0.019162381 0.05418061 0.09644824 -0.06420616 0.10257962 0.056998327 -0.027171258
-0.009106756 0.14537585 0.066441275 0.026825799 0.03561058 -0.08931081 0.06606345 -0.01670052
0.09110692 -0.070689246 0.11228351 0.119140945 0.0570641 -0.00036132723 -0.019919857 -0.056758188
0.02783976 0.082607046 0.03734963 -0.050305687 0.036911212 0.04031675 -0.054452363 0.07898072
0.006918755 0.108690314 0.051648274 -0.0026577762 0.0235688 0.004577893 -0.064974956 -0.07522055
-0.03584898 0.044988595 -0.07136704 0.09015674 0.086677276 -0.009804084 0.05139345 0.1338323
-0.060735103 0.007888991 0.14892036 0.028280986 0.023368066 -0.056306336 0.09504695 0.07453028
0.03626995 -0.014154591 -0.09590284 -0.05927708 0.0185022 -0.06041794 0.06826253 -0.0545627
0.03757845 0.08083365 -0.008125293 -0.08267026 0.03914896 -0.03022526 0.015154176 0.08092208
0.00721903 -0.018233221 -0.0019617565 -0.07928383 0.032831747 -0.02624267 -0.019610517 0.030366812
0.013770576 0.1038563 -0.042864505 -0.028814327 -0.033122107 0.0055022934 -0.08054256 0.013174819
0.04565305 -0.004540243 -0.0017617134 0.12863952 -0.08801183 -0.051644046 -0.10326146 0.041502114
0.046425756 0.016329626 0.023772087 -0.052383292 -0.044937894 -0.046938088 0.08602828 -0.02474423
-0.12213929 0.02841513 0.03537885 0.015351322 0.100951664 0.06699245 0.022292262 0.035094347
0.018663418 -0.033618275 0.11800628 0.13265522 0.10456336 -0.093816146 0.03943882 -0.019518767
0.047546886 0.13083996 -0.08007512 -0.04141977 -0.022475367 0.015282909 0.09434893 0.15775505
-0.053585496 0.048148613 -0.062121343 0.07577021 0.020590687 -0.00049018435 -0.063569754 0.033453267
-0.056392744 -0.006136987 0.009672248 -0.07009177 -0.025290692 0.050162133 -0.027514504 -0.042763676
00000000: 124e 183e 2ff5 31bd 6c96 87bb 752b dbbc
00000010: 888d c43d 2c86 743c 2b5d 3b3e be07 933d
00000020: 80c5 84bd c8b4 053d 6576 2f3d 7dfb ab3d
00000030: bad2 6bbd 527b dabd c5ce 7dbb 0ab4 35bd
00000040: 1326 5dbd 4f02 723d 75a2 423d bd99 16bd
00000050: 485e 00be b36a 3a3d d403 013e 85a0 53bd
00000060: a0d0 ce3b 4f62 5a3d de95 14be 55c2 d7bc
00000070: 0103 d3bd df75 8a3d 05df 9fbd aec0 3f3d
00000080: b7b9 f6bc a11f dabc 2777 c4bd 18c4 0ebe
00000090: 7518 9fbc edc9 c5bd b7b2 a13c 7b34 82bd
000000a0: 97a6 2abd 84a7 09bd ecc9 1ebd f528 efbd
000000b0: 544c 943d 3272 39bd 8baa b6bd 4625 29bc
000000c0: 3515 983c a0b5 803c 2cd0 fdbb fce2 85bd
000000d0: 3567 953d ec5c ab3d 370c a03d 7b0f adbd
000000e0: 6a7e 34bd 780d eabd 8978 82bd f1da 313d
000000f0: cb98 b6bc b768 78bd b599 9a3d b648 d3bd
00000100: 2c05 2dbd 6982 f8bc 5330 acbd 8cfc 893d
00000110: 72eb a8bd 0584 91bd 32e9 61bd 8498 f2bd
00000120: 33c6 063d 5fe4 a6bb 6f2e e3bc 6989 13bd
00000130: 388d cabd b280 ac3c 12d9 4fbc 6340 05bd
00000140: 4e8c 6a3d d03d d43b 4bc1 ef3d 555a 963d
00000150: 73e4 b5bc cc7e 2bbd af0e a13d e45b 9c3b
00000160: 3549 dbbc 9a3b 04be d5e7 c23c b829 193d
00000170: 3e76 25bd 6d6c debc 6adb ea3b 70e9 fbbc
00000180: 0562 a33d 4a82 d3bc 92e1 8a3c c93a 653d
00000190: a25c f53d aa22 c43d 0368 d53b 4c2e 0e3d
000001a0: 89a6 3b3c 7087 4abd b9ca 2abc 9262 ccbd
000001b0: d03c 3ebd f7bb 72ba ca39 3d3d fdcb 40bd
000001c0: 35e5 1e3d 6dfa 9cbc 7dec 5d3d a886 c53d
000001d0: 857e 83bd 4415 d23d 1477 693d 4296 debc
000001e0: 8134 15bc 68dd 143e 5d12 883d c7c1 db3c
000001f0: 66dc 113d 96e8 b6bd 464c 873d 87cf 88bc
00000200: 4496 ba3d 86c5 90bd e6f4 e53d 2b00 f43d
00000210: 0cbc 693d 8570 bdb9 f82e a3bc 467b 68bd
00000220: 3510 e43c e22d a93d edfb 183d 560d 4ebd
00000230: 3630 173d 2d23 253d 7109 5fbd a5c0 a13d
00000240: b9b6 e23b 0799 de3d 248d 533d 162e 2ebb
00000250: 5b13 c13c 2602 963b 9711 85bd 3b0d 9abd
00000260: 61d6 12bd f645 383d e228 92bd 19a4 b83d
00000270: db83 b13d 4fa1 20bc f081 523d 560b 093e
00000280: 5fc5 78bd d440 013c 947e 183e 87ad e73c
00000290: 636e bf3c 79a1 66bd faa7 c23d 55a3 983d
000002a0: cd8f 143d a8e8 67bc b568 c4bd 86cc 72bd
000002b0: ed91 973c cd78 77bd 3acd 8b3d 237d 5fbd
000002c0: dceb 193d 1d8c a53d f31f 05bc 064f a9bd
000002d0: a95a 203d f79a f7bc 3949 783c 7aba a53d
000002e0: 9d8d ec3b d65d 95bc d090 00bb 905f a2bd
000002f0: 957a 063d defa d6bc 3ca6 a0bc d2c3 f83c
00000300: fb9d 613c 9db2 d43d b192 2fbd 060c ecbc
00000310: 0cab 07bd 954c b43b 7ff3 a4bd 32db 573c
00000320: b1fe 3a3d 52c6 94bb 4be9 e6ba 14ba 033e
00000330: 8c3f b4bd b588 53bd bf7a d3bd 1ffe 293d
00000340: ef28 3e3d b5c5 853c aebd c23c dd8f 56bd
00000350: cc10 38bd 2742 40bd 982f b03d 69b4 cabc
00000360: 2a24 fabd d9c6 e83c 6ae9 103d 1c84 7b3c
00000370: bfbf ce3d 5633 893d 439e b63c 17bf 0f3d
00000380: 06e4 983c 51b3 09bd 47ad f13d c5d6 073e
00000390: 5125 d63d ae22 c0bd 9a8a 213d d2e5 9fbc
000003a0: 86c0 423d e9fa 053e 6dfe a3bd c7a7 29bd
000003b0: 431e b8bc 2b65 7a3c 033a c13d 8a8a 213e
000003c0: 777c 5bbd 7b37 453d f372 7ebd 692d 9b3d
000003d0: cdad a83c b77f 00ba dc30 82bd 4b06 093d
000003e0: 14fc 66bd c718 c9bb 5978 1e3c 468c 8fbd
000003f0: 6d2e cfbc cf76 4d3d 1966 e1bc f728 2fbd

conv5.bias f4 [32]
0.019246547 -0.1220889 -0.034757018 -0.040540732 0.055093788 -0.050207835 -0.1566373 -0.023933025
-0.099600956 -0.12542237 -0.054741934 -0.017444951 -0.05820643 -0.1682837 -0.01796537 -0.05724048
-0.031333845 0.013808762 -0.018426757 -0.10881154 -0.06323102 -0.10692828 -0.020503309 -0.12636684
0.06306437 -0.11145184 0.09443232 0.02546993 -0.020241398 -0.011792468 0.014761842 -0.07305071
00000000: efaa 9d3c bf09 fabd 605d 0ebd 0a0e 26bd
00000010: 06aa 613d bba6 4dbd 8765 20be 310f c4bc
00000020: 96fb cbbd b96e 00be 1439 60bd b7e8 8ebc
00000030: de69 6ebd 9052 2cbe 1d2c 93bc fe74 6abd
00000040: eb57 00bd 253e 623c b6f3 96bc 96d8 debd
00000050: 447f 81bd 37fd dabd 8ef6 a7bc 4f66 01be
00000060: e427 813d dd40 e4bd bb65 c13d 51a6 d03c
00000070: 4ad1 a5bc 3235 41bc a7db 713c 9c9b 95bd

conv6.weight f4 [32, 32, 3]
0.02587178 -0.0026476427 -0.042345773 -0.08918696 -0.09675478 0.092242196 0.08523729 -0.04755931
-0.030372351 0.040235333 -0.04964217 -0.004866697 -0.0053118244 -0.0074931765 0.0066123647 0.044582415
-0.019028788 -0.02189078 -0.06541636 0.013564973 -0.08034859 -0.056095034 -0.075131856 -0.043199863
0.012215459 0.1202965 -0.06696934 0.12953979 0.11479435 -0.13707156 -0.0999629 0.011550632
-0.08391814 -0.034487378 0.024856523 0.035817727 -0.028848551 -0.05525109 0.11683024 -0.07421912
-0.082233235 -0.036595654 -0.016098775 -0.050843608 0.047242958 -0.066694066 0.05907704 -0.043461274
0.1401506 -0.055500656 -0.052341774 -0.024574561 0.03157729 0.040733866 -0.15653624 -0.047955625
0.116261505 0.11765158 -0.12249353 0.010722871 0.16548593 0.15436517 0.05096162 0.07475399
-0.043516032 0.014453469 -0.04408767 0.015086566 -0.013465306 0.075219534 0.017963821 0.09040326
-0.08013756 -0.09673622 0.049844023 0.150118 -0.02065112 -0.11070446 0.061778344 0.034188855
0.058372334 -0.006669554 -0.05341395 0.1263426 0.03230724 -0.08303698 -0.011471321 -0.054926746
-0.023013968 -0.036776014 0.05958693 -0.08570227 -0.013319875 -0.008721212 0.14017674 -0.019997757
0.062290434 -0.0051593846 0.05933725 0.1044063 0.046429634 -0.023287263 0.03824785 -0.03961016
-0.03350243 0.006494141 -0.067727104 -0.013108357 -0.14267725 0.07765325 0.027765289 -0.00488156
0.06592617 0.0017566299 -0.059527792 0.019774586 -0.04909074 -0.10491704 0.11781149 0.052987862
0.032046273 -0.009339819 -0.0467022 -0.050617702 0.052523937 -0.076732926 0.026074661 0.1254564
0.028360516 -0.050674614 0.03228305 0.046369076 -0.09396913 -0.11256202 -0.0055645593 -0.0040439554
-0.077799544 -0.0065756477 -0.032459766 0.06818164 0.01772288 -0.025213784 0.12083721 0.08194083
-0.10833201 -0.091660075 0.015331497 0.05764843 0.015941774 -0.013539413 0.069799244 -0.04776756
0.08081428 -0.006383826 0.012786939 -0.00041524717 -0.084632434 -0.061243035 0.08635481 0.12493244
0.09502241 0.081680514 0.022556322 0.11902695 0.06674712 0.016333032 0.038961805 0.032705285
0.05851993 0.11846931 0.07354327 0.04846645 -0.10041395 -0.039926928 0.0025257135 0.074380554
0.017563924 -0.037268646 -0.08039337 -0.017150234 0.10885241 -0.0768115 0.04894877 -0.006440603
-0.04072938 0.02558507 -0.0056274515 -0.074738376 -0.05795413 -0.02522591 -0.097345054 -0.0727859
-0.04795662 0.0016297797 -0.007994038 -0.053422593 -0.047953814 -0.008289802 -0.06442419 -0.0251687
-0.15029827 -0.012056098 -0.019534878 -0.058875874 0.0882556 0.041372947 0.03271806 -0.04339559
0.008507348 0.058241863 0.010345568 0.020523632 0.07994728 0.12006932 0.04336919 -0.053786308
-0.027971394 0.099096976 0.06926984 0.065619454 -0.07478609 -0.06266711 -0.049819864 -0.04554871
0.04921434 0.04899621 -0.0031475038 0.019086538 0.09601464 0.015782638 -0.050682772 0.017329076
-0.03458914 -0.16410463 -0.03527132 -0.08360652 0.033469878 -0.09563872 -0.01395526 0.07879506
-0.093824 -0.069112524 -0.04167695 0.08317481 0.04148815 -0.04216393 0.02755585 0.110724
-0.06132391 0.060135577 -0.052842285 -0.097826324 -0.030710807 0.042511564 -0.07930729 -0.012934732
00000000: 0ef1 d33c 1384 2dbb c372 2dbd a7a7 b6bd
00000010: 5f27 c6bd 7ae9 bc3d e390 ae3d 8dcd 42bd
00000020: 70cf f8bc cecd 243d 9755 4bbd d078 9fbb
00000030: d00e aebb 5289 f5bb 89ac d83b 0d9c 363d
00000040: 43e2 9bbc 4b54 b3bc 03f9 85bd 9f3f 5e3c
00000050: cd8d a4bd e8c3 65bd bbde 99bd 57f2 30bd
00000060: 5923 483c 035e f63d 3927 89bd 14a6 043e
00000070: 4d19 eb3d 7d5c 0cbe 59b9 ccbd dd3e 3d3c
00000080: 46dd abbd a342 0dbd e89f cb3c 9cb5 123d
00000090: cc53 ecbc f84e 62bd b144 ef3d 3200 98bd
000000a0: e669 a8bd 53e5 15bd 94e1 83bc 6341 50bd
000000b0: d581 413d e696 88bd c4fa 713d 7304 32bd
000000c0: a483 0f3e a854 63bd 5464 56bd 9750 c9bc
000000d0: 3057 013d 8ed8 263d 094b 20be 1e6d 44bd
000000e0: 831a ee3d 50f3 f03d e3dd fabd fbae 2f3c
000000f0: 2575 293e e711 1e3e 22bd 503d 9f18 993d
00000100: de3d 32bd 3ece 6c3c 4695 34bd a52d 773c
00000110: 969d 5cbc b30c 9a3d dd28 933c 5825 b93d
00000120: 291f a4bd a41d c6bd 3f29 4c3d 88b8 193e
00000130: 8a2c a9bc 05b9 e2bd 4a0b 7d3d 9d09 0c3d
00000140: d417 6f3d 468c dabb 96c8 5abd f45f 013e
00000150: 9954 043d 4b0f aabd 35f2 3bbc defa 60bd
00000160: ca87 bcbc 72a2 16bd 6d11 743d ac84 afbd
00000170: 9b3b 5abc 6ae3 0ebc 7e8a 0f3e 56d2 a3bc
00000180: 4124 7f3d 0e10 a9bb 9e0b 733d f8d2 d53d
00000190: 002d 3e3d eec4 bebc c7a9 1c3d 433e 22bd
000001a0: d839 09bd cecc d43b 82b4 8abd 6fc4 56bc
000001b0: fc19 12be ab08 9f3d 0874 e33c 7ef5 9fbb
000001c0: 4d04 873d b83e e63a 6ad3 73bd 50fe a13c
000001d0: 5f13 49bd bfde d6bd 2747 f13d cd09 593d
000001e0: f442 033d 0a06 19bc ce4a 3fbd 8254 4fbd
000001f0: 5723 573d 2726 9dbd 879a d53c a477 003e
00000200: 5054 e83c 2f90 4fbd 3b3b 043d 80ed 3d3d
00000210: e372 c0bd eb86 e6bd e856 b6bb 2883 84bb
00000220: 5e55 9fbd 8878 d7bb 88f4 04bd d1a2 8b3d
00000230: 932f 913c 238d cebc 8079 f73d 98d0 a73d
00000240: 2cdd ddbd 47b8 bbbd f630 7b3c c320 6c3d
00000250: 5398 823c 6ad4 5dbc e8f2 8e3d eba7 43bd
00000260: f581 a53d 6a2f d1bb 4f80 513c 88b5 d9b9
00000270: c553 adbd fad9 7abd cada b03d 94dc ff3d
00000280: 1c9b c23d 1d48 a73d 09c8 b83c 67c4 f33d
00000290: b7b2 883d dacc 853c 6a96 1f3d faf5 053d
000002a0: 98b2 6f3d 0aa0 f23d db9d 963d c284 463d
000002b0: d4a5 cdbd 6b8a 23bd 7186 253b d554 983d
000002c0: 38e2 8f3c 02a7 18bd 47a5 a4bd a67e 8cbc
000002d0: 03ee de3d 594f 9dbd 817e 483d b20b d3bb
000002e0: dad3 26bd c897 d13c 7c66 b8bb 6f10 99bd
000002f0: 4f61 6dbd 91a6 cebc d85c c7bd c610 95bd
00000300: 296e 44bd 559e d53a 6df9 02bc a6d1 5abd
00000310: 386b 44bd f3d1 07bc d4f0 83bd 972e cebc
00000320: cae7 19be f186 45bc 9c07 a0bc d427 71bd
00000330: 5abf b43d ae76 293d 5f03 063d 93bf 31bd
00000340: 6762 0b3c 058f 6e3d 7580 293c 2d21 a83c
00000350: 66bb a33d e7e6 f53d e4a3 313d 084f 5cbd
00000360: 4424 e5bc 5bf3 ca3d 59dd 8d3d 7e63 863d
00000370: 7329 99bd 9d57 80bd ea0f 4cbd 4991 3abd
00000380: fa94 493d 40b0 483d 5a46 4ebb 5f5b 9c3c
00000390: 53a3 c43d 974a 813c bd98 4fbd b5f5 8d3c
000003a0: 58ad 0dbd 0b0b 28be a978 10bd e539 abbd
000003b0: b617 093d 3cde c3bd 9aa4 64bc 4e5f a13d
000003c0: cc26 c0bd de8a 8dbd 73b5 2abd 8e57 aa3d
000003d0: 7aef 293d 16b4 2cbd cebc e13c 44c3 e23d
000003e0: c82e 7bbd b950 763d 2771 58bd 2b59 c8bd
000003f0: 3b95 fbbc 9b20 2e3d dc6b a2bd 33ec 53bc

conv6.bias f4 [32]
-0.004679027 0.08577532 0.0724905 -0.03928926 -0.041989055 0.08586804 -0.33168197 0.04557103
-0.05998958 -0.07818825 0.007523612 -0.054193866 -0.041585024 -0.04812305 0.025705686 0.043996282
0.021085745 -0.15966778 -0.10249124 -0.01688027 -0.055504195 0.05278285 -0.0022844796 -0.09366643
-0.10459848 0.041585207 -0.03346093 0.095930636 -0.0149355065 -0.06379041 -0.11238045 0.013392999
00000000: 8652 99bb f9aa af3d e675 943d c6ed 20bd
00000010: b7fc 2bbd 95db af3d 38d2 a9be b0a8 3a3d
00000020: a2b7 75bd 2921 a0bd a288 f63b 63fa 5dbd
00000030: 0f55 2abd ad1c 45bd bb94 d23c 7235 343d
00000040: 03bc ac3c f37f 23be ede6 d1bd 7e48 8abc
00000050: 5e58 63bd d432 583d 35b7 15bb 2fd4 bfbd
00000060: ba37 d6bd 4055 2a3d 540e 09bd 4877 c43d
00000070: 0eb4 74bc 8ca4 82bd b927 e6bd 4f6e 5b3c

conv7.weight f4 [32, 32, 3]
-0.058548912 0.02209892 -0.073816925 0.04513904 -0.08983539 -0.015293262 0.0028888904 0.040851634
0.08777167 0.030336494 -0.07242903 0.008474431 -0.078389056 -0.024748132 0.045868523 0.06439242
0.12134704 0.08580709 0.09929103 -0.052421186 -0.0034630354 0.14863995 -0.054784484 0.1210804
0.058046453 0.10231833 -0.08611249 0.055605628 0.097709216 0.04611464 -0.04417366 -0.02662038
-0.0634325 0.043313615 -0.029036172 -0.05352628 -0.09242498 0.06064143 0.04063225 0.071095996
0.14058349 0.057205558 0.049963087 0.0022657074 0.10751777 0.03913605 0.0047339364 0.00034187615
-0.0814479 0.10753688 -0.11825357 -0.10759697 0.078095734 -0.040634997 -0.01896281 -0.033771757
-0.07203262 -0.060010478 -0.0745153 0.010513753 -0.019052526 0.081324354 -0.04659515 0.043367717
0.13923845 -0.09079134 -0.068867184 -0.01984828 -0.051527258 0.08045964 0.01889664 0.091740236
-0.041392867 0.05279989 0.082941614 -0.0421613 0.07568732 -0.09155927 -0.1051815 -0.026550766
-0.034920473 -0.053380046 -0.010959058 0.040780246 0.013529961 -0.11697909 -0.07001182 0.109755315
0.014809581 0.043579984 0.09864665 0.07646812 -0.05657076 -0.098249786 -0.03347991 -0.06421321
0.087849796 -0.06932187 0.056002896 -0.0076287067 -0.07225905 -0.13237935 0.037656855 0.050959278
0.009621551 0.035115786 0.014200474 -0.045098376 0.032608308 -0.069740005 -0.09093378 0.03253447
-0.08975318 -0.04122056 0.058008876 0.029893236 0.046465605 0.030516202 -0.0018990092 0.023990598
0.127572 -0.07258134 0.018094439 0.13237336 -0.07030622 0.06358688 -0.07986489 -0.00015643012
-0.12613517 -0.05968858 -0.06941899 -0.07319733 -0.13004605 -0.0570519 0.11482299 0.043969125
0.069571 -0.09378053 -0.01460825 0.039525826 -0.068350695 -0.11976837 0.11582038 -0.0887779
-0.005874598 -0.0346483 0.05530059 -0.031344213 0.12620002 -0.036740918 -0.07440601 0.09519406
0.069452 0.03833461 -0.112442635 -0.06925869 0.026877608 0.07322713 0.014067699 -0.04410227
-0.023070846 -0.08210241 0.056608353 -0.07190068 -0.10596771 0.01367658 0.041242413 0.1046774
0.16755447 -0.052639406 -0.10286573 0.12930065 0.05418297 -0.066845104 0.062377267 -0.057392508
0.075722896 -0.061684366 -0.0015027327 0.075000785 0.037413627 -0.016983777 0.12931181 0.06809517
0.08052492 -0.019344565 -0.09735818 -0.06575786 -0.103765 -0.07960333 0.019976655 -0.06929896
-0.09183792 -0.11642224 0.039426956 -0.15347673 -0.0627148 -0.08781604 -0.123938285 -0.0031759
-0.0075080115 -0.05419851 0.042149987 -0.0073847556 -0.021283923 0.13574913 0.021584317 0.0022360575
0.0151997125 0.04455648 -0.032068 0.028469486 0.004012817 -0.020549983 0.002573933 -0.040714655
-0.11548734 0.009268115 -0.053577736 -0.01618826 0.015770972 0.040061798 -0.07663709 -0.13789997
-0.052014694 -0.092826664 -0.03653497 0.06723996 0.019419312 -0.04398527 -0.025489915 -0.010175567
0.11222046 -0.08309286 0.006379493 -0.039083757 0.06810313 -0.0054171328 0.031779602 -0.061030664
-0.028446484 0.12149974 0.055210274 -0.06565191 -0.022876874 -0.08988547 -0.07268675 0.020959271
-0.091568485 -0.02391838 -0.014852596 -0.12838385 -0.03967188 0.038652547 0.070574515 -0.012739294
00000000: fcd0 6fbd cb08 b53c 542d 97bd b7e3 383d
00000010: 9efb b7bd 9790 7abc 8a53 3d3b 0b54 273d
00000020: a2c1 b33d 3d84 f83c ac55 94bd 57d8 0a3c
00000030: 718a a0bd 98bc cabc a2e0 3b3d 2ce0 833d
00000040: cc84 f83d a1bb af3d 1859 cb3d 99b7 56bd
00000050: 18f4 62bb 1235 183e b265 60bd 00f9 f73d
00000060: 1ec2 6d3d 468c d13d bf5b b0bd bac2 633d
00000070: c51b c83d b4e2 3c3d 71ef 34bd fc12 dabc
00000080: e6e8 81bd 9e69 313d 44dd edbc 5f3e 5bbd
00000090: 4f49 bdbd 2663 783d 016e 263d c79a 913d
000000a0: 1ef5 0f3e 6050 6a3d 18a6 4c3d 437c 143b
000000b0: 4732 dc3d 1f4d 203d 231f 9b3b d73d b339
000000c0: 28ce a6bd 4c3c dc3d ed2e f2bd cd5b dcbd
000000d0: a8f0 9f3d e270 26bd e557 9bbc 4154 0abd
000000e0: d785 93bd 8ccd 75bd 7a9b 98bd e041 2c3c
000000f0: 0b14 9cbc 628d a63d 8eda 3ebd 59a2 313d
00000100: 8694 0e3e cff0 b9bd 3d0a 8dbd dc98 a2bc
00000110: 3f0e 53bd 06c8 a43d 20cd 9a3c 4ee2 bb3d
00000120: 918b 29bd b344 583d 4bdd a93d 54b1 2cbd
00000130: f401 9b3d 6d83 bbbd 6669 d7bd fe80 d9bc
00000140: c508 0fbd 09a5 5abd 9f8d 33bc 3009 273d
00000150: c5ac 5d3c bc92 efbd 5b62 8fbd 65c7 e03d
00000160: e3a3 723c ed80 323d 4107 ca3d 519b 9c3d
00000170: beb6 67bd 2f37 c9bd 3b22 09bd 3782 83bd
00000180: 98ea b33d a0f8 8dbd 4b63 653d 3bfa f9bb
00000190: 8efc 93bd 748e 07be 133e 1a3d adba 503d
000001a0: b6a3 1d3c 92d5 0f3d 1ba9 683c 13b9 38bd
000001b0: 4a90 053d d9d3 8ebd 7d3b babd dd42 053d
000001c0: 84d0 b7bd e4d6 28bd b79a 6d3d a9e2 f43c
000001d0: b852 3e3d 1dfd f93c 2de8 f8ba ee87 c43c
000001e0: 3ca2 023e 87a5 94bd ca3a 943c e28c 073e
000001f0: b5fc 8fbd d739 823d 3490 a3bd 6407 24b9
00000200: 9429 01be 037c 74bd 8b2b 8ebd 7be8 95bd
00000210: cb2a 05be 41af 69bd 5128 eb3d f818 343d
00000220: 3e7b 8e3d 0210 c0bd 7157 6fbc d5e5 213d
00000230: 73fb 8bbd 1f49 f5bd 3c33 ed3d 30d1 b5bd
00000240: b37f c0bb 60eb 0dbd df82 623d ca62 00bd
00000250: 943a 013e a57d 16bd 2e62 98bd 1af5 c23d
00000260: da3c 8e3d c104 1d3d 5348 e6bd 80d7 8dbd
00000270: 6e2e dc3c 1bf8 953d 357c 663c 95a4 34bd
00000280: 12ff bcbc 4f25 a8bd 29de 673d aa40 93bd
00000290: 9905 d9bd bc13 603c ceed 283d 1b61 d63d
000002a0: 6693 2b3e 6b9c 57bd 45ab d2bd 6467 043e
000002b0: f6ee 5d3d 16e6 88bd 4e7f 7f3d 6814 6bbd
000002c0: 9b14 9b3d bfa8 7cbd 58f7 c4ba 039a 993d
000002d0: 083f 193d 9021 8bbc 516a 043e 7b75 8b3d
000002e0: 40ea a43d 7e78 9ebc ba63 c7bd 0fac 86bd
000002f0: bf82 d4bd 1207 a3bd 15a6 a33c 9dec 8dbd
00000300: 8515 bcbd c96e eebd 297e 213d 0129 1dbe
00000310: 9e70 80bd e5d8 b3bd 5bd3 fdbd c322 50bb
00000320: c405 f6bb 42ff 5dbd 77a5 2c3d d2fb f1bb
00000330: 9f5b aebc d201 0b3e 98d1 b03c d28a 123b
00000340: 3708 793c db80 363d bc59 03bd d738 e93c
00000350: f37d 833b 7058 a8bc 6eaf 283b 69c4 26bd
00000360: a084 ecbd 4bd9 173c 5474 5bbd 3e9d 84bc
00000370: 2032 813c d717 243d e8f3 9cbd a635 0dbe
00000380: 5c0d 55bd e81b bebd b1a5 15bd 1bb5 893d
00000390: 4015 9f3c e629 34bd 3ad0 d0bc 6cb7 26bc
000003a0: d7d3 e53d 972c aabd 110b d13b 4a16 20bd
000003b0: a779 8b3d 3482 b1bb 542b 023d 4afb 79bd
000003c0: 9a08 e9bc dbd4 f83d 2b24 623d 8274 86bd
000003d0: 4868 bbbc e015 b8bd cadc 94bd c7b2 ab3c
000003e0: 4288 bbbd 7af0 c3bc 4e58 73bc 0e77 03be
000003f0: fb7e 22bd 2252 1e3d 5f89 903d 79b8 50bc

conv7.bias f4 [32]
-0.014465516 -0.03909492 -0.028000303 0.042184804 -0.072673805 -0.07541784 -0.093793884 -0.0036594141
-0.1100618 -0.074812375 -0.0688734 -0.10377773 -0.13381001 -0.08773777 -0.09090698 -0.20724972
-0.0882499 -0.030137958 -0.037737764 -0.18406309 -0.06411569 -0.09899382 -0.01320798 0.008834893
-0.1323985 -0.13332376 -0.089212336 -0.12129745 -0.14988929 -0.097968146 0.02492079 -0.17353939
00000000: c600 6dbc ff21 20bd e460 e5bc f9c9 2c3d
00000010: 01d6 94bd ab74 9abd 0217 c0bd c8d2 6fbb
00000020: 1568 e1bd 3b37 99bd 7f0d 8dbd 6b89 d4bd
00000030: 7e05 09be dcaf b3bd 702d babd 4539 54be
00000040: 5dbc b4bd e1e3 f6bc ea92 1abd 097b 3cbe
00000050: 164f 83bd 46bd cabd 4966 58bc 3ac0 103c
00000060: 7993 07be 0686 08be f5b4 b6bd cc6a f8bd
00000070: 947c 19be 86a3 c8bd af26 cc3c 4fb4 31be
