SCAFFOLD_1/Previous Attempt model parameters/cli2_model_parameters.pth (torch, 767010 bytes, 51 tensors)

conv1.weight f4 [32, 2, 3]
-0.34227788 -0.059874926 -0.41836798 0.36487764 0.28254116 -0.043296844 0.079641126 -0.14762856
-0.010210073 -0.3980293 -0.081998676 0.25640982 -0.3765359 -0.3020367 0.029835293 -0.16040917
0.23863906 -0.3097582 0.5266789 0.25228524 -0.18039998 0.39648688 -0.15064463 -0.08100456
-0.32638606 -0.24116038 -0.059958775 -0.15414456 -0.092939645 -0.11881885 0.26256695 0.018734884
-0.041928317 0.108363986 0.2891057 -0.33559424 -0.25230533 -0.12458158 -0.12554896 0.20058763
0.069729924 -0.3235442 -0.14929344 0.22764374 -0.3160161 -0.039032936 -0.0319269 -0.23524752
0.30485603 0.26484096 0.26514593 -0.049563766 -0.188491 0.15009958 0.14685768 -0.022229595
-0.047815885 -0.21546867 0.16779959 0.3886327 -0.12697543 0.19462477 0.15683272 -0.3979057
0.027786136 0.27707464 0.33098188 0.24421576 0.2075107 0.15153384 0.36782247 -0.16734529
-0.38994867 0.3238208 0.29420117 -0.15810505 0.10977012 -0.23148644 -0.2215019 -0.01493592
-0.051517155 -0.354917 -0.28301996 0.13663763 0.23264581 0.26710138 -0.40351868 0.105823815
0.37777156 0.054003656 0.07241467 -0.36528388 -0.07259612 0.11120772 -0.038253576 0.25403947
0.024155777 0.097017914 0.006393954 -0.25479573 -0.08755717 -0.32959875 0.35348335 0.10788227
0.28020012 -0.28690416 0.27050287 -0.10714954 0.106275134 -0.11284534 0.28680414 0.38477415
0.03504607 -0.38069275 0.26558968 0.58892715 0.16394146 -0.17710458 -0.3559456 -0.39821234
0.022439888 -0.10431237 0.30706128 -0.097660035 0.19739383 0.15756184 0.2587229 -0.14428133
-0.0146149015 0.34434527 -0.099060506 0.19825906 -0.22344172 0.047821347 -0.042489186 0.3342644
-0.35800835 -0.36592326 -0.2533284 -0.26446608 0.28855067 -0.39017457 -0.40566877 0.13120842
0.16895671 0.18992491 -0.017832069 0.3844933 0.3470838 0.26821446 -0.36740622 0.18416427
-0.19001593 -0.12806138 0.17112875 0.010705084 -0.48234743 -0.43135992 -0.19232576 -0.062264293
0.23830903 0.28114814 0.11383815 0.2708429 -0.35933897 -0.33533362 -0.3245185 0.3840164
-0.44143462 0.3152107 -0.1356067 0.060158104 0.021337956 -0.38611466 0.3267113 0.23772849
0.098095894 -0.23831277 0.0088920295 -0.3540982 -0.38513806 -0.06530696 0.01240131 0.26678836
0.09714848 0.31785583 -0.035789624 0.10723586 0.35065132 0.10431039 0.3208961 -0.02293855
00000000: 0c3f afbe 693f 75bd 5434 d6be 3ed1 ba3e
00000010: 3ca9 903e 0858 31bd e31a a33d f12b 17be
00000020: 2648 27bc 7fca cbbe ecee a7bd 2648 833e
00000030: 50c9 c0be 8ea4 9abe 2569 f43c 4d42 24be
00000040: cc5d 743e a098 9ebe 6ed4 063f 882b 813e
00000050: c6ba 38be 5400 cb3e 9642 1abe b8e5 a5bd
00000060: 131c a7be bff2 76be 5597 75bd 12d8 1dbe
00000070: 2457 bebd 4c57 f3bd 2d6f 863e e679 993c
00000080: 07bd 2bbd f0ed dd3d aa05 943e 02d3 abbe
00000090: 2a2e 81be a124 ffbd e88f 00be d866 4d3e
000000a0: 90ce 8e3d 96a7 a5be 61e0 18be 711b 693e
000000b0: ddcc a1be 00e1 1fbd c8c5 02bd bae4 70be
000000c0: 1716 9c3e 3c99 873e 35c1 873e 6003 4bbd
000000d0: c903 41be b4b3 193e dc61 163e d71a b6bc
000000e0: 97da 43bd d2a3 5cbe a8d3 2b3e defa c63e
000000f0: d905 02be b74b 473e c298 203e 4cba cbbe
00000100: c09f e33c badc 8d3e 7576 a93e b213 7a3e
00000110: af7d 543e b02b 1b3e 3a53 bc3e 905c 2bbe
00000120: 5aa7 c7be d7cb a53e 89a1 963e 4ae6 21be
00000130: 28cf e03d c80a 6dbe 65d1 62be cab5 74bc
00000140: a703 53bd aeb7 b5be fee7 90be bcea 0b3e
00000150: b43a 6e3e 83c1 883e 009a cebe 28ba d83d
00000160: 466b c13e f032 5d3d 244e 943d 7d06 bbbe
00000170: 46ad 94bd e0c0 e33d c8af 1cbd 7611 823e
00000180: 56e2 c53c 54b1 c63d 6084 d13b 9674 82be
00000190: 2c51 b3bd 2bc1 a8be c5fb b43e 61f1 dc3d
000001a0: 6476 8f3e 1ae5 92be 5a7f 8a3e 3871 dbbd
000001b0: c7a6 d93d 751b e7bd fed7 923e 1e01 c53e
000001c0: 788c 0f3d 29ea c2be 5ffb 873e eec3 163f
000001d0: 45e0 273e e75a 35be 803e b6be 7de2 cbbe
000001e0: dbd3 b73c b9a1 d5bd 2337 9d3e fc01 c8bd
000001f0: 9c21 4a3e e457 213e 5477 843e 7cbe 13be
00000200: 5773 6fbc 064e b03e 3ce0 cabd 6c04 4b3e
00000210: e8cd 64be 51e0 433d 2409 2ebd b424 ab3e
00000220: df4c b7be 4b5a bbbe 43b4 81be 1968 87be
00000230: eabc 933e f6c4 c7be d1b3 cfbe 805b 063e
00000240: fd02 2d3e ad7b 423e 8f14 92bc 4edc c43e
00000250: f8b4 b13e 6853 893e ab1c bcbe 8f95 3c3e
00000260: 8993 42be 8622 03be 603c 2f3e 6064 2f3c
00000270: 3ef6 f6be 35db dcbe 0bf1 44be d808 7fbd
00000280: 4807 743e a6f2 8f3e fa23 e93d ecab 8a3e
00000290: 47fb b7be d9b0 abbe 4a27 a6be cc9d c43e
000002a0: b803 e2be 4c63 a13e 7cdc 0abe 5868 763d
000002b0: f0cc ae3c d2b0 c5be b446 a73e 196f 733e
000002c0: 80e6 c83d 4308 74be e0af 113c 5c4c b5be
000002d0: d130 c5be a8bf 85bd dd2e 4b3c 7c98 883e
000002e0: c8f5 c63d 00be a23e 2498 12bd 799e db3d
000002f0: 9288 b33e b0a0 d53d 7e4c a43e a0e9 bbbc

conv1.bias f4 [32]
-0.56696016 -0.22481205 0.27255085 0.27121764 -0.13750142 0.10562845 0.3434695 -0.3771428
0.30197194 -0.21191086 0.06806491 -0.10046674 0.2675494 0.1794487 0.38075817 0.24179035
-0.19154714 -0.3095108 0.13863006 -0.1078799 0.08102404 0.0935508 0.47660992 -0.27929404
-0.35460427 0.2669181 -0.21386191 -0.2057424 -0.1774463 0.3598386 -0.22485696 -0.30272192
00000000: 4d24 11bf 2135 66be c98b 8b3e 0add 8a3e
00000010: 2ccd 0cbe bb53 d83d 3cdb af3e dc18 c1be
00000020: 119c 9a3e 29ff 58be 9e65 8b3d 82c1 cdbd
00000030: 3cfc 883e 66c1 373e bcf2 c23e e497 773e
00000040: ef24 44be 3378 9ebe 0af5 0d3e 23f0 dcbd
00000050: efef a53d 9097 bf3d 3706 f43e a1ff 8ebe
00000060: b18e b5be 7da9 883e 9efe 5abe 23ae 52be
00000070: 7cb4 35be c43c b83e e740 66be 5efe 9abe

conv2.weight f4 [32, 32, 3]
-0.048855904 -0.040567506 0.10179749 -0.058752988 -0.03614909 -0.09956537 0.06570728 0.05194227
0.07661151 0.043667678 0.015156682 -0.038023893 0.02632718 -0.02364969 0.017979307 -0.036808714
0.046332996 -0.08392906 0.069772094 -0.083256036 -0.10938411 0.10516897 0.034617472 -0.0046964195
0.04132183 0.10845232 0.043396305 0.04289173 0.09575966 0.034172095 -0.014214366 0.0015635232
0.03792369 0.08768332 -0.055980116 -0.022389939 0.0693683 -0.105247125 -0.05067713 -0.0400782
-0.030173726 0.031174477 0.12066225 -0.020215161 0.05083614 -0.025784038 0.030311378 -0.08207364
-0.020737758 0.034829132 -0.0060448437 0.00421074 0.07314988 -0.08086556 0.023201346 0.103662744
0.055669792 -0.044242676 0.05257815 0.07479262 -0.03582912 -0.08022113 -0.0013430043 0.025795225
0.0027408968 -0.0039275307 0.005992428 0.054521035 0.015909862 0.07280019 -0.062213868 0.022863278
0.007168601 0.096556425 0.0862117 -0.0036175284 -0.08365358 0.086905666 -0.0464118 -0.11032854
-0.09969471 0.017809954 -0.01951967 0.04263606 -0.05629043 0.081408255 0.02648221 0.10014276
-0.019730516 0.03613245 -0.08079898 0.08041296 -0.077965654 -0.08270927 0.060782667 -0.08255983
-0.056754656 0.059355263 -0.067581885 0.08421997 -0.09759198 -0.012328687 -0.022763755 0.026425788
-0.007508467 0.03033036 0.028842563 0.0016513147 0.022265084 0.07743558 0.025342848 -0.025425842
0.060990386 -0.07149173 -0.09940406 0.09276967 -0.034922402 -0.0664704 -0.09780159 0.0033359705
-0.020572897 -0.05591512 -0.11049376 -0.07036463 0.057971295 -0.07014224 0.07871795 -0.10603867
0.0026539369 -0.030181458 -0.072244175 -0.07437527 0.04563675 -0.038191583 -0.10156482 -0.11226814
-0.002232238 0.020633848 0.030301908 -0.0030058692 -0.04389638 0.010346683 0.08226851 0.113195434
0.012167599 -0.07555652 -0.043463897 -0.031446118 -0.0024637547 0.10005715 -0.08682743 0.085953176
0.009638166 -0.02964344 -0.07854686 0.082163386 0.052811652 -0.032435454 -0.054731153 0.083202
-0.076742254 -0.06440284 -0.09249963 0.0916905 0.10708298 0.025191547 0.023596752 0.0024200112
-0.095567346 -0.0063344543 0.08662991 0.01751363 -0.025935287 0.11912006 0.09207361 0.025642017
-0.0076447916 -0.0077585303 0.030208884 -0.08519379 0.03926694 0.11313812 0.06910805 0.01382426
-0.10012596 -0.022953587 0.041416448 -0.064569995 0.085922584 -0.01447275 0.07237092 -0.0806091
-0.050406955 0.07495639 0.034766752 -0.058438323 -0.0532996 0.003074584 0.096947126 0.06799622
0.030030059 0.15371333 -0.0019529903 0.09413925 -0.008104019 -0.023000676 0.00915001 -0.025402915
-0.005290624 0.034308996 0.026794994 0.11261403 0.0075894627 -0.06378088 -0.06183971 0.07724821
-0.024386024 -0.10151409 0.03675333 -0.046092812 0.095633306 0.03305067 0.014426235 -0.047047995
-0.077651165 -0.07172777 -0.038000006 -0.021284617 -0.15475377 0.0004312998 -0.038976967 -0.053255126
0.09680009 -0.006177622 -0.04084086 -0.058912788 -0.11497864 -0.0031843453 -0.0021049932 0.033166956
-0.0901921 -0.08791404 -0.047446795 -0.025341975 -0.060645536 -0.046879437 0.04419719 -0.013988933
-0.14319237 0.096742615 0.03301261 -0.034903295 0.038610786 0.025540065 -0.003935227 -0.11289324
00000000: 211d 48bd 1d2a 26bd 347b d03d f9a6 70bd
00000010: 1111 14bd eee8 cbbd 8a91 863d 6bc1 543d
00000020: 7fe6 9c3d e1dc 323d bb53 783c f1be 1bbd
00000030: 19ac d73c ffbc c1bc 5749 933c bcc4 16bd
00000040: abc7 3d3d 00e3 abbd ace4 8e3d 2482 aabd
00000050: c704 e0bd d462 d73d 0dcb 0d3d 6ce4 99bb
00000060: 1441 293d 401c de3d 53c0 313d 3daf 2f3d
00000070: a41d c43d 0af8 0b3d 5fe3 68bc 22ef cc3a
00000080: df55 1b3d 5093 b33d 684b 65bd 1b6b b7bc
00000090: f810 8e3d ce8b d7bd d392 4fbd 0a29 24bd
000000a0: e42e f7bc 9e61 ff3c c51d f73d 449a a5bc
000000b0: 8e39 503d 0c39 d3bc 914f f83c 3916 a8bd
000000c0: 3be2 a9bc fea8 0e3d d313 c6bb 3ffa 893b
000000d0: 9bcf 953d d89c a5bd c010 be3c 224d d43d
000000e0: 0206 643d cf37 35bd 305c 573d e02c 993d
000000f0: 8ec1 12bd fa4a a4bd bf07 b0ba 8250 d33c
00000100: 9ea0 333b 84b2 80bb 215c c43b 7351 5f3d
00000110: 6655 823c 4418 953d f8d3 7ebd c54b bb3c
00000120: 95e6 ea3b 60bf c53d c38f b03d 0e14 6dbb
00000130: 9152 abbd 99fb b13d 4d1a 3ebd eef3 e1bd
00000140: bd2c ccbd 2ee6 913c b7e7 9fbc 26a3 2e3d
00000150: cb90 66bd 5fb9 a63d 38f1 d83c a617 cd3d
00000160: e4a1 a1bc 9fff 133d f079 a5bd 8daf a43d
00000170: 75ac 9fbd 7a63 a9bd 3ff7 783d 2115 a9bd
00000180: 9277 68bd 811e 733d 5f68 8abd 857b ac3d
00000190: 4ede c7bd 43fe 49bc 0e7b babc e57a d83c
000001a0: 9609 f6bb 6077 f83c 3d47 ec3c ed70 d83a
000001b0: 4465 b63c 8c96 9e3d ce9b cf3c db49 d0bc
000001c0: 0ed1 793d 426a 92bd 5b94 cbbd 06fe bd3d
000001d0: cb0a 0fbd a221 88bd 334c c8bd 4ca0 5a3b
000001e0: 7e88 a8bc 4107 65bd 8d4a e2bd 551b 90bd
000001f0: 4f73 6d3d bca6 8fbd e036 a13d cd2a d9bd
00000200: aced 2d3b 1b3f f7bc c1f4 93bd 1052 98bd
00000210: 9aed 3a3d c76e 1cbd 3701 d0bd d7ec e5bd
00000220: bd4a 12bb 5108 a93c b53b f83c 1efe 44bb
00000230: b1cc 33bd 2285 293c 647c a83d 02d3 e73d
00000240: 9c5a 473c 60bd 9abd 3307 32bd a5cd 00bd
00000250: f276 21bb c3ea cc3d 94d2 b1bd 3808 b03d
00000260: 66e9 1d3c cdd6 f2bc 2ddd a0bd 4745 a83d
00000270: 0851 583d 0adb 04bd c62d 60bd cf65 aa3d
00000280: 0b2b 9dbd a3e5 83bd 7270 bdbd 3bc8 bb3d
00000290: 524e db3d 815e ce3c fa4d c13c 0d99 1e3b
000002a0: d0b8 c3bd 4191 cfbb 066b b13d bf78 8f3c
000002b0: 3d76 d4bc 38f5 f33d 1791 bc3d 350f d23c
000002c0: 2981 fabb 453b febb 9f78 f73c 157a aebd
000002d0: 5fd6 203d f5b4 e73d 8588 8d3d 267f 623c
000002e0: d70e cdbd 2909 bcbc 4ba4 293d 463d 84bd
000002f0: 2ef8 af3d 1d1f 6dbc 3437 943d 6216 a5bd
00000300: 8677 4ebd bc82 993d 9567 0e3d 065d 6fbd
00000310: ae50 5abd f67e 493b 378c c63d 9a41 8b3d
00000320: 9901 f63c 0767 1d3e 7bfb ffba 14cc c03d
00000330: b8c6 04bc ea6b bcbc ece9 153c c619 d0bc
00000340: f95c adbb 9787 0c3d 2d81 db3c 2fa2 e63d
00000350: 07b1 f83b 8d9f 82bd a34b 7dbd 4f34 9e3d
00000360: 33c5 c7bc 9fe6 cfbd a98a 163d d1cb 3cbd
00000370: 65db c33d 2460 073d 045c 6c3c 66b5 40bd
00000380: 9307 9fbd 02e6 92bd e5a5 1bbd 145d aebc
00000390: c677 1ebe 1420 e239 50a6 1fbd 0c22 5abd
000003a0: 203f c63d a66d cabb bf48 27bd 894e 71bd
000003b0: ec79 ebbd 73b0 50bb edf3 09bb 13da 073d
000003c0: a3b6 b8bd 470c b4bd 9257 42bd f999 cfbc
000003d0: 7467 78bd a704 40bd 1d08 353d d631 65bc
000003e0: 05a1 12be fe20 c63d 3b38 073d c2f6 0ebd
000003f0: 5826 1e3d 6639 d13c 14f3 80bb 9234 e7bd

conv2.bias f4 [32]
0.0020192622 -0.054199394 -0.09388954 -0.09515733 0.049979776 -0.09716813 0.024664039 0.05637662
0.06997657 0.109097935 -0.036610857 -0.060054697 0.061911654 -0.031013863 -0.047132097 0.051665716
0.06320733 -0.1373738 -0.037620984 -0.104772545 0.028800093 -0.023911884 0.09208214 -0.017001923
0.09332594 -0.0009873867 0.009644877 -0.08115897 0.018295009 -0.025805406 0.039340146 -0.09800868
00000000: 9955 043b 2f00 5ebd 2949 c0bd d9e1 c2bd
00000010: 98b7 4c3d 1600 c7bd 3d0c ca3c 2ceb 663d
00000020: e04f 8f3d bd6e df3d 44f5 15bd eafb 75bd
00000030: 1397 7d3d c910 febc 960d 41bd 6e9f 533d
00000040: d872 813d b8ab 0cbe 7618 1abd fd92 d6bd
00000050: 2cee eb3c dbe2 c3bc 9095 bc3d 9e47 8bbc
00000060: ac21 bf3d 336b 81ba 8c05 1e3c ad36 a6bd
00000070: 6adf 953c dc65 d3bc 2223 213d c6b8 c8bd

conv3.weight f4 [32, 32, 3]
-0.061305016 0.008171867 0.07484643 0.05431283 -0.07806998 0.020376395 -0.014006732 -0.07252892
-0.10957751 0.09630348 -0.08710731 -0.058447815 0.00011705881 0.031806845 0.04310287 -0.07456508
0.10074099 -0.06763161 0.097410716 0.05258783 -0.0669579 0.0049713813 0.013631088 -0.025196094
0.1041846 -0.028030975 -0.015275966 -0.037470564 0.04204365 -0.06940002 0.011602418 -0.029815882
-0.060711794 -0.0029202807 -0.0747922 -0.08030102 -0.044223618 0.11325844 -0.070876434 0.13980545
0.11857137 -0.036968183 -0.033202235 0.012979847 -0.08560343 -0.019944765 0.0023399384 -0.05873915
-0.08741764 -0.06050515 -0.036123447 0.07340198 -0.024288462 -0.11583746 -0.02818987 0.0022260244
-0.034150917 0.016784592 -0.02441346 -0.052169412 0.02988932 -0.009205649 0.056228198 0.0082872035
0.014197346 -0.07298647 0.08184484 0.023508634 -0.013549109 0.04791844 -0.05103684 -0.0836753
0.06988812 -0.09711668 -0.086609684 -0.04299436 -0.013662349 -0.0070342086 -0.058682315 -0.043125767
0.08832709 0.08928652 0.02948466 -0.09558183 0.064987816 0.012718457 -0.044365358 0.11306759
-0.067691535 -0.04397613 -0.09821842 -0.038456723 0.0763388 0.11124589 0.0053873463 -0.023662027
-0.035429403 0.048105523 0.044739082 0.013632832 -0.017601293 -0.014407802 0.024739295 -0.042151913
0.05487386 -0.059371743 0.003743971 0.040518563 -0.046913765 -0.10038061 -0.01638185 -0.042725872
0.098362036 0.04420489 -0.0010014554 -0.03817338 -0.03704956 0.04011832 -0.044892803 0.0033747542
0.045278497 0.039041765 0.02767202 -0.046854723 0.022553278 -0.056175407 0.082822576 0.07792946
0.03965241 0.12036022 -0.014544586 0.017020132 0.03309247 0.0035449946 0.07498954 -0.030411895
-0.057654142 0.082336746 0.09237868 0.049277198 -0.019725407 -0.058172777 0.024841832 0.11844666
0.00081878324 -0.008013211 -0.00013569229 -0.044669203 -0.05845214 -0.055878576 -0.027153146 -0.043902993
-0.023943331 0.058677386 0.06759546 -0.056181625 -0.06014664 0.020021295 -0.106459305 0.080082476
-0.08259394 -0.018385328 -0.020487307 0.039067984 0.056922488 0.07858858 0.07546382 0.058220446
0.0067539453 -0.00090478413 -0.014053339 -0.027046 0.11207956 0.11611884 0.11189119 0.035624627
0.08387478 0.085860975 -0.0014057776 -0.032022633 -0.018376062 0.0016521749 -0.06278399 0.08461649
0.01826703 -0.11827686 -0.059292383 -0.05575364 0.073491134 -0.10334818 -0.070865385 -0.018456392
-0.032224048 0.1026516 -0.031293258 -0.08557078 -0.051865257 -0.0415811 -0.022828333 -0.042560402
0.0013429596 -0.059945997 0.06782474 0.061633825 -0.033035524 -0.09096798 0.061216988 0.039121646
-0.05920113 0.046081927 -0.044851433 0.012136324 0.007153898 0.10676269 -0.061252046 0.082009494
-0.031038713 0.13094547 -0.051093683 0.0966751 0.022169443 -0.0666758 -0.04985138 0.055430144
-0.010433724 0.13978608 0.09681884 -0.089656815 0.13489307 -0.051792875 0.004560231 0.100356095
-0.070939675 -0.047201887 0.0060597016 0.05621092 -0.07904511 0.07758455 -0.06870579 0.036234215
0.008591591 0.026106926 -0.016779011 0.07693177 -0.06812048 0.009373803 0.09988195 -0.0017465415
-0.1232402 0.12454372 0.008683586 0.0016610518 0.10378889 -0.024546882 -0.05546455 -0.061592463
00000000: f81a 7bbd 4be3 053c 1649 993d 2177 5e3d
00000010: 27e3 9fbd 66ec a63c 7e7c 65bc 0b8a 94bd
00000020: 2c6a e0bd c23a c53d 5165 b2bd fa66 6fbd
00000030: 787d f538 e547 023d a38c 303d 94b5 98bd
00000040: 4b51 ce3d 7182 8abd 457f c73d 5666 573d
00000050: 3921 89bd f8e6 a23b ed54 5f3c 0a68 cebc
00000060: bc5e d53d 37a1 e5bc 0c48 7abc bc7a 19bd
00000070: f635 2c3d 9921 8ebd 1118 3e3c 7040 f4bc
00000080: eeac 78bd 2e62 3fbb a72c 99bd dc74 a4bd
00000090: d323 35bd 0af4 e73d aa27 91bd 2929 0f3e
000000a0: 8cd5 f23d f36b 17bd 11ff 07bd 6da9 543c
000000b0: da50 afbd 3463 a3bc a759 193b 7798 70bd
000000c0: 0508 b3bd 40d4 77bd 2ef6 13bd c753 963d
000000d0: 99f8 c6bc 313c edbd 71ee e6bc 7ee2 113b
000000e0: d5e1 0bbd d77f 893c bdfe c7bc 98af 55bd
000000f0: 72da f43c 4ad3 16bc 8a4f 663d 0dc7 073c
00000100: fc9b 683c ee79 95bd 449e a73d 2e95 c03c
00000110: 15fd 5dbc 2046 443d 010c 51bd f55d abbd
00000120: 8121 8f3d 1ce5 c6bd 6b60 b1bd db1a 30bd
00000130: 0cd8 5fbc 387f e6bb de5c 70bd a5a4 30bd
00000140: d5e4 b43d dadb b63d d089 f13c 68c0 c3bd
00000150: 5518 853d 1361 503c 73b8 35bd fb8f e73d
00000160: dca1 8abd 5120 34bd bd26 c9bd cc84 1dbd
00000170: 8457 9c3d e3d4 e33d 5688 b03b ded6 c1bc
00000180: 6c1e 11bd 4c0a 453d 5440 373d 3e5c 5f3c
00000190: 9630 90bc b40e 6cbc 10aa ca3c 7ca7 2cbd
000001a0: 6ac3 603d c92f 73bd 695d 753b cbf6 253d
000001b0: a628 40bd 5994 cdbd 3b33 86bc 5301 2fbd
000001c0: 0972 c93d 3010 353d 4443 83ba b15b 1cbd
000001d0: 48c1 17bd 1c53 243d 84e1 37bd fb2a 5d3b
000001e0: f275 393d 42ea 1f3d 6fb0 e23c bdea 3fbd
000001f0: a7c1 b83c 2f18 66bd e29e a93d 7b99 9f3d
00000200: 916a 223d 6b7f f63d 6a4c 6ebc ce6d 8b3c
00000210: f88b 073d 2453 683b 1e94 993d 5e22 f9bc
00000220: c026 6cbd 2ba0 a83d 0931 bd3d e3d6 493d
00000230: 2d97 a1bc 9446 6ebd 1981 cb3c 2a94 f23d
00000240: 9da3 563a d849 03bc 9f48 0eb9 0ef7 36bd
00000250: 836b 6fbd efe0 64bd 4670 debc a0d3 33bd
00000260: ce24 c4bc b357 703d 7d6f 8a3d b41e 66bd
00000270: 535c 76bd b303 a43c 5607 dabd 4802 a43d
00000280: 0327 a9bd d49c 96bc ffd4 a7bc c005 203d
00000290: 8e27 693d 0df3 a03d c68c 9a3d 9078 6e3d
000002a0: 3350 dd3b 092f 6dba fa3f 66bc 938f ddbc
000002b0: f889 e53d b7cf ed3d 3527 e53d 21eb 113d
000002c0: 8ac6 ab3d e1d7 af3d 1242 b8ba 2a2a 03bd
000002d0: 6589 96bc ca8d d83a e494 80bd 694b ad3d
000002e0: bda4 953c 233b f2bd 92dc 72bd ee5d 64bd
000002f0: 8582 963d 36a8 d3bd df21 91bd dc31 97bc
00000300: 5dfd 03bd 013b d23d 5c2d 00bd bc3f afbd
00000310: aa70 54bd f250 2abd 7c02 bbbc d153 2ebd
00000320: 3f06 b03a ef89 75bd b3e7 8a3d c073 7c3d
00000330: 4250 07bd 6c4d babd aabe 7a3d 053e 203d
00000340: e27c 72bd 67c0 3c3d 23b6 37bd 6fd7 463c
00000350: 3f6b ea3b 66a6 da3d 6de3 7abd 98f4 a73d
00000360: e644 febc 9216 063e 9c47 51bd 98fd c53d
00000370: b19c b53c 528d 88bd f630 4cbd b80a 633d
00000380: 36f2 2abc 1524 0f3e f548 c63d fe9d b7bd
00000390: 6921 0a3e c424 54bd fe6d 953b 7f87 cd3d
000003a0: d248 91bd c456 41bd 7690 c63b 6c3d 663d
000003b0: 67e2 a1bd a6e4 9e3d 9fb5 8cbd 546a 143d
000003c0: bfc3 0c3c 31de d53c 2374 89bc 678e 9d3d
000003d0: c082 8bbd 9494 193c e88e cc3d 35ec e4ba
000003e0: 5c65 fcbd c710 ff3d 9945 0e3c a6b7 d93a
000003f0: 458f d43d 8b16 c9bc cc2e 63bd 6148 7cbd

conv3.bias f4 [32]
-0.0038021642 -0.046654336 -0.02409494 -0.030965695 -0.0550578 -0.10609372 0.050705113 0.06383264
0.012786528 -0.103533424 0.06537898 -0.04575244 -0.005789936 0.03525589 -0.06684452 -0.00117681
0.034895565 0.041566115 -0.117244996 -0.06956794 0.03163645 -0.025932277 0.09902791 -0.09382712
0.022875095 -0.08520187 -0.06803801 -0.07382314 0.05835481 -0.09677049 -0.055381123 0.098946266
00000000: bb2d 79bb 9e18 3fbd c062 c5bc c5ab fdbc
00000010: 4a84 61bd aa47 d9bd 2ab0 4f3d b0ba 823d
00000020: 967e 513c 5509 d4bd 6ae5 853d e966 3bbd
00000030: 81b9 bdbb 7b68 103d c8e5 88bd 313f 9aba
00000040: a7ee 0e3d 3b41 2a3d 251e f0bd a379 8ebd
00000050: 3995 013d ed6f d4bc 25cf ca3d 6f28 c0bd
00000060: 8d64 bb3c 517e aebd 8357 8bbd 9630 97bd
00000070: 7405 6f3d 9b2f c6bd 51d7 62bd 57a4 ca3d

conv4.weight f4 [32, 32, 3]
-0.08264132 -0.0053269714 -0.01716378 0.0631497 -0.0698942 -0.042657517 -0.10198728 0.069378294
-0.02129019 -0.062568426 -0.038838845 -0.05126301 0.0026477717 -0.044988543 0.007265256 -0.037080213
-0.0372473 0.120297045 0.013338564 -0.07601806 -0.081000626 0.086214796 0.1442468 0.06277635
-0.12964961 -0.06107708 -0.0201816 -0.0156698 -0.03366362 -0.03562644 0.08243159 0.06564877
0.017575653 0.10357101 -0.095011346 -0.022847243 -0.0009916329 0.0048158905 -0.07071548 0.023407264
-0.085178465 -0.08436047 -0.073187776 -0.017808693 -0.051615957 0.09762215 0.113403946 -0.03688356
-0.0076068253 0.04422298 -0.031010034 0.06489433 -0.07988155 0.03869443 0.04465085 0.007815467
0.0055113276 0.11019222 0.1064672 0.037088968 0.0030513657 0.063650236 0.008098939 -0.05984029
0.07077683 0.053024944 0.039880194 0.13091739 0.057411134 0.034086764 -0.0451317 0.043991257
-0.08334496 0.018380167 -0.02831122 0.0040706913 -0.022055263 -0.051836178 0.036160536 0.07701692
0.07699549 0.03663173 0.07792254 -0.01621526 -0.010250304 -0.04435491 0.07096224 0.08077686
0.045809876 0.036765818 0.046392836 0.042110592 0.029882474 -0.009845536 0.05228523 0.019974068
0.046398588 0.031200368 0.0073585124 -0.09331757 -0.053579114 -0.12571788 0.07656399 -0.012531479
-0.048913408 0.07014848 -0.080741495 -0.029013447 0.08572597 0.07231971 0.0034090972 -0.001841162
-0.046441477 0.07147609 -0.050228175 -0.04650791 -0.098641425 -0.08320166 -0.09043177 -0.00016760534
0.008687466 -0.040822033 0.11800006 -0.08235157 -0.07435711 -0.06833728 -0.12727413 0.030686503
-0.03261731 -0.048802484 0.073267385 0.05578497 0.10315346 -0.06685038 0.03499136 -0.020754308
-0.00587397 -0.033887222 -0.021160075 0.028187498 -0.14272231 -0.049099103 -0.006865113 -0.061505787
-0.02539017 0.08809624 0.019918853 -0.05490177 0.073572874 -0.13713738 -0.10613251 0.05977962
-0.103127524 0.007614418 -0.017756952 0.076373935 0.0017885275 -0.037833456 0.070633754 -0.03394833
-0.11493102 -0.017069364 -0.017923223 0.08563736 -0.08768025 -0.013603361 0.06349614 -0.08655191
0.12649977 0.021131055 -0.11667737 0.027006391 -0.05798263 -0.02246393 0.030026833 -0.03649199
-0.04222308 0.11966268 -0.08149299 -0.024481174 -0.006324429 -0.049648147 0.024920708 -0.044433203
-0.09154214 -0.014803209 -0.015673207 -0.041337717 0.045906413 -0.035790876 0.0016720883 -0.10496412
-0.08114892 -0.05618297 -0.06466834 -0.08154721 -0.044021763 -0.049798112 0.07407795 -0.10217747
-0.12374586 0.10307317 0.10484445 0.079903215 0.055338472 0.049727257 -0.07962606 0.05875273
-0.0126781305 0.01551379 -0.0027100975 -0.0359086 -0.0027793976 0.14452007 0.082760535 -0.091571435
-0.026748588 -0.06539989 -0.0009327728 0.14305411 0.04891046 -0.08848741 0.07677705 -0.10937466
-0.016177565 0.021806238 0.049801975 -0.08550586 -0.06963296 -0.05014476 0.008765552 0.027344631
-0.045910913 0.03358429 -0.049574174 -0.056960285 -0.048673075 0.08492456 -0.14422204 0.031681012
0.116597734 0.019967018 -0.09958054 0.0412454 -0.100614004 0.013167404 -0.042466182 0.049908157
0.10800133 0.06778297 -0.0948818 -0.08211221 -0.07713214 0.023150602 0.09524602 -0.08339148
00000000: da3f a9bd e08d aebb 0e9b 8cbc a154 813d
00000010: b124 8fbd a6b9 2ebd b5de d0bd 3516 8e3d
00000020: c468 aebc e023 80bd 7b15 1fbd 29f9 51bd
00000030: 3d86 2d3b e845 38bd 6211 ee3b 6ce1 17bd
00000040: a090 18bd 4c5e f63d fe89 5a3c 5baf 9bbd
00000050: a8e3 a5bd 6291 b03d 6fb5 133e e390 803d
00000060: dec2 04be f62b 7abd e253 a5bc f45d 80bc
00000070: dde2 09bd 08ed 11bd e5d1 a83d dd72 863d
00000080: d1fa 8f3c 0a1d d43d 4f95 c2bd 242a bbbc
00000090: aef9 81ba 9ece 9d3b 47d3 90bd 97c0 bf3c
000000a0: 0c72 aebd 2fc5 acbd 79e3 95bd 89e3 91bc
000000b0: 416b 53bd 1fee c73d 5440 e83d 3713 17bd
000000c0: ad42 f9bb 2823 353d c108 febc 52e7 843d
000000d0: f098 a3bd 0d7e 1e3d cfe3 363d 720c 003c
000000e0: 5e98 b43b 75ac e13d 7a0b da3d 9aea 173d
000000f0: 6cf9 473b 0e5b 823d 6ab1 043c 181b 75bd
00000100: 71f3 903d af30 593d 6a59 233d 350f 063e
00000110: f027 6b3d 909e 0b3d 04dc 38bd 2d30 343d
00000120: c3b0 aabd 0192 963c efec e7bc 6f63 853b
00000130: 3dad b4bc 2c52 54bd 121d 143d 0cbb 9d3d
00000140: d0af 9d3d 270b 163d da95 9f3d ddd5 84bc
00000150: e4f0 27bc 7ead 35bd a754 913d 576e a53d
00000160: 23a3 3b3d c197 163d 6a06 3e3d 287c 2c3d
00000170: 17cc f43c 2c4f 21bc 0a29 563d a8a0 a33c
00000180: 720c 3e3d ea97 ff3c ad1f f13b 481d bfbd
00000190: c675 5bbd 30bc 00be 95cd 9c3d d550 4dbc
000001a0: 6d59 48bd 02aa 8f3d cc5b a5bd 9cad edbc
000001b0: 1991 af3d 5b1c 943d 296b 5f3b 2553 f1ba
000001c0: 6b39 3ebd 0e62 923d 0fbc 4dbd 147f 3ebd
000001d0: 8404 cabd a265 aabd 4b34 b9bd 37bf 2fb9
000001e0: e055 0e3c 0135 27bd 04aa f13d f1a7 a8bd
000001f0: 8a48 98bd 6af4 8bbd 2654 02be 4362 fb3c
00000200: ba99 05bd 1de5 47bd 360d 963d c87e 643d
00000210: 1f42 d33d dae8 88bd 1a53 0f3d f004 aabc
00000220: 6f7a c0bb 54cd 0abd e557 adbc 78e9 e63c
00000230: cc25 12be 241c 49bd bef4 e0bb 7eed 7bbd
00000240: 0cff cfbc cd6b b43d dd2c a33c aee0 60bd
00000250: 60ad 963d be6d 0cbe 005c d9bd 7adb 743d
00000260: 8634 d3bd 5e82 f93b 0777 91bc f069 9c3d
00000270: 066d ea3a 41f7 1abd 6ea8 903d 670d 0bbd
00000280: f460 ebbd 0dd5 8bbc b9d3 92bc a462 af3d
00000290: b491 b3bd a2e0 5ebc 440a 823d 2142 b1bd
000002a0: 2889 013e 091b ad3c 8cf4 eebd 823c dd3c
000002b0: 327f 6dbd 4706 b8bc d5fa f53c a078 15bd
000002c0: 1cf2 2cbd b511 f53d cce5 a6bd be8c c8bc
000002d0: 283d cfbb db5b 4bbd 8326 cc3c 97ff 35bd
000002e0: 727a bbbd 2989 72bc 1965 80bc bd51 29bd
000002f0: 5d08 3c3d 7499 12bd f929 db3a 6ef7 d6bd
00000300: 6831 a6bd 1d20 66bd d670 84bd 3902 a7bd
00000310: 2a50 34bd 1bf9 4bbd 2eb6 973d 6c42 d1bd
00000320: 786e fdbd 0718 d33d b0b8 d63d 4ca4 a33d
00000330: 98aa 623d cfae 4b3d fd12 a3bd b4a6 703d
00000340: efb7 4fbc 8d2d 7e3c e49b 31bb e514 13bd
00000350: 8e26 36bb 12fd 133e 5b7e a93d ce89 bbbd
00000360: db1f dbbc 61f0 85bd 5385 74ba c77c 123e
00000370: 5656 483d e338 b5bd 493d 9d3d d2ff dfbd
00000380: d086 84bc ffa2 b23c 28fd 4b3d b21d afbd
00000390: ba9b 8ebd 9864 4dbd 649d 0f3c d901 e03c
000003a0: 150d 3cbd ae8f 093d 4a0e 4bbd 304f 69bd
000003b0: 6b5d 47bd edec ad3d f1ae 13be f3c3 013d
000003c0: cbca ee3d df91 a33c e2f0 cbbd f0f0 283d
000003d0: b70e cebd 18bc 573c 05f1 2dbd 7f6c 4c3d
000003e0: cd2f dd3d ccd1 8a3d 6451 c2bd 722a a8bd
000003f0: 75f7 9dbd 55a6 bd3c 5810 c33d 27c9 aabd

conv4.bias f4 [32]
-0.033575896 0.12927324 0.018628525 -0.10158806 -0.016458526 -0.106781706 -0.04361033 -0.054311834
-0.008168469 -0.119246535 0.052054435 0.0144988 0.042234473 -0.06722297 0.06723832 0.030414693
0.06301931 -0.090514295 -0.05278344 -0.06889949 0.00042609006 0.039209023 0.05963014 -0.108103804
0.018825991 -0.0331297 0.103961006 -0.06529775 -0.12522224 -0.0803459 0.08969509 -0.054196388
00000000: e186 09bd 3460 043e d99a 983c 670d d0bd
00000010: 08d4 86bc 5eb0 dabd bfa0 32bd 1676 5ebd
00000020: 0bd5 05bc 8737 f4bd 0837 553d 608c 6d3c
00000030: 0efe 2c3d 32ac 89bd 3fb4 893d 3c28 f93c
00000040: 4510 813d 8f5f b9bd 7333 58bd 2d1b 8dbd
00000050: d764 df39 a499 203d bc3e 743d 8765 ddbd
00000060: f738 9a3c 02b3 07bd 82e9 d43d d4ba 85bd
00000070: 423a 00be 648c a4bd 0fb2 b73d 08fd 5dbd

conv5.weight f4 [32, 32, 3]
0.110043816 -0.032445405 -0.006769018 -0.07407422 0.07316121 -0.026280386 0.10571944 0.059511818
-0.03847345 0.009420882 0.017861884 0.07857014 -0.069697015 -0.10329502 0.00085398287 0.044898026
0.017479872 0.111087315 0.024177337 -0.049816474 -0.10718506 0.03168025 0.12685852 -0.06497793
0.045544464 0.12946633 -0.095451534 -0.015157087 -0.10469938 0.08141268 -0.022378711 0.08892375
-0.0031573474 0.008379444 -0.05815425 -0.09117043 -0.01933094 -0.12214368 0.04090338 -0.042456288
-0.0549326 -0.046333916 -0.0150844315 -0.12612495 0.09051273 -0.041909143 -0.07793711 -0.021774152
-0.0022616659 0.016055346 0.002047056 -0.043797802 0.11800197 0.105637014 0.11921266 -0.056158263
-0.058652647 -0.115277186 -0.055262107 0.044391822 -0.05991117 -0.027115468 0.107909724 -0.09382037
-0.045301028 -0.0057574823 -0.07801951 0.023654163 -0.10465037 -0.035555955 -0.052379362 -0.11122371
0.05334857 0.008356926 -0.035497215 -0.005496747 -0.07179595 0.049745608 -0.015617184 -0.04782007
0.073694184 -0.04165144 0.12892032 0.11186141 -0.025503466 -0.033780795 0.087523855 0.01744903
-0.015587722 -0.09261096 -0.011379248 -0.0029206374 -0.08648426 -0.009206369 0.0151897045 -0.02901986
0.035601255 -0.047180835 -0.011627296 0.057930022 0.08865283 0.10929877 -0.0051142285 0.0007107179
-0.024134561 -0.04121252 -0.017316232 -0.09242866 0.0015061356 0.04091755 0.05776897 -0.07405805
0.0074907765 -0.029100105 -0.014230821 0.054201063 -0.10956435 0.10411498 0.038586814 -0.024914755
-0.035467185 0.116012745 0.010070886 0.04721031 0.04943962 -0.07381587 0.020843588 -0.07642834
0.018856259 -0.12949497 0.042925652 0.053038612 0.011319643 -0.03619475 -0.017612562 -0.07291513
0.039038587 0.07497321 0.027475083 -0.059519973 0.075383894 0.048971333 -0.039707646 0.10535111
0.029859727 0.1204895 0.031086791 -0.030523641 -0.011060259 0.0068174563 -0.044985536 -0.08519689
-0.04589777 0.05125196 -0.084677435 0.08643648 0.05040086 -0.0556606 -0.0059699295 0.15264472
-0.05691449 -0.0030586808 0.13168487 -0.013164039 -0.0148838265 -0.041414116 0.11788548 0.07663136
0.07039685 0.013450935 -0.06945385 -0.0757719 -0.0027279584 -0.04551458 0.08160107 -0.016017472
0.038032632 0.05251533 -0.030426754 -0.089525804 -0.0017942515 -0.057378583 -0.019149164 0.047729574
-0.014951586 -0.041429833 0.0027570368 -0.054911833 0.099764235 -0.07487346 -0.06812147 -0.029201299
0.13225828 0.13126718 -0.059107233 -0.059542872 -0.06957115 0.052451823 -0.037770577 0.033045497
0.06682881 -0.11979867 -0.05397622 0.079102404 -0.06182493 -0.045407474 -0.07650053 -0.012839744
-0.0021659136 -0.017916577 0.05431684 -0.017473483 -0.05556811 0.033656064 0.09883746 -0.01883278
-0.08968808 0.013048845 0.043485813 0.018982068 0.07311637 0.055473123 0.07818697 0.069972984
-0.01707189 -0.040967744 0.07911964 0.08934417 0.03881234 -0.12259324 0.07642619 0.025422428
-0.0024968623 0.058805622 -0.14765632 -0.114861675 0.0049730414 0.058409423 0.11597501 0.22041279
-0.046655767 0.010425059 -0.07695631 0.01572194 -0.028435873 -0.05175149 -0.06449227 0.034601092
-0.04013706 0.0491804 0.041920744 -0.068841614 -0.013983284 0.03176726 -0.04884635 -0.033320528
00000000: a75e e13d 79e5 04bd a3ce ddbb 3ab4 97bd
00000010: 8bd5 953d f749 d7bc 6f83 d83d aac2 733d
00000020: 5696 1dbd 0b5a 1a3c 1653 923c 62e9 a03d
00000030: 4fbd 8ebd 578c d3bd d2dd 5f3a fee6 373d
00000040: f331 8f3c bf81 e33d 8d0f c63c 5c0c 4cbd
00000050: d783 dbbd 26c3 013d 33e7 013e 2613 85bd
00000060: d58c 3a3d d292 043e 187c c3bd 6e55 78bc
00000070: a16c d6bd b1bb a63d 8f53 b7bc a81d b63d
00000080: 80eb 4ebb ef49 093c 2733 6ebd 90b7 babd
00000090: eb5b 9ebc 7726 fabd 4d8a 273d a5e6 2dbd
000000a0: 0201 61bd a2c8 3dbd b124 77bc e626 01be
000000b0: bd5e b93d eca8 2bbd 7e9d 9fbd b55f b2bc
000000c0: 7538 14bb 8086 833c e727 063b 5365 33bd
000000d0: 04ab f13d 3858 d83d c425 f43d 3506 66bd
000000e0: c23d 70bd 7216 ecbd 855a 62bd 33d4 353d
000000f0: 6a65 75bd 4221 debc c6ff dc3d e524 c0bd
00000100: 928d 39bd 43a9 bcbb b1c8 9fbd 60c6 c13c
00000110: ef52 d6bd 1fa3 11bd be8b 56bd 42c9 e3bd
00000120: 0884 5a3d 7deb 083c 8765 11bd 0e1e b4bb
00000130: c109 93bd 0dc2 4b3d 38df 7fbc fade 43bd
00000140: faec 963d b39a 2abd b003 043e 9817 e53d
00000150: a5ec d0bc bb5d 0abd b53f b33d 45f1 8e3c
00000160: a563 7fbc d1aa bdbd 0770 3abc 2a68 3fbb
00000170: a91e b1bd 4fd6 16bc 3dde 783c 0fbb edbc
00000180: 9fd2 113d b140 41bd 6a80 3ebc 0848 6d3d
00000190: 9d8f b53d 09d8 df3d 4295 a7bb 794f 3a3a
000001a0: d8b5 c5bc 76ce 28bd c5da 8dbc 3d4b bdbd
000001b0: 8669 c53a 2999 273d 289f 6c3d bfab 97bd
000001c0: 3075 f53b 5863 eebc 6428 69bc ef01 5e3d
000001d0: 4663 e0bd 3c3a d53d 350d 1e3d 071a ccbc
000001e0: 0a46 11bd 1798 ed3d 5c00 253c 995f 413d
000001f0: 3381 4a3d c62c 97bd 2cc0 aa3c 7686 9cbd
00000200: 7178 9a3c 549a 04be cfd2 2f3d 043f 593d
00000210: 0676 393c f240 14bd 3848 90bc 8754 95bd
00000220: ede6 1f3d 8e8b 993d 6d13 e13c 37cb 73bd
00000230: df62 9a3d 2a96 483d 7ca4 22bd 53c2 d73d
00000240: 639c f43c 33c3 f63d baa9 fe3c b70c fabc
00000250: 1736 35bc f864 df3b c142 38bd b57b aebd
00000260: 4dff 3bbd 93ed 513d 5d6b adbd 9c05 b13d
00000270: 2271 4e3d 5ffc 63bd 669f c3bb e64e 1c3e
00000280: 2b1f 69bd 2674 48bb 66d8 063e fbad 57bc
00000290: 4bdb 73bc d9a1 29bd f16d f13d e7f0 9c3d
000002a0: 392c 903d 4f61 5c3c d23d 8ebd 4c2e 9bbd
000002b0: 8cc7 32bb 7f6d 3abd 761e a73d 1337 83bc
000002c0: 1bc8 1b3d 511a 573d 8741 f9bc 4e59 b7bd
000002d0: 172d ebba ce05 6bbd b5de 9cbc 1680 433d
000002e0: 7ff7 74bc 54b2 29bd 67af 343b 3beb 60bd
000002f0: 3151 cc3d 4257 99bd 4583 8bbd 9037 efbc
00000300: b76e 073e e76a 063e 6d1a 72bd 3ae3 73bd
00000310: 527b 8ebd b9d7 563d 52b5 1abd b75a 073d
00000320: 8bdd 883d 0159 f5bd 2b16 5dbd 7100 a23d
00000330: 233c 7dbd 30fd 39bd 4fac 9cbd ca5d 52bc
00000340: 00f2 0dbb c9c5 92bc 567b 5e3d 8d24 8fbc
00000350: 639b 63bd f1da 093d 4b6b ca3d 3447 9abc
00000360: 62ae b7bd d3ca 553c 2e1e 323d 4880 9b3c
00000370: 09be 953d c937 633d 7d20 a03d ff4d 8f3d
00000380: 59da 8bbc cbcd 27bd 7a09 a23d 14fa b63d
00000390: b0f9 1e3d 2a12 fbbd 5685 9c3d b242 d03c
000003a0: 66a2 23bb 2ade 703d 3833 17be 993c ebbd
000003b0: e5f4 a23b b83e 6f3d 4e84 ed3d e4b3 613e
000003c0: 1e1a 3fbd decd 2a3c 459b 9dbd 4ccb 803c
000003d0: 59f2 e8bc 5ff9 53bd 8614 84bd e0b9 0d3d
000003e0: c266 24bd 6371 493d 16b5 2b3d d5fc 8cbd
000003f0: 251a 65bc 631e 023d 1c13 48bd 1b7b 08bd

conv5.bias f4 [32]
0.012661714 -0.08598168 -0.074738294 0.020586517 0.005861383 -0.029451111 -0.12773979 -0.012268294
-0.112115145 -0.14674671 -0.016902514 -0.040072676 -0.067483686 -0.13583265 -0.011987887 -0.07691629
-0.027127834 0.042725846 0.021510141 -0.12821418 -0.03727839 -0.16375227 -0.024900483 -0.0854839
0.023590883 -0.0355957 0.08775261 -0.015537207 0.016118145 -0.0038093647 0.025500039 -0.026645098
00000000: 1473 4f3c 2a17 b0bd 6410 99bd 0ea5 a83c
00000010: d810 c03b 7543 f1bc 38ce 02be f400 49bc
00000020: a09c e5bd c544 16be 2477 8abc 3f23 24bd
00000030: e334 8abd b717 0bbe d868 44bc 4a86 9dbd
00000040: 313b debc 4c01 2f3d 0936 b03c 944a 03be
00000050: 3ab1 18bd adae 27be 19fc cbbc 2f12 afbd
00000060: ab41 c13c cccc 11bd a4b7 b33d c58f 7ebc
00000070: 330a 843c 89a6 79bb 75e5 d03c d246 dabc

conv6.weight f4 [32, 32, 3]
0.072020106 -0.01829553 -0.0018529575 -0.1034431 -0.11667664 0.061441757 0.13057029 0.03309331
0.046906933 -0.0038572217 -0.051944736 -0.06060891 0.01738041 0.039402373 0.0262773 -0.010141244
-0.048968427 -0.029122626 -0.088858075 -0.086345986 -0.10515858 -0.049312815 -0.104095146 -0.06678034
0.01831859 0.069798745 -0.13928929 0.07137786 0.011846003 -0.15311578 -0.052098487 0.044809565
-0.092811935 -0.05872319 -0.009302794 -0.0834278 -0.012537474 -0.053305913 0.0797848 -0.101322904
-0.061672606 -0.03355623 -0.033016376 -0.0972718 0.022508705 0.013717263 0.12488614 -0.07003379
0.119265504 -0.052689698 0.037403263 0.041916728 0.08317247 0.024836915 -0.11308711 -0.041279722
0.09843957 0.11224988 -0.02645493 0.012180511 0.12162965 0.021834115 0.017493578 0.06540754
-0.041258935 0.0137726795 -0.046059348 0.048517242 0.0028483998 0.032799646 -0.13146287 0.07963938
-0.047249537 -0.035790984 0.006050476 0.09373864 -0.02712085 -0.027609954 0.08392861 0.021457212
0.013688518 -0.05940651 -0.13296619 0.045118265 0.10239486 -0.010309395 -0.012930836 -0.02981815
-0.012640973 -0.05965853 0.03478382 -0.14492989 -0.092757314 -0.008053746 0.06228997 0.0168808
0.039238527 0.0041755703 0.0693258 0.08789707 0.010297323 -0.03895759 0.04045206 -0.0106254835
0.0045951824 -0.012538567 -0.07187224 -0.0070161996 -0.11725377 0.09402751 0.02228685 0.042520106
0.13147728 0.060916133 -0.048925772 0.018944765 -0.09876378 -0.06432937 0.12728591 0.07556946
0.023737041 0.026799629 -0.030246014 -0.047260176 0.049318306 -0.065903746 -0.042390782 0.11322043
0.03676368 -0.069629066 0.03793326 0.04556357 -0.07672148 -0.109288335 -0.0769288 -0.01495042
-0.054167576 0.018495493 -0.080488436 0.027755344 0.013880865 -0.10740443 0.10257661 0.06890222
-0.07178916 -0.051939916 0.06250861 0.08343701 0.04416617 0.034090765 0.015224721 -0.06540647
0.024091894 -0.017515823 0.0151368305 0.026423331 -0.090703435 -0.046323705 0.075347245 0.07775355
0.13411143 0.089444734 -0.064763874 0.05183185 0.05430621 0.032219287 0.06358401 0.017330658
0.048790347 0.10158809 0.05850734 0.06147046 -0.088474534 -0.034084395 -0.025780419 0.05187045
0.009828129 -0.056729976 -0.11821474 -0.04289093 0.10374216 -0.072451144 0.031580225 -0.0408351
-0.064012304 0.028734026 -0.008200985 -0.055556547 -0.057542477 -0.056518484 -0.08915158 -0.07408669
-0.032397673 -0.0033675097 0.0147554 -0.011630855 0.013697945 0.07136852 -0.06475442 -0.01202084
-0.114917964 -0.00866242 -0.024418013 -0.058052313 0.08831387 0.03160925 -0.009584256 -0.039314356
0.013609206 0.07192143 0.0107723 -0.0015636679 0.04987313 0.09389143 -0.016256724 -0.13705666
-0.020927403 0.08966018 0.03126157 0.05940416 -0.043158226 -0.025149481 -0.020300865 -0.032235615
0.0638834 0.012083736 -0.021320917 -0.030176757 0.07101858 0.017248837 -0.102472164 -0.0032900397
0.01632355 -0.091684446 -0.022589566 -0.02291481 0.10284971 -0.11806164 -0.0015976588 0.06171207
-0.048346374 -0.07401964 -0.014454978 0.061130844 -0.0023125212 -0.11289288 0.010877503 0.048505165
-0.120630875 0.06694073 -0.0448683 -0.0603092 -0.0039156172 0.029572116 -0.06465096 0.009873876
00000000: 477f 933d 82e0 95bc f0de f2ba fad9 d3bd
00000010: 2af4 eebd 5aaa 7b3d 38b4 053e da8c 073d
00000020: 7c21 403d 71c9 7cbb 01c4 54bd 0c41 78bd
00000030: 5d61 8e3c 6264 213d 7e43 d73c 7627 26bc
00000040: 1e93 48bd 9392 eebc 39fb b5bd 2ad6 b0bd
00000050: 625d d7bd 3cfc 49bd d62f d5bd 22c4 88bd
00000060: de10 963c a5f2 8e3d daa1 0ebe 8e2e 923d
00000070: bd15 423c 62ca 1cbe 3965 55bd 3c8a 373d
00000080: 2f14 bebd ba87 70bd bf6a 18bc 32dc aabd
00000090: fa69 4dbc 4d57 5abd 3766 a33d 6282 cfbd
000000a0: 6a9c 7cbd 4272 09bd 2e3c 07bd 7036 c7bd
000000b0: 2d64 b83c 5fbe 603c 4ec4 ff3d e06d 8fbd
000000c0: 7941 f43d 27d1 57bd 2a34 193d e0b0 2b3d
000000d0: 5456 aa3d c976 cb3c 379a e7bd ed14 29bd
000000e0: af9a c93d 44e3 e53d 02b8 d8bc c490 473c
000000f0: f718 f93d 75dd b23c b14e 8f3c 63f4 853d
00000100: 21ff 28bd cea6 613c baa8 3cbd 04ba 463d
00000110: 38ac 3a3b ec58 063d 349e 06be f919 a33d
00000120: bb88 41bd 9199 12bd 1243 c63b 0bfa bf3d
00000130: 8b2c debc 452e e2bc c3e2 ab3d 09c7 af3c
00000140: ce45 603c 3e54 73bd 4a28 08be eecd 383d
00000150: 65b4 d13d bde8 28bc dbdb 53bc 3145 f4bc
00000160: 151c 4fbc 815c 74bd 7b79 0e3d 8068 14be
00000170: 8cf7 bdbd dcf3 03bc c523 7f3d 9a49 8a3c
00000180: 94b8 203d 39d3 883b affa 8d3d 6103 b43d
00000190: 1ab6 283c fe91 1fbd 0fb1 253d 8216 2ebc
000001a0: 2f93 963b 906e 4dbc c131 93bd 26e8 e5bb
000001b0: bf22 f0bd 7f91 c03d e992 b63c 9029 2e3d
000001c0: fba1 063e 3283 793d 6466 48bd 0d32 9b3c
000001d0: aa44 cabd 1ebf 83bd 3d57 023e 29c4 9a3d
000001e0: 2f74 c23c e58a db3c 7dc6 f7bc e393 41bd
000001f0: fe01 4a3d 8bf8 86bd f5a1 2dbd 1de0 e73d
00000200: 8395 163d af99 8ebd e85f 1b3d dea0 3a3d
00000210: 2720 9dbd 90d2 dfbd d98c 9dbd 9bf2 74bc
00000220: d2de 5dbd dc83 973c 1fd7 a4bd 2d5f e33c
00000230: 916c 633c dbf6 dbbd b013 d23d 9b1c 8d3d
00000240: 3206 93bd f3be 54bd 8404 803d 06e1 aa3d
00000250: 96e7 343d c2a2 0b3d 1c71 793c d4f3 85bd
00000260: 5d5c c53c 587d 8fbc 7800 783c be75 d83c
00000270: b9c2 b9bd edbd 3dbd a84f 9a3d 413d 9f3d
00000280: 8254 093e cd2e b73d eca2 84bd a24d 543d
00000290: 3070 5e3d 5ff8 033d 5538 823d 06f9 8d3c
000002a0: 63d8 473d 6b0d d03d 64a5 6f3d 73c8 7b3d
000002b0: 2332 b5bd 149c 0bbd 7531 d3bc 1c76 543d
000002c0: 2906 213c b15d 68bd 921a f2bd 66ae 2fbd
000002d0: c576 d43d 4461 94bd 445a 013d b542 27bd
000002e0: e218 83bd 9f63 eb3c 6d5d 06bc 438f 63bd
000002f0: a9b1 6bbd ed7f 67bd 1b95 b6bd c3ba 97bd
00000300: 6cb3 04bd 70b1 5cbb a2c0 713c 578f 3ebc
00000310: 586d 603c a929 923d f79d 84bd 0ff3 44bc
00000320: 1c5a ebbd d3ec 0dbc 4908 c8bc 43c8 6dbd
00000330: e7dd b43d b378 013d 4907 1dbc 1708 21bd
00000340: 26f9 5e3c 8b4b 933d 4d7e 303c fdf3 ccba
00000350: c447 4c3d 264a c03d d22c 85bc 9558 0cbe
00000360: f26f abbc c29f b73d 220c 003d c751 733d
00000370: aec6 30bd 4906 cebc 004e a6bc 7e09 04bd
00000380: 4dd5 823d ddfa 453c 34a9 aebc 3f35 f7bc
00000390: 3072 913d 6f4d 8d3c eddc d1bd b59d 57bb
000003a0: f7b8 853c 0ec5 bbbd c10d b9bc d7b7 bbbc
000003b0: dea2 d23d 4dca f1bd 8968 d1ba ccc5 7c3d
000003c0: d906 46bd 9c97 97bd 92d4 6cbc 5664 7a3d
000003d0: ab8d 17bb 6234 e7bd 8e37 323c 5aad 463d
000003e0: 520d f7bd 3918 893d d3c7 37bd c806 77bd
000003f0: 944e 80bb 3941 f23c b967 84bd 0ac6 213c

conv6.bias f4 [32]
0.032021508 0.084361285 0.044757906 -0.04048111 -0.050787624 0.06496953 -0.104417145 0.024252908
-0.11663537 -0.06454896 0.0578709 -0.0134600485 -0.0150966635 -0.053053666 -0.036926333 0.08956564
0.020723833 -0.14299761 -0.14294727 0.0016946953 -0.06864148 0.028850278 -0.02621179 -0.12152346
-0.10831984 0.044344895 -0.054889902 0.049011968 -0.048533283 -0.09993558 -0.09674638 0.03549635
00000000: fc28 033d 9cc5 ac3d 1154 373d 85cf 25bd
00000010: af06 50bd bf0e 853d a8d8 d5bd 09ae c63c
00000020: 86de eebd 3f32 84bd 090a 6d3d 8987 5cbc
00000030: ff57 77bc cd4e 59bd 1140 17bd 316e b73d
00000040: 07c5 a93c f76d 12be c560 12be 8a20 de3a
00000050: e793 8cbd 6b57 ec3c 1cba d6bc 4be1 f8bd
00000060: cbd6 ddbd fea2 353d 3cd4 60bd c6c0 483d
00000070: d6ca 46bd 06ab ccbd f722 c6bd 9f64 113d

conv7.weight f4 [32, 32, 3]
-0.0014303217 0.0008140823 -0.0354902 0.00011421254 -0.11329647 -0.062440027 0.06364713 0.060355917
0.07798474 0.07686263 -0.030818807 0.039816927 -0.087281674 -0.031505063 0.0042311256 -0.0045885076
0.13287143 0.0681441 0.06836251 -0.050176226 0.06037911 0.14387897 -0.088553324 0.081062496
0.069488734 0.12818387 -0.09278536 0.006397067 0.05789501 0.07615668 -0.009199681 -0.032526292
-0.07624722 0.057819802 -0.025417652 -0.09551303 -0.06469683 0.07087673 0.010767514 0.05935646
0.08848987 0.020270472 0.09844489 0.0061308597 0.05877302 0.034243055 -0.031905077 0.010450891
-0.08597059 0.122305036 -0.107983306 -0.12473657 0.01959225 -0.036285784 -0.09841394 -0.045112073
-0.11029854 -0.064634256 -0.068372905 0.0073131965 0.008919375 0.07245265 -0.04579367 -0.021558207
0.11563068 -0.10912703 -0.07830333 -0.015347362 -0.0979767 0.038120687 0.021852296 0.06584526
-0.077470995 0.058260705 0.10326016 -0.11845548 0.06613938 -0.053591914 -0.13527319 -0.07530082
0.017213933 -0.062029634 -0.026149135 0.042138733 0.023383996 -0.08894349 -0.0031628734 0.08217945
-0.017147219 -0.026815647 0.10459731 0.047825877 -0.11807199 -0.08609702 0.0029421442 -0.022150664
0.038511273 -0.053409044 -0.055324867 -0.026754433 -0.08513741 -0.10122985 -0.039082177 0.088516705
0.06958749 0.05241308 -0.022524474 0.030845106 0.0357034 -0.047205925 -0.02110157 -0.013216238
-0.07342678 0.008103104 0.05371807 -0.047197968 0.037975643 0.048234813 0.084119044 0.092696734
0.04750813 -0.11379572 -0.007660221 0.07740439 -0.030105455 0.004305594 -0.08666461 0.010010886
-0.13424249 -0.057719078 -0.06436959 -0.057137698 -0.16113056 -0.056326706 0.07046519 0.0029103104
0.09115501 -0.024678722 0.0060770945 0.1248748 -0.096164726 -0.11675126 0.11512251 -0.073988
-0.058592033 -0.07279899 0.0046302862 -0.029986953 0.07482397 0.0065632616 -0.08775578 0.09870042
0.071003474 0.026093513 -0.12181969 -0.10111159 -0.090976395 0.06935656 -0.029375546 -0.15419361
-0.0333339 -0.11668456 0.034341015 -0.054330423 -0.06936995 -0.014137761 0.03134044 0.14716423
0.11500654 -0.029883366 -0.041742828 0.058417007 -0.005054554 -0.081540465 0.07190629 -0.034172438
0.102550864 -0.06300287 -0.013823732 0.11154215 0.020366777 0.049120482 0.16021137 -0.012769205
0.07874232 0.022093458 -0.10112011 -0.06571053 -0.071899734 -0.08266518 -0.055807773 -0.05533556
-0.08580312 -0.12798044 -0.013190862 -0.10827459 -0.045541026 -0.07888789 -0.10067381 0.026985554
-0.040874854 -0.045948073 0.0846303 -0.011725664 -0.002614428 0.15995759 0.0047687828 -0.042684063
0.025412621 0.024108412 0.0111993905 -0.0144546395 -0.009365998 -0.022096515 -0.043057732 -0.09935041
-0.10364703 0.06335272 -0.08634604 -0.08054655 0.029747238 0.030224483 -0.02151168 -0.0544723
0.031026216 -0.13405545 -0.002413578 0.0973348 0.015678376 -0.02049016 -0.053391464 0.03773514
0.15162112 -0.06699627 -0.027353363 -0.059695408 -0.0062733777 0.04191658 0.025462143 -0.10836595
-0.032480042 0.083921336 0.012977022 0.028418709 -0.032520406 -0.11719209 -0.056977723 0.035514604
-0.094820485 -0.0030497592 0.026568921 -0.05856201 -0.0077153994 0.049346194 0.036854703 -0.045194663
00000000: a279 bbba 2368 553a 2c5e 11bd 6485 ef38
00000010: fb07 e8bd 1dc1 7fbd 6d59 823d c437 773d
00000020: 77b6 9f3d 286a 9d3d b977 fcbc 1317 233d
00000030: bcc0 b2bd 740b 01bd 41a5 8a3b 315b 96bb
00000040: 730f 083e 228f 8b3d a501 8c3d 9685 4dbd
00000050: 1650 773d 0255 133e 725b b5bd 1804 a63d
00000060: 1c50 8e3d a242 033e 4006 bebd 7d9e d13b
00000070: 5123 6d3d 09f8 9b3d 42ba 16bc 4a3a 05bd
00000080: 8127 9cbd 75d4 6c3d ae38 d0bc 569c c3bd
00000090: c67f 84bd d227 913d 3a6a 303c c21f 733d
000000a0: 2d3a b53d 430e a63c 799d c93d 61e5 c83b
000000b0: fabb 703d 7242 0c3d e6ae 02bd 373a 2b3c
000000c0: 5911 b0bd 107b fa3d 5a26 ddbd e375 ffbd
000000d0: ed7f a03c 67a0 14bd 3f8d c9bd 70c7 38bd
000000e0: 33e4 e1bd f75e 84bd 1807 8cbd 8aa3 ef3b
000000f0: 9222 123c 0e62 943d 2592 3bbd d69a b0bc
00000100: c7cf ec3d fe7d dfbd 7f5d a0bd 8073 7bbc
00000110: 02a8 c8bd 7024 1c3d 9603 b33c e1d9 863d
00000120: 1da9 9ebd c7a2 6e3d 107a d33d c998 f2bd
00000130: 1574 873d 3283 5bbd 0e85 0abe 5137 9abd
00000140: 3c04 8d3c c912 7ebd b636 d6bc aa99 2c3d
00000150: cb8f bf3c 0128 b6bd 3648 4fbb b34d a83d
00000160: 5378 8cbc 7dac dbbc 1d37 d63d 11e5 433d
00000170: bacf f1bd a253 b0bd fdd0 403b 4f75 b5bc
00000180: ffbd 1d3d 71c3 5abd 549c 62bd 1d2c dbbc
00000190: 865c aebd 9851 cfbd a214 20bd 3f48 b53d
000001a0: e383 8e3d 19af 563d 3f85 b8bc e0ae fc3c
000001b0: ba3d 123d 005b 41bd 33dd acbc eb88 58bc
000001c0: c860 96bd e2c2 043c 7b07 5c3d a852 41bd
000001d0: 598c 1b3d de91 453d 9b46 ac3d c9d7 bd3d
000001e0: e397 423d bb0d e9bd 9702 fbbb 3186 9e3d
000001f0: b79f f6bc f115 8d3b 377d b1bd b304 243c
00000200: dd76 09be d76a 6cbd 34d4 83bd 3809 6abd
00000210: 69ff 24be d5b6 66bd 0e50 903d e8ba 3e3b
00000220: 7aaf ba3d 082b cabc 5d22 c73b 5cbe ff3d
00000230: 03f2 c4bd 491b efbd 5ac5 eb3d 0587 97bd
00000240: 33fe 6fbd a317 95bd a8b9 973b 33a7 f5bc
00000250: 4f3d 993d a110 d73b 4db9 b3bd 7223 ca3d
00000260: 456a 913d 10c2 d53c 9a7c f9bd 9813 cfbd
00000270: d551 babd d00a 8e3d fca4 f0bc eee4 1dbe
00000280: 2189 08bd 51f8 eebd 2aa9 0c3d 9489 5ebd
00000290: d511 8ebd 11a2 67bc d55e 003d 38b2 163e
000002a0: 8d88 eb3d f6cd f4bc 87fa 2abd ac46 6f3d
000002b0: aca0 a5bb b0fe a6bd 9b43 933d 66f8 0bbd
000002c0: 3006 d23d a607 81bd ef7c 62bc 3670 e43d
000002d0: 3ad8 a63c 8f32 493d 730e 243e ed35 51bc
000002e0: a743 a13d 57fd b43c 0f18 cfbd 3e93 86bd
000002f0: 2b40 93bd 5d4c a9bd b196 64bd 8aa7 62bd
00000300: 8cb9 afbd 4e0d 03be 7c1e 58bc 11bf ddbd
00000310: 3a89 3abd f98f a1bd 122e cebd cf10 dd3c
00000320: 646c 27bd 0c34 3cbd a752 ad3d 001d 40bc
00000330: d356 2bbb eccb 233e 7343 9c3b 7cd5 2ebd
00000340: 212e d03c 017f c53c a67d 373c 27d3 6cbc
00000350: d873 19bc c003 b5bc 4e5d 30bd 3a78 cbbd
00000360: e544 d4bd 12bf 813d 31d6 b0bd 97f5 a4bd
00000370: 7bb0 f33c 5699 f73c 4339 b0bc 591e 5fbd
00000380: b12a fe3c d545 09be 1f2d 1ebb 7857 c73d
00000390: f06f 803c fbda a7bc 02b1 5abd 2a90 1a3d
000003a0: 9142 1b3e 5735 89bd 2914 e0bc 2c83 74bd
000003b0: e890 cdbb b8b0 2b3d fc95 d03c f8ee ddbd
000003c0: cb09 05bd f3de ab3d 939d 543c 5ace e83c
000003d0: 1e34 05bd 6802 f0bd 7961 69bd c377 113d
000003e0: 3e31 c2bd 78de 47bb 11a7 d93c b8de 6fbd
000003f0: 76d1 fcbb 3c1f 4a3d f5f4 163d 0a1e 39bd

conv7.bias f4 [32]
0.032168366 -0.030786565 0.016881179 0.0087580355 -0.07805797 -0.014020408 -0.05591565 0.02732145
-0.09321907 -0.074833944 -0.038040206 -0.1377369 -0.06305729 -0.08280968 -0.12826958 -0.12706357
-0.0690708 0.004556765 -0.019359084 -0.13683179 -0.06128647 -0.021472907 0.018545698 0.018452821
-0.1321594 -0.14720646 -0.060938828 -0.14337456 -0.18740653 -0.1421068 0.03151195 -0.093254045
00000000: fac2 033d 1b34 fcbc 664a 8a3c dd7d 0f3c
00000010: dbdc 9fbd dab5 65bc cf07 65bd 3cd1 df3c
00000020: a4e9 bebd 8a42 99bd 0cd0 1bbd e70a 0dbe
00000030: 2e24 81bd 1f98 a9bd 1a59 03be f41c 02be
00000040: fe74 8dbd ea50 953b f196 9ebc a21d 0cbe
00000050: 8607 7bbd f3e7 afbc 26ed 973c 5f2a 973c
00000060: cb54 07be 4abd 16be fe9a 79bd c8d0 12be
00000070: 7fe7 3fbe 7284 11be ad12 013d fafb bebd
