SCAFFOLD_1/Previous Attempt model parameters/server_model_parameters.pth (torch, 767202 bytes, 51 tensors)

conv1.weight f4 [32, 2, 3]
000000 38 ab fc bd 90 7d 0f 3e 70 dd 5d 3e 41 ec 4b be
       -0.12337345 0.14012742 0.21666503 -0.19914342
000010 b8 39 5e be 6c 28 86 3e 30 fd 94 bc 29 1b c7 be
       -0.21701705 0.26202714 -0.018187135 -0.3888791
000020 c4 a2 c8 be 4b a8 6b be 1c e8 95 3d b6 d5 9b 3e
       -0.3918668 -0.23013417 0.07319662 0.30436486
000030 46 f4 8c be 24 76 80 3e cf ac d6 3d 9e da 7b be
       -0.27530116 0.25090134 0.104821794 -0.24595115
000040 70 62 93 bd 19 7e ad be ad e7 37 3e 81 0c dc 3e
       -0.0719651 -0.33885267 0.17959471 0.4297829
000050 18 51 ef bd 7e b6 21 be 8e 4a ad 3e fa 34 c7 3e
       -0.11685389 -0.15792271 0.33845943 0.38907605
000060 08 93 c8 3d 73 b8 9c be 78 4a 8f bd 72 78 1c be
       0.09793669 -0.30609474 -0.06996626 -0.15280321
000070 12 a1 68 be 56 3d 9b 3e 7e f8 ae be a5 ba a4 3e
       -0.22717693 0.30320233 -0.3417396 0.32173648
000080 2f 90 80 bd 50 ab da 3c 86 2c 8b 3e 60 71 01 bd
       -0.06277501 0.026693016 0.27182406 -0.031602263
000090 c1 02 44 3e f0 4d 59 3e 2b e1 ca 3e 00 89 93 3b
       0.19141676 0.21221137 0.39624915 0.0045024157
0000a0 bc 00 8b be af f1 24 be 0c 1b 8e 3e 00 81 fd bc
       -0.27148998 -0.1610782 0.2775501 -0.030945301
0000b0 b0 82 ac 3c 74 0e cf 3e 00 73 32 be 74 4f 96 3e
       0.02105841 0.40440714 -0.17426682 0.29357493
0000c0 78 27 c5 be b5 7d 71 3e bc 5a ac be 58 86 c1 3d
       -0.38506675 0.2358311 -0.33662975 0.09449452
0000d0 10 25 03 be c8 9d 85 3e a1 7e 8f be a6 fe 55 be
       -0.12807107 0.2609694 -0.28026298 -0.20897922
0000e0 ce 8f ad 3e 48 8b dd bd a8 da 02 bd cf 13 a1 be
       0.33898777 -0.108175814 -0.031946808 -0.31460425
0000f0 b9 4d af 3d 3d e7 95 3e f1 11 d2 3d 34 b6 e3 bd
       0.08559746 0.29277983 0.10257328 -0.11118737
000100 38 93 34 bd 2c 46 1c 3e 67 e3 88 3e 67 eb 5c be
       -0.04408571 0.15261143 0.26735994 -0.21574174
000110 6c 84 d9 3c e0 cb 37 3e f3 9c 50 be 50 5b 35 bd
       0.026552401 0.17948866 -0.20372371 -0.044276536
000120 bd 9e 18 3e ea 24 d3 be b4 13 5a bd 40 7a 6e 3e
       0.14904304 -0.412391 -0.053241447 0.23288822
000130 52 ac ad be e8 9d e8 bd 83 82 99 be 4e f3 98 3e
       -0.33920532 -0.11358243 -0.29982385 0.29873127
000140 eb 76 88 3d b7 40 86 be 40 ac b1 3d 54 41 c8 bd
       0.06663307 -0.26221249 0.08675432 -0.09778085
000150 1d 1c 03 be 38 f4 9a bd 01 1c 1c be e0 ef 9c bd
       -0.12803693 -0.07566112 -0.15245058 -0.0766294
000160 dc ad 11 3e 60 e2 c3 3d 19 0f c4 be 93 7c 98 3e
       0.14226478 0.09564662 -0.3829277 0.29782543
000170 8d 26 ca 3e c0 41 4f bd 00 b6 8b 3e ca 95 c0 be
       0.39482537 -0.050599813 0.27287292 -0.3761428
000180 70 91 72 3d 1e 03 b9 be 98 4d da bd cc 6e 16 3e
       0.05922073 -0.3613519 -0.10659331 0.14690703
000190 cc 35 a3 bd 40 08 70 bc 52 83 92 be 5b f1 af 3e
       -0.07969245 -0.014650404 -0.28615814 0.34363827
0001a0 dc 39 61 3d 20 51 e7 bd 5d 24 51 be 1c 38 44 be
       0.05498682 -0.1129477 -0.20424028 -0.19162029
0001b0 1b 7f 11 3e 60 d5 e1 3c 56 eb a0 be a2 54 c9 be
       0.14208643 0.027567565 -0.31429547 -0.39322382
0001c0 a4 2b b3 be 1e 3d 90 3e 3b bf 86 3e 8c 54 3e be
       -0.34994233 0.2817163 0.26317772 -0.1858694
0001d0 c0 a9 ca bc 2a 90 a9 3e 5c d1 bc be 18 fb 0e 3d
       -0.024739146 0.331178 -0.3687848 0.03490743
0001e0 6b 76 b0 3e 70 fe 91 3d b6 4b b7 3e a3 e1 cf be
       0.34465346 0.07128608 0.3579995 -0.40601835
0001f0 44 00 70 3e 8c 98 04 3e 1a 37 8c 3e 20 e2 ad bd
       0.23437601 0.12948817 0.2738579 -0.084903955
000200 ac a7 e9 bd 5a 4e 90 3e 82 c2 48 be 8a 16 78 be
       -0.11408934 0.28184777 -0.19605449 -0.24227348
000210 62 3b 90 be ad 01 91 be 33 0c ca 3d 0a ce 09 be
       -0.28170305 -0.2832159 0.09865608 -0.13457504
000220 28 40 32 bd 8e 08 39 be f0 d0 a8 bc ec 5a 23 3e
       -0.043518215 -0.1806967 -0.020607442 0.15952653
000230 60 95 27 bc 9c ac 84 3e 96 5f 30 be 44 8e ee bd
       -0.010228485 0.2591294 -0.17223963 -0.11648229
000240 ba 38 ce 3e 9b 57 9e be b5 91 7d 3d 56 8c 88 be
       0.40277654 -0.30926213 0.061906535 -0.26669568
000250 ed 0c 76 be 66 60 93 3e 23 32 01 be 4c 48 77 3e
       -0.24028368 0.28784484 -0.12616782 0.24148673
000260 31 2c bc be 10 be ee bd 10 1a b7 3c 2f 32 42 be
       -0.36752465 -0.11657345 0.022351295 -0.18964456
000270 99 0d 21 be a2 7b 80 be c6 3f 75 be f2 cd 9c be
       -0.15727843 -0.25094324 -0.23950109 -0.30625874
000280 79 5c 7e be 6d 87 b4 be 85 37 5d be f1 41 a5 3e
       -0.24839963 -0.35259572 -0.2160321 0.32276872
000290 a0 06 49 3c a8 2e 6f 3e 93 9f 82 be 80 4b 8b bc
       0.012269646 0.23357642 -0.2551237 -0.017003775
0002a0 5c 7b b3 3d 20 9d f9 3b 6b 5f a9 3e 2c 83 88 3e
       0.08763763 0.0076176077 0.3308061 0.26662576
0002b0 d2 ca 8f 3e c0 d3 08 3c 70 24 26 be 04 96 d6 bd
       0.28084427 0.008351266 -0.16224837 -0.10477832
0002c0 7a 92 30 3e d5 de 59 be 94 c5 19 3e 9f 35 a6 be
       0.17243376 -0.2127641 0.15016776 -0.32462785
0002d0 b4 e2 86 be f8 1d 23 3e a2 8a cc 3e 14 b7 57 3e
       -0.26344836 0.15929401 0.39949518 0.21065933
0002e0 dd 7d 9f be b8 ad db 3d e4 98 10 3e e8 c5 2f 3e
       -0.31150714 0.107264936 0.14120823 0.17165339
0002f0 14 01 10 3e 9c a6 80 be e0 3f 91 3c 20 b6 3a 3e
       0.14062911 -0.25127113 0.017730653 0.18233538

conv1.bias f4 [32]
000000 5c 21 03 3e 70 3c 01 3e d8 9c b4 3e 00 8a b7 3a
       0.12805694 0.12620711 0.35275912 0.0014002919
000010 80 71 f9 3b 6a 50 a3 3e 8a 23 c0 3e 98 23 e9 3d
       0.007612407 0.3189729 0.37527114 0.11383742
000020 97 f6 01 be cc 83 ac be 8d 9a 2d 3e e5 c3 73 be
       -0.12691723 -0.33694303 0.16953488 -0.23805197
000030 74 e2 d0 be 4e 61 ae 3e 20 e9 0c 3c bd 09 bc 3d
       -0.4079777 0.34058613 0.008600503 0.09181545
000040 34 d2 45 3e 15 f1 81 be 09 c0 c2 3e d1 9c 82 3e
       0.19318467 -0.25379243 0.38037136 0.25510266
000050 93 47 a7 be e8 a1 aa 3e 5e 99 bd 3e aa cd 9b 3e
       -0.32671794 0.3332665 0.37031072 0.30430347
000060 0f f2 4e be fc 6f 34 3d b2 ac 7f be 5c f8 83 be
       -0.20209526 0.04405211 -0.24968222 -0.2577542
000070 ac b9 bc be 00 6a 8a 3e a0 a1 e1 bc a0 5f a8 be
       -0.36860406 0.27033997 -0.02754289 -0.32885456

conv2.weight f4 [32, 32, 3]
000000 1d b2 b7 bc 2b e1 b9 3d 6c 45 52 3c d8 60 a2 bd
       -0.022423798 0.090761505 0.012833934 -0.07928628
000010 8b 27 ad bc e9 7c 30 3d 90 fe f2 bb 14 bc 25 bd
       -0.02113702 0.043087874 -0.0074156 -0.04046257
000020 5a ad d0 bc a4 ba ec 3d 28 2e 10 3e ec f5 cc 3c
       -0.025473285 0.115590364 0.14080107 0.025019608
000030 1a f5 be 3d 8e 78 87 3d b4 74 f3 bc 64 dd 44 3d
       0.09324093 0.06614791 -0.029718734 0.048062697
000040 77 d2 6c 3d 2b 1d b8 bd 0d 17 7d 3d c8 1a 35 bd
       0.057817902 -0.08989938 0.06178956 -0.044214994
000050 60 21 6c 3d 23 f3 1c 3d 62 6e a8 3c 38 d9 c0 bd
       0.057649016 0.03831781 0.020560447 -0.09416431
000060 09 01 ce 3d 5c d6 d6 3c 9c 86 13 bd a5 21 85 3d
       0.10058791 0.026225261 -0.036017045 0.06500558
000070 0f 1b 17 bd d5 a3 0a bd 64 e5 30 3c a4 ff 27 bd
       -0.03689104 -0.03384765 0.0107968785 -0.041015282
000080 3c a8 89 bd 00 f4 08 3a 9c 92 b3 bd 27 15 bd bd
       -0.06721541 0.0005224347 -0.08768198 -0.0923255
000090 c6 ec c1 3d e4 90 39 3d fa 76 1b bd 7b 99 a2 bd
       0.09468989 0.045304194 -0.03795526 -0.0793943
0000a0 aa cb 8a 3c 06 ac ee bc 54 e0 41 3c bd 0d f7 3c
       0.016942818 -0.029134762 0.011833269 0.030157918
0000b0 32 f4 38 bd fa 22 3a 3d 78 b4 be bd 3e 03 95 bd
       -0.045154758 0.045443512 -0.093117654 -0.07276009
0000c0 2f 75 c2 3d 50 53 31 3d f0 d3 32 3d d8 89 37 bd
       0.09495007 0.043292344 0.04365915 -0.044809192
0000d0 76 c0 2e 3d 8c 36 a5 3d 91 8e a0 3d d2 8f c1 3c
       0.042664014 0.080670446 0.078396924 0.02362815
0000e0 8a d5 4d 3d be f3 45 3d 70 21 b5 3d 9e 0b 9b 3d
       0.050252475 0.048328154 0.08844268 0.07570575
0000f0 d6 ba 2b 3d 88 96 e5 bb ce 94 ba bd 96 6e 03 3e
       0.041926228 -0.00700647 -0.091104135 0.12835154
000100 ea fb 56 bd 36 3d 92 bd 9d 8a a9 3c 74 4e f7 3c
       -0.052486338 -0.07140581 0.020695979 0.030188777
000110 44 2e 06 bc e4 ab 84 3d 76 33 b5 bd 3e fb 16 bc
       -0.0081897415 0.06478098 -0.08847706 -0.009215174
000120 22 6e b5 bd 33 ec 6b bd 28 e1 b8 bd 3a c4 d1 bc
       -0.08858897 -0.057598304 -0.0902732 -0.025606263
000130 af 0d b1 bd d8 b4 be bd df 91 84 3d 8a 95 c6 bc
       -0.08645188 -0.09311837 0.06473135 -0.024241228
000140 45 ea 63 3d 38 7a 7b 3d e6 1a 9b 3d ab 27 48 3d
       0.05564334 0.061395854 0.0757349 0.048865955
000150 f2 ee a4 bd 84 5b 98 bd a3 df 0c bd b9 6d 45 bd
       -0.08053388 -0.0743933 -0.034392964 -0.048200343
000160 00 34 a6 3d ae cf 10 bd 0c f7 8b bd 34 af ce bd
       0.08115387 -0.03535431 -0.0683423 -0.10092011
000170 3d df 24 3d 40 2a 83 3d ba a5 70 3c 84 6e a0 3d
       0.04025196 0.06404543 0.01468795 0.07833579
000180 11 29 d9 bc 8c 3e 23 3d de 27 cb bd 66 ec ba bd
       -0.02650884 0.03985457 -0.099197134 -0.09127121
000190 0e 2d 50 3d 57 e0 c9 3d 4a a8 1c bc d0 ff d5 bd
       0.050824217 0.098572426 -0.009561608 -0.10449183
0001a0 18 c8 96 3d 98 90 39 bd 90 20 b0 3d e4 ee 83 bd
       0.073623836 -0.04530391 0.08599961 -0.06442049
0001b0 6f df 5e 3d 04 28 af 3d 0c 02 9d 3d 40 c2 34 3d
       0.0544123 0.08552554 0.07666406 0.044130564
0001c0 0e ed b1 3c e0 1f 37 bd 9f 67 08 bd d9 33 94 bd
       0.021719482 -0.044708133 -0.033301946 -0.07236452
0001d0 8c 16 03 3d a6 c4 8a bc ee c2 80 3d 22 65 5b bc
       0.032003924 -0.016939472 0.0628718 -0.013390811
0001e0 fd 1b b5 3d a3 4b 84 bd 0c e2 34 bd c9 3c 51 bd
       0.08843229 -0.06459739 -0.044160888 -0.05108336
0001f0 b8 29 15 bb 54 65 ca 3d cf 9e 80 bd 04 fc 90 3c
       -0.0022760462 0.09882608 -0.0628029 0.017698295
000200 95 06 c5 bd 32 e1 80 3d 61 6e c6 bc fb bb 19 bd
       -0.09620396 0.062929526 -0.024222555 -0.037532788
000210 fc 6c 07 bd e0 b9 8a bd 5c 29 42 bc e2 41 e8 3c
       -0.03306292 -0.06773734 -0.011850681 0.028351728
000220 01 9c e0 bd e7 e4 df bc 86 02 d1 3d 68 21 a9 bd
       -0.109672554 -0.027330829 0.102055594 -0.08258325
000230 c2 10 19 bc c1 61 c5 bc 02 05 94 bd 78 60 42 3b
       -0.009342374 -0.024094464 -0.07227518 0.002965955
000240 6e fc bf 3d 9c d1 c2 bc 00 81 6d 3d 56 4e a1 3d
       0.09374319 -0.02378159 0.057984352 0.078762695
000250 60 4b f6 3a 8d 43 b4 bd f9 e0 d9 3d 7c 24 92 bd
       0.0018790774 -0.08801947 0.10638613 -0.07135865
000260 6f e8 96 bd ee 95 1b 3c 31 f7 9c 3d 9c 14 3d 3c
       -0.07368552 0.009496195 0.076643355 0.011540558
000270 b0 84 f0 bc 73 b9 8a 3c fe 2f 73 3c 84 06 63 3d
       -0.029360145 0.016934132 0.014842985 0.055426136
000280 08 f5 38 bc 29 1d cd 3d 92 84 94 3c ec 98 81 3d
       -0.011288889 0.100153275 0.01812962 0.06327996
000290 de 35 14 bd 24 4f eb bc b5 8d 05 bd db 2d 01 3d
       -0.036184184 -0.02872426 -0.032605845 0.03153787
0002a0 d1 bd ce bd 34 fb cb 3d 0a 72 64 bd c4 3a ed 3c
       -0.10094798 0.099600226 -0.05577282 0.028958686
0002b0 60 a5 98 b9 a5 39 73 3d 42 a6 68 bd d6 aa d7 3c
       -0.00029114913 0.059381146 -0.05679918 0.026326578
0002c0 a5 19 6e bd 16 91 9a ba fc 03 b7 3c 56 19 5e bd
       -0.058129925 -0.0011792507 0.022340767 -0.05422338
0002d0 1a df 86 3d a2 0a d0 bd 61 9d 5a 3d e1 68 2c 3d
       0.06585522 -0.10158278 0.053372744 0.042092208
0002e0 5c 17 62 bc fe 8e bf 3d e1 32 e3 3c c2 89 99 3d
       -0.013799515 0.093534455 0.027734222 0.07496978
0002f0 e4 76 15 bc e3 9a d5 3c ea b7 f7 3c f0 3f 8e 3d
       -0.009122584 0.026074832 0.030239064 0.06945789
000300 e0 26 77 bb 1e ac 5e bd b2 07 02 3d 0e d5 36 bc
       -0.003771238 -0.054363362 0.03174562 -0.011159195
000310 14 74 45 bd 3a cc 8b 3d 58 59 22 bd 03 58 03 3d
       -0.048206404 0.068260625 -0.039635986 0.032066356
000320 eb 7f 0f bd 37 bd cf 3d af e9 9c 3d 51 52 87 bd
       -0.0350341 0.10143512 0.07661759 -0.066074975
000330 70 29 96 3d 93 8b a3 bd 30 6e 0c 3d 00 33 ef 39
       0.07332122 -0.07985606 0.03428477 0.0004562363
000340 57 18 16 3d 31 99 4f 3d a0 88 a8 bb 96 67 aa bc
       0.036644306 0.050683204 -0.00514324 -0.020801347
000350 b8 99 09 3e 6e 77 ca bd de e8 50 bc 62 68 43 3d
       0.13437545 -0.09886061 -0.012750832 0.04770697
000360 bc 22 f7 bd a7 71 20 3d e2 33 3e bd 2e ba 7b 3d
       -0.12067172 0.039170887 -0.046436198 0.06145685
000370 16 63 84 3d 75 c2 c0 3d e8 a6 74 3d b0 6e 85 bb
       0.06464212 0.0941209 0.059729487 -0.004072033
000380 00 5d 6d 3d f9 af 83 bd ce 08 f2 bd c2 ed ce bd
       0.05795002 -0.064300485 -0.118180856 -0.101039425
000390 c0 95 60 bb 9e 2c 5a 3d 13 fe 03 be b2 11 5a 3d
       -0.0034268945 0.053265207 -0.1288989 0.05323953
0003a0 18 70 8c bd 4c 2d ef 3c 72 6f 21 3d 80 7e d8 bd
       -0.06857318 0.029196404 0.039412923 -0.10571003
0003b0 00 be 0e b9 8b db 9f 3d 20 7d 01 3e c0 18 c2 bc
       -0.00013612956 0.078055464 0.12645388 -0.023693442
0003c0 46 e2 a1 3d e0 5a 99 3a 0c 85 48 bc 1b db 78 3d
       0.07904486 0.0011700056 -0.012238752 0.06075583
0003d0 a8 e0 bd bb 36 68 54 3d cf eb a0 bc 0c f5 46 bd
       -0.0057946034 0.051857196 -0.019643692 -0.04857354
0003e0 80 b8 0c bb b4 0e 16 3d e1 47 6e 3d be 34 08 bd
       -0.0021472275 0.036635116 0.058174018 -0.033253424
0003f0 8b cd 96 bd 44 d1 50 3d aa fc 3e 3d 75 76 4b 3d
       -0.07363423 0.05098082 0.046627678 0.049673516

conv2.bias f4 [32]
000000 34 3c d9 bd 96 42 50 3d 3b 1e 86 bd 5b 86 24 3d
       -0.10607186 0.05084475 -0.06548735 0.040167194
000010 d8 f4 92 bc 16 83 a7 bd 2c 22 c3 3d b3 42 16 bd
       -0.017939016 -0.081792995 0.09528002 -0.036684703
000020 05 42 a9 bd 0c 18 83 bc d1 31 a3 bd f4 94 f1 bb
       -0.08264545 -0.016002677 -0.07968486 -0.007372493
000030 18 36 23 bd ff 6e c5 bd 60 6b c2 3c 1e cc 47 3d
       -0.03984651 -0.096403114 0.023732841 0.048778646
000040 84 39 69 3c 3b 62 b9 bd d0 9b 6b 3c c6 d1 e3 3d
       0.014234904 -0.09051939 0.01438041 0.111239955
000050 fe 99 66 bc e1 ba f6 3c 8a 4a e8 3c 47 75 d9 bc
       -0.014074801 0.030118408 0.028355855 -0.02654518
000060 80 56 72 bd 96 41 d0 bd 78 a2 d8 3c 20 4b 4d 3c
       -0.059164524 -0.101687595 0.026444659 0.012530118
000070 9a 72 84 bd d1 f8 8b 3c 40 4a a9 3d 70 9f c4 bd
       -0.06467171 0.017086418 0.08266115 -0.09600723

conv3.weight f4 [32, 32, 3]
000000 f4 ba 74 3d a7 11 aa bd f4 f2 8b bd 30 ba 29 3d
       0.059748605 -0.08304148 -0.06833449 0.041437328
000010 be 56 5b 3d 3e 98 56 3d 56 3b fd 3d 9c c1 0b bc
       0.05354952 0.052391283 0.12364833 -0.008530047
000020 1a 38 83 bd f4 3d d7 3d 20 d1 0e 3c 34 48 c1 bc
       -0.06407185 0.105098635 0.0087168515 -0.023594
000030 97 27 0c 3e 35 26 c7 3d dc 0a cd 3b dc d7 cb 3c
       0.13686977 0.09724084 0.006257398 0.024883203
000040 9d 36 71 3d 80 61 b2 3d d5 a2 a0 bd 28 65 9c 3d
       0.058889974 0.08710003 -0.07843558 0.076364815
000050 c0 51 38 bc 64 ec 8c 3d fc 7a 2d 3d ea 42 79 bd
       -0.0112499595 0.068810254 0.042353615 -0.06085483
000060 d4 6e bd 3d 48 ac 72 bc 9e 37 b4 bc fe ec 6e 3d
       0.092496544 -0.014811583 -0.021999177 0.058331482
000070 02 a5 ab bc bc e8 94 3c 56 05 dd bc 5c c2 93 3c
       -0.020952705 0.018177383 -0.026980083 0.018037014
000080 7d 1b 54 3d 6e df 88 3d 46 07 f2 bc 2c 32 22 bc
       0.051784027 0.06683241 -0.029544484 -0.009899657
000090 1c 5b 21 3d 58 d6 a8 3c c6 9d bd bc 60 3d 76 3d
       0.03939353 0.02061002 -0.023146521 0.060117126
0000a0 c4 20 17 3d f4 f8 a0 3d 5c 82 c5 bd 7b c7 81 3d
       0.036896482 0.07859984 -0.09644005 0.06336876
0000b0 bc bf b8 bc f5 c3 70 3d d4 f2 6e bd 1f e1 14 bd
       -0.022552364 0.05878063 -0.058337048 -0.036347505
0000c0 2c 19 8e 3d f5 74 cf 3d a4 ba 21 bd 60 85 1f 3d
       0.06938395 0.1012973 -0.039484635 0.038945556
0000d0 82 9c de 3c 14 b5 c9 3c 0c f6 49 bd 9a dd ba 3b
       0.027174238 0.024622478 -0.049306914 0.0057026865
0000e0 3e ac 9a bd 3c 2b 5c bc af e2 9a bd ac 4e 0c bc
       -0.07552384 -0.013438042 -0.07562768 -0.008563679
0000f0 ce 8c 6b bd b7 c6 1f 3d c6 3b bc bd 88 f9 d7 bd
       -0.05750733 0.03900787 -0.091910884 -0.10545641
000100 58 f8 3f bd 5a d5 d9 3c 31 36 b2 3d 54 32 9d 3b
       -0.0468677 0.026590992 0.087017424 0.0047972593
000110 48 0d 5c 3d 3e 8c a0 bd 8c 4c 7a bd b4 a1 9f bd
       0.053723603 -0.07839249 -0.061108157 -0.07794514
000120 1b 95 02 bd 24 7b 51 3d 6b 96 db bc 8e 23 84 bd
       -0.03188048 0.051142827 -0.026805123 -0.06452094
000130 d8 4c 02 bc 53 96 e0 bd a0 99 76 3d c0 11 79 bd
       -0.007952891 -0.10966172 0.060205102 -0.060807943
000140 eb 34 60 3d 7e e8 95 bc b2 62 12 bd 2a 7f ad bd
       0.054737967 -0.018299337 -0.035738654 -0.0847152
000150 4e 65 03 bd 2d ba 7a bd 3c 18 3e 3d 79 30 3b 3d
       -0.032079034 -0.061212707 0.04640983 0.045700524
000160 da 93 d6 3c 9c 80 83 3d 60 f0 70 bc 26 2f 94 bd
       0.026193548 0.06421015 -0.014705747 -0.07235555
000170 18 74 26 3d 4b ee 7d bd eb 28 71 bd f6 ca 16 3d
       0.04063806 -0.061994832 -0.058876913 0.036814652
000180 07 2e 00 3e 3a 9b 92 bd 94 b6 95 3d 5d ee de 3c
       0.12517558 -0.07158513 0.07310215 0.02721327
000190 80 5b 06 3d 29 b0 b6 bd 6c 26 9c 3b 44 a3 c2 3c
       0.032802105 -0.08920319 0.0047653224 0.023759492
0001a0 43 da bd 3d ec 4d c7 3d 32 ae 54 3d 46 14 96 3d
       0.09270146 0.09731659 0.051923938 0.073280856
0001b0 9a 1c a7 bc 4a d8 97 3d 7a ab bd 3d c7 57 ac bd
       -0.02039938 0.07414301 0.09261222 -0.0841518
0001c0 a6 d2 9d bc e2 e7 95 3d 68 d5 d9 3d fb c5 d7 bc
       -0.019265484 0.07319619 0.10636407 -0.026339522
0001d0 54 e2 ae 3d da 47 d9 bd e4 b0 b3 bd 7e 3e 68 bd
       0.085392624 -0.10609408 -0.087739736 -0.056700222
0001e0 09 3b 13 3d 4e 08 b7 3d 23 f8 63 bd 39 18 bd 3c
       0.035944972 0.08937131 -0.055656563 0.02308284
0001f0 ee 2c a0 bd dc 94 39 3d 38 da 3c 3d e2 e4 02 3d
       -0.0782107 0.04530798 0.046106547 0.03195656
000200 e2 01 4a 3d c8 cd 99 3d db 64 5e 3d 85 05 51 bd
       0.0493182 0.07509953 0.054295402 -0.051030654
000210 ec dd b6 3d 7a 14 7f bd 40 a4 ca 3d d1 93 dc bc
       0.08929047 -0.062275387 0.098946095 -0.026925953
000220 cd a8 b5 bd a2 3a d2 3d 52 3d 28 3d 74 92 be bd
       -0.08870087 0.102650896 0.041074105 -0.093052775
000230 ed a0 5c 3d 0c 8a 81 bd 95 6e 46 3d c2 aa 27 3d
       0.05386441 -0.063251585 0.048445303 0.04093433
000240 9e 73 a8 3d bc c1 eb 3c 36 88 c8 3c 08 42 13 3c
       0.08225177 0.028778903 0.024479013 0.008987911
000250 5c 82 c4 3b e4 84 a4 3c 5e 75 0b 3c c2 bb 90 bd
       0.0059969854 0.020082898 0.008511869 -0.07067062
000260 04 32 9e 3d ba 42 e4 3d f4 75 46 3b 36 f0 b4 3c
       0.077243835 0.111455396 0.0030282708 0.022087198
000270 18 37 41 3d b1 22 96 bd 72 b6 eb bd be 88 19 bd
       0.047171682 -0.073308356 -0.11509408 -0.037483923
000280 b9 ce 10 3d da cf 8f bd 5a 7c 9c 3d 40 07 d4 b9
       0.035353396 -0.070220664 0.07640906 -0.00040441193
000290 d4 fe 91 3d e2 71 a0 bc 34 0a 4d 3d c1 ab 5b bd
       0.07128683 -0.019585554 0.05005856 -0.053630594
0002a0 c6 40 2e bd b8 9a d4 3a cc cb 88 3d 2e bb 3f 3d
       -0.04254224 0.0016220426 0.06679496 0.046809368
0002b0 18 c9 dc bc 7c ee 25 3c 0c a2 a8 3d 50 f4 0f bc
       -0.026951358 0.01012766 0.08234033 -0.008786276
0002c0 b2 88 fd 3d 76 e2 8d 3d db d5 28 3d b5 bd a9 3d
       0.12379588 0.069279596 0.041219573 0.08288137
0002d0 f7 ac 8a bd 9b e8 a0 3d 0e 9f 9a bd fe d5 4b bd
       -0.06771272 0.07856866 -0.075498685 -0.049764626
0002e0 47 19 51 bd 86 36 ad 3c a7 55 14 3d 58 06 3a bd
       -0.051049497 0.021144163 0.036214497 -0.045416206
0002f0 3e c4 52 bc 90 fc 31 bc 50 37 bb bb 38 82 4f bb
       -0.012864171 -0.010863438 -0.005713381 -0.003166331
000300 ce d4 ad 3d 9e 8c 03 bd a4 67 a7 bc 6c 50 9a 3d
       0.08487855 -0.032116525 -0.020435162 0.075348705
000310 da 09 9d 3c 5c 6f 25 bc ae 08 4b 3d 72 c0 2c 3d
       0.019169737 -0.010097351 0.049568824 0.042175718
000320 40 39 11 3c cf f8 93 3c 79 03 42 3d 78 ce 83 3c
       0.008863747 0.018062977 0.047366593 0.016089663
000330 55 39 a3 3d 96 05 31 3d 68 4a 88 3d 41 4a c6 3c
       0.079699196 0.043218218 0.06654817 0.024205329
000340 21 3e ba 3d 16 0c 1c bd de 98 92 bd c3 9d de bd
       0.090938814 -0.038097464 -0.07158063 -0.108699344
000350 91 da aa 3d d6 bc b6 bd e5 0d d9 bd c1 dc 0f 3d
       0.083424695 -0.08922736 -0.10598353 0.035122637
000360 bd 90 cd bc f6 8c 05 3d ce 5e de 3d bd 58 47 bd
       -0.02509343 0.032605134 0.10857926 -0.04866861
000370 0e 85 86 bd d8 26 b2 3d 81 fa 97 3d 22 e4 8d bc
       -0.06568347 0.08698815 0.07420827 -0.017320696
000380 b8 1d 8f 3d 34 b9 dd bc b4 9a 82 3d 1f d8 ad 3d
       0.0698809 -0.02706585 0.063771635 0.084884875
000390 26 ac fc 3d 92 e0 50 bc 9f 3b 90 3d 6e 71 c4 3d
       0.12337522 -0.012748854 0.07042622 0.095919475
0003a0 a4 81 f7 3c a8 74 c2 3d 89 fd b3 3d 5f e9 d3 bd
       0.030213185 0.09494907 0.08788592 -0.103472464
0003b0 ff a0 48 3d f8 22 8e 3d ba 12 c1 3c af 09 45 bd
       0.048981663 0.069402635 0.0235685 -0.048104938
0003c0 b5 99 c7 3d 2e 6e 11 3d d2 fb f4 3d 0a 94 cd 3d
       0.09746114 0.035505466 0.119620934 0.10038002
0003d0 f0 be 82 3b 5c 37 0f bc 71 51 69 bd ed 9f 6c bc
       0.0039900467 -0.008741226 -0.056962434 -0.014442426
0003e0 2e 05 57 bd 12 78 b5 3d dd 3e 02 3d 43 4b 0d bd
       -0.052495174 0.08860792 0.031798232 -0.034495603
0003f0 f2 cd cd bd 09 80 57 bc fc d4 82 3d f8 fb 77 bb
       -0.100490466 -0.013153085 0.0638828 -0.0037839394

conv3.bias f4 [32]
000000 53 20 a8 3d 82 fb 83 bd d0 ea 0f bd e3 4d 83 3c
       0.0820929 -0.06444456 -0.035136044 0.01602835
000010 e8 a2 d6 bb 5a 15 20 bd bd ee 65 bd 94 a3 c7 bd
       -0.0065501817 -0.039082862 -0.05613588 -0.09747997
000020 2e 58 96 3c 2c 61 85 3c e0 1b 8e bd da 6c 94 bd
       0.018352594 0.016281687 -0.069389105 -0.07247324
000030 40 64 02 bd cb 06 b8 bd d4 80 a1 bc f0 2b 2e bd
       -0.031833887 -0.08985671 -0.01971475 -0.04252237
000040 30 c9 f2 bb 85 15 e3 bd 3a f5 88 3c ee 9f 9b 3d
       -0.0074092373 -0.11088089 0.016718496 0.075988635
000050 e5 00 8b bd f0 99 6d bb e2 4d 1d 3c 00 94 de bd
       -0.0678728 -0.0036255084 0.009601088 -0.108680725
000060 a8 40 10 bd 7a 93 ce bc 2a 20 77 bc 00 fb 96 bc
       -0.03521791 -0.025216807 -0.015083352 -0.018430233
000070 c5 9f d2 bd 68 ab 43 3d 49 3d d5 3d 9c 50 74 bc
       -0.1028438 0.047770888 0.1041208 -0.014911797

conv4.weight f4 [32, 32, 3]
000000 fa 12 cb bd 4a 84 8c 3d e2 dd af bd 11 cc a2 3c
       -0.09915729 0.0686117 -0.08587243 0.019872697
000010 ac 0d 88 3d be 2b 9e 3c 7c 9c a9 bc f9 c2 72 3d
       0.06643233 0.019307967 -0.0207045 0.05926797
000020 a2 ac b5 bd 6d a2 04 bd 29 df ea 3d c6 48 38 3d
       -0.08870818 -0.032381464 0.11468346 0.044991277
000030 00 e0 7b 3d 00 59 48 39 f8 c3 cb 3d 72 a1 cb 3c
       0.06149292 0.00019106641 0.099494874 0.024857257
000040 70 c2 ef 3d d6 03 86 3d dd 06 b0 bd 26 b7 cc 3d
       0.11707008 0.065437004 -0.08595059 0.0999587
000050 eb 5d 30 bd 58 14 b1 3d fc cb dd 3c 02 5e 04 3e
       -0.043058317 0.086464584 0.027074806 0.12926486
000060 10 0a 8f bd bf 4d e9 bd ee a6 dd bd 1d 54 74 bd
       -0.06984341 -0.11391782 -0.10822855 -0.05965053
000070 98 5c b4 3d 6d 1e 96 3d 40 3b 18 bb 08 24 be 3d
       0.08806723 0.07330022 -0.0023228675 0.09284216
000080 e5 ae c3 3d 7f a6 01 bd 7c f8 2f 3c 6f 89 bf 3d
       0.09554843 -0.031652924 0.010740396 0.09352385
000090 da 35 c4 bd 95 ba 29 bd c4 e6 af bd 3e 0a d4 3c
       -0.09580584 -0.041437704 -0.08588937 0.02588379
0000a0 98 5a 76 bd 8a 1d 8b 3d 52 9f 38 bc 69 90 7f bd
       -0.06014499 0.067927435 -0.011268454 -0.06239358
0000b0 10 fd 91 3a 91 da 50 3d 2e ab c9 3d ae 69 57 bd
       0.001113804 0.05098969 0.09847103 -0.05259102
0000c0 1d 7d 6c 3d e8 15 cb bd 79 e9 64 3d ed 33 35 3d
       0.057736505 -0.09916288 0.05588672 0.044238973
0000d0 6d c1 9f bd 92 69 e5 3c 7a 78 7f 3d e3 68 4a 3c
       -0.07800565 0.028004441 0.062370755 0.0123541085
0000e0 03 ae 8a bd 69 56 7d 3d 32 58 4b bd fc 70 9a bd
       -0.06771471 0.061849985 -0.049644656 -0.07541081
0000f0 4f 2b 03 3d 5a 50 cc bc 13 be 0e 3d b8 37 d2 3d
       0.032023724 -0.024940658 0.034849238 0.10264534
000100 20 3f 8f bd 40 0d 4d bd 4c 72 c4 3d d1 4b d9 bd
       -0.06994462 -0.050061464 0.09592113 -0.10610164
000110 1a b1 08 3d e2 64 00 3c 8c 87 ad bd 49 88 3f 3d
       0.033372022 0.007836552 -0.08473119 0.04676083
000120 06 e5 56 bd 6a 61 bb 3d 0f 49 c1 3d aa 72 82 bd
       -0.052464508 0.0914944 0.09437763 -0.06369527
000130 17 13 e3 bc 09 e0 a0 3d a4 10 19 bd 9a 30 ed bd
       -0.027719064 0.07855231 -0.037369385 -0.11581536
000140 d1 21 98 bd ae 23 b1 bd 6c 74 02 3d 69 1f 60 3d
       -0.07428325 -0.086493835 0.03184931 0.054717455
000150 f7 f9 8c 3d 6c 8d 81 bd ee af aa 3d c4 8a 85 bd
       0.068836145 -0.06325802 0.08334337 -0.06520608
000160 10 72 7c 3d 6f f3 74 bd b3 51 a1 bd ad ae 39 bd
       0.061632216 -0.05980247 -0.07876911 -0.0453326
000170 90 e5 21 bb 6d 17 24 3d 77 5c d0 bc 41 38 f0 3d
       -0.002470348 0.040061403 -0.025434716 0.117294796
000180 2e 4e 20 3d d8 57 b1 bd 66 8b 54 3d 4e 1e ba bd
       0.039137058 -0.08659333 0.051890753 -0.090878114
000190 59 8e 20 3d e4 2e 97 3d f2 b9 b7 bd 36 64 88 bd
       0.039198253 0.073819906 -0.08971013 -0.06659739
0001a0 ad d8 2d bd 0e 34 e8 3d 3e 3a 71 bd 40 7c 11 bd
       -0.042442966 0.11338054 -0.058893435 -0.035518885
0001b0 b6 c3 62 3d d4 93 73 3d fe 72 4a 3d da 4c f0 bd
       0.055362426 0.05946715 0.04942607 -0.11733408
0001c0 e2 16 9a 3c c0 7b 13 bb 58 ed cd 3d 59 2e 86 bc
       0.01880974 -0.002250418 0.10055035 -0.016379522
0001d0 ae 47 81 bd 0d 63 bc 3c 69 c0 cb 3c 3a 53 7e 3d
       -0.063125 0.02299645 0.024872022 0.06209109
0001e0 08 0e 92 3d 96 3f f7 3c 00 31 b7 3b 6d 10 c2 3d
       0.071315825 0.030181687 0.005590558 0.09475789
0001f0 ae c0 26 3d 79 80 ae bc 8d 90 1d bd e5 61 5b bd
       0.040711097 -0.021301495 -0.038467932 -0.053560156
000200 38 6d 57 bc 03 b1 6a bd 18 b9 18 bc 5b b6 aa bd
       -0.013148598 -0.057297718 -0.009321474 -0.08335563
000210 08 03 77 bd c6 1d 1d bd 5b 0d 54 bd b9 57 09 3d
       -0.060305625 -0.038358472 -0.05177055 0.033530924
000220 5c 60 be bc 2b b9 a3 3d 0d a4 d3 3d 5c a4 ac bd
       -0.023239307 0.07994302 0.103340246 -0.084297866
000230 9d 3f c4 bc 86 bc 33 bd d2 85 cb bc dc a1 d0 bd
       -0.023956114 -0.04388096 -0.024844084 -0.10187122
000240 3c 56 f0 bd d9 c4 5e 3d b5 40 77 bd 1d 71 e8 3c
       -0.11735198 0.054386947 -0.060364444 0.02837425
000250 6f f9 37 3d ac 03 a0 3d 30 a7 6e 3b d6 9a 71 bd
       0.044915613 0.078132 0.003641557 -0.058985554
000260 1c 89 60 3d 30 15 af 3d 51 30 b5 3d 22 75 d1 3c
       0.054818258 0.08548963 0.08847106 0.025568549
000270 10 57 4d 3c 53 d1 71 bd 10 9f 1b bc 90 f1 80 bd
       0.012532964 -0.059037518 -0.009498373 -0.062960744
000280 56 be 4b 3d 1b f3 ae bd f5 44 88 bd 13 e3 57 bd
       0.049742065 -0.085424624 -0.066537775 -0.05270679
000290 55 9d f6 3c 5d 7b 96 3d 20 6c 46 3c 3b 27 e6 bc
       0.030104319 0.073477484 0.01211074 -0.028094878
0002a0 60 08 26 bc a3 22 5f 3d be 15 3e bd 03 6f a5 bd
       -0.010133833 0.05447639 -0.046407454 -0.080778144
0002b0 c5 b1 c5 bd 5b 17 66 bd 58 4c ce 3c bb 8b bf 3d
       -0.096530475 -0.056174617 0.025182888 0.09352823
0002c0 c4 dc a6 3b c8 ba ce 3d c0 02 10 3d c4 8b d9 bd
       0.0050922353 0.100942194 0.035158873 -0.10622361
0002d0 8b 3e c4 3d ea f5 49 bd b1 0d ab bc 2f 1f 85 3d
       0.095822416 -0.049306788 -0.020880552 0.065000884
0002e0 af 59 f1 3c 9e 93 3e bd c7 b9 06 bd e0 d0 c7 bc
       0.02946171 -0.046527497 -0.032892015 -0.024391592
0002f0 f1 23 95 bc 35 5f 87 bd 68 c3 b1 bb c8 5d 68 bd
       -0.018205615 -0.06609956 -0.0054249056 -0.05673006
000300 ec 4d 88 bd bd 8f 10 bd 19 70 d1 3d b8 0c eb bb
       -0.066554874 -0.03529333 0.10226459 -0.007173147
000310 67 4d 2b bd 0b e2 91 3d 2e 07 c7 3d a4 ab 86 3d
       -0.041821864 0.071231924 0.09718166 0.065757066
000320 34 6f a6 bd a6 99 c3 bd 8d 86 61 bd 4a 64 cb bd
       -0.08126679 -0.095507905 -0.05505996 -0.09931238
000330 00 1a 4a b8 03 d9 eb bd 6e 54 07 be f4 1c 8a bd
       -4.8184767e-05 -0.11516001 -0.13215801 -0.067438036
000340 a0 2b 9d bd 23 c9 29 3d cb 09 85 3c 44 81 96 bb
       -0.076743364 0.041451585 0.016240021 -0.0045930464
000350 48 ec 39 3b 77 2f 9a bd ce 2f 9e 3d 78 01 12 bd
       0.0028369594 -0.075285845 0.07723962 -0.035645932
000360 fa 32 61 3d 0a 64 b8 bd 00 20 85 3d ea 99 85 3d
       0.054980256 -0.09003456 0.06500244 0.065234974
000370 12 84 89 3d bd b1 df bd 4e ae bf 3d 26 90 3a 3d
       0.067146435 -0.10922573 0.09359418 0.045547627
000380 6e 84 ab bd 53 af 46 3d ac 16 9b 3d 98 83 af 3c
       -0.08374868 0.048507046 0.07572684 0.021425053
000390 a9 c9 ea 3c d9 13 ba 3d 21 66 75 3d 42 f6 94 3c
       0.028660612 0.09085817 0.05991185 0.018183831
0003a0 82 27 da 3c 5f f4 b9 3d 00 12 c8 3d 23 8b b2 bc
       0.026630167 0.09079813 0.09769058 -0.021794861
0003b0 aa 96 4e 3d 50 15 b5 bd 37 e8 5b bd cc b8 75 bd
       0.050436653 -0.08841956 -0.053688254 -0.05999069
0003c0 3c 29 98 3d 51 51 4c bd 97 ee 07 3d 28 8f b8 bd
       0.0742974 -0.049882237 0.03318652 -0.0901168
0003d0 38 ca 34 3c dd dc 2e 3d 25 b9 99 3d be c9 6c 3c
       0.011034541 0.0426911 0.07506017 0.014452396
0003e0 3b 8c 40 bd a0 28 c7 bd a8 54 65 bd 38 75 0a bd
       -0.047008734 -0.097245455 -0.055988938 -0.033803195
0003f0 aa f8 b1 bc 90 c5 63 bd 60 4b 45 bc 00 86 b4 b9
       -0.021725018 -0.055608332 -0.012041897 -0.00034432113

conv4.bias f4 [32]
000000 b2 8e 37 3d bc 8d a8 3d 71 b9 c7 bd a1 b9 1a bd
       0.04481382 0.08230159 -0.09752167 -0.037774686
000010 6c de a0 bb 00 9c c7 b9 b4 d5 30 3d 50 59 c2 bd
       -0.0049093273 -0.00038072467 0.043172553 -0.09489691
000020 62 33 7a bc 8f a6 a5 3d 2e 6a 33 bd f7 8a dc bd
       -0.01527104 0.08088409 -0.043802433 -0.10768693
000030 57 b1 c8 3c c6 f5 96 bc 8a 7c 29 bd f7 3f 47 bd
       0.024498625 -0.01842774 -0.041378535 -0.048644986
000040 16 ba ac 3d 96 f9 94 bd 66 92 4b bd 18 ab f6 3b
       0.084339306 -0.07274167 -0.049700163 0.00752772
000050 27 89 3c bd 41 4f ef bc 54 0f 0f 3d 80 02 e7 b9
       -0.046029236 -0.029212596 0.034926727 -0.00044061616
000060 c0 11 a7 3d 7b f6 8c bc 31 f9 58 bd 38 4c 20 bd
       0.081576824 -0.017207375 -0.052972022 -0.039135188
000070 de 5f cf bd 5b 87 b5 bd 5e 44 a6 bd f2 7a 1a bd
       -0.10125707 -0.08863708 -0.08118509 -0.037714906

conv5.weight f4 [32, 32, 3]
000000 30 44 87 bd 48 c8 b7 3d 16 87 86 3d c9 a5 4f bd
       -0.066048026 0.089737475 0.06568734 -0.050695214
000010 6c ac a4 bd 9d 49 fc bd 17 26 63 bd c6 dc 80 bd
       -0.08040699 -0.12318728 -0.055456247 -0.06292109
000020 e5 b2 57 3d fe 4a 04 bc f0 c4 85 3b ad 64 19 3d
       0.05266084 -0.00807452 0.0040823147 0.037449528
000030 5b a6 f1 bd c8 65 a2 3d 4f 03 cf 3d ac c3 a8 bd
       -0.11799308 0.079295695 0.10108053 -0.082404464
000040 ea f5 12 bc a9 99 e1 3d 3b 3e 52 bd 4a bf 6f 3d
       -0.008969763 0.110156365 -0.05132888 0.058532037
000050 7e d3 a4 3d c4 b7 da bd 80 40 b9 3b b5 17 a4 3d
       0.080481514 -0.10679582 0.005653441 0.08012334
000060 2a 69 32 bc b8 c5 2d 3b 78 bc 2c 3c 8e 15 fa 3c
       -0.010889331 0.0026515555 0.010542981 0.030527856
000070 d9 c7 8a 3d 60 9e ac bb 0e ae 9b bd e8 e9 f8 3c
       0.06776399 -0.005267903 -0.07601558 0.030384973
000080 8d 26 82 3d fb 0e 82 bc 53 72 b3 3d b2 15 d1 3d
       0.06355009 -0.015876284 0.0876204 0.10209216
000090 2c ff 24 3c 40 01 33 3d 9b 2b 13 3d 10 22 e9 3a
       0.010070603 0.043702364 0.035930257 0.0017786641
0000a0 ac 78 2f 3d 1b 0c cc bd 5a 68 c5 3d 40 19 bd 3d
       0.04283969 -0.099632464 0.09639044 0.09233332
0000b0 5a 0e b6 3c 4d 35 68 bd e5 22 3c bd 8a ec 2f bc
       0.02222364 -0.056691457 -0.045931716 -0.010737548
0000c0 d8 f3 e7 bc e1 d9 94 3d 76 89 c6 3d 31 95 8a bd
       -0.028314516 0.072681196 0.09694187 -0.06766737
0000d0 94 38 05 bc 32 4c 89 3d 00 b8 c1 bd 17 a3 b6 bd
       -0.008131165 0.06703986 -0.09458923 -0.08917826
0000e0 d8 11 c4 3d 8e a3 b7 3d 0a 99 b7 3d 66 f6 16 bd
       0.09573716 0.089667425 0.08964737 -0.036856078
0000f0 48 49 04 3d ca 48 c5 3d f6 67 9f bd a8 b8 c8 bb
       0.03229645 0.09633024 -0.07783501 -0.0061255284
000100 07 82 15 3d a9 b3 a4 bd e0 3f 62 bc 1a 68 b4 3d
       0.036500957 -0.0804208 -0.013809174 0.08808918
000110 74 50 2c bc 20 ef af 3d 77 f7 ad 3d 76 e4 82 3d
       -0.010517228 0.08590531 0.08494466 0.06391232
000120 bc f3 cb 3b 50 9e 9c 3d 9c 7e cb bd 21 1a 02 3d
       0.0062241238 0.07647383 -0.09936258 0.0317632
000130 40 1c 41 ba ac 02 15 bd 2f c5 47 3d 66 de 38 bc
       -0.00073665753 -0.0363795 0.048772033 -0.011283493
000140 3e 69 c2 bc 17 17 95 bd 46 b7 f3 bc 00 42 bf 3d
       -0.023731824 -0.07279795 -0.029750478 0.093387604
000150 34 20 9e 3d cc 21 c8 3d 7c 4b db 3c e0 4e 85 bd
       0.07720986 0.09772071 0.026769392 -0.06509185
000160 38 d0 ec 3c 98 7b bf 3b 58 f9 96 3d 75 c6 f3 bd
       0.02890788 0.005843591 0.07371777 -0.11903087
000170 f2 1b 5f 3d 65 93 cb bd c9 b6 a0 3d bf ee 8d bd
       0.05447001 -0.09940223 0.078473635 -0.06930303
000180 5d fd aa bd 32 ec 88 bd d8 21 d8 bc 46 8a 23 3d
       -0.083491065 -0.06685676 -0.026383325 0.03992679
000190 fc 39 2d bc 7c c8 a7 3d a7 a2 aa bd f0 33 a1 3d
       -0.010572907 0.08192536 -0.08331805 0.078712344
0001a0 30 98 cd 3c 84 2c 83 3d a6 3f bf bd 7e 60 de bc
       0.025096983 0.06404975 -0.09338312 -0.02714562
0001b0 1d e5 35 3d e8 57 53 3a b2 3c da 3c 75 17 a1 bd
       0.044407953 0.000806211 0.02664027 -0.07865802
0001c0 9f 37 bc bd 71 2d ad 3d bc f9 42 3d 1e ae 5c bd
       -0.091902964 0.08455933 0.047601447 -0.05387699
0001d0 ab 96 04 bd 84 66 39 bd 58 e1 26 3d d1 a7 7a 3d
       -0.03237025 -0.045263782 0.04074225 0.0611952
0001e0 77 8f 70 3d 50 83 e2 3d 36 95 24 bc 21 3c 44 3d
       0.05873057 0.11060202 -0.01004534 0.047908906
0001f0 80 08 35 bb 3c cb 3b bd be 14 88 3d 68 88 09 3d
       -0.0027623475 -0.045848116 0.06644581 0.033577353
000200 c4 d4 06 bd b6 ff 85 bd ef 0d a5 3c 78 8a a9 3d
       -0.032917753 -0.065429136 0.020148246 0.08278364
000210 e9 3f 4c bd 68 83 77 3d 00 89 f7 b9 a6 d8 43 3d
       -0.049865637 0.060428053 -0.00047213584 0.047814034
000220 f8 08 ef 3a 13 7c c7 bd c2 76 ae 3d 15 5d 80 bd
       0.0018236926 -0.09740462 0.08518745 -0.06267754
000230 00 28 61 b9 54 ff ba 3b f6 77 45 3d f2 54 8e 3d
       -0.00021472573 0.005706707 0.048210107 0.06949796
000240 bc ca 65 3d ed 9a a2 bd 6d ae 87 3c 10 f5 d3 3c
       0.056101546 -0.07939706 0.016562665 0.02587369
000250 81 77 92 3d aa 7d 96 bd 38 9a 3b bb a8 ae 24 bd
       0.071517 -0.07348187 -0.0028625857 -0.040205628
000260 0f bf 1d bd 34 7e 1d bd a4 ac 9c bd 6e 9d c1 3c
       -0.038512286 -0.038450435 -0.07650116 0.023634639
000270 ec 55 ba 3d f1 8d ac 3c 81 a0 cb bc 92 41 d9 3d
       0.090984195 0.021063777 -0.024856808 0.1060821
000280 fa 61 fe 3c 45 7b 93 bd 96 47 7a 3d 72 6b 87 3d
       0.031052578 -0.07201246 0.061103426 0.066122904
000290 85 86 72 bd 03 6a 56 3d f8 92 92 bd 66 32 59 bd
       -0.05921032 0.052347194 -0.07156938 -0.05302658
0002a0 87 05 9e 3d 34 56 5c 3d aa bf 98 3d e0 14 73 3c
       0.07715898 0.053793147 0.07458432 0.01483652
0002b0 00 63 18 bd e8 9c f8 bb a0 92 0a 3e e0 58 ae bd
       -0.03720379 -0.007587064 0.13532495 -0.08513045
0002c0 b7 25 87 bd f9 94 b6 bd 2c b4 d1 bc dc 7d 0c 3d
       -0.065989904 -0.08915133 -0.025598608 0.034299716
0002d0 0d b6 9e bd 10 7f b4 bd 0b 5c c0 bd 06 9d fa bd
       -0.07749567 -0.08813298 -0.09392556 -0.12236981
0002e0 3c e6 08 bd f4 3f 1d bc e4 8f 91 3d 5a 90 45 bd
       -0.033422694 -0.009597767 0.07107523 -0.048233368
0002f0 32 94 1a bd fc 1f 1e 3d 58 4c 3f 3c 5a 16 1e bd
       -0.037738986 0.03860472 0.011675917 -0.038595535
000300 a5 1d be bc 6a 14 9f 3d 98 29 80 3b 59 79 aa bd
       -0.023207495 0.077675655 0.0039112084 -0.083239265
000310 de 71 cf 3d 69 c5 ee 3d d2 18 eb bd 7c cb 38 bb
       0.1012914 0.11658747 -0.114793435 -0.0028197458
000320 f8 97 33 3d d4 42 33 3d 3f db 90 bd 34 5f b2 3d
       0.0438461 0.043764904 -0.07073068 0.08709565
000330 ae 9b 0f bd dc 32 97 bd a8 fc 6b 3c 80 91 ff bc
       -0.035060577 -0.073827475 0.0144035 -0.03119731
000340 5c 67 6e 3d fd 40 4b 3d d6 1e 5c 3d 1b a6 8f bd
       0.05820404 0.049622525 0.053740345 -0.07014104
000350 34 2f bb 3c 5c 91 65 bd bd 74 6f bd 00 82 aa 38
       0.022849657 -0.05604683 -0.05846094 8.130446e-05
000360 b4 40 0a bd f6 e3 64 bd 70 37 cf bd cb 59 cf 3d
       -0.033753112 -0.055881463 -0.10117996 0.101245485
000370 be 51 7a 3d 5f 18 c1 bd b1 03 ca bd 06 f1 47 bd
       0.06111311 -0.094284765 -0.09863985 -0.048813842
000380 14 68 c1 3c 92 fc ce bc da 10 e7 bc e6 e8 15 bd
       0.023609199 -0.02526692 -0.028206278 -0.036599062
000390 a2 18 9f 3d 34 a1 34 3d 5a 8f 95 3d a0 c8 af bd
       0.0776837 0.044099048 0.07302733 -0.08583188
0003a0 3d d1 dc bc 4d d1 6d bd 20 70 cf ba e6 88 1c 3c
       -0.026955241 -0.058060933 -0.0015826263 0.0095541235
0003b0 30 a7 c3 3d bc fc 1a 3e 38 c3 94 3d d0 97 70 3c
       0.09553373 0.15135473 0.072637975 0.014684632
0003c0 3f 81 e4 3c ff 3b cd bd 44 a3 99 bd 0c 15 76 3d
       0.02789366 -0.10021209 -0.075018436 0.060078666
0003d0 73 a9 ba bd 56 5b 8d bc 46 8f 52 3d 9f 86 83 bd
       -0.09114351 -0.017255466 0.051406167 -0.06422161
0003e0 38 01 9d 3d 27 49 56 3d 81 88 54 bd d2 d9 d8 3c
       0.07666248 0.052315857 -0.051887993 0.026471052
0003f0 ee fd 79 3d fe b7 c6 3d 28 c3 91 3b d6 1d 01 bd
       0.06103318 0.097030625 0.0044483133 -0.031522594

conv5.bias f4 [32]
000000 7c 18 c4 3c 44 e6 ac 3d f7 3f 60 bd 2b 8c aa bd
       0.023937456 0.08442357 -0.0547485 -0.08327516
000010 bb af 69 3d 6e f2 93 bb 52 f1 81 bd d5 fb 54 bd
       0.057052355 -0.004514984 -0.06344856 -0.05199798
000020 d4 a2 ee 3c 4c ad ee bc 3d be 28 3d 03 82 23 bd
       0.029130377 -0.029135369 0.04119705 -0.03991891
000030 f0 86 0c 3d 7f c0 b7 3d 96 80 a8 3b c6 0f 87 3d
       0.034308374 0.089722626 0.0051422818 0.065948054
000040 18 fc 9e bd 78 45 af bd 9c 03 c6 bd 58 b4 60 3c
       -0.07762927 -0.08558172 -0.09668657 0.013714872
000050 ab d6 04 bd 1a 6a 97 bd 7d 60 4f bd 78 ca 8f 3d
       -0.032431286 -0.07393284 -0.050629128 0.0702104
000060 8f 77 42 3d 4c 0a 3f 3d 87 3b 58 3d 68 83 87 3d
       0.0474773 0.04664068 0.052791145 0.06616861
000070 f6 b2 a2 3c 28 ff 9d 3c 38 94 85 bd 26 b4 a5 3d
       0.019860726 0.019286707 -0.06522411 0.08091001

conv6.weight f4 [32, 32, 3]
000000 98 bb 73 3d c8 7d b5 3d ae 04 9d 3d ab 85 42 bd
       0.059505075 0.088618815 0.07666908 -0.047490757
000010 b2 3d cf bd c2 cf 4d bd 53 e5 41 3d 78 a4 1b 3d
       -0.10119189 -0.05024696 0.04733784 0.037998646
000020 53 4e d8 bd 72 ff 4d 3d 5c ef b9 bd ee 99 fc bc
       -0.10561814 0.05029244 -0.09078857 -0.030835118
000030 02 54 bf 3d 5a 5c 96 bc 54 d2 b7 3c ad 8e 07 3d
       0.09342195 -0.018354584 0.02243916 0.03309505
000040 52 0f 91 bd 92 c8 b5 3d fc e2 9e bc 06 64 99 bd
       -0.07083 0.088761464 -0.019395344 -0.07489781
000050 7a 55 24 3d 5c 4d ed 3c a0 05 dd 3a 12 d4 7f 3c
       0.04012058 0.028967552 0.0016862638 0.015614526
000060 a0 d3 49 bd ec 73 22 bd 68 6d e0 3b 50 3d bf 3b
       -0.049274087 -0.039661333 0.0068489797 0.0058361664
000070 04 35 6e 3d 5e a8 7a 3d 9e 05 8e bd 68 43 eb 3d
       0.05815603 0.061195724 -0.06934665 0.11487466
000080 fa 4d ba 3d 50 f2 78 bd cd 19 90 bd 0c b7 3f 3d
       0.09096904 -0.060777962 -0.07036171 0.046805426
000090 d6 4f 1c bd b2 99 df 3d 10 d6 26 bd 34 b7 c8 3d
       -0.038162075 0.10917987 -0.04073149 0.09800568
0000a0 dc 6b 8d 3d 0c 58 3f 3d 4c 33 14 bc 22 2a 41 bd
       0.06905338 0.046714827 -0.009045433 -0.04715932
0000b0 88 32 b6 3d a8 1f 45 3d 36 72 0d 3d c7 b7 c9 bd
       0.08896357 0.048125893 0.03453275 -0.09849506
0000c0 18 e0 90 bb e4 36 13 bc 64 e8 19 bd 0f 31 8e 3d
       -0.0044212453 -0.008985255 -0.03757514 0.06942951
0000d0 c8 c0 87 3b 37 81 92 bd 38 31 97 3b 92 4a 4a bd
       0.0041428544 -0.07153552 0.0046140216 -0.049387522
0000e0 fc b8 c7 bc 6a 17 c0 bc f0 df 97 bd 4c ce 7b 3c
       -0.0243802 -0.023448665 -0.074157596 0.015369009
0000f0 13 04 74 bd 52 0a 80 3d 00 33 b6 bd bb 78 a8 3d
       -0.059574198 0.062519684 -0.08896446 0.082261525
000100 80 d7 5e bd 52 9c d9 3d 24 84 ed 3c 24 d9 ae 3d
       -0.054404736 0.10625519 0.028993674 0.0853751
000110 be 3a af 3d 95 07 4e 3d 13 8d 4a 3d 03 78 13 bd
       0.08556126 0.0503002 0.049450945 -0.036003124
000120 c1 e0 f9 bc 51 65 c0 bd 78 55 06 3e de 6a d5 bc
       -0.030502679 -0.093943246 0.13118541 -0.026051935
000130 4b 8c c1 3d a8 29 5a bc a3 c5 c8 bd 3c b5 af bc
       0.09450587 -0.013315596 -0.09803321 -0.021448724
000140 82 e7 22 3d 1d 5a de bc ba ac ae 3c a5 36 6b bd
       0.039771564 -0.027142579 0.021322597 -0.05742516
000150 29 bb 5d 3d 68 54 91 bd d4 9e 74 3d 86 82 01 be
       0.054133568 -0.07096177 0.059721783 -0.12647447
000160 08 65 95 3b 85 71 90 bd 34 5b c6 3c 24 92 04 3d
       0.004559163 -0.07052902 0.02421341 0.032365933
000170 55 00 af 3d 2a 34 9b 3d c5 82 f3 3d 4a 26 a2 bd
       0.08544985 0.07578309 0.11890177 -0.07917459
000180 54 83 79 bd 08 85 7e 3d 52 bc e3 3d ee f5 8a bd
       -0.06091626 0.062138587 0.111199036 -0.067851886
000190 bc c9 3b 3b d6 a7 56 3d d6 6d b6 bc 59 a7 ba 3d
       0.0028654179 0.052406155 -0.02226917 0.0911395
0001a0 dc 8f b7 3d 48 8e 9f bd f0 00 0d bd 22 7d 5e bd
       0.08962986 -0.0779081 -0.034424722 -0.054318555
0001b0 be 91 ac bd 00 f7 d6 39 6e e6 c1 bd 28 ee 7a bc
       -0.084262356 0.0004100129 -0.09467779 -0.01531557
0001c0 75 23 3b 3d 00 ad 27 3c e2 37 a3 bc 87 0d d8 bd
       0.04568811 0.0102341175 -0.019924108 -0.10549455
0001d0 c8 5f 61 3d af 66 08 bd ad ac 7c 3d f0 2a 82 bd
       0.055022985 -0.03330105 0.061688114 -0.06355846
0001e0 20 39 c7 3c ec 6d 8a bd e6 4c e7 3d 1d ee c5 3c
       0.024319232 -0.06759247 0.11293964 0.024161393
0001f0 67 cc 8a bd 38 aa 08 3d 41 d0 6f 3d b4 c1 99 bd
       -0.06777268 0.03336546 0.058548216 -0.07507649
000200 90 13 44 bc 08 c7 06 3d de 0d 19 bc 03 20 2a bd
       -0.011967555 0.032904655 -0.009341685 -0.041534435
000210 a8 10 4e bd a6 ca f9 3c cb bd ab bc 3a 2f a7 3d
       -0.050308853 0.030492138 -0.020964524 0.081633046
000220 04 4b 15 bc 14 a3 a1 bd 16 ba a6 bc a2 a7 90 bd
       -0.009112123 -0.07892433 -0.020352405 -0.070632234
000230 68 71 3d 3c 88 54 bb 3d f0 b5 91 bb 0f 23 00 bd
       0.011562683 0.091469824 -0.0044467375 -0.031283434
000240 bb f1 ce bd cf 13 f6 3c fc cc 91 bd 5f fd fa 3c
       -0.101047 0.030038742 -0.07119176 0.030638395
000250 a1 a3 55 3d 3a 7a af bc a3 d3 82 3d 3a fb 15 3d
       0.052158 -0.021420587 0.06388023 0.03661654
000260 e2 cf 62 3d 5a 0c 14 bd ae d6 cf 3d 45 c0 b9 bc
       0.055374034 -0.036144592 0.10148369 -0.02267469
000270 f0 20 6e bc 2a 62 54 bd 48 01 44 bd 66 36 9f bd
       -0.01453422 -0.05185143 -0.047852784 -0.077740476
000280 42 74 d3 3d 28 e8 a9 3d f6 31 05 bd e8 fc fc 3c
       0.10324909 0.082962334 -0.03251835 0.030882314
000290 06 37 89 bc 7e c9 3d 3d 88 4d 90 bb 92 3d a3 3d
       -0.01674987 0.046334736 -0.0044037737 0.07970728
0002a0 34 16 1b bd dc da 9c 3d fe c5 b2 bd 06 d5 78 bd
       -0.03786297 0.076589316 -0.0872917 -0.06075003
0002b0 7c 95 c1 bd f2 d3 ba 3d 95 f4 1d 3d 1b c9 7a 3d
       -0.0945234 0.091224566 0.03856333 0.061226945
0002c0 8b ed 1c 3d a6 e8 a0 3d fe e2 0d bd ac 0c 6f bc
       0.038312476 0.07856874 -0.034640305 -0.014590424
0002d0 5f 79 22 bd 9d 32 80 3d 0e 6a a0 3d af aa d6 bc
       -0.03966653 0.06259654 0.07832728 -0.026204435
0002e0 f2 64 d1 3d 1e b7 d4 3c c8 4b 1c 3d a6 c8 72 bd
       0.10224332 0.025966223 0.038158208 -0.059273385
0002f0 6b cb 7c bd a6 21 9b bd 8d f2 17 3d da 7b 19 bd
       -0.061717432 -0.07574777 0.03709655 -0.03747163
000300 ae 08 33 bd d8 ac a2 bd 39 27 8d bd 87 e0 de bc
       -0.04370945 -0.079431236 -0.06892247 -0.027206672
000310 f6 b8 d9 3c 44 19 87 3c d3 02 63 3d 20 9f 28 bc
       0.026577454 0.01649154 0.055422615 -0.010291845
000320 22 9f da bd aa 16 86 3d 66 7f ce 3c ae e8 94 3d
       -0.106748834 0.065472916 0.025207233 0.07270943
000330 a0 ba be 3a d8 61 89 bd b0 69 c5 3d 58 49 a7 3d
       0.0014551468 -0.06708115 0.09639299 0.08168286
000340 f4 dd bf 3d 86 f3 92 3d 17 37 25 bd 23 89 53 bc
       0.09368506 0.07175355 -0.04033574 -0.012911114
000350 3b 61 e9 bd 3d b4 3e bd 07 be e9 3c 50 5a 41 bd
       -0.11395498 -0.046558607 0.028532995 -0.04720527
000360 fe 0e ce 3d 0a 69 e2 3d c2 71 a3 3c 6c 77 1a 3d
       0.10061453 0.11055191 0.019951705 0.037711546
000370 90 28 b0 3c dd 4e 9a 3d fb 61 8a 3d 6c 00 0d 3d
       0.021503717 0.07534573 0.067569695 0.03442423
000380 26 13 a1 bd ad aa 8b bc 39 05 8e 3d 82 ae b7 3d
       -0.078649804 -0.017049158 0.0693459 0.089688316
000390 c5 2d 35 3d 5d 25 fb bc 74 c3 e6 3d 04 02 9e 3d
       0.044233102 -0.030657465 0.112677485 0.07715228
0003a0 45 63 6c 3c 42 1b d2 bd 81 2a 24 bd 20 40 9f bd
       0.014427965 -0.10259105 -0.040079597 -0.07775903
0003b0 e3 48 8d 3d ec 1f 3c 3c f8 b5 94 3c c8 d0 e4 bd
       0.06898668 0.01148222 0.018153176 -0.11172634
0003c0 1f 57 ad bd 08 d7 cb bc 96 ff 72 3d dc 52 4f 3d
       -0.08463883 -0.024882808 0.059325777 0.05061613
0003d0 cc 3f 9e bd b2 9e 99 bd a0 49 d6 3c 76 62 b9 bd
       -0.07727012 -0.07500972 0.026158154 -0.09051983
0003e0 32 a0 c9 bd 6b 8a e2 3c 40 6c 02 bb d1 b3 3e 3d
       -0.09845008 0.027653893 -0.0019900948 0.046558205
0003f0 a4 bd 89 bd 01 b1 92 bd 72 ca 86 bd 96 d8 38 3d
       -0.06725624 -0.07162667 -0.06581582 0.045128427

conv6.bias f4 [32]
000000 b2 96 0a be b2 a0 e3 3c 66 9b 2f 3c 78 dd 83 3c
       -0.13534048 0.027786586 0.010718202 0.016096815
000010 11 3b 19 bd 3c 89 71 bd 46 c6 87 bd ab 51 19 bc
       -0.037409846 -0.058968768 -0.066296145 -0.00935785
000020 5c 30 af bd db 75 83 bd 54 e6 e1 bb 0f 59 b8 3c
       -0.08554146 -0.064189635 -0.0068939123 0.022503404
000030 7d 1c 8c 3d 7c 41 9a bc e4 38 48 3d f6 28 a6 bd
       0.06841371 -0.018830054 0.04888238 -0.081132814
000040 72 39 2e bd fa 55 0a 3d 57 03 09 3d 11 8f 8f 3d
       -0.042535253 0.0337734 0.03345045 0.070097096
000050 38 fe 80 3c f6 ef 84 bc 74 eb 49 bd f2 8f fc bd
       0.015746221 -0.016227704 -0.04929681 -0.12332143
000060 d6 e5 a9 3c e4 84 ba 3d 67 c9 96 3d 38 8b 8a bd
       0.020739477 0.09107378 0.07362633 -0.06764835
000070 5e 2b a0 bc b8 e3 a8 3d d0 f0 61 3c 5d 51 8b 3d
       -0.01955193 0.08246559 0.013790324 0.06802628
