FedAvg_3_clients/cli1_model_parameters.pth (torch, 767010 bytes, 51 tensors)

conv1.weight f4 [32, 2, 3]
0	0xbe17f0e5	-0.14837988
1	0x3e18f4ff	0.14937209
2	0x3ca6c484	0.020357378
3	0x3e0d04cc	0.13771361
4	0x3d120125	0.035645623
5	0x3e855681	0.2604256
6	0xbe398b10	-0.18119454
7	0xbe101e96	-0.14074168
8	0xbe0707b3	-0.13186531
9	0x3e22501c	0.15850872
10	0xbe12c011	-0.1433108
11	0x3dd56665	0.10419921
12	0xbe11a13f	-0.14221667
13	0xbe0b1df7	-0.1358565
14	0x3e01f71e	0.12691924
15	0xbe95a468	-0.29226995
16	0x3e2a25a1	0.16615917
17	0xbd30cbc3	-0.043163072
18	0xbdc90e96	-0.09817235
19	0xbd17e8df	-0.037087318
20	0x3e10ed13	0.14152937
21	0xbd2f139c	-0.04274331
22	0x3e90022e	0.28126663
23	0xbd50da25	-0.05098929
24	0xbdafd695	-0.0858585
25	0xbdd0bed3	-0.10192647
26	0x3dcf9f33	0.10137787
27	0xbe16025d	-0.14649339
28	0x3d962f23	0.07333209
29	0x3df620ab	0.1201795
30	0x3ea86dc6	0.3289625
31	0xbe527447	-0.20552169
32	0x3e4cde98	0.20006788
33	0x3df6b3b8	0.120459974
34	0x3c15a32b	0.009133141
35	0xbd039e45	-0.03213336
36	0x3e4a19cb	0.19736402
37	0xbe618992	-0.22025135
38	0x3ce94072	0.028473113
39	0x3e564007	0.20922862
40	0xbc3b7a20	-0.011442691
41	0x3d6f2553	0.058385205
42	0xbd79e2f1	-0.061007444
43	0x3e4ecb20	0.20194674
44	0xbda24157	-0.07922619
45	0x3dd15070	0.1022042
46	0xbd9bdd8b	-0.07610615
47	0xbdfd81c7	-0.12378269
48	0x3e1fe514	0.1561473
49	0xbe186ad9	-0.14884509
50	0xbad7f2e1	-0.0016475582
51	0xbe2bfc95	-0.16795571
52	0x3dbaa8f7	0.09114259
53	0xbd51ddd0	-0.051236928
54	0x3e3244de	0.17409083
55	0x3de3748b	0.11106213
56	0xbdbe4f25	-0.09292439
57	0xbe6831e8	-0.22675288
58	0xbd1fc418	-0.03900537
59	0x3e1fecdb	0.15617697
60	0xbdcdf325	-0.10056142
61	0xbe2eb229	-0.1706015
62	0xbd0cfc88	-0.03442052
63	0xbd6b1e6b	-0.057402056
64	0x3de40d99	0.11135406
65	0xbe939171	-0.288219
66	0x3e07df73	0.13268833
67	0xbe2d2c6c	-0.16911477
68	0xbe8d12f6	-0.2755353
69	0xbe98f901	-0.29877475
70	0x3dfffca8	0.12499362
71	0xbd66ca67	-0.05634537
72	0xbe038807	-0.12844859
73	0x3e07ede8	0.13274348
74	0x3ba2fe5c	0.0049741697
75	0xbd8f4ce8	-0.069970906
76	0x3e276919	0.16348685
77	0x3e189682	0.14901164
78	0xbe18df7a	-0.14929
79	0x3e8f37de	0.2797231
80	0xbe00f1cf	-0.12592243
81	0x3e88c0a2	0.26709467
82	0x3dac4079	0.08410735
83	0xbdc8b295	-0.09799687
84	0xbe63e141	-0.22253896
85	0x3dbe0183	0.09277632
86	0xbd53e84d	-0.05173521
87	0xbc36903b	-0.011142786
88	0x3c4bf8d5	0.012449463
89	0xbdb62413	-0.08893599
90	0xbd85c561	-0.06531788
91	0xbe0c5a09	-0.1370622
92	0x3e3cfbd2	0.18455437
93	0xbde20d91	-0.11037744
94	0x3d89f3c5	0.067359485
95	0x3e2ec7b9	0.17068376
96	0xbe252b87	-0.16129886
97	0xbe1f4bc8	-0.15556252
98	0xbdde46cd	-0.10853348
99	0x3deb1423	0.1147845
100	0x3e61befb	0.2204551
101	0xbc148ec0	-0.009067237
102	0x3e9e803c	0.3095721
103	0x3db8b643	0.09019139
104	0x3dba1834	0.09086648
105	0x3dc9e1eb	0.098575436
106	0xbe2dc945	-0.1697131
107	0xbcd35968	-0.025799468
108	0xbdf01265	-0.117222585
109	0x3dbd43d3	0.09241452
110	0x3c4263d5	0.011864622
111	0xbe1fc9ce	-0.15604326
112	0xbd66314d	-0.05619936
113	0x3e0beae9	0.1366383
114	0xbe733b9d	-0.2375321
115	0xbdf0fc1d	-0.11766837
116	0x3dd83159	0.10556287
117	0x3e3dba35	0.18528064
118	0xbea10995	-0.31452623
119	0x3e2a91a3	0.16657118
120	0xbe3b8cce	-0.18315431
121	0x3d01212b	0.031525772
122	0x3ea8dc36	0.32980508
123	0xbc405c8b	-0.011740814
124	0xbe0ff8d6	-0.14059767
125	0xbdd18f8d	-0.10232458
126	0xbc94bb73	-0.018155789
127	0xbd43ec94	-0.04783304
128	0x3b4bc600	0.003109336
129	0xbdc92713	-0.09821906
130	0x3d480218	0.04883012
131	0xbc9c3e50	-0.019072682
132	0x3dad4a48	0.08461434
133	0x3e51941d	0.20466657
134	0xbdef6430	-0.11689031
135	0x3e0cc1a1	0.13745739
136	0xbdfc9efb	-0.123350106
137	0xbc2d2b80	-0.010569453
138	0x3e37402f	0.17895578
139	0xbde82d86	-0.11336808
140	0xbd58d5cb	-0.052938264
141	0x3c879460	0.016550243
142	0x3dbeb2f5	0.09311477
143	0xbcad92e0	-0.0211882
144	0xbd715e33	-0.058927726
145	0x3dd79f78	0.10528463
146	0x3dffb24d	0.1248518
147	0xbc585820	-0.013204604
148	0x3de639e1	0.11241508
149	0xbe89030e	-0.26760143
150	0x3e032f5f	0.1281104
151	0xbdfe937b	-0.124304734
152	0x3e0d9746	0.13827237
153	0xbd49be91	-0.049254004
154	0xbcbdcff3	-0.023170447
155	0xbe4a473b	-0.19753735
156	0xbd406dba	-0.046979643
157	0x3dc2fa0c	0.09520349
158	0xbd379669	-0.044821177
159	0x3c660a4b	0.01404054
160	0xbe19247d	-0.14955325
161	0x3e2b5e20	0.16735125
162	0xbe1aa337	-0.15101324
163	0x3c596d83	0.013270739
164	0x3e0c9f79	0.13732709
165	0x3d579d65	0.052640337
166	0xbdd01f45	-0.10162214
167	0xbe050cca	-0.1299316
168	0xbd6d0f38	-0.05787584
169	0x3d96c53d	0.07361839
170	0xbc7e54ed	-0.015523178
171	0x3e851dcf	0.25999305
172	0x3e56afcc	0.20965499
173	0xbc16b00b	-0.009197245
174	0xbdc9262d	-0.098217346
175	0xbde7344d	-0.112892725
176	0xbe7c7ffb	-0.24658196
177	0x3d913d4c	0.070917696
178	0x3dbb97eb	0.091598354
179	0x3dd17b7b	0.1022863
180	0xbd14f5a5	-0.036367077
181	0xbe0d3fd5	-0.13793881
182	0x3e669379	0.22517194
183	0x3e6c8c4d	0.23100396
184	0xbc861750	-0.016368538
185	0xbe237d24	-0.15965706
186	0x3e617c6b	0.22020118
187	0xbe8184d6	-0.25296658
188	0x3cfe9845	0.031078467
189	0x3d6c8490	0.05774361
190	0x3bbf2500	0.005833268
191	0x3b96fd40	0.0046078265

conv1.bias f4 [32]
0	0x3e0bc36d	0.13648768
1	0x3ce7a89b	0.02827864
2	0x3cd98fb1	0.026557775
3	0x3cfb8907	0.030704988
4	0xbdac92b1	-0.08426417
5	0xbe5c5721	-0.21517612
6	0x3d006981	0.031350616
7	0xbd375807	-0.044761684
8	0x3c3e0527	0.011597908
9	0xbded68ca	-0.115922526
10	0x3de9687b	0.11396881
11	0xbdc6492f	-0.096819274
12	0x3de58f85	0.11209015
13	0xbc287243	-0.010281148
14	0xbd822bcb	-0.06356009
15	0x3d341fcf	0.043975648
16	0xbe73e433	-0.2381752
17	0x3bf29d94	0.0074040387
18	0xbb8718fe	-0.0041228523
19	0xbd44cce4	-0.04804696
20	0xbe0f23cf	-0.13978504
21	0xbb7dfe95	-0.003875648
22	0xbe45c062	-0.1931167
23	0x3c3a80bb	0.011383231
24	0x3d4e21d3	0.050325226
25	0xbd236a2b	-0.03989617
26	0x3da46321	0.0802672
27	0x3be207b9	0.0068978933
28	0xbe8d2691	-0.27568486
29	0xbe0ca671	-0.13735367
30	0x3d016399	0.031589124
31	0xbc50b47a	-0.012738341

conv2.weight f4 [32, 32, 3]
0	0x3d194543	0.03741957
1	0xbdeecb8e	-0.11659919
2	0xbd3ff10e	-0.046860747
3	0xbd6de3be	-0.05807852
4	0x3bfbdddd	0.0076863603
5	0xbcb1da2d	-0.02171048
6	0x3c4af0c0	0.012386501
7	0x3dcf74e4	0.10129717
8	0x3ceea2e5	0.029130409
9	0xbdd5ac33	-0.10433235
10	0xbd898e7c	-0.0671663
11	0x3bace5b5	0.0052764066
12	0x3b47f93a	0.003051354
13	0x3d7e90c9	0.062149797
14	0x3d846d1d	0.06466124
15	0x3d00a782	0.031409748
16	0xbd429d82	-0.047513492
17	0xbd4f42bb	-0.05060075
18	0xbb25605e	-0.0025234441
19	0xbd3f3a4d	-0.04668646
20	0xbca717b4	-0.020397045
21	0x3d736e4c	0.05943136
22	0xbd639485	-0.05556156
23	0x3d56d8b6	0.052452765
24	0x3d2d9594	0.042378977
25	0x3cffc51d	0.03122192
26	0xbcb86b21	-0.02251202
27	0x3d430f79	0.047622178
28	0x3ce06870	0.02739355
29	0xbd87ffdb	-0.066405974
30	0x3d15b2f7	0.036547627
31	0x3d3d05c6	0.046148084
32	0x3d852b76	0.0650243
33	0xba2e7dbb	-0.00066563085
34	0x3ce7ef22	0.02831227
35	0x3c0d32e4	0.00861809
36	0x3d9815e6	0.07426052
37	0xbdef77ef	-0.116927974
38	0xbdd9eb10	-0.10640538
39	0x3d20cdac	0.039258644
40	0xbc1c8607	-0.009553439
41	0x3d1f013a	0.03881953
42	0x3cc7e41b	0.024400761
43	0x3c4c2a41	0.012461246
44	0x3db039a3	0.08604743
45	0x3c97c95d	0.018528635
46	0xbd7aa4f5	-0.06119247
47	0xbc8615cd	-0.016367817
48	0xbc8c40e2	-0.017120782
49	0xbbf2e292	-0.007412263
50	0x3d47599c	0.048669443
51	0xbcb37d9d	-0.021910483
52	0x3cf0958b	0.029368183
53	0xbdb26d74	-0.08712283
54	0xbcf5b66b	-0.02999421
55	0x3a3adeb4	0.0007128522
56	0x3bfeb195	0.0077726343
57	0xbd1b850b	-0.037968677
58	0xbbcebdaa	-0.006309231
59	0x3c95b3c1	0.01827419
60	0x3d24583f	0.04012322
61	0xbcc6e6bd	-0.024279946
62	0x3c978273	0.01849482
63	0xbd48f5b7	-0.049062457
64	0x3cddd251	0.027077826
65	0xbd98ef08	-0.074674666
66	0x3c8376c5	0.016047845
67	0x3ad11bd8	0.0015953733
68	0x3aea828a	0.0017891687
69	0xbc0f4124	-0.008743558
70	0x3cbad9b0	0.02280888
71	0xbd4eb9a6	-0.050470017
72	0x3cd6d37b	0.026223889
73	0xbd4338da	-0.04766164
74	0xbd5d0e8f	-0.053968962
75	0x3caa9598	0.020823285
76	0xbbaef570	-0.005339317
77	0x3c61ba17	0.013777277
78	0x3b5dc9e3	0.0033842258
79	0xbceff927	-0.02929361
80	0x3d071bbf	0.032985445
81	0xbdaa9368	-0.08328897
82	0xbd1d2784	-0.038367763
83	0x3c155804	0.009115223
84	0x3cf3a6cc	0.02974262
85	0x3ca88fd7	0.0205764
86	0xbbb965cb	-0.0056578866
87	0x3d3f34f6	0.046681367
88	0x3d1c531a	0.03816519
89	0xbc85b79d	-0.016322905
90	0xbd0f1ab5	-0.03493758
91	0xbcbcc82a	-0.023044664
92	0xbd8a155a	-0.06742354
93	0x3cd98c46	0.026556145
94	0x3a3f7937	0.0007304134
95	0x3cb598d8	0.022167608
96	0xbc62256d	-0.013802868
97	0xbd6e8099	-0.05822811
98	0xbd859e56	-0.06524341
99	0x3cbb8d55	0.02289454
100	0x3cf0f958	0.029415771
101	0x3c1fdf6f	0.009757861
102	0xbb6a8b55	-0.0035788615
103	0x3d805e1a	0.062679484
104	0x3d8ae40a	0.06781776
105	0x3d3c430d	0.045962382
106	0xbbcf03f6	-0.006317611
107	0x3d0981d8	0.033571094
108	0xbcd3d635	-0.025858978
109	0xbd03af95	-0.03214987
110	0xbd19a26d	-0.037508417
111	0x3d32b2e4	0.043627635
112	0xbba41fb2	-0.005008661
113	0xbd85eec8	-0.065396845
114	0xbd825c36	-0.06365244
115	0xbcb614ae	-0.022226658
116	0xbd600eee	-0.054701738
117	0x3c820b6c	0.015874587
118	0xbd74390a	-0.05962471
119	0x3a82ce1a	0.0009979636
120	0xbda10223	-0.07861736
121	0xbc2117ce	-0.009832336
122	0xbc5e254f	-0.0135587
123	0x3c97fc92	0.018553052
124	0x3cf3b9da	0.029751707
125	0x3d031d0c	0.032010123
126	0x3d9179de	0.071033224
127	0x3da4d562	0.08048512
128	0x3dbb4d3a	0.09145589
129	0xbd2b329d	-0.041796315
130	0xbc05b17b	-0.00815999
131	0xbd69f530	-0.057118595
132	0xbc87d0b4	-0.01657901
133	0xbd255295	-0.04036196
134	0x3d1c6f7d	0.03819226
135	0x3c842b15	0.016133824
136	0x3d09e95b	0.03366981
137	0xbcb845c4	-0.022494204
138	0xbdd910b3	-0.10598888
139	0xbd167eb6	-0.036741935
140	0xbcce224b	-0.025162837
141	0xbd2be439	-0.041965697
142	0x3b06345b	0.0020477984
143	0xbd22136e	-0.03956931
144	0x3cf7a08b	0.03022792
145	0x3d4366fc	0.047705635
146	0x3d919a12	0.07109465
147	0xbd2f97ab	-0.04286925
148	0xbd858717	-0.06519907
149	0xbd7a5f4a	-0.06112603
150	0x3d87f8f9	0.06639285
151	0x3ce31265	0.027718732
152	0xbd10b0f4	-0.035325006
153	0xbca6c97f	-0.020359753
154	0xbd0f679a	-0.03501091
155	0xbd944481	-0.072396286
156	0xbd3b9b49	-0.04580239
157	0xbd534bd4	-0.051585987
158	0x3d25e67d	0.040503014
159	0xbcfb7115	-0.03069357
160	0xbcda36af	-0.026637403
161	0xbca0223f	-0.01954758
162	0x3d087f7b	0.0333247
163	0x3d396d87	0.04527047
164	0xbb94218a	-0.0045205997
165	0xbd87143b	-0.065956555
166	0xbd8110dd	-0.063020445
167	0xbd6df0d5	-0.058091003
168	0xbd8a40f5	-0.06750671
169	0xbd47a61f	-0.04874241
170	0xbd887194	-0.06662288
171	0xbd508ec0	-0.050917387
172	0xbc28af7b	-0.010295744
173	0xbd05fb08	-0.032710105
174	0x3cf81d63	0.03028745
175	0xbdb1fac0	-0.08690405
176	0xbb7af46c	-0.003829266
177	0xba7c457c	-0.0009623391
178	0xbcd4e631	-0.02598867
179	0x3b542149	0.0032368472
180	0xbd237ea5	-0.0399157
181	0xbd350045	-0.04418971
182	0x3c0f14d4	0.008732993
183	0xbd1fe169	-0.039033327
184	0x3d0746c8	0.033026487
185	0x3c8fe4c8	0.017565146
186	0xbd34b3fa	-0.04411695
187	0xbdb0fe5b	-0.086422645
188	0xbce27838	-0.027645215
189	0x3c7ce03d	0.015434322
190	0xbc296387	-0.010338671
191	0xbb167f13	-0.0022963926
192	0xbce5885c	-0.028019123
193	0x3d082bdb	0.03324495
194	0xbcdd43e7	-0.027009917
195	0x3c2573c2	0.0100984
196	0xbcdfffe8	-0.027343705
197	0x3c6043b9	0.013688021
198	0x3c96367c	0.018336527
199	0x3d0000f7	0.03125092
200	0x39b4eb87	0.00034507757
201	0x3df6aef3	0.12045088
202	0x3d4085f7	0.04700276
203	0xbdc0afbc	-0.09408519
204	0x3dacedc4	0.08443788
205	0x3b87d2da	0.0041450085
206	0x3d91b7a0	0.07115102
207	0x3d018aea	0.03162662
208	0x3d2d002f	0.042236503
209	0x3cdc3252	0.026879463
210	0x3c4aee3a	0.012385899
211	0xbdb89ca3	-0.09014251
212	0x3d2767fe	0.04087066
213	0x3c9443e0	0.018098772
214	0xbb217e2c	-0.0024641855
215	0xbc187a32	-0.009306477
216	0xbcf33614	-0.029688872
217	0xbd09cce7	-0.033642676
218	0xbd34f85d	-0.04418217
219	0xbd234f1b	-0.039870363
220	0x3cd563ee	0.026048627
221	0x3c9735c5	0.018458256
222	0x3d0ac6d5	0.033881027
223	0x3ba3d789	0.005000059
224	0xbd1ba4ef	-0.03799909
225	0x3db810dc	0.08987591
226	0x3d7fba1e	0.062433355
227	0x3ca1373f	0.019679664
228	0x3d8667bb	0.06562754
229	0x3d1dd6d2	0.038534947
230	0xbce6a5f8	-0.028155312
231	0xbd86e0af	-0.06585824
232	0xbd4e81c4	-0.050416723
233	0x3c4f8989	0.012667068
234	0x3d7debb9	0.06199238
235	0x3e12299f	0.1427369
236	0x3dff90e5	0.12478808
237	0xbb8dea69	-0.0043309224
238	0x3c06b8ae	0.008222742
239	0xbd6b160e	-0.05739408
240	0xbc8ce6c1	-0.017199876
241	0xbdc81dcd	-0.09771309
242	0xbe107e0e	-0.14110586
243	0x3ce49376	0.027902346
244	0x3c22dec9	0.009940811
245	0xbabc03d7	-0.0014344406
246	0xbcf74db2	-0.030188415
247	0x3d215d26	0.039395474
248	0x3d39faad	0.04540508
249	0x3d43227c	0.04764031
250	0x3da95ea2	0.08270003
251	0x3de873d2	0.11350216
252	0xbcc09ff9	-0.02351378
253	0x3b0bb762	0.0021319021
254	0xbcbe4a2a	-0.023228724
255	0x3dc51e76	0.096249506

conv2.bias f4 [32]
0	0x3d7c9939	0.061669562
1	0xbc3ea060	-0.011634916
2	0xbe026c9d	-0.12736745
3	0xbc2526f9	-0.010080093
4	0x3d9bce45	0.07607702
5	0x3dc70962	0.097185865
6	0x3dd31143	0.10306027
7	0xbdc484b1	-0.095956214
8	0x3d2d69b9	0.042337153
9	0x3d9a625e	0.07538293
10	0xbd2b7cfd	-0.041867245
11	0xbc68153f	-0.014165222
12	0xbd291de1	-0.04128826
13	0xbd8b7c92	-0.06810869
14	0xba0c616c	-0.0005355093
15	0x3c949463	0.018137163
16	0xbdf8b3ef	-0.121436946
17	0x3cba8f41	0.022773387
18	0x3d34b2aa	0.0441157
19	0x3d11b3c7	0.03557184
20	0x3d73db8f	0.05953556
21	0xbd72b45c	-0.059254035
22	0x3d3a60d2	0.04550249
23	0x3d9b4a9f	0.07582592
24	0x3e2791c4	0.16364199
25	0x3d552486	0.052036785
26	0x3d5ef8b1	0.05443639
27	0x3d3bd896	0.04586085
28	0x3d87a637	0.066235
29	0xbcafc60a	-0.021456737
30	0xbd981f0c	-0.07427797
31	0x3dfc33bb	0.12314554

conv3.weight f4 [32, 32, 3]
0	0x3d304a7c	0.043039784
1	0x3d135c1b	0.03597651
2	0x3d2c5ba4	0.042079583
3	0x3d5a2d0c	0.053265616
4	0xbda22655	-0.079174675
5	0xbcc509a4	-0.024052449
6	0x3d188b02	0.037241943
7	0x3dcf30bb	0.101167165
8	0xbd3f2365	-0.046664614
9	0x3c6b0f81	0.014346958
10	0xbc742493	-0.014901298
11	0xbd067b24	-0.03283228
12	0x3d2c27bf	0.042030092
13	0x3d052e76	0.03251501
14	0x3db59ac6	0.08867411
15	0x3d5d731b	0.05406485
16	0x3c02e735	0.007989694
17	0xbcc326dc	-0.02382224
18	0x3d630590	0.055425227
19	0x3af6e1f3	0.0018835649
20	0xbdb85f6a	-0.09002574
21	0x3df7a659	0.12092275
22	0x3e0c4d09	0.13701262
23	0x3c867dc1	0.016417386
24	0x3d5f7d81	0.05456305
25	0xbc3d1061	-0.01153955
26	0x3d24b11c	0.040207967
27	0x3d2566b0	0.040381134
28	0x3c8457f5	0.016155222
29	0x3d33eff2	0.04393
30	0xbb970d50	-0.0046097413
31	0x3ca87803	0.020565039
32	0xbd0ceb58	-0.03440413
33	0xbc597769	-0.0132730985
34	0xbc971a01	-0.018445017
35	0x3d283043	0.04106165
36	0x3a7715e2	0.0009425563
37	0x3d430497	0.0476118
38	0x3cd08267	0.025452806
39	0x3d48acbd	0.04899286
40	0x3c879488	0.016550317
41	0xbc911dd2	-0.017714415
42	0xbae43f57	-0.0017413896
43	0x3d278143	0.040894758
44	0x3c81f294	0.01586274
45	0xbc9db675	-0.019252041
46	0x3c6bb9c6	0.014387554
47	0x3cd2fe6c	0.025756083
48	0xbd286974	-0.041116193
49	0x3d24d57f	0.04024267
50	0xbd8054cf	-0.06266176
51	0x3bd0402d	0.0063553066
52	0xbc97261f	-0.018450795
53	0xbdb1ac20	-0.08675408
54	0x3d23c60f	0.039983805
55	0x3ba1ca24	0.004937427
56	0xbc811d45	-0.015761027
57	0x3d519a27	0.0511724
58	0x3c95c7de	0.01828378
59	0xbc7d3a91	-0.015455858
60	0x3c0b17c1	0.00848955
61	0xbcd90c77	-0.026495202
62	0xbccd9d0c	-0.0250993
63	0x3d5032b1	0.050829593
64	0x3d058cc8	0.032604963
65	0xbdb98ba7	-0.0905984
66	0x3ced8c52	0.028997574
67	0x3d09ca59	0.03364024
68	0xbd51e4e7	-0.05124369
69	0xbcfd0a18	-0.030888602
70	0xbc432905	-0.011911635
71	0xbbed0f7d	-0.0072345124
72	0x3db52aba	0.0884604
73	0x3d68f8f3	0.05687804
74	0xbcad3578	-0.02114366
75	0x3c7cf292	0.015438693
76	0x3c024392	0.00795068
77	0x3cd4e802	0.025989536
78	0x3cf3422f	0.029694645
79	0x3bcb4d93	0.006204316
80	0x3c2cb548	0.010541268
81	0xbd355987	-0.044274833
82	0x3c215f7c	0.009849425
83	0xbbb0411b	-0.005378855
84	0xbbf3e6cf	-0.007443286
85	0xbafb1bb0	-0.0019158032
86	0xbd1d7284	-0.03843929
87	0xbbb65b5e	-0.005565091
88	0x3d3cb85f	0.046074267
89	0x3d2b2044	0.041778818
90	0x3c8d343b	0.01723682
91	0x3a96716d	0.0011477895
92	0xbd0db61c	-0.0345975
93	0x3d22c7de	0.03974139
94	0x3cedb382	0.02901626
95	0x3c7d76b7	0.015470198
96	0x3c86d35d	0.016458208
97	0xbd83904a	-0.06424005
98	0xbb0ff948	-0.0021968652
99	0x3d215b18	0.039393514
100	0x3c6a2b2d	0.0142925205
101	0x3bafdbf6	0.0053667976
102	0xbd0b93df	-0.034076568
103	0xbabb9ce4	-0.0014313725
104	0x3d82feb6	0.063962385
105	0x3d56b256	0.05241617
106	0xbc870c21	-0.016485276
107	0xbc25dd2d	-0.010123533
108	0x3c01d715	0.007924815
109	0x3d22f926	0.039788388
110	0x3c6f9943	0.014623943
111	0xbd82f9ad	-0.06395278
112	0xbd2e4ab0	-0.042551696
113	0xbd8a30e3	-0.06747606
114	0xbcbf5d74	-0.023359992
115	0xbb2dab9a	-0.0026499988
116	0x3c98645e	0.018602546
117	0x3cb94d93	0.022619998
118	0xbd68188e	-0.056664042
119	0xbe08ed9c	-0.13371891
120	0xbbfc9410	-0.00770808
121	0xbc2c0cc5	-0.010501091
122	0xbcbc9fb5	-0.023025373
123	0xbc802310	-0.01564172
124	0x3b98f963	0.004668401
125	0x3c4d57d3	0.012533146
126	0x3aec5029	0.0018029261
127	0xbcbc06e2	-0.0229525
128	0xbc82bb30	-0.015958399
129	0xbd4cffd3	-0.05004866
130	0xbc3dde80	-0.011588693
131	0x3d201e07	0.039091136
132	0xbc2fa5c6	-0.010720676
133	0xbd64a779	-0.055823777
134	0x3d52b9bc	0.05144666
135	0x3c123e96	0.008926054
136	0x3d55c6f7	0.0521917
137	0x3cc0d225	0.023537705
138	0x3d7a0d07	0.06104758
139	0x3d052ea5	0.032515187
140	0xbc6b97bb	-0.014379437
141	0xbc3e9fcb	-0.011634777
142	0x3d16464f	0.036688145
143	0xbb8698cc	-0.0041075703
144	0x3c32adfa	0.010905737
145	0xbb83abaa	-0.0040182667
146	0x3cc3525d	0.023842985
147	0xbd811af6	-0.063039705
148	0xbc150eba	-0.009097749
149	0xbc9b52a8	-0.018960312
150	0xbb1d4158	-0.0023995247
151	0xbd86994a	-0.06572206
152	0x3d75af2a	0.059981503
153	0xbd2572c8	-0.040392667
154	0x3c0c222d	0.00855307
155	0xbd2f54bc	-0.04280542
156	0xbd554bb4	-0.05207415
157	0xbc31aceb	-0.0108444495
158	0x3c64a88f	0.013956203
159	0x3a9f2aab	0.0012143453
160	0xbd76a63f	-0.06021714
161	0xbb593c00	-0.0033147335
162	0x3ce7cc15	0.028295556
163	0x3d80008f	0.062501065
164	0x3d1c8806	0.03821566
165	0xbd1c979e	-0.03823053
166	0xbd835e7a	-0.06414504
167	0x3cdf7c31	0.027280899
168	0x3d259eb0	0.04043454
169	0x3d1719e5	0.03688993
170	0xbd44e4ad	-0.048069645
171	0xbc87328c	-0.016503595
172	0xbdac78a0	-0.08421445
173	0xbbd3ebb5	-0.0064673075
174	0x3bac62cd	0.0052608014
175	0xbc13b8db	-0.009016241
176	0x3c400be4	0.011721585
177	0x3d203952	0.039117165
178	0x3dbe6b35	0.09297792
179	0x3cc3a3eb	0.023881873
180	0xbcd8550c	-0.026407741
181	0x3cbd48ac	0.023105942
182	0xbcce7a55	-0.025204817
183	0x3cc15845	0.02360166
184	0xbdb90adc	-0.090352744
185	0xbcdbf49a	-0.026850034
186	0xbcb2c28d	-0.021821285
187	0x3b00f4ba	0.0019677118
188	0x3dcaf164	0.09909323
189	0xbd0c1bbb	-0.034206133
190	0xbd734e19	-0.05940065
191	0x3b40c0bb	0.0029411751
192	0xbd126697	-0.03574237
193	0xbd117870	-0.03551525
194	0xbbe77290	-0.0070632175
195	0xbd7061ff	-0.058687206
196	0x3d328aa8	0.043589264
197	0x3d674e3f	0.056471106
198	0xbbe0a538	-0.006855633
199	0x3d444c2f	0.047924217
200	0xbddfab3f	-0.109213345
201	0xbcf01204	-0.029305466
202	0x3cd9d475	0.026590565
203	0xbd25dcc1	-0.04049373
204	0x3c1ba960	0.009500831
205	0xbce160bd	-0.027511949
206	0xbd8a4b14	-0.06752601
207	0x3db525f1	0.088451274
208	0x3c6d7eec	0.014495593
209	0x3ca79c5f	0.020460306
210	0xbc77d3a7	-0.015126145
211	0xbc976a2e	-0.018483248
212	0xbd5faad8	-0.05460629
213	0x3c7a8ff9	0.015293115
214	0x3d00a8d3	0.031411003
215	0xbc8ecc26	-0.01743133
216	0x3ca0d846	0.019634377
217	0xbd104943	-0.035226118
218	0xbbb56c73	-0.00553661
219	0x3d782b20	0.060588002
220	0xbd80b571	-0.06284607
221	0xbd80dffe	-0.06292723
222	0xbd93b3fe	-0.07212065
223	0xbd9e5c0a	-0.07732399
224	0x3d04e58d	0.03244548
225	0xbd41973c	-0.04726337
226	0x3de170d5	0.11007849
227	0x3cb11317	0.021615548
228	0xbc87133a	-0.01648866
229	0x3d81300f	0.063079946
230	0x3c94d499	0.01816778
231	0xbc24c92b	-0.010057728
232	0x3d341553	0.04396565
233	0xbb29c118	-0.0025902446
234	0xbcf9186a	-0.03040715
235	0xbcd410ad	-0.025886858
236	0x3c899864	0.016796298
237	0x3d271fb1	0.040801708
238	0xbaf2c35f	-0.001852136
239	0xbd6b11b4	-0.05738993
240	0xbd567fc1	-0.05236793
241	0xbd9d44a3	-0.07679107
242	0xbc9b64dd	-0.018968994
243	0xbb31dd9d	-0.0027140148
244	0x3ba99c26	0.005176085
245	0x3bcab596	0.0061861975
246	0xbc304e60	-0.010760874
247	0x3d8093e3	0.06278207
248	0xbc885b34	-0.016645052
249	0x3d3690b4	0.044571593
250	0x3ce32cd5	0.027731339
251	0xbd378914	-0.044808462
252	0xbc86c871	-0.016453
253	0xbbc1e66b	-0.0059173605
254	0x3cf39c62	0.029737655
255	0x3cd8f858	0.026485607

conv3.bias f4 [32]
0	0xbdbda552	-0.09260048
1	0xbdcc2a6d	-0.099690296
2	0xbd2d6172	-0.04232926
3	0xbcb2861b	-0.021792462
4	0xbbedba75	-0.0072548934
5	0xbdb64b91	-0.08901132
6	0x3db2661d	0.08710883
7	0xbd20f0ab	-0.03929202
8	0x3d927448	0.07151085
9	0x3d4ecad9	0.05048642
10	0xbd491748	-0.04909447
11	0xbd9068f2	-0.07051267
12	0x3c4b9d54	0.012427647
13	0xbcaf9867	-0.021434976
14	0xbda220b8	-0.07916397
15	0xbd1cc073	-0.03826947
16	0xbd4152bb	-0.04719804
17	0xbd2ec86a	-0.0426716
18	0xbd5a3b86	-0.053279422
19	0x3dc61592	0.09672083
20	0x3addaeb6	0.001691303
21	0xbda7f35c	-0.08200714
22	0xbd8ed91a	-0.069750026
23	0xbe052ef9	-0.130062
24	0xbc833771	-0.016017647
25	0x3c69408b	0.01423658
26	0xbdd58967	-0.10426598
27	0xbdf54fa2	-0.119780794
28	0xbd9d2a39	-0.07674069
29	0xbd92ff0f	-0.07177555
30	0xbb874dbe	-0.0041291406
31	0xbe063eb1	-0.13109852

conv4.weight f4 [32, 32, 3]
0	0xbc9e5289	-0.019326465
1	0xbd665d8b	-0.056241553
2	0x3c8c47c9	0.017124074
3	0xbd2e7f83	-0.042602073
4	0x3d883baa	0.06652005
5	0x3d0fe05e	0.035126083
6	0xbc8da49f	-0.017290412
7	0x3cc82692	0.024432454
8	0x3d704a1d	0.05866443
9	0xbdc69717	-0.09696787
10	0x3cabebea	0.020986516
11	0x3d70ad61	0.058759097
12	0xbd401eae	-0.04690426
13	0xb6f88100	-7.4059935e-06
14	0x3c9f4c97	0.0194457
15	0x3d5e0965	0.054208178
16	0x3c8174f6	0.015802842
17	0x3ccd65a8	0.025072888
18	0x3d3a8ad7	0.045542564
19	0x3d4e45e0	0.050359607
20	0x3d12ac7f	0.035809036
21	0xbd877b09	-0.06615264
22	0xbd17e284	-0.037081257
23	0xbcd887f4	-0.026432015
24	0x3d13096e	0.035897665
25	0xbb4514d0	-0.003007222
26	0xbbe53c31	-0.0069957008
27	0xbd26c3d3	-0.040714096
28	0x3cf9a07a	0.030472029
29	0x3a4e5c40	0.00078720227
30	0x3cfbe5a9	0.030749159
31	0x3ce3dd1b	0.027815392
32	0x3d0aa7f1	0.033851568
33	0x3d1ce3c2	0.038303144
34	0xbd94ceb1	-0.07265986
35	0x3ca7b1c8	0.020470515
36	0xbd003a1e	-0.031305425
37	0x3cb0df22	0.021590773
38	0xbd4d7592	-0.050160952
39	0xbcf27b57	-0.029599829
40	0x3d7eca52	0.062204666
41	0xbdbd08da	-0.09230204
42	0xbd2cb817	-0.04216775
43	0x3d069816	0.032859884
44	0x3de022a2	0.10944106
45	0x3cad11ec	0.02112671
46	0x3d05e519	0.032689188
47	0x3d4720ec	0.04861538
48	0xbbf30e9e	-0.007417514
49	0xbb565a89	-0.0032707772
50	0x3c3146e4	0.010820124
51	0x3b975c11	0.0046191295
52	0x3b2275fb	0.002478956
53	0xbca164e0	-0.019701421
54	0xbc894570	-0.016756743
55	0x3ca9735e	0.020684894
56	0xbc96566a	-0.018351752
57	0xbd0eaec2	-0.03483463
58	0xbde0553c	-0.10953757
59	0x3d2998ec	0.041405603
60	0x3bcb730f	0.0062087844
61	0xbbfbacf5	-0.00768053
62	0x3c6c7341	0.014431776
63	0x3d42e2ba	0.047579505
64	0xbd91ca7c	-0.07118699
65	0xbc52db9f	-0.012869745
66	0xbdddb26e	-0.108250484
67	0xbcb3e4c6	-0.021959674
68	0xbce41d26	-0.02784593
69	0x3c8172df	0.015801845
70	0x3b19adb5	0.0023449485
71	0xbd45fa3f	-0.048334356
72	0x3c871c45	0.016492972
73	0x3c7e3160	0.015514702
74	0xbaf7b9f7	-0.0018900026
75	0xbbde688a	-0.0067873644
76	0xbdadc8d2	-0.08485569
77	0x3c98759f	0.018610774
78	0x3d299b9e	0.041408174
79	0xbe0be04d	-0.13659783
80	0xbd7b3ef8	-0.06133935
81	0xbc55de3a	-0.013053471
82	0x3cdc8770	0.02692005
83	0x3d438ca9	0.047741566
84	0x3d36bfd0	0.04461652
85	0xbc9b99ec	-0.018994294
86	0x3c44e4db	0.012017454
87	0xbce7cb14	-0.028295077
88	0xbde1965e	-0.110150084
89	0x3d4c4323	0.049868714
90	0xbd169039	-0.036758635
91	0x3caffd34	0.021483041
92	0x3d04b289	0.032396827
93	0x3cc36cc8	0.023855582
94	0xbd888a24	-0.06666973
95	0xbb89db20	-0.00420703
96	0xbd27f9e8	-0.041009814
97	0x3d9e8962	0.077410474
98	0x3c291d08	0.010321863
99	0xbdab9054	-0.08377138
100	0x3cdbd68b	0.0268357
101	0x3c3f0f13	0.011661309
102	0x3c5782de	0.01315376
103	0xbc163c0a	-0.009169588
104	0x3ccedcc4	0.025251754
105	0x3ba923c1	0.005161733
106	0x3d159002	0.03651429
107	0xbcefd83c	-0.029277913
108	0x3d62bd80	0.055356503
109	0xba8ca9f0	-0.0010731798
110	0xbca2a0ff	-0.01985216
111	0xbd6cdea2	-0.057829507
112	0xb894ced2	-7.095713e-05
113	0xbb06ffcc	-0.0020599244
114	0xbbabec25	-0.0052466565
115	0x3c9efadc	0.019406728
116	0xbdb26305	-0.08710293
117	0xbd54950e	-0.051899962
118	0xbc9a04bd	-0.018801088
119	0x3c15ef66	0.009151315
120	0xbc2a054f	-0.010377242
121	0x3b98b5ac	0.004660329
122	0xbdc4c993	-0.0960876
123	0xbd2eacb8	-0.042645186
124	0x3d2189e8	0.03943816
125	0xbb7352f3	-0.00371283
126	0x3ca644fe	0.02029657
127	0x3cd274b3	0.025690412
128	0xbc8a5a2f	-0.016888706
129	0xbc2c3944	-0.0105117
130	0x3d90dec8	0.07073742
131	0x3c7627b6	0.015024116
132	0xbd2904d1	-0.04126436
133	0x3cfa4c48	0.030553952
134	0xbb047a5e	-0.0020214538
135	0xbd40b393	-0.047046255
136	0x3d2c0e64	0.04200591
137	0xbcc9ed7a	-0.02464937
138	0xbc2fd0c5	-0.010730927
139	0xbc3d7a4e	-0.011564804
140	0xbd77a418	-0.060459226
141	0xbbaf0c7b	-0.005342064
142	0x3c861ebd	0.016372079
143	0xbbcba33c	-0.0062145274
144	0xbc3aa1be	-0.011391101
145	0xbc6dd575	-0.014516224
146	0x3d176383	0.036960136
147	0xbd51eb4d	-0.05124979
148	0xbc95b438	-0.018274412
149	0xbbb19320	-0.00541915
150	0xbd71a032	-0.058990665
151	0xbcacb766	-0.021083545
152	0x3d0b942d	0.03407686
153	0x3d5ec4e4	0.05438699
154	0x3d581780	0.052756786
155	0xbc6cec0d	-0.014460576
156	0x3b97b030	0.0046291575
157	0xbd7999ec	-0.060937807
158	0xbcfb685f	-0.030689416
159	0xba95b975	-0.0011423068
160	0x3d8abc99	0.067742534
161	0xbc9242fa	-0.017854203
162	0xbc816295	-0.015794078
163	0x3d170431	0.03686923
164	0x3d2b3864	0.041801825
165	0xbd4ff868	-0.050774008
166	0xbcace33a	-0.021104444
167	0x3d099538	0.03358957
168	0xbb755e73	-0.003744033
169	0x3c3fcd3e	0.011706648
170	0xbd4489fd	-0.04798316
171	0xbafe188f	-0.0019385981
172	0x3d72d6c0	0.059286833
173	0x3cae1cc8	0.021253958
174	0x3d88f5fc	0.06687543
175	0xbd8bee59	-0.068325706
176	0x3ccec380	0.025239706
177	0xbd6b8696	-0.057501398
178	0xba2b5f09	-0.00065372937
179	0x3d2caa37	0.042154517
180	0xbd41a223	-0.047273766
181	0x3a34d2f0	0.0006897887
182	0x3b84cc09	0.004052643
183	0x3baecb72	0.005334311
184	0xbda7fa6f	-0.08202063
185	0x3ddbb4f7	0.10727876
186	0xbcb080e5	-0.021545837
187	0x3c9373d2	0.017999563
188	0x3cd89f07	0.026443018
189	0xbd8ee082	-0.06976415
190	0xbc7d682e	-0.015466733
191	0x3da6d6d2	0.081464425
192	0xbd57ad7f	-0.052655693
193	0xbd665382	-0.056231983
194	0x3c873b5b	0.016507795
195	0xbcb49f10	-0.022048503
196	0x3ae2bbdb	0.0017298417
197	0xbc46ab4e	-0.012125803
198	0x3bb3a318	0.005482089
199	0x3cea7d22	0.028624121
200	0x3d5c1dfc	0.053739533
201	0xbd12aee5	-0.035811324
202	0x3c8a266e	0.016864028
203	0xbd834446	-0.064095065
204	0x3d8d8809	0.06910712
205	0x3d0d27d6	0.03446182
206	0x3a933b41	0.0011232869
207	0xbd18b6bd	-0.037283648
208	0xbcb43ab1	-0.022000642
209	0xbd02cbec	-0.031932756
210	0x3c35daff	0.011099576
211	0x3d13882d	0.03601854
212	0xbdcf8c57	-0.101341896
213	0xbdecc2ba	-0.11560579
214	0x3ca34f48	0.019935265
215	0x3d012487	0.031528976
216	0xbcca14b1	-0.02466807
217	0xbcd029be	-0.02541053
218	0xbccaa917	-0.024738831
219	0x3b415dc8	0.002950536
220	0x3cad8209	0.02118017
221	0xbd4312ee	-0.047625475
222	0x3c9f7aa5	0.019467661
223	0x3cf73b3e	0.030179616
224	0x3b738680	0.0037159026
225	0x3dadd3f5	0.08487693
226	0xbbbaf2f2	-0.005705231
227	0xba8a1abd	-0.0010536533
228	0xbc51d498	-0.012807034
229	0xbc4cff2d	-0.0125120105
230	0xbd50231a	-0.050814725
231	0x3ccee401	0.025255205
232	0xbc75dc2c	-0.015006106
233	0x3c908b37	0.017644508
234	0x3bc7afda	0.006093961
235	0xbdb42369	-0.087958165
236	0x3bfc7a10	0.0077049807
237	0xbd6c74c1	-0.057728533
238	0xbc262295	-0.010140081
239	0xbd31f5f2	-0.043447442
240	0x3cdaac8a	0.026693601
241	0xbc92568b	-0.017863533
242	0xbcc3499b	-0.023838809
243	0xbc9124f9	-0.017717825
244	0x3cfe7512	0.031061683
245	0x3c268d1e	0.010165481
246	0x3cf4988c	0.029857896
247	0xbcca3cd7	-0.024687214
248	0xbd83af83	-0.064299606
249	0x3d57b438	0.052662104
250	0x3d0283ca	0.031863965
251	0xbcaf2fbe	-0.02138507
252	0xbcac3fc5	-0.021026501
253	0x3d2cde02	0.04220391
254	0xbc8f6d14	-0.017508067
255	0xbce333f0	-0.027734727

conv4.bias f4 [32]
0	0x3e12e159	0.14343776
1	0xbd19f679	-0.03758857
2	0xbc9d0cca	-0.019171137
3	0x3d0d1d24	0.03445162
4	0xbd76bef5	-0.060240705
5	0xbc815c4a	-0.015791077
6	0xbdbf1432	-0.09330024
7	0xbde029b1	-0.10945452
8	0xbd254158	-0.04034552
9	0xbdbdb5d2	-0.09263195
10	0xbbb0baa6	-0.005393344
11	0xbd667422	-0.056263097
12	0x3c26dd66	0.010184621
13	0xbdad3e54	-0.08459154
14	0xbd492b8e	-0.049113803
15	0xbe0b70f5	-0.13617308
16	0xbd239ff5	-0.03994747
17	0x3a9ea30e	0.0012103037
18	0xbd07b5a6	-0.033132218
19	0x3dce37d0	0.10069239
20	0xbd95ab0e	-0.07308017
21	0x3d48f741	0.049063925
22	0xbdd645dd	-0.10462544
23	0xbdf23453	-0.11826386
24	0x3d844256	0.06457965
25	0xbdca9843	-0.09892323
26	0xbd9736a1	-0.073834665
27	0xbd0f73ac	-0.035022423
28	0xbd8d8eea	-0.06912024
29	0xbd9bfc79	-0.07616515
30	0xbcfaf985	-0.030636558
31	0xbd705e1b	-0.058683496

conv5.weight f4 [32, 32, 3]
0	0xbbfb0df3	-0.007661575
1	0xbb0db413	-0.0021622225
2	0x3da130f7	0.078706674
3	0x3c08e84b	0.008356164
4	0x3b594082	0.0033150022
5	0xbd3eff8a	-0.04663042
6	0xbbe91fae	-0.007114372
7	0xbcdc396e	-0.026882853
8	0xbd980528	-0.074228585
9	0x3d216e8a	0.03941206
10	0x3d73b99e	0.05950319
11	0x3d22f7ea	0.03978721
12	0xbd060a6b	-0.03272478
13	0x3d507836	0.050895892
14	0x3cdaff9d	0.026733214
15	0x3c3cfe4a	0.011535237
16	0xbd2dab18	-0.042399496
17	0x3cb1df55	0.021712938
18	0xbd009d5b	-0.031400066
19	0xbd2458c7	-0.040123727
20	0xbd13d081	-0.036087517
21	0xbda41f20	-0.08013749
22	0xbd45bb88	-0.048274547
23	0xbd208a35	-0.039194304
24	0xbd4191f3	-0.04725833
25	0xbd1dd93f	-0.03853726
26	0x3d0f123c	0.0349295
27	0xbb7b2916	-0.003832405
28	0xbd5eec6a	-0.05442468
29	0x3c4d58ee	0.0125334095
30	0xbcea6043	-0.028610354
31	0x3d0af6ca	0.033926763
32	0x3c8bb921	0.01705605
33	0x3d0d75f3	0.034536313
34	0xbd1bd71d	-0.038046945
35	0x3ac06260	0.0014677756
36	0xbd06b3a4	-0.032886162
37	0xbd446a2d	-0.04795282
38	0x3d0e57d1	0.034751717
39	0x3d13d393	0.036090445
40	0x3d854dd9	0.06508989
41	0xbd4af1c8	-0.049546987
42	0xbd2ef9ac	-0.042718574
43	0xbc568a77	-0.013094536
44	0xbd46551a	-0.048421003
45	0xbcfcbb63	-0.030851072
46	0xbd97e3b0	-0.07416475
47	0xbd67d7f9	-0.056602452
48	0xbbe0dd82	-0.0068623433
49	0xbc78a0d7	-0.015175066
50	0xbcf857be	-0.030315276
51	0x3c39c011	0.011337296
52	0x3cde025a	0.02710073
53	0x3d001a3c	0.03127502
54	0x3cb10fcb	0.021613976
55	0x3c17c8ae	0.009264154
56	0xbc6f905b	-0.014621819
57	0x3cf0a061	0.02937335
58	0x3c9370a0	0.01799804
59	0x3d93558b	0.071940504
60	0x3ca17039	0.019706832
61	0xba0a0cdb	-0.0005266198
62	0xbd99d364	-0.07511023
63	0x3d7b495a	0.06134925
64	0xbb3b3859	-0.0028567521
65	0x3d5813f7	0.052753415
66	0x3cefad79	0.029257523
67	0x3d44a55f	0.048009273
68	0xbc9cbb93	-0.019132411
69	0xbd9d0150	-0.07666266
70	0x3b9e4cd3	0.0048309355
71	0x3d5d62d7	0.05404934
72	0x3d8c1dd6	0.06841628
73	0xbc503d00	-0.012709856
74	0xbd061b18	-0.032740682
75	0x3d04b6b2	0.032400794
76	0x3c40d5c9	0.01176972
77	0x3caa7d46	0.020811688
78	0xbcad4c68	-0.021154597
79	0xbd3f1c34	-0.046657756
80	0xbd3264b6	-0.043553077
81	0x3d0e897e	0.03479909
82	0x3d170dad	0.036878277
83	0xbd0d3632	-0.034475513
84	0x3d49b842	0.049247988
85	0xbca44850	-0.020054013
86	0x3cffb2de	0.03121322
87	0xbcb67195	-0.022270957
88	0xbcb6befd	-0.022307867
89	0x3d362df8	0.044477433
90	0xbd9f9913	-0.077928685
91	0xbd2e147e	-0.04250001
92	0xbc1c0867	-0.009523488
93	0xbdc4f40d	-0.096168615
94	0x3c6c5f5c	0.014427032
95	0xbd7d6edc	-0.061873302
96	0x3d10d2da	0.035357334
97	0xbd4bef09	-0.04978851
98	0x3c4d62b3	0.012535739
99	0xbc5af28a	-0.01336349
100	0x3c82deef	0.015975444
101	0x3d1a5ac4	0.037684217
102	0xbd33056c	-0.043706343
103	0x3ceda9d5	0.029011646
104	0xbca0d50b	-0.019632837
105	0x3bb3c644	0.0054862816
106	0x3d14e9ce	0.036355786
107	0x3ceae131	0.028671833
108	0x3d179413	0.03700645
109	0x3b3141fc	0.0027047386
110	0xbd521bf2	-0.051296182
111	0xbd25a5d9	-0.040441368
112	0x3d82277a	0.06355186
113	0xbc00b5d7	-0.007855854
114	0xbc0c624d	-0.008568359
115	0xbd0d9109	-0.034562144
116	0x3d3f9911	0.046776835
117	0x3d22aac9	0.039713655
118	0xbc82eed2	-0.015983019
119	0x3d60b869	0.054863367
120	0xbd156c4e	-0.03648024
121	0x3ca7b079	0.02046989
122	0xbb00b967	-0.0019641758
123	0x3cbc0a68	0.02295418
124	0x3c7f145d	0.01556882
125	0x3c8be7db	0.01707833
126	0x3d0b626a	0.0340294
127	0xbd2134ff	-0.03935718
128	0x3d725ad8	0.059168667
129	0x3c3e354c	0.011609387
130	0xbcabbd38	-0.02096425
131	0x3bab181c	0.00522138
132	0x3becb68e	0.0072239107
133	0xbc9dfe25	-0.019286225
134	0x3d695ca1	0.056973103
135	0xbd2388e7	-0.039925482
136	0x3da96a2a	0.08272202
137	0x3c2df7e8	0.0106181875
138	0x39a6b3e2	0.0003179601
139	0xbd2964fc	-0.04135607
140	0xbc9a5578	-0.018839583
141	0xbc476686	-0.01217044
142	0x3d27386c	0.040825292
143	0xbcf26103	-0.029587274
144	0xbbb98ddf	-0.0056626643
145	0x3cfe58df	0.031048236
146	0xbd2e5700	-0.04256344
147	0xbc5bdef8	-0.013419859
148	0xbba019f1	-0.004885905
149	0xbc78b29d	-0.0151793035
150	0xbcebe3c4	-0.02879513
151	0x3c20f8ec	0.009824973
152	0x3d18db2e	0.0373184
153	0x3d0c0d20	0.034192204
154	0xbd8393f9	-0.06424708
155	0xbda08606	-0.07838063
156	0xbd823e14	-0.06359497
157	0x3d8c0667	0.06837159
158	0x3bbdb8af	0.0057898383
159	0xbd1c28c1	-0.038124803
160	0xbb892552	-0.004185357
161	0xbd7e4309	-0.06207565
162	0xbd0942fd	-0.03351115
163	0x3cbd903d	0.023140067
164	0xbb27ea7f	-0.0025621948
165	0xbd771f07	-0.060332324
166	0x3d2cb4cf	0.04216462
167	0x3d4252ed	0.047442365
168	0xbc40d4c8	-0.011769481
169	0xb9a2423f	-0.00030948405
170	0x3cac89f2	0.021061871
171	0xbd58e758	-0.052955
172	0xbc211d46	-0.0098336395
173	0xbd43f9ed	-0.04784577
174	0x3d1282ab	0.035769146
175	0x3d24ebd3	0.040263962
176	0xbd0dd946	-0.034631036
177	0xbda3896b	-0.07985195
178	0x3cd04fde	0.025428709
179	0x3dac58a6	0.08415346
180	0xbd076afc	-0.033061013
181	0x3be636be	0.0070255687
182	0x3d5eeab5	0.054423053
183	0x3b3ddb66	0.0028969883
184	0xb98a0674	-0.0002632622
185	0x3bc6fa8d	0.0060723484
186	0x3d331ca6	0.043728493
187	0x3d532d77	0.05155703
188	0x3d142b17	0.036173906
189	0xbd568a8f	-0.052378234
190	0xbd1f1340	-0.038836718
191	0xbdb2f995	-0.0873901
192	0xbc376062	-0.011192413
193	0xbd3cdec4	-0.046110883
194	0x3d2310d0	0.039810956
195	0xbc98be3b	-0.018645396
196	0x3bcdf1be	0.0062849214
197	0xbd7df16b	-0.061997812
198	0xbd05d3ff	-0.03267288
199	0xbd4b75ec	-0.049673006
200	0xbc9e7710	-0.019343883
201	0xbcedb934	-0.029018976
202	0xbc8d7869	-0.01726933
203	0x3bfda1dc	0.0077402424
204	0x3afa78f4	0.0019109533
205	0x3d2388bd	0.039925326
206	0x3d7ee9d0	0.0622347
207	0x3d60d9c5	0.05489518
208	0xbbbcef4b	-0.0057658306
209	0xbd2bb08e	-0.041916423
210	0x3cd93c23	0.026517933
211	0xbe044a8d	-0.12919064
212	0x3cbd54f9	0.023111807
213	0xbcfc5dc3	-0.030806428
214	0x3c320682	0.010865809
215	0x3c94692e	0.01811656
216	0xbd4f199a	-0.050561525
217	0x3c50d466	0.012745952
218	0xbcd48c18	-0.025945708
219	0x3c307029	0.010768929
220	0x3a9ae107	0.0011816331
221	0xbd3f5b07	-0.04671767
222	0xbd0fd4cc	-0.03511505
223	0x3d4c2c42	0.049846895
224	0x3d933868	0.07188493
225	0x3c52f348	0.012875386
226	0xbc6dce42	-0.014514508
227	0x3cab506c	0.020912372
228	0x3cd15048	0.025550976
229	0xbca2ec7b	-0.019888153
230	0xbd1b46a7	-0.037909176
231	0x3d347b35	0.044062812
232	0xbc8a3d94	-0.016875066
233	0xbdcee244	-0.101017505
234	0x3d7b8ee5	0.06141557
235	0xbd8cd046	-0.068756625
236	0xbd1f00f6	-0.038819276
237	0xbcfc9a9f	-0.030835448
238	0x3cfcc6d7	0.030856533
239	0xbd03bb8f	-0.03216129
240	0xbc95372c	-0.018214785
241	0xbdbe79a6	-0.09300546
242	0xbd29e8af	-0.04148167
243	0xbce99323	-0.028512543
244	0x3ca9db4a	0.020734448
245	0x3c514881	0.012773634
246	0xbc02a444	-0.007973734
247	0x3b25f211	0.0025321285
248	0xbdb95556	-0.0904948
249	0xbce968d5	-0.02849237
250	0xbbab27f2	-0.0052232677
251	0x3adbe5fe	0.0016776917
252	0xbc02d81a	-0.007986093
253	0x3d7c4e11	0.061597887
254	0xbcba2644	-0.022723325
255	0x3c27254b	0.010201762

conv5.bias f4 [32]
0	0xbd5c9cc5	-0.053860445
1	0xbdfc2c0b	-0.12313088
2	0xbe47fb92	-0.1952956
3	0x3ccb0a84	0.024785288
4	0xbd8d34f6	-0.06894867
5	0xbc10083c	-0.008791026
6	0xbe2e8586	-0.17043123
7	0xbd89d027	-0.06729155
8	0xbd4f6752	-0.050635643
9	0xbcf337d2	-0.029689703
10	0xbda51b17	-0.080618076
11	0xbcbaa40e	-0.022783305
12	0x3e32d488	0.17463887
13	0xbd317e8d	-0.04333358
14	0xbd727eac	-0.059202835
15	0xbdc8c615	-0.09803406
16	0xbe156fac	-0.1459338
17	0x3e0d17d9	0.13778628
18	0xbd6a5636	-0.057211123
19	0xbdc7a265	-0.09747771
20	0xbe1f40ae	-0.15552017
21	0xbc6a1e35	-0.0142894285
22	0xbdf1b3b8	-0.11801857
23	0xbd20c36c	-0.03924887
24	0xbdbbaab6	-0.0916342
25	0xbdcde382	-0.10053159
26	0xbdd837cc	-0.105575174
27	0xbd87db8b	-0.066336714
28	0xbb388154	-0.0028153257
29	0xbd282e25	-0.04105963
30	0x3e200277	0.1562594
31	0xbdafd912	-0.08586325

conv6.weight f4 [32, 32, 3]
0	0xbd889b05	-0.06670193
1	0xbd8835ed	-0.066509105
2	0x3c329be8	0.010901429
3	0x3d331470	0.043720663
4	0x3c854f32	0.016273115
5	0xbc120ef7	-0.008914701
6	0xbcb4d6a6	-0.022075009
7	0x3ba7fe7f	0.005126774
8	0xbd47b0e3	-0.048752677
9	0x38e25520	0.000107923755
10	0x3b6ed650	0.0036443658
11	0x3ced3203	0.028954512
12	0xbd2b9d43	-0.041898023
13	0xbc590f87	-0.013248331
14	0x3c80df4a	0.015731473
15	0x3cb3f026	0.021965098
16	0x3a4b21c2	0.0007748866
17	0x3c9a7b8a	0.018857736
18	0x3cb99d71	0.022658082
19	0xbc0b8d71	-0.008517609
20	0x3d19325f	0.037401553
21	0xbb7b0bb0	-0.0038306527
22	0xbd3fc0f8	-0.04681489
23	0xbd43570d	-0.04769044
24	0x3c3be126	0.011467254
25	0xbd1fc9ae	-0.039010696
26	0x3b5524e9	0.003252322
27	0x3a3519f1	0.00069084676
28	0x3c96dfde	0.018417295
29	0x3ce2d12a	0.027687628
30	0x3d90b2e8	0.07065374
31	0xbd10c83d	-0.035347212
32	0xbd928bef	-0.071555965
33	0x3c4f3046	0.012645787
34	0xbaa5fa99	-0.0012663185
35	0xbcb1f9f9	-0.021725642
36	0xbc9fe42f	-0.019517986
37	0x3b14287a	0.0022607134
38	0x3dcbc359	0.09949369
39	0xbcff5749	-0.03116955
40	0xbd761564	-0.060078993
41	0x3b1df61a	0.0024102987
42	0xbd522936	-0.051308833
43	0x3d20a8b6	0.039223395
44	0x3c85710d	0.016289258
45	0xbc795c42	-0.01521975
46	0xbcffd603	-0.031229978
47	0xbd313e8c	-0.04327254
48	0xbd589712	-0.052878447
49	0xbd9ac4b3	-0.07557049
50	0xbcf6ccd4	-0.030126967
51	0x3c16f819	0.0092144245
52	0x3d2efdd1	0.042722527
53	0x3bb6b225	0.0055754357
54	0x3d2e15bc	0.042501196
55	0x3cb58868	0.02215977
56	0xbdb4fc48	-0.08837181
57	0x3c038450	0.008027151
58	0xbd8469d5	-0.06465498
59	0xbdb2efb8	-0.08737129
60	0xbc238749	-0.009980985
61	0xbceb61cd	-0.028733158
62	0xbd483f6d	-0.048888613
63	0x3d62bd31	0.05535621
64	0xbd57f089	-0.052719627
65	0x3c4521b4	0.012031961
66	0x3d6ad80a	0.057334937
67	0xbcd391ad	-0.0258263
68	0xbd8c8b58	-0.06862515
69	0x3dca2c8f	0.0987178
70	0xbd3c8c1e	-0.046032064
71	0xbdf4b61e	-0.119487986
72	0x3cadef5a	0.021232296
73	0x3cc29288	0.023751512
74	0x3ce40240	0.027833104
75	0xbd1042a3	-0.0352198
76	0xbd1812e9	-0.03712741
77	0xbd73f9bd	-0.05956434
78	0xb8b9fa88	-8.8681525e-05
79	0xbd2ee32a	-0.04269711
80	0x3bd05c13	0.0063586324
81	0xbd36f734	-0.044669345
82	0xbc20263a	-0.009774739
83	0xbd1e8f1e	-0.038710706
84	0xbd1d6b0c	-0.038432166
85	0xbd1e9d82	-0.03872443
86	0xbccd2252	-0.02504078
87	0xbd70de8a	-0.05880598
88	0xbd10067d	-0.035162438
89	0xbce5f6fe	-0.028071877
90	0x3d2cf1b5	0.042222697
91	0xbccdb391	-0.025110038
92	0xbcab9f89	-0.020950096
93	0x3d31e432	0.043430515
94	0xbc538134	-0.012909222
95	0xbd650ae6	-0.055918597
96	0x3cd178f7	0.025570376
97	0x3c261327	0.010136402
98	0x3d31aed8	0.043379635
99	0x3c96977d	0.018382782
100	0xbbeb7f4b	-0.0071868054
101	0x3c9a647f	0.018846748
102	0x3c292ba5	0.010325347
103	0xbb698484	-0.0035631964
104	0x3c37e9a9	0.0112251425
105	0xbbd5b591	-0.0065218885
106	0xbd046ffa	-0.03233335
107	0x3c71ab74	0.01475035
108	0x3b9433bb	0.0045227683
109	0x3bc41262	0.0059836367
110	0x3db752f3	0.08951368
111	0xbc8e978f	-0.017406253
112	0x3adca9cc	0.0016835271
113	0xbd4382aa	-0.047732033
114	0xbd09780a	-0.033561744
115	0xbd9f51da	-0.07779284
116	0xbc382bbc	-0.011240896
117	0xbccadc7a	-0.024763335
118	0xbd19785d	-0.037468303
119	0x3c6a87c0	0.014314592
120	0x3cf09e76	0.029372435
121	0x3d030524	0.031987324
122	0x3d14f1ec	0.036363527
123	0x3b9698a0	0.004595831
124	0xbd81e8fa	-0.06343265
125	0xbb930e34	-0.004487777
126	0xbcf4a0c8	-0.029861823
127	0xbddfe42e	-0.10932194
128	0xbd59fb67	-0.05321827
129	0xbd0cc651	-0.034368817
130	0x3cb16cc7	0.021658314
131	0x3d81af73	0.063322924
132	0x3d026786	0.03183701
133	0xbd90a5ab	-0.07062849
134	0xbe0e0c57	-0.13871895
135	0x3d2db021	0.042404298
136	0x3d8cef5d	0.068815924
137	0x3c42fc3f	0.0119009605
138	0x3cd5fcec	0.02612158
139	0x3be97b65	0.0071253055
140	0xbc692129	-0.014229097
141	0x3d0ecc61	0.03486288
142	0x3d52e7a6	0.05149045
143	0x3c20ce9f	0.009814887
144	0xbc81926d	-0.015816892
145	0xbd2cac26	-0.04215636
146	0xbcd15cf5	-0.02555702
147	0x3dfc454e	0.12317906
148	0x3d2c3c0c	0.042049453
149	0xbdb49ff9	-0.08819575
150	0xbd26b7a6	-0.040702485
151	0xbd4f8f0d	-0.050673533
152	0x3ca72fa2	0.020408455
153	0x3cafc97a	0.021458376
154	0xbb9e487b	-0.0048304177
155	0xbc4f1c5c	-0.012641039
156	0x3cf8445f	0.03030604
157	0xbdb99569	-0.09061701
158	0xbd1c30e2	-0.038132556
159	0xbd517129	-0.05113331
160	0xbc46cc23	-0.012133631
161	0x3d13840e	0.03601461
162	0xbd1cbf3e	-0.03826832
163	0xbd3aa528	-0.04556766
164	0xbd7eef9e	-0.062240236
165	0x3c8c6f5f	0.01714295
166	0xbbed965d	-0.0072505907
167	0x3b3c5e36	0.0028742678
168	0x3d6dcd58	0.05805716
169	0xbcc3ba98	-0.023892686
170	0xbcb5d351	-0.02219549
171	0xbd009ec7	-0.031401422
172	0xbc13ef54	-0.009029228
173	0x3d7983f0	0.06091684
174	0xbc955654	-0.018229641
175	0x3b2eed1a	0.0026691617
176	0x3b8d55c0	0.0043132007
177	0xbd035df2	-0.032072015
178	0x3d21733b	0.039416533
179	0xbc17d649	-0.009267398
180	0x3cb26496	0.021776479
181	0xbbcd0d83	-0.0062577142
182	0x3d7dd09e	0.06196653
183	0xbd0e6d3b	-0.03477214
184	0xbd262c73	-0.040569734
185	0xbcc073bd	-0.023492688
186	0xbd430f11	-0.04762179
187	0xbdce318b	-0.10068043
188	0x3c971220	0.01844126
189	0xbd1a43b1	-0.03766221
190	0xbde54c95	-0.111962475
191	0xbd0d4f33	-0.03449936
192	0xbb49617e	-0.0030728276
193	0x3d9e90be	0.07742451
194	0x3d707c68	0.058712393
195	0xbc742def	-0.01490353
196	0xbcc253a0	-0.023721516
197	0xbc8319c3	-0.016003495
198	0xbc8edd82	-0.017439608
199	0x3d14e73a	0.036353327
200	0x3c803360	0.015649498
201	0xbab20aa3	-0.0013583492
202	0xbb08ae8e	-0.0020855996
203	0x3c3b3e60	0.011428446
204	0xbb6d2e5e	-0.0036190967
205	0x3d076e99	0.03306446
206	0x3d890b19	0.0669157
207	0x3b9f3432	0.004858517
208	0xbd985781	-0.07438565
209	0xbd88c653	-0.06678452
210	0x3d4a36ed	0.049368788
211	0x3d499313	0.049212527
212	0x3bedaa5d	0.007252975
213	0xbd448952	-0.04798252
214	0x3cf762f3	0.03019855
215	0x3c564522	0.013078006
216	0x3c3a3213	0.011364478
217	0x3cc18482	0.023622755
218	0x3c734ec0	0.014850318
219	0x3cbd1406	0.023080837
220	0xbd082da9	-0.03324667
221	0xbd81a72a	-0.06330712
222	0xbcfa677b	-0.030566921
223	0xbd83b55c	-0.06431076
224	0xbc9df7b1	-0.019283148
225	0xbd1698b6	-0.03676673
226	0x3b9d7a33	0.004805827
227	0x3cbcd4f0	0.023050755
228	0xbd24b4ca	-0.040211476
229	0xbdbcb125	-0.09213475
230	0xbdec7225	-0.11545209
231	0x3d2fe846	0.042946123
232	0x3d7a5221	0.06111348
233	0x3d43c44e	0.047794633
234	0x3cd30ba9	0.025762396
235	0x3ba2d01e	0.004968657
236	0xbdd260a4	-0.10272339
237	0x3d21aab1	0.039469425
238	0x3dbfce8b	0.09365567
239	0x3d972ca7	0.07381564
240	0xbc549214	-0.012974281
241	0xbd07f2ec	-0.033190653
242	0x3ab3bf73	0.0013713673
243	0x3c5aa901	0.013345958
244	0x3d529b62	0.051417716
245	0x3d94edc1	0.072719105
246	0xbde04a11	-0.10951627
247	0xbd913cff	-0.07091712
248	0x3c63ad46	0.013896292
249	0xbd79ea22	-0.061014302
250	0xbd379bfc	-0.044826493
251	0x3ca9ead9	0.020741867
252	0xbc8ed802	-0.017436985
253	0xbdadf873	-0.084946536
254	0xbcaf4c4b	-0.021398684
255	0x3c8bb90f	0.017056016

conv6.bias f4 [32]
0	0xbd91e53d	-0.07123802
1	0xbde84a88	-0.11342341
2	0xbcbba988	-0.022907987
3	0xbda9e34d	-0.08295307
4	0x3e2ec297	0.17066418
5	0xbdd68b65	-0.10475806
6	0xbc45b3e7	-0.012066818
7	0xbdededba	-0.11617608
8	0x3d708e58	0.0587295
9	0xbe1dc263	-0.15406184
10	0xbe000f42	-0.1250582
11	0xbe0f543d	-0.13996978
12	0xbd354c8d	-0.044262458
13	0x3de8ff43	0.11376812
14	0xbc8a66cf	-0.016894726
15	0xbe1edf88	-0.15514958
16	0xbe33c4ef	-0.17555593
17	0x3c2496ea	0.010045746
18	0xbe490d5a	-0.19634
19	0xbe087982	-0.13327602
20	0xbe08d992	-0.13364246
21	0xbd9f8049	-0.0778814
22	0x3d234e7f	0.03986978
23	0xbe5ed830	-0.21762156
24	0xbd9fa00e	-0.077942
25	0x3d27d2d3	0.040972542
26	0xbda8719d	-0.08224795
27	0xbd62c54e	-0.055363946
28	0xbe09523d	-0.13410278
29	0xbcf7d226	-0.030251574
30	0xbcf755dd	-0.03019231
31	0xbd8083b8	-0.06275123
