FedAvg_3_clients/cli2_model_parameters.pth (torch, 767010 bytes, 51 tensors)

conv1.weight f4 [32, 2, 3]
-0.14868657 0.14972307 0.02166296 0.13771361 0.035645623 0.2604256 -0.17424354 -0.14037071
-0.13407102 0.15850872 -0.1433108 0.10419921 -0.13568673 -0.13018633 0.13312103 -0.29226995
0.16615917 -0.043163072 -0.09893847 -0.037773766 0.14153467 -0.04274331 0.28126663 -0.05098929
-0.0858585 -0.10192647 0.10137787 -0.14649339 0.07333209 0.1201795 0.33938682 -0.1949067
0.20772973 0.120459974 0.009133141 -0.03213336 0.19756086 -0.21920492 0.029049508 0.20922862
-0.011442691 0.058385205 -0.04121966 0.21819201 -0.0674202 0.1022042 -0.07610615 -0.12378269
0.15953787 -0.14473452 0.0018758556 -0.16795571 0.09114259 -0.051236928 0.17043293 0.107882634
-0.09759104 -0.22675288 -0.03900537 0.15617697 -0.09465074 -0.16587979 -0.030827256 -0.057402056
0.11135406 -0.288219 0.13268833 -0.16911477 -0.2755353 -0.29877475 0.12499362 -0.05634537
-0.12742637 0.13342309 0.004706749 -0.069970906 0.16348685 0.14901164 -0.14489281 0.27855608
-0.122798525 0.26709467 0.08410735 -0.09799687 -0.22253896 0.09277632 -0.05173521 -0.011142786
0.012449463 -0.08893599 -0.06311611 -0.13434735 0.18850696 -0.11037744 0.067359485 0.17068376
-0.16129886 -0.15556252 -0.10853348 0.1147845 0.2204551 -0.009067237 0.29393256 0.1201435
0.09576362 0.098575436 -0.1697131 -0.025799468 -0.12551503 0.07954786 -0.0020905135 -0.15604326
-0.05619936 0.1366383 -0.2375321 -0.11766837 0.10556287 0.18528064 -0.31452623 0.16657118
-0.18236084 0.032588053 0.3312435 -0.011740814 -0.14059767 -0.10232458 -0.018155789 -0.04783304
0.003109336 -0.09821906 0.04883012 -0.019072682 0.08833938 0.20774408 -0.11571515 0.13745739
-0.123350106 -0.010569453 0.1788867 -0.11331232 -0.05325082 0.016550243 0.09311477 -0.0211882
-0.061032336 0.10088564 0.1287427 -0.013204604 0.11241508 -0.26760143 0.12860374 -0.123748444
0.13552521 -0.049254004 -0.023170447 -0.19753735 -0.05327877 0.09483046 -0.051921427 0.01404054
-0.14955325 0.16735125 -0.15853842 0.0055562896 0.12902407 0.052640337 -0.10162214 -0.1299316
-0.05787584 0.07361839 -0.015523178 0.25999305 0.20965499 -0.009197245 -0.098217346 -0.112892725
-0.24658196 0.070917696 0.091598354 0.1022863 -0.035020176 -0.13346463 0.22908357 0.23100396
-0.016368538 -0.15965706 0.21989493 -0.25199223 0.028477835 0.05774361 0.005833268 0.0046078265
00000000: 4b41 18be 0151 193e 8576 b13c cc04 0d3e
00000010: 2501 123d 8156 853e e66c 32be 57bd 0fbe
00000020: ea49 09be 1c50 223e 11c0 12be 6566 d53d
00000030: 76f1 0abe 914f 05be e150 083e 68a4 95be
00000040: a125 2a3e c3cb 30bd 41a0 cabd aab8 1abd
00000050: 77ee 103e 9c13 2fbd 2e02 903e 25da 50bd
00000060: 95d6 afbd d3be d0bd 339f cf3d 5d02 16be
00000070: 232f 963d ab20 f63d 1cc4 ad3e 9f95 47be
00000080: 1ab7 543e b8b3 f63d 2ba3 153c 459e 03bd
00000090: 654d 4a3e 4177 60be 3cf9 ed3c 0740 563e
000000a0: 207a 3bbc 5325 6f3d f2d5 28bd ba6d 5f3e
000000b0: 9a13 8abd 7050 d13d 8bdd 9bbd c781 fdbd
000000c0: e55d 233e 4935 14be 45df f53a 95fc 2bbe
000000d0: f7a8 ba3d d0dd 51bd f885 2e3e 92f1 dc3d
000000e0: d0dd c7bd e831 68be 18c4 1fbd dbec 1f3e
000000f0: 3fd8 c1bd 64dc 29be 7189 fcbc 6b1e 6bbd
00000100: 990d e43d 7191 93be 73df 073e 6c2c 2dbe
00000110: f612 8dbe 01f9 98be a8fc ff3d 67ca 66bd
00000120: 0f7c 02be 10a0 083e 133b 9a3b e84c 8fbd
00000130: 1969 273e 8296 183e c85e 14be e79e 8e3e
00000140: cb7d fbbd a2c0 883e 7940 ac3d 95b2 c8bd
00000150: 41e1 63be 8301 be3d 4de8 53bd 3b90 36bc
00000160: d5f8 4b3c 1324 b6bd 0543 81bd 5a92 09be
00000170: f807 413e 910d e2bd c5f3 893d b9c7 2e3e
00000180: 872b 25be c84b 1fbe cd46 debd 2314 eb3d
00000190: fbbe 613e c08e 14bc 547e 963e cc0d f63d
000001a0: b81f c43d ebe1 c93d 45c9 2dbe 6859 d3bc
000001b0: 0387 00be fde9 a23d ff00 09bb cec9 1fbe
000001c0: 4d31 66bd e9ea 0b3e 9d3b 73be 1dfc f0bd
000001d0: 5931 d83d 35ba 3d3e 9509 a1be a391 2a3e
000001e0: cdbc 3abe 0d7b 053d bf98 a93e 8b5c 40bc
000001f0: d6f8 0fbe 8d8f d1bd 73bb 94bc 94ec 43bd
00000200: 00c6 4b3b 1327 c9bd 1802 483d 503e 9cbc
00000210: 47eb b43d ddba 543e 11fc ecbd a1c1 0c3e
00000220: fb9e fcbd 802b 2dbc 132e 373e 4a10 e8bd
00000230: 881d 5abd 6094 873c f5b2 be3d e092 adbc
00000240: 0bfd 79bd 219d ce3d 20d5 033e 2058 58bc
00000250: e139 e63d 0e03 89be b3b0 033e d36f fdbd
00000260: 1fc7 0a3e 91be 49bd f3cf bdbc 3b47 4abe
00000270: d73a 5abd 7936 c23d 90ab 54bd 4b0a 663c
00000280: 7d24 19be 205e 2b3e e557 22be 8911 b63b
00000290: e31e 043e 659d 573d 451f d0bd ca0c 05be
000002a0: 380f 6dbd 3dc5 963d ed54 7ebc cf1d 853e
000002b0: ccaf 563e 0bb0 16bc 2d26 c9bd 4d34 e7bd
000002c0: fb7f 7cbe 4c3d 913d eb97 bb3d 7b7b d13d
000002d0: 5171 0fbd f4aa 08be e294 6a3e 4d8c 6c3e
000002e0: 5017 86bc 247d 23be 232c 613e 2005 81be
000002f0: 594a e93c 9084 6c3d 0025 bf3b 40fd 963b

conv1.bias f4 [32]
0.120795175 0.022771971 0.03655993 0.022512827 -0.08426417 -0.20656775 0.037801363 -0.027140038
0.029439535 -0.116808556 0.11866958 -0.096819274 0.12941946 -0.025161294 -0.06356009 0.020649966
-0.2381752 0.008327166 -0.0015395033 -0.04804696 -0.13990472 -0.003875648 -0.18936999 0.029343728
0.049274955 -0.042486463 0.04746178 -0.0030231716 -0.27568486 -0.13735367 0.028089933 -0.012697466
00000000: 7663 f73d 498c ba3c ddbf 153d d26c b83c
00000010: b192 acbd 7f86 53be 9ad5 1a3d c954 debc
00000020: 2e2b f13c 5339 efbd 0909 f33d 2f49 c6bd
00000030: 8986 043e 0f1f cebc cb2b 82bd 1e2a a93c
00000040: 33e4 73be aa6e 083c 29c9 c9ba e4cc 44bd
00000050: 2f43 0fbe 95fe 7dbb 35ea 41be 4262 f03c
00000060: 89d4 493d 4906 2ebd 4967 423d 6720 46bb
00000070: 9126 8dbe 71a6 0cbe dc1c e63c 0809 50bc

conv2.weight f4 [32, 32, 3]
0.03512157 -0.09808856 -0.048251074 -0.020626958 0.04343304 0.003681311 0.018909678 0.11080875
0.02675534 -0.117449425 -0.06641333 -0.01351369 0.0020799176 0.06097897 0.063490644 0.045069844
-0.031332728 -0.026717974 0.0099295415 -0.04920044 -0.010782256 0.062238894 -0.050084796 0.05629509
0.04992759 0.029779831 -0.015498368 0.055496074 0.039086252 -0.044489253 0.037674997 0.043950394
0.057744376 -0.0016739259 0.027103625 0.007409784 0.06428107 -0.09753288 -0.113596335 0.053979427
0.024575032 0.058729745 0.023404907 0.011266248 0.08485233 0.0047723907 -0.06807325 -0.03359365
-0.016046818 -0.006138861 0.04994243 -0.01671446 0.03475369 -0.0808168 -0.039867368 0.00044051517
0.013276952 -0.038799454 -0.007338475 0.017244838 0.038623266 -0.034659255 0.041524787 -0.050085433
0.025855273 -0.075896904 0.02748192 0.009424764 -0.001098294 0.004384431 0.022456806 -0.037040807
0.031075412 -0.04074634 -0.04889292 0.03258982 0.0032678344 0.021019515 -0.013036033 -0.03206668
0.019607823 -0.082526445 -0.004117951 0.024561793 0.02878332 0.019417513 -0.0068164393 0.045657646
0.03694221 -0.017545776 -0.030745355 -0.015567549 -0.06507564 0.017827276 -0.044015754 0.025249261
-0.02186291 -0.052600548 -0.08790866 0.027023869 0.03773168 0.010758358 -0.010544379 0.068899184
0.08552761 0.036029708 -0.0087528825 0.0118731065 -0.025772855 -0.032782968 -0.038141634 0.04854525
-0.0010271451 -0.060872022 -0.04230589 -0.021376994 -0.02445195 0.025521765 -0.047958482 0.0070985816
-0.05721331 -0.007734368 0.024493689 0.025944877 0.0382099 0.039158918 0.056535207 0.08769696
0.11312525 -0.04170693 -0.008787925 -0.057746504 -0.027735045 -0.03391745 0.014690302 0.026819004
0.045477338 -0.029722841 -0.10591076 -0.037380196 -0.025800612 -0.055814452 -0.007899653 -0.065146245
0.030199828 0.048389584 0.071778335 -0.017631559 -0.06048734 -0.070270196 0.067318454 0.03326349
-0.031085229 -0.02026794 -0.035633303 -0.07301879 -0.037528366 -0.045416445 0.056195766 -0.03060218
-0.027259557 -0.020169934 0.032913603 0.045565587 -0.0042251963 -0.04818754 -0.06217677 -0.026395703
-0.054387603 -0.046184067 -0.082350425 -0.04326999 -0.0025071527 -0.019379629 0.003189346 -0.07576488
-0.0055656857 -0.027168069 -0.023554778 -0.014184456 -0.039954927 -0.044940926 0.007981932 -0.03903799
0.03230519 0.016844084 -0.03516857 -0.0888869 -0.04520383 0.002223244 -0.017886562 -0.0017471402
-0.017886642 0.045274965 -0.015266132 0.011120237 -0.010813013 -0.0065396647 0.022329511 0.042539768
0.0150888 0.12992129 0.058113568 -0.0960124 0.05992894 -0.021714563 0.045291033 0.02900513
0.04148605 0.02435544 0.027204398 -0.08239329 0.038631298 0.02051707 0.0019057258 -0.0028327766
-0.022604704 -0.037845742 -0.046639618 -0.04020064 0.025101373 0.021400578 0.03484288 0.0041515706
-0.041419223 0.06546454 0.036673773 -0.0060803387 0.07340567 0.049744874 -0.016482236 -0.047524177
-0.073153235 0.022795074 0.037432823 0.11683388 0.098885655 -0.01158831 0.0129176695 -0.066444516
0.0073226634 -0.07186759 -0.11526107 0.028075228 0.011697642 0.003949234 -0.014312316 0.017741619
0.021171734 0.023135917 0.056857534 0.08766075 -0.02713782 0.0002883634 -0.027625004 0.07167556
00000000: a3db 0f3d a8e2 c8bd eba2 45bd def9 a8bc
00000010: d8e6 313d 2642 713b 78e8 9a3c b3ef e23d
00000020: 042e db3c 5389 f0bd b603 88bd 8668 5dbc
00000030: 3a4f 083b 16c5 793d 6207 823d 289b 383d
00000040: bf56 00bd a7df dabc 84af 223c 6786 49bd
00000050: 0fa8 30bc 36ee 7e3d b725 4dbd ae95 663d
00000060: df80 4c3d d5f4 f33c deec 7dbc da4f 633d
00000070: e818 203d 5d3a 36bd 1951 1a3d 5405 343d
00000080: 5e85 6c3d a267 dbba 6c08 de3c c6cd f23b
00000090: cba5 833d 52bf c7bd 32a5 e8bd 8819 5d3d
000000a0: 9451 c93c 9a8e 703d a6bb bf3c 1296 383c
000000b0: 0fc7 ad3d b761 9c3b fd69 8bbd 7f99 09bd
000000c0: 9e74 83bc 8028 c9bb 6f90 4c3d c3ec 88bc
000000d0: e359 0e3d 4783 a5bd f74b 23bd f2f4 e639
000000e0: 9387 593c 2dec 1ebd 9777 f0bb 0c45 8d3c
000000f0: 6e33 1e3d ddf6 0dbd e515 2a3d 6226 4dbd
00000100: 70ce d33c d66f 9bbd c321 e13c 536a 1a3c
00000110: a2f4 8fba 46ab 8f3b 56f7 b73c 1ab8 17bd
00000120: dd91 fe3c a2e5 26bd f143 48bd e77c 053d
00000130: 2a29 563b 1e31 ac3c 1695 55bc 5a58 03bd
00000140: 96a0 a03c a003 a9bd e0ef 86bb d035 c93c
00000150: ffca eb3c 7a11 9f3c 705c dfbb 8303 3b3d
00000160: b750 173d 29bc 8fbc afdd fbbc 080f 7fbc
00000170: 6146 85bd 820a 923c dd49 34bd 8ad7 ce3c
00000180: d819 b3bc ac73 57bd 7509 b4bd 2961 dd3c
00000190: 898c 1a3d d343 303c 55c2 2cbc 041b 8d3d
000001a0: 1929 af3d e393 133d 4068 0fbc 6b87 423c
000001b0: 9821 d3bc 6f47 06bd 673a 1cbd 62d7 463d
000001c0: 45a1 86ba f154 79bd f148 2dbd ce1e afbc
000001d0: 754f c8bc 0513 d13c 1d70 44bd 389b e83b
000001e0: 8158 6abd 9570 fdbb fda6 c83c 5a8a d43c
000001f0: fc81 1c3d 1a65 203d 7691 673d 779a b33d
00000200: 36ae e73d e3d4 2abd 3bfb 0fbc 9987 6cbd
00000210: 9b34 e3bc 06ed 0abd 98af 703c 87b3 db3c
00000220: 7246 3a3d 517d f3bc bee7 d8bd fa1b 19bd
00000230: ce5b d3bc b29d 64bd 8c6d 01bc 656b 85bd
00000240: a165 f73c 2834 463d 8500 933d 0f70 90bc
00000250: 93c1 77bd d2e9 8fbd 42de 893d 4c3f 083d
00000260: 73a6 febc f308 a6bc 3af4 11bd e08a 95bd
00000270: 58b7 19bd 9806 3abd 882d 663d 6cb1 fabc
00000280: 6f4f dfbc 6b3b a5bc 6ad0 063d fba2 3a3d
00000290: 8473 8abb 4c60 45bd 12ad 7ebd cd3b d8bc
000002a0: 89c5 5ebd 812b 3dbd 57a7 a8bd df3b 31bd
000002b0: 0b4f 24bb 07c2 9ebc 5904 513b 9e2a 9bbd
000002c0: 5b60 b6bb 928f debc f3f5 c0bc ec65 68bc
000002d0: c7a7 23bd fa13 38bd a6c6 023c 4de6 1fbd
000002e0: 7252 043d 9bfc 893c eb0c 10bd 560a b6bd
000002f0: a727 39bd d8b3 113b d786 92bc 4c00 e5ba
00000300: 0287 92bc 3e72 393d cc1e 7abc a831 363c
00000310: 1029 31bc af4a d6bb 61ec b63c 2e3e 2e3d
00000320: 0437 773c 160a 053e 7e08 6e3d 26a2 c4bd
00000330: 0c78 753d bde2 b1bc 1783 393d 2b9c ed3c
00000340: 47ed 293d 0f85 c73c c2db de3c d0bd a8bd
00000350: da3b 1e3d 6a13 a83c 8cc9 f93a 1ba6 39bb
00000360: 802d b9bc 2304 1bbd 2f09 3fbd 6da9 24bd
00000370: 65a1 cd3c 4450 af3c 68b7 0e3d e609 883b
00000380: 34a7 29bd 4612 863d 3d37 163d 943d c7bb
00000390: b655 963d 48c1 4b3d c105 87bc b6a8 42bd
000003a0: 5dd1 95bd bcbc ba3c 2953 193d 9a46 ef3d
000003b0: 9084 ca3d e5dc 3dbc a2a4 533c 1014 88bd
000003c0: f4f2 ef3b 512f 93bd ff0d ecbd 05fe e53c
000003d0: 77a7 3f3c 9368 813b 347e 6abc df56 913c
000003e0: 5870 ad3c 8987 bd3c 72e3 683d 7b87 b33d
000003f0: 2250 debc 7b2f 9739 d54d e2bc a3ca 923d

conv2.bias f4 [32]
0.06290047 -0.010838586 -0.10149856 -0.0054754284 0.0891981 0.07075436 0.119691156 -0.100375906
0.064163454 0.090908244 -0.04824053 -0.047421638 -0.057718493 -0.04635617 0.00045778873 0.05763526
-0.12599257 0.02948051 0.01278358 0.022420488 0.022522049 -0.04735013 0.03850637 0.08044099
0.15807065 0.06651412 0.061940785 0.06414699 0.06810901 -0.032781024 -0.074155785 0.10841252
00000000: f6d1 803d 5394 31bc 7ade cfbd 396b b3bb
00000010: 7ead b63d a9e7 903d a320 f53d e291 cdbd
00000020: 2168 833d 1a2e ba3d dd97 45bd 313d 42bd
00000030: 3a6a 6cbd f8df 3dbd 5d03 f039 f312 6c3d
00000040: 3204 01be 1c81 f13c 3972 513c 2cab b73c
00000050: 2980 b83c 36f2 41bd dbb8 1d3d 3fbe a43d
00000060: 46dd 213e 8e38 883d 9fb5 7d3d 7f5f 833d
00000070: bd7c 8b3d 6545 06bd fdde 97bd 6207 de3d

conv3.weight f4 [32, 32, 3]
0.017292226 0.026015049 0.026610753 0.050850864 -0.07410237 -0.026913494 0.011906194 0.094423406
-0.06730992 0.015918365 -0.014346523 -0.037810627 0.027022442 0.03432696 0.083485216 0.022560362
-0.014822383 -0.023974704 0.060416445 0.0034557597 -0.10304498 0.10425669 0.13485363 0.012905232
0.046074763 -0.018588355 0.043401204 0.03746495 0.0152045535 0.048617188 -0.0005012082 0.018633714
-0.03669746 -0.026902823 -0.024253102 0.042926688 -0.0065506324 0.037841354 0.023925535 0.037649844
0.012087842 -0.021954862 -0.0010031379 0.02251399 -0.007937587 -0.021456862 0.03331313 0.04025436
-0.029753773 0.031001288 -0.08813529 0.0078402385 -0.016676337 -0.089662835 0.03797039 -0.0037182362
-0.020819502 0.031220749 0.014534884 -0.016332543 0.004401068 -0.029883534 -0.025508229 0.060841855
0.03704818 -0.10818491 0.033360038 0.045668103 -0.051951103 -0.058762647 -0.015130036 -0.0064107296
0.083715275 0.05280824 -0.018838102 -0.00836746 0.00094085303 0.025034927 0.029717658 0.010040896
0.0025546884 -0.040831555 0.054080166 0.013056265 -0.022304391 -0.006285771 -0.03688427 -0.032995697
0.051609136 0.03233872 0.014982742 -0.0060079205 -0.03833343 0.004774318 0.01082456 0.004209587
0.006760277 -0.072037354 0.0026836735 0.024457553 0.00605392 0.002859853 -0.043498877 -0.0073966114
0.07707079 0.0514149 -0.030138979 -0.0071396157 0.011728706 0.049291566 0.024867823 -0.0398015
-0.006304199 -0.058386385 -0.020733496 0.002857939 0.0006969458 0.003949072 -0.058353044 -0.12305701
0.007820195 -0.0026332191 -0.020217853 -0.014766931 -0.011324033 -0.0072106416 0.0048235646 -0.023459358
-0.014067833 -0.041620724 -0.031541016 0.037675958 -0.04030816 -0.06748986 0.054766428 0.0039712694
0.05072575 0.0315297 0.056116384 0.03711653 -0.009916154 -0.042609338 0.008212526 -0.010804843
0.012780396 -0.017438548 0.023400258 -0.070231885 -0.033448853 -0.031835698 0.003695156 -0.08077874
0.06441489 -0.046675783 0.0006637187 -0.039343506 -0.05449457 -0.023850344 0.008753456 -0.004403017
-0.051865105 -0.04772139 0.031517792 0.052495986 0.056651816 -0.045345295 -0.08092843 0.028965048
0.03924729 0.038554356 -0.043899715 -0.03234047 -0.10160493 -0.012420162 0.007222651 -0.005493654
-0.009856764 0.042468 0.07923536 0.03861747 -0.011046992 -0.00074632314 -0.030980721 0.009623969
-0.078058496 -0.01474916 -0.026409017 -0.01401846 0.08529465 -0.04175555 -0.062293664 -0.0009458622
-0.032935522 -0.03931019 -0.0077652577 -0.051170677 0.052758105 0.06755439 0.0023669724 0.059525475
-0.100577936 -0.037260335 0.027183026 -0.03340696 0.01828549 -0.012128248 -0.059854757 0.06239747
-0.0054341587 0.022710029 -0.016527332 -0.009513649 -0.045317583 0.023780132 0.031161034 -0.02205841
0.003277943 -0.045870043 -0.007980347 0.059193812 -0.059594184 -0.05538078 -0.07275357 -0.06977891
0.04807279 -0.059404448 0.10615369 0.037165456 -0.03083907 0.05910214 0.0350911 0.0013276524
0.049119145 -0.011489341 -0.022664426 -0.02488086 0.026558803 0.024541115 -0.007051171 -0.048049733
-0.052796036 -0.047240794 0.015032615 0.014119709 0.008395522 -0.004160718 -0.025343547 0.05517467
0.0062130853 0.051932696 0.035893 -0.030128742 -0.023394823 -0.005718994 0.046166353 0.03213764
00000000: 6da8 8d3c 831d d53c cbfe d93c ff48 503d
00000010: fcc2 97bd b079 dcbc 3212 433c 0f61 c13d
00000020: c9d9 89bd 3b67 823c ae0d 6bbc 51df 1abd
00000030: 2b5e dd3c 6d9a 0c3d 4cfa aa3d 82d0 b83c
00000040: 95d9 72bc 9966 c4bc 3c77 773d 077a 623b
00000050: 3f09 d3bd 8884 d53d 1217 0a3e 7770 533c
00000060: e4b8 3c3d 9b46 98bc 76c5 313d d974 193d
00000070: 851c 793c d122 473d 8363 03ba bba5 983c
00000080: 1350 16bd 4f63 dcbc 71ae c6bc e5d3 2f3d
00000090: b0a6 d6bb 89ff 1a3d 7cff c33c b936 1a3d
000000a0: 160c 463c afda b3bc b97b 83ba 426f b83c
000000b0: a70c 02bc 4dc6 afbc 5973 083d c1e1 243d
000000c0: 2fbe f3bc 6af6 fd3c 4680 b4bd 5874 003c
000000d0: d09c 88bc 26a1 b7bd d786 1b3d a7ad 73bb
000000e0: a98d aabc a8c2 ff3c b923 6e3c d3cb 85bc
000000f0: d636 903b 50ce f4bc a2f6 d0bc 4f35 793d
00000100: d5bf 173d 0d90 ddbd 89a4 083d 7a0e 3b3d
00000110: aeca 54bd 1ab1 70bd f8e3 77bc 1911 d2bb
00000120: ea72 ab3d 744d 583d 5d52 9abc ac17 09bc
00000130: 94a3 763a 0c16 cd3c 7272 f33c 9282 243c
00000140: 8f6c 273b fd3e 27bd 2a83 5d3d f2e9 553c
00000150: b3b7 b6bc def8 cdbb f613 17bd 7f26 07bd
00000160: 1a64 533d 9b75 043d 2d7a 753c 17de c4bb
00000170: 8403 1dbd e271 9c3b 7f59 313c 93f0 893b
00000180: 5085 dd3b 5288 93bd 92e0 2f3b 355b c83c
00000190: f65f c63b 5f6c 3b3b e12b 32bd 465f f2bb
000001a0: 4ad7 9d3d 6e98 523d 05e6 f6bc 70f3 e9bb
000001b0: c229 403c f4e5 493d 9bb7 cb3c e606 23bd
000001c0: 7493 cebb 9026 6fbd 4bd9 a9bc 434c 3b3b
000001d0: 3eb3 363a 3867 813b 9a03 6fbd 5005 fcbd
000001e0: 4620 003c 1692 2cbb e99f a5bc fff0 71bc
000001f0: 7088 39bc 3f47 ecbb fe0e 9e3b d72d c0bc
00000200: c57c 66bc 7e7a 2abd 2731 01bd 1b52 1a3d
00000210: 2b1a 25bd 2038 8abd c352 603d 6c21 823b
00000220: cec5 4f3d 4925 013d 4bda 653d 8107 183d
00000230: 5d77 22bc 2187 2ebd d58d 063c cc06 31bc
00000240: de64 513c 49db 8ebc e6b1 bf3c bcd5 8fbd
00000250: aa01 09bd 2666 02bd 6e2a 723b 536f a5bd
00000260: f4eb 833d 1b2f 3fbd 68fd 2d3a a826 21bd
00000270: b335 5fbd cc61 c3bc a86a 0f3c 2f47 90bb
00000280: 8170 54bd 8177 43bd cd18 013d 0806 573d
00000290: bc0b 683d fdbb 39bd cebd a5bd 1c48 ed3c
000002a0: c4c1 203d 2ceb 1d3d 30d0 33bd 7177 04bd
000002b0: 3f16 d0bd ef7d 4bbc fdab ec3b 1c04 b4bb
000002c0: 447e 21bc edf2 2d3d 2646 a23d 5a2d 1e3d
000002d0: 71fe 34bc e6a4 43ba 48cb fdbc daad 1d3c
000002e0: 22dd 9fbd 76a6 71bc b957 d8bc afad 65bc
000002f0: f6ae ae3d de07 2bbd a427 7fbd bdf3 77ba
00000300: 66e7 06bd b903 21bd b473 febb 5898 51bd
00000310: e218 583d f559 8a3d 351f 1b3b fcd0 733d
00000320: cefb cdbd 4b9e 18bd f0ae de3c bdd5 08bd
00000330: 74cb 953c 8fb5 46bc 432a 75bd 7d94 7f3d
00000340: 0711 b2bb 620a ba3c 5464 87bc 23df 1bbc
00000350: ee9e 39bd 8dce c23c 6d45 ff3c d7b3 b4bc
00000360: c2d2 563b 3ae2 3bbd 00c0 02bc 3675 723d
00000370: 0819 74bd f5d6 62bd d3ff 94bd 3fe8 8ebd
00000380: f9e7 443d 1452 73bd 1b67 d93d ce3a 183d
00000390: 38a2 fcbc 1615 723d afbb 0f3d 9f04 ae3a
000003a0: 2831 493d ca3d 3cbc bfaa b9bc f2d2 cbbc
000003b0: d991 d93c 730a c93c 820d e7bb cccf 44bd
000003c0: a840 58bd 907f 41bd 5b4b 763c 5a56 673c
000003d0: 5f8d 093c a256 88bb 459d cfbc d6fe 613d
000003e0: 2397 cb3b 61b7 543d 8a04 133d 8dd0 f6bc
000003f0: 80a6 bfbc 6666 bbbb ee18 3d3d c2a2 033d

conv3.bias f4 [32]
-0.08036144 -0.10190812 -0.03899225 -0.03716872 -0.013585756 -0.079754524 0.08749674 -0.026869787
0.070611 0.07190024 -0.055328682 -0.046958257 0.043979075 -0.03988717 -0.04897392 -0.01529318
-0.06388375 -0.06125092 -0.023163082 0.09324289 -0.002411349 -0.049849194 -0.06288133 -0.13638142
0.002728084 0.025314236 -0.098292574 -0.14062797 -0.08314734 -0.09105566 -0.015901802 -0.113700666
00000000: 8a94 a4bd 34b5 d0bd 56b6 1fbd 3a3e 18bd
00000010: ca96 5ebc 5756 a3bd 7e31 b33d 071e dcbc
00000020: 809c 903d 6f40 933d 54a0 62bd 4d57 40bd
00000030: 6723 343d bb60 23bd e198 48bd 3f90 7abc
00000040: 7cd5 82bd 3fe2 7abd 81c0 bdbc 21f6 be3d
00000050: b907 1ebb ab2e 4cbd edc7 80bd 92a7 0bbe
00000060: a8c9 323b cd5f cf3c 9e4d c9bd c700 10be
00000070: 2749 aabd 647b babd 7f44 82bc e5db e8bd

conv4.weight f4 [32, 32, 3]
-0.005425135 -0.08041625 -0.012438809 -0.053698458 0.058512334 0.029393978 0.00032144747 0.018676335
0.06950872 -0.08251341 0.011860894 0.061247513 -0.06298697 0.018280389 0.034923606 0.057848364
0.0016556983 0.015658276 0.04948177 0.049004704 0.029940734 -0.060542498 -0.03203775 -0.014999235
0.03098848 -0.008592134 -0.022400856 -0.037586764 0.019698098 -0.006026297 0.022038372 0.025302768
0.030846793 0.006218046 -0.09289395 0.025204472 -0.034075003 0.020164091 -0.04569065 -0.06618183
0.046522707 -0.07240357 -0.02103354 0.032398555 0.10918324 0.017680468 0.030218907 0.046958134
-0.025458187 0.015765259 0.028278358 0.007944661 -0.005298204 -0.0017603522 -0.009073957 0.012899161
-0.028128454 -0.031479094 -0.11981265 0.045153573 0.014234138 -0.00699323 0.020448102 0.051882766
-0.06729258 0.0042198296 -0.11008819 -0.023037715 -0.024751302 0.019837808 0.014326161 -0.033558715
0.0029284672 -0.0018819966 -0.007650306 -0.031024894 -0.056230053 0.029527508 0.05378553 -0.13516912
-0.06591263 0.00050710316 0.024569506 0.038169067 0.034041606 -0.030227669 0.0013954903 -0.03333344
-0.08984713 0.06265162 -0.040024526 0.021722348 0.036852725 0.0024004418 -0.05807797 0.011690512
-0.024089089 0.07428651 0.0018125591 -0.09020233 0.049126662 0.006686503 0.030143881 0.0063582147
0.008180467 0.019681059 0.04279113 -0.014854702 0.015588117 0.0021203414 -0.048448592 -0.069063775
0.020922614 0.018996807 0.010779865 0.02979171 -0.093564056 -0.043329053 -0.012420691 -8.220474e-05
0.009844124 0.008069002 -0.06326894 -0.012764101 0.064453825 -0.004126508 0.0011487135 0.05309471
-0.008559829 -0.031506237 0.04684983 -0.04494991 -0.066634476 0.03799396 0.0027208305 -0.080086164
0.038786847 -0.036183245 0.009766607 0.010072291 -0.04458326 0.008703595 0.017672347 -0.0115246475
-0.058931544 -0.016499894 0.0024572643 -0.038807184 -0.013515127 0.030731367 -0.08304323 -0.0065436307
0.045700468 0.02910228 0.012938607 -0.01034995 0.039345596 -0.031024192 0.013084807 -0.004178728
0.06191416 -0.01889517 -0.010151081 0.04398918 0.042294838 -0.055336826 -3.106699e-05 0.047438595
-0.002975658 0.013118257 -0.030121403 -0.012887324 0.053111807 0.0004292301 0.07743661 -0.06991493
0.013751341 -0.04330489 0.0020492945 0.049384467 -0.0657985 0.0070542134 0.014766861 0.0068923477
-0.06421099 0.09477073 -0.0025643082 0.024130939 0.016085489 -0.07269377 0.014002468 0.08708039
-0.048201438 -0.07049318 -0.00073248264 -0.02944662 0.0069451346 -0.0077736806 0.018021805 0.033937525
0.05555932 -0.033125136 0.012486908 -0.07359014 0.075426966 0.023953041 0.0018853238 -0.045110505
-0.019006243 -0.022581179 0.0032065706 0.020986771 -0.091568336 -0.10254017 0.009369227 0.03147675
-0.022733113 -0.03698119 -0.03424079 0.027245164 0.012364631 -0.049282067 0.024780499 0.021895511
-0.0026700571 0.09871381 0.026232155 0.0041921157 -0.04662897 -0.03997074 -0.06469705 0.0030842307
0.020147804 0.040001474 0.020509865 -0.08872206 0.020788105 -0.038918722 0.021870866 -0.03458076
0.022265436 0.0051127346 0.0026327216 -0.0117940195 0.023373976 0.011834433 0.033809308 0.01122532
-0.030707294 0.012172449 0.03955649 -0.0138460295 -0.012855661 0.052822303 -0.019846775 -0.029377127
00000000: 55c5 b1bb 46b1 a4bd 25cc 4bbc eaf2 5bbd
00000010: a1aa 6f3d a4cb f03c f387 a839 1dff 983c
00000020: 965a 8e3d cafc a8bd 3254 423c acde 7a3d
00000030: 50ff 80bd c1c0 953c 0e0c 0f3d 68f2 6c3d
00000040: 0404 d93a c945 803c 65ad 4a3d 28b9 483d
00000050: 4546 f53c 69fb 77bd 043a 03bd 5abf 75bc
00000060: 8edb fd3c 06c6 0cbc 0082 b7bc 94f4 19bd
00000070: e85d a13c 3e78 c5bb d189 b43c c047 cf3c
00000080: 6ab2 fc3c c0c0 cb3b 2f3f bebd 9c79 ce3c
00000090: 3b92 0bbd 2a2f a53c 1e26 3bbd 578a 87bd
000000a0: 988e 3e3d 5348 94bd 884e acbc 59b4 043d
000000b0: 769b df3d a1d6 903c a48d f73c 2c57 403d
000000c0: b08d d0bc 2526 813c 04a8 e73c 532a 023c
000000d0: 8e9c adbb 9ebb e6ba efaa 14bc 0157 533c
000000e0: a56d e6bc 39f0 00bd 5660 f5bd f4f2 383d
000000f0: 4d36 693c 7727 e5bb c782 a73c 0683 543d
00000100: b1d0 89bd 7f46 8a3b eb75 e1bd 97b9 bcbc
00000110: 3ec3 cabc e682 a23c 46b8 6a3c dd74 09bd
00000120: 87eb 3f3b 54ad f6ba 6baf fabb eb27 febc
00000130: 7c51 66bd ace3 f13c 374e 5c3d c669 0abe
00000140: 33fd 86bd 1eef 043a fd45 c93c 2b57 1c3d
00000150: 366f 0b3d 04a0 f7bc e2e8 b63a a588 08bd
00000160: c601 b8bd 7e4f 803d c2f0 23bd 11f3 b13c
00000170: e2f2 163d bb50 1d3b 2ae3 6dbd 9089 3f3c
00000180: 7b56 c5bc 8723 983d 6493 ed3a 00bc b8bd
00000190: 0a39 493d 741a db3b 4df0 f63c 9258 d03b
000001a0: 5e07 063c 2c3a a13c c045 2f3d 2361 73bc
000001b0: 4d65 7f3c 6df5 0a3b 0872 46bd 4f71 8dbd
000001c0: e765 ab3c 319f 9b3c 089e 303c bf0d f43c
000001d0: 839e bfbd ce79 31bd 2780 4bbc 5565 acb8
000001e0: 4049 213c d933 043c 2593 81bd 8520 51bc
000001f0: 5e00 843d a837 87bb 6e90 963a d779 593d
00000200: 863e 0cbc af0c 01bd 9be5 3f3d 661d 38bd
00000210: a877 88bd 8e9f 1b3d f64f 323b 3704 a4bd
00000220: f5de 1e3d e234 14bd 1e04 203c 4006 253c
00000230: f09c 36bd 8699 0e3c 99c5 903c e0d1 3cbc
00000240: 3462 71bd c92a 87bc 0e0a 213b 48f4 1ebd
00000250: 8d6e 5dbc 59c0 fb3c 9212 aabd f46b d6bb
00000260: 6a30 3b3d e867 ee3c 73fc 533c d692 29bc
00000270: d928 213d 7226 febc a961 563c b6ed 88bb
00000280: b499 7d3d 0bca 9abc b850 26bc 002e 343d
00000290: 5a3d 2d3d dea8 62bd ed4d 02b8 f94e 423d
000002a0: 4203 43bb f5ed 563c 29c1 f6bc 5b25 53bc
000002b0: c48b 593d 4a0a e139 1697 9e3d 8f2f 8fbd
000002c0: 4e4d 613c 7860 31bd 754d 063b 5e47 4a3d
000002d0: 5dc1 86bd 0827 e73b b4f0 713c 34d9 e13b
000002e0: 0d81 83bd 2817 c23d f40d 28bb 3fae c53c
000002f0: b7c5 833c 79e0 94bd 9c6a 653c 3457 b23d
00000300: df6e 45bd ba5e 90bd 1404 40ba 0a3a f1bc
00000310: 0394 e33b 5cba febb 77a2 933c 1302 0b3d
00000320: 2b92 633d 39ae 07bd e395 4c3c 6db6 96bd
00000330: 7479 9a3d 2b39 c43c f81c f73a cbc5 38bd
00000340: fbb2 9bbc 2afc b8bc 5425 523b 73ec ab3c
00000350: 2e88 bbbd 9500 d2bd 6381 193c c4ed 003d
00000360: cb3a babc 9779 17bd 1240 0cbd 4031 df3c
00000370: 0595 4a3c fedb 49bd 7900 cb3c 375e b33c
00000380: 20fc 2ebb 772a ca3d d1e4 d63c 045e 893b
00000390: 05fe 3ebd 5cb8 23bd e37f 84bd ce20 4a3b
000003a0: 020d a53c 96d8 233d 4e04 a83c e9b3 b5bd
000003b0: d14b aa3c 3d69 1fbd 882a b33c 8ea4 0dbd
000003c0: 0166 b63c ba88 a73b bd89 2c3b b43b 41bc
000003d0: c87a bf3c 36e5 413c a17b 0a3d 68ea 373c
000003e0: dd8d fbbc f46e 473c fc05 223d 75da 62bc
000003f0: 8da0 52bc 335c 583d b495 a2bc 4da8 f0bc

conv4.bias f4 [32]
0.12944683 -0.014590085 -0.024213323 0.025625292 -0.07019792 -0.025438085 -0.077974856 -0.12702286
-0.053854324 -0.09726323 -0.021781206 -0.054948904 0.01971004 -0.09005085 -0.035875577 -0.06347931
-0.025965964 -0.012939656 -0.023655992 0.08875868 -0.07452739 0.04105747 -0.09733641 -0.12782608
0.08890981 -0.12672132 -0.10689152 -0.016893145 -0.07786599 -0.0438082 -0.007832185 -0.052346278
00000000: b68d 043e 400b 6fbc 055b c6bc 22ec d13c
00000010: edc3 8fbd 8863 d0bc 48b1 9fbd 4812 02be
00000020: 5a96 5cbd f231 c7bd 806e b2bc 1a12 61bd
00000030: f376 a13c 946c b8bd 45f2 12bd 7101 82bd
00000040: 93b6 d4bc da00 54bc 36ca c1bc 1cc7 b53d
00000050: d1a1 98bd e12b 283d 5058 c7bd d7e4 02be
00000060: 5916 b63d 3cc3 01be f1e9 dabd 7e63 8abc
00000070: 3478 9fbd 3a70 33bd 9152 00bc 0d69 56bd

conv5.weight f4 [32, 32, 3]
-0.009703823 -0.021655198 0.069332376 -0.00809765 -0.011002305 -0.013276317 -0.0052655516 -0.02210194
-0.05727647 0.047338966 0.016455848 0.04181126 -0.01819628 0.020092063 0.009095292 -0.0032259168
-0.05387904 0.0075074653 -0.0048799794 -0.087790966 0.005232864 -0.093548335 -0.09780961 0.01007499
-0.04879351 -0.0055363677 0.051793013 -0.017236743 -0.030187368 -0.0020978192 -0.010199146 -0.0003012999
-0.00469136 0.03511127 -0.0148931015 0.042384423 -0.050440606 -0.037482332 0.0374625 0.06562395
0.062811665 -0.039403457 -0.006581957 -0.005314022 -0.029968165 -0.03945194 -0.021600448 -0.030072898
-0.009720615 -0.014356787 -0.009712544 0.0026875949 0.050552644 0.02908721 0.014538965 0.016013019
-0.018892223 0.039098285 0.039980523 0.0725937 0.019534618 -0.02614922 -0.07111114 0.052829664
0.005729329 0.056762848 0.04126226 0.037324343 0.0023376285 -0.11272819 0.030661186 0.055113144
0.041972384 -0.0350856 -0.0044644414 -0.002734179 0.0007089486 0.012429184 -0.005271547 -0.07383405
-0.010964787 0.038523763 0.04616605 -0.037477 0.03081648 -0.026026815 0.042276513 -0.025544614
0.02163635 0.04829411 -0.050827917 -0.07851682 0.011643747 -0.11491407 0.03135587 -0.078342795
0.049763888 -0.030717216 0.00497319 0.003557168 0.00055716425 0.030349033 -0.031863037 0.051828902
0.012431809 0.013853756 0.052022595 0.028802985 0.041434035 -0.024984134 -0.05791802 -0.020603457
0.06277038 -0.011089402 -0.011739966 -0.04128649 0.038476195 0.057629243 -0.041711733 0.04953815
-0.04444053 0.019853408 -0.010103038 0.041206624 0.016272927 0.002999955 0.015773617 -0.004489606
-0.0011226004 0.015319861 -0.020767128 0.0044085016 0.009887899 0.0116774235 0.049374353 -0.02031416
0.058649946 0.016370615 0.010400447 -0.03544637 -0.022892771 0.011373348 0.046777353 -0.008267921
-0.0011525241 0.013358597 -0.036292437 -0.014939436 -0.0014306087 -0.0052074124 -0.027139688 0.013154058
0.030804873 0.027714984 -0.05838255 -0.079422854 -0.05909087 0.045642905 0.0011265489 -0.040679917
-0.023068536 -0.057109468 -0.054070268 0.004233787 -0.008800013 -0.06923272 0.062506825 0.049725875
0.02137712 -0.0010057262 0.01499975 -0.08189503 -0.016095847 -0.059569977 0.022947421 0.048895482
-0.038265586 -0.07340797 0.026506798 0.08009019 -0.016274907 0.017245466 0.07739299 -0.006603922
0.006269247 0.016159635 0.005687179 0.061103508 0.036682818 -0.043516837 -0.03424119 -0.08399868
-0.020097723 -0.038604498 0.02472073 0.006530354 -0.0043459916 -0.07242971 -0.041254364 -0.05056644
3.488097e-05 -0.004655332 -0.02107097 0.0020158545 -0.0071237367 0.036535107 0.06819259 0.06410972
-0.01119589 -0.03651085 0.02665287 -0.14182645 0.035736807 -0.03677098 0.009195355 0.02545111
-0.04788763 0.017830636 -0.008400602 0.006880045 -0.0417524 -0.070552796 -0.024277326 0.031040253
0.053667042 0.016063713 -0.062011406 0.0299893 0.03806026 -0.04113541 -0.033192527 0.041536506
-0.031500492 -0.10383416 0.059216764 -0.08974411 -0.03534245 -0.021342032 0.04852937 -0.030766588
0.0041837525 -0.06985153 -0.00829361 -0.039457448 0.013179637 0.0018763817 -0.012490681 -0.0055478024
-0.105778575 -0.027303351 -0.01781912 0.0027926413 -0.013953268 0.038544867 -0.030351376 0.017386315
00000000: c9fc 1ebc 3e66 b1bc 22fe 8d3d 01ac 04bc
00000010: 0343 34bc e984 59bc a68a acbb 210f b5bc
00000020: bb9a 6abd 81e6 413d 6ace 863c 4942 2b3d
00000030: 5d10 95bc 1c98 a43c 6b04 153c e769 53bb
00000040: 45b0 5cbd 2f01 f63b 3ce8 9fbb c0cb b3bd
00000050: 7278 ab3b 4596 bfbd 6850 c8bd 9211 253c
00000060: b4db 47bd 6b6a b5bb e924 543d 1234 8dbc
00000070: 804b f7bc 917b 09bb 521a 27bc caf7 9db9
00000080: fbb9 99bb d6d0 0f3d 3202 74bc 4a9b 2d3d
00000090: cf9a 4ebd 1387 19bd 4772 193d d965 863d
000000a0: 67a3 803d 8565 21bd 75ad d7bb 3f21 aebb
000000b0: cc7f f5bc 5c98 21bd 6cf3 b0bc 705b f6bc
000000c0: 3743 1fbc bb38 6bbc 5d21 1fbc 5c22 303b
000000d0: 4a10 4f3d 4d48 ee3c d734 6e3c bc2d 833c
000000e0: ddc3 9abc 8625 203d 9ec2 233d 01ac 943d
000000f0: 1007 a03c e436 d6bc b8a2 91bd eb63 583d
00000100: 18bd bb3b 2980 683d 9e02 293d 69e1 183d
00000110: e632 193b 0ade e6bd 2b2d fb3c 52be 613d
00000120: 3ceb 2b3d ebb5 0fbd 734a 92bb e92f 33bb
00000130: bcd8 393a c7a3 4b3c f1bc acbb 4e36 97bd
00000140: a6a5 33bc 18cb 1d3d 9d18 3d3d 7c81 19bd
00000150: d872 fc3c 3036 d5bc 232a 2d3d f042 d1bc
00000160: b73e b13c 0bd0 453d ef30 50bd 6dcd a0bd
00000170: 6ac5 3e3c 1158 ebbd 036f 003d 3072 a0bd
00000180: 38d5 4b3d aca2 fbbc 24f6 a23b 601f 693b
00000190: a90e 123a 899e f83c d182 02bd 8b4a 543d
000001a0: c9ae 4b3c ddfa 623c a515 553d 3df4 eb3c
000001b0: bcb6 293d 87ab ccbc 723b 6dbd 95c8 a8bc
000001c0: c28d 803d 53b0 35bc fd58 40bc 061c 29bd
000001d0: 3799 1d3d a40c 6c3d ecd9 2abd 84e8 4a3d
000001e0: 4607 36bd 9da3 a23c 3687 25bc 47c8 283d
000001f0: cd4e 853c e59a 443b ac37 813c 8b1d 93bb
00000200: 3824 93ba 2700 7b3c d31f aabc 3175 903b
00000210: db00 223c aa52 3f3c c33c 4a3d e269 a6bc
00000220: ed3a 703d ab1b 863c a366 2a3c 3630 11bd
00000230: 9f89 bbbc 4757 3a3c 9c99 3f3d 2d76 07bc
00000240: 4b10 97ba 04de 5a3c 61a7 14bd 89c4 74bc
00000250: 4383 bbba f1a2 aabb 0d54 debc 1e84 573c
00000260: 805a fc3c 890a e33c 8a22 6fbd 73a8 a2bd
00000270: 4509 72bd 0ef4 3a3d b5a8 933a fc9f 26bd
00000280: 3afa bcbc 9eeb 69bd c978 5dbd 94bb 8a3b
00000290: ee2d 10bc e2c9 8dbd 9403 803d 5cad 4b3d
000002a0: 121f af3c 92d2 83ba 83c1 753c 95b8 a7bd
000002b0: 70db 83bc a6ff 73bd 3bfc bb3c a146 483d
000002c0: 60bc 1cbd eb56 96bd c924 d93c 5306 a43d
000002d0: f452 85bc 5d46 8d3c 3780 9e3d b765 d8bb
000002e0: 416e cd3b 3661 843c 845b ba3b ac47 7a3d
000002f0: b940 163d b63e 32bd 7d40 0cbd 8007 acbd
00000300: fba3 a4bc c01f 1ebd 2183 ca3c 94fc d53b
00000310: d268 8ebb 0756 94bd 56fa 28bd c11e 4fbd
00000320: 284d 1238 c18b 98bb 079d acbc 6d1c 043b
00000330: 3c6e e9bb d6a5 153d 8ea8 8b3d f54b 833d
00000340: f76e 37bc 678c 15bd 1f57 da3c f43a 11be
00000350: c260 123d 2b9d 16bd 1da8 163c d97e d03c
00000360: d225 44bd 8e11 923c aea2 09bc 0072 e13b
00000370: 9104 2bbd fc7d 90bd 3ee1 c6bc 2148 fe3c
00000380: f9d1 5b3d 0c98 833c acff 7dbd 1fac f53c
00000390: 13e5 1b3d 9b7d 28bd e3f4 07bd 2f22 2a3d
000003a0: a906 01bd 01a7 d4bd 478d 723d c3cb b7bd
000003b0: 3fc3 10bd 7cd5 aebc bcc6 463d 360a fcbc
000003c0: dc17 893b 520e 8fbd ece1 07bc 229e 21bd
000003d0: 67ef 573c ecf0 f53a b7a5 4cbc 57ca b5bb
000003e0: 70a2 d8bd 47ab dfbc 67f9 91bc bf04 373b
000003f0: 3f9c 64bc 39e1 1d3d 73a3 f8bc bf6d 8e3c

conv5.bias f4 [32]
-0.069187865 -0.1277474 -0.20345283 0.0008016418 -0.08457485 -0.02576572 -0.16332902 -0.07456579
-0.08175184 -0.049607273 -0.089343 -0.040393647 0.1517703 -0.0227491 -0.074537344 -0.099957995
-0.13776658 0.13151631 -0.057225276 -0.07655405 -0.14414608 -0.057303768 -0.11075009 -0.052843414
-0.1268528 -0.11305466 -0.10067427 -0.1040932 0.024594601 -0.05458676 0.15232192 -0.10045565
00000000: 5eb2 8dbd 37d0 02be f055 50be 4525 523a
00000010: 9435 adbd a212 d3bc b93f 27be f3b5 98bd
00000020: 826d a7bd ff30 4bbd 76f9 b6bd cf73 25bd
00000030: ac69 1b3e 525c babc 09a7 98bd c7b6 ccbd
00000040: af12 0dbe 36ac 063e 0d65 6abd 5fc8 9cbd
00000050: 089b 13be 5bb7 6abd f1d0 e2bd 5672 58bd
00000060: b3e5 01be 3489 e7bd 502e cebd d12e d5bd
00000070: 9e7a c93c 5e96 5fbd 47fa 1b3e b1bb cdbd

conv6.weight f4 [32, 32, 3]
-0.052488897 -0.08790914 0.0024963834 0.04299545 0.009100498 -0.00030888166 -0.027492186 -0.0127773695
-0.027162947 0.0008280079 0.009706112 0.036210705 -0.035124555 0.018113755 0.024359643 0.02808165
0.025810072 -0.006743578 0.004062233 0.0040275375 0.03479054 -0.03445236 -0.014663993 -0.069587626
0.009478674 -0.060411114 -0.027864223 -0.012368403 0.010773536 0.01082945 0.06571335 -0.010026265
-0.030697001 0.045821924 -0.0020087769 -0.021431925 -0.023371628 -0.02624799 0.096830495 -0.047035996
-0.019109525 0.00027622416 -0.03463818 0.042723536 0.005442974 -0.026233774 -0.021719782 -0.0482096
-0.08426175 -0.048014145 -0.00402207 -0.0326658 0.051578313 0.051166248 0.032950036 0.031836513
-0.090916105 -0.0059972275 -0.05257633 -0.081654385 -0.027320452 -0.045981824 -0.034727857 0.06887119
-0.067890696 0.0018542914 0.041284893 -0.01814802 -0.064604744 0.10708782 -0.04659766 -0.116513945
0.002909975 0.024299677 0.019908259 -0.020802274 -0.046776026 -0.06332756 -0.023970501 -0.035218228
-0.00394505 -0.029181603 -0.01853482 -0.04715051 -0.060580093 -0.018703828 -0.023492347 -0.05834826
-0.015527321 -0.013333641 0.06982358 -0.032259755 -0.030689433 0.03657946 -0.0012108228 -0.03564274
0.023175757 0.026753305 0.051951077 0.019097842 0.001691184 0.038630057 0.01148648 0.004840335
0.016939813 -0.00669247 -0.036077302 0.00080617465 -0.027029397 0.022663709 0.08359124 -0.06460585
0.009389993 -0.03861286 -0.051145673 -0.109049976 -0.01093834 -0.033782516 -0.051097445 -0.005048467
0.00067380787 0.025015479 0.049158733 -0.02892638 -0.05973212 -0.021595215 -0.01584938 -0.11273747
-0.056506924 -0.017520204 0.017960403 0.036347855 0.06433715 -0.06881816 -0.15346293 0.017427383
0.065464675 0.010333935 0.015260581 0.030430168 -0.0065894476 0.03423304 0.048354533 -0.001484423
-0.022635775 -0.00114955 0.013539093 0.091263354 0.036366478 -0.09137194 -0.015864313 -0.07154164
0.013590642 0.00239938 0.0016059277 0.007923756 0.026453665 -0.0681405 -0.033322107 -0.03723232
0.007852153 0.047740687 -0.07843749 -0.021945005 -0.044296328 0.035458993 0.002049208 0.013780893
0.04979823 -0.036750462 -0.049768478 -0.023943124 -0.0032482825 0.041298214 -0.067170076 0.034970894
0.021322466 -0.052595805 0.055219922 -0.0146138035 -0.0060794335 -0.025176644 0.054639813 -0.052791268
-0.030192176 -0.01594717 0.010540608 -0.082024276 0.0043546795 -0.030088503 -0.1090305 -0.033523917
-0.024137234 0.04502594 0.035035126 -0.050580997 -0.024712756 -0.006360345 -0.020098068 0.042925093
-0.00563594 -0.017941996 0.032471992 -0.0044169794 -0.0067395074 0.052074835 0.05806075 0.013616087
-0.056912575 -0.063475825 0.056663394 0.053728502 -0.015778383 -0.01954117 0.0039940635 -0.012604232
0.003994458 0.009091737 -0.0052251415 0.016176818 -0.033091836 -0.110743165 -0.011696751 -0.058359966
0.014674232 -0.024563324 0.020105582 0.01629333 -0.052039262 -0.09511794 -0.1257795 0.039278634
0.050432153 0.03461465 0.013101976 0.007904214 -0.1344007 0.04010402 0.061353844 0.07342209
-0.0144760655 -0.028853232 0.004267521 0.009636424 0.049336188 0.0585286 -0.101301715 -0.031548817
0.011733888 -0.055887688 -0.043107927 0.0072055436 -0.013184966 -0.10641878 -0.029105518 0.016951375
00000000: 99fe 56bd b509 b4bd 5d9a 233b ff1b 303d
00000010: 411a 153c 65f1 a1b9 4b37 e1bc 2c58 51bc
00000020: d484 debc ab0e 593a 6206 1f3c ad51 143d
00000030: c4de 0fbd 4c63 943c e08d c73c 7d0b e63c
00000040: a56f d33c 3bf9 dcbb 7b1c 853b 6ff9 833b
00000050: 8680 0e3d eb1d 0dbd 3f41 70bc f583 8ebd
00000060: 714c 1b3c a571 77bd 8343 e4bc d8a4 4abc
00000070: 7c83 303c 016e 313c b994 863d 3445 24bc
00000080: 4778 fbbc c5af 3b3d afa5 03bb 0192 afbc
00000090: db75 bfbc 0606 d7bc 114f c63d d1a8 40bd
000000a0: 948b 9cbc 2ed2 9039 c4e0 0dbd e0fe 2e3d
000000b0: fa5a b23b 36e8 d6bc afed b1bc 6e77 45bd
000000c0: 6d91 acbd 7baa 44bd 92cb 83bb 93cc 05bd
000000d0: c843 533d b393 513d 9ef6 063d 0167 023d
000000e0: 3932 babd 6484 c4bb 475a 57bd 6a3a a7bd
000000f0: 24cf dfbc 7057 3cbd cc3e 0ebd 570c 8d3d
00000100: 470a 8bbd b20b f33a 591a 293d 28ab 94bc
00000110: 7e4f 84bd dc50 db3d 30dd 3ebd dd9e eebd
00000120: 47b5 3e3b 1e10 c73c a516 a33c 8869 aabc
00000130: 3898 3fbd e1b1 81bd c95d c4bc fd40 10bd
00000140: 7a45 81bb 420e efbc 56d6 97bc e520 41bd
00000150: d522 78bd c538 99bc 0673 c0bc 96fe 6ebd
00000160: 4e66 7ebc 5875 5abc aaff 8e3d ce22 04bd
00000170: 6868 fbbc 58d4 153d 79b4 9eba 1ffe 11bd
00000180: 16db bd3c bf29 db3c a7ca 543d 1473 9c3c
00000190: b8aa dd3a 8d3a 1e3d ca31 3c3c ac9b 9e3b
000001a0: 5dc5 8a3c 824c dbbb cbc5 13bd 7755 533a
000001b0: c16c ddbc 3ea9 b93c e231 ab3d 1250 84bd
000001c0: 7cd8 193c 8528 1ebd 207e 51bd 9855 dfbd
000001d0: b936 33bc 895f 0abd 8e4b 51bd 9c6d a5bb
000001e0: 7ba2 303a 43ed cc3c ab5a 493d 04f7 ecbc
000001f0: aba9 74bd 73e8 b0bc 8fd6 81bc e7e2 e6bd
00000200: ce73 67bd 8886 8fbc b221 933c 7de1 143d
00000210: 32c3 833d 89f0 8cbd 6325 1dbe dfc3 8e3c
00000220: 5812 863d aa4f 293c 8407 7a3c b048 f93c
00000230: 4bec d7bb f237 0c3d 670f 463d f890 c2ba
00000240: a96e b9bc 7fac 96ba 12d3 5d3c 48e8 ba3d
00000250: 04f5 143d 3621 bbbd e0f5 81bc 6c84 92bd
00000260: 49ab 5e3c eb3e 1d3b fe7d d23a a4d2 013c
00000270: 5bb5 d83c 3f8d 8bbd c37c 08bd eb80 18bd
00000280: 51a6 003c bd8b 433d d6a3 a0bd 03c6 b3bc
00000290: 1170 35bd 733d 113d 014c 063b 41c9 613c
000002a0: 3bf9 4b3d a787 16bd 08da 4bbd 5f24 c4bc
000002b0: 23e1 54bb 5128 293d 7790 89bd a43d 0f3d
000002c0: 74ac ae3c b36e 57bd 492e 623d bc6e 6fbc
000002d0: fc35 c7bb 403f cebc ffcd 5f3d a83b 58bd
000002e0: 9555 f7bc a4a3 82bc 84b2 2c3c 58fc a7bd
000002f0: b3b1 8e3b 2a7c f6bc 624b dfbd 6050 09bd
00000300: 73bb c5bc 1f6d 383d fe80 0f3d 052e 4fbd
00000310: 6872 cabc 716a d0bb b4a4 a4bc 39d2 2f3d
00000320: b1ad b8bb 18fb 92bc 5a01 053d 4fbc 90bb
00000330: 16d7 dcbb 6c4c 553d 1cd1 6d3d 0216 5f3c
00000340: 291d 69bd 9dff 81bd e017 683d 6b12 5c3d
00000350: ab41 81bc ce14 a0bc a2e0 823b fb81 4ebc
00000360: f1e3 823b 82f5 143c aa37 abbb 3f85 843c
00000370: 4e8b 07bd 50cd e2bd bba3 3fbc dc0a 6fbd
00000380: 316c 703c 0639 c9bc 76b4 a43c 9779 853c
00000390: 1f27 55bd 32cd c2bd 57cc 00be a2e2 203d
000003a0: f291 4e3d 17c8 0d3d aca9 563c ad80 013c
000003b0: 56a0 09be 1d44 243d 2b4e 7b3d 525e 963d
000003c0: 052d 6dbc 9d5d ecbc 90d6 8b3b 17e2 1d3c
000003d0: be14 4a3d afbb 6f3d 4677 cfbd 5539 01bd
000003e0: 7e3f 403c 7dea 64bd f091 30bd 7b1c ec3b
000003f0: c105 58bc 17f2 d9bd b26e eebc 9cdd 8a3c

conv6.bias f4 [32]
-0.060069136 -0.098391734 0.012403367 -0.089335345 0.16744238 -0.099718 -0.01629107 -0.12413035
0.041345812 -0.12336215 -0.11089317 -0.13533698 -0.02190514 0.13991949 -0.021066954 -0.14378451
-0.16422017 -0.014979 -0.19072764 -0.13541058 -0.15524176 -0.07662797 0.062914 -0.20519365
-0.06193111 0.05098571 -0.04817767 -0.064426735 -0.15939386 -0.038422696 -0.05849287 -0.034475587
00000000: 0e0b 76bd 9b81 c9bd 7e37 4b3c 73f5 b6bd
00000010: 0476 2b3e f338 ccbd da74 85bc 0e38 febd
00000020: 3a5a 293d 4ba5 fcbd f51b e3bd c795 0abe
00000030: 6872 b3bc 0e47 0f3e 9b94 acbc 3f3c 13be
00000040: 5529 28be 7b6a 75bc 1b4e 43be 12a9 0abe
00000050: b2f7 1ebe 20ef 9cbd 0ed9 803d 491e 52be
00000060: 7aab 7dbd 64d6 503d f355 45bd 2af2 83bd
00000070: 2538 23be 1e61 1dbd 3896 6fbd 4636 0dbd

conv7.weight f4 [32, 32, 3]
-0.04152278 0.016297141 -0.00027200545 0.005542477 -0.00017957746 0.02561736 0.047458846 -0.064072564
-0.02065452 -0.06133335 0.089885905 0.05281899 -0.08104772 -0.037263826 -0.017741518 -0.041152947
-0.09057213 -0.027816974 0.01153342 -0.017793419 -0.10925406 -0.016823864 -0.053771406 -0.026559792
0.04453995 -0.010872775 -0.074045055 0.026706515 0.014959656 0.014136464 0.027058585 -0.10572384
-0.029562125 -0.0364108 -0.024053972 -0.025857706 0.0015340616 -0.006239637 -0.034313235 -0.0006571495
-0.010597961 -0.017361939 0.04654663 0.082568556 0.07635264 0.037278708 0.0008690467 -0.016545508
-0.018145407 -0.029360175 0.0033794802 -0.03290695 0.020925403 0.060175445 0.051274743 -0.031909674
-0.06315835 0.013965383 -0.012106862 -0.013487776 0.047566216 -0.03533613 -0.011381183 -0.0642701
-0.018035399 -0.022294883 0.04278833 -0.014124837 -0.09367257 0.060137566 0.036973782 -0.0015502338
-0.021710448 -0.0104534505 -0.0021394286 0.04492619 -0.05795515 -0.10271306 0.008374781 0.041048404
0.02594055 -0.015080782 -0.024931457 0.019130716 0.045121256 0.09481424 -0.0017471262 -0.031052353
-0.0061097383 0.020193268 0.059432782 0.041549582 -0.013757671 0.05144005 -0.053273104 0.0054073185
-0.0002969203 -0.07229025 0.013552699 0.012339294 0.015823014 -0.05081729 0.05242147 -0.00010027832
-0.020789452 -0.009141078 -0.009668306 -0.051497005 0.023483163 0.0272598 0.046645913 0.012383258
0.0306874 0.06625789 -0.017568719 0.04383804 0.07022909 -0.030157603 -0.005653056 0.009998174
-0.040328067 -0.019154126 0.038606595 -0.020632762 0.017383765 0.019436557 -0.026288081 0.020239955
0.06223117 -0.071420215 -0.0015211398 0.0060848333 0.030517753 -0.030180538 -0.09986223 0.04348455
0.014527641 -0.027831249 0.07035094 0.008112241 -0.0050256336 0.0072652455 -0.085573085 -0.051039908
-0.030091459 -0.015416482 0.019740665 -0.026118755 0.03545969 -0.021749275 0.046057723 0.006071432
0.037223153 0.04336068 0.008376279 -0.011863294 -0.013189159 0.012328934 0.0138426665 -0.0018468152
-0.085378505 0.023196338 0.0027950709 -0.062191784 0.054192457 -0.03644102 -0.030579576 0.0017023153
-0.06730971 -0.0086863255 0.060776684 0.020572271 -0.012431043 0.074029565 -0.07065301 -0.09496008
0.009159658 0.10043419 -0.004802247 -0.07169472 -0.00520276 0.047938496 -0.029410172 0.019606562
-0.0061182394 -0.00038394902 -0.037572667 -0.009801396 -0.0022286507 -0.048044097 -0.10882352 0.028743574
0.031479593 0.03462583 0.06082917 -0.052401382 -0.04801771 -0.059399795 -0.06124924 -0.037471063
-0.0304947 0.04916491 0.011597764 -0.06720869 0.025300462 0.10228289 0.108079605 -0.03236429
0.012677072 -0.02569857 -0.058968473 -0.0503943 -0.07380282 -0.040194336 -0.0071116257 0.013880788
0.032668985 -0.014929279 0.00032899025 -0.0032848942 0.039427716 -0.06314637 -0.056640677 0.004366097
-0.006141404 -0.04168984 -0.021109566 0.0014988254 0.07150854 0.016657833 -0.023226392 0.056076545
0.01830544 0.035022277 -0.057385616 0.029821955 0.018509358 0.005752637 0.032955486 -0.034622174
0.026802003 0.04488465 -0.012843854 -0.03785142 -0.062400125 -0.096241295 -0.01728107 0.014171062
-0.04919847 -0.013163665 0.0055566994 -0.012465837 -0.02339875 0.034694903 0.013124581 0.06303289
00000000: ca13 2abd 9581 853c f49b 8eb9 ab9d b53b
00000010: f54c 3cb9 7fdb d13c 3564 423d 7a38 83bd
00000020: ab33 a9bc ae38 7bbd 1a16 b83d ba58 583d
00000030: 59fc a5bd f4a1 18bd a956 91bc fe8f 28bd
00000040: e27d b9bd 6ce0 e3bc abf6 3c3c 81c3 91bc
00000050: 98c0 dfbd 33d2 89bc 683f 5cbd ec93 d9bc
00000060: 866f 363d b923 32bc efa4 97bd 9fc7 da3c
00000070: 5819 753c a19c 673c f7a9 dd3c be85 d8bd
00000080: 452c f2bc 7e23 15bd d60c c5bc 8ad3 d3bc
00000090: 9112 c93a de75 ccbb 098c 0cbd 8e44 2cba
000000a0: 12a3 2dbc a03a 8ebc aea7 3e3d b419 a93d
000000b0: c65e 9c3d 8fb1 183d bdd0 633a 728a 87bc
000000c0: ada5 94bc c084 f0bc 457a 5d3b 70c9 06bd
000000d0: c06b ab3c 877a 763d 7705 523d b8b3 02bd
000000e0: 2a59 81bd 10cf 643c dc5b 46bc d5fb 5cbc
000000f0: cbd4 423d 9ebc 10bd 2478 3abc 0ba0 83bd
00000100: f9be 93bc c2a3 b6bc d142 2f3d dc6b 67bc
00000110: 68d7 bfbd cf52 763d d271 173d 3731 cbba
00000120: 1cda b1bc f344 2bbc a835 0cbb 8604 383d
00000130: 6162 6dbd 3a5b d2bd 6136 093c 5f22 283d
00000140: 4781 d43c 6215 77bc 0e3d ccbc 05b8 9c3c
00000150: 11d1 383d f82d c23d d4ff e4ba 8161 febc
00000160: 3334 c8bb 5a6c a53c ca6f 733d e52f 2a3d
00000170: db67 61bc cdb2 523d e634 5abd e02f b13b
00000180: f8ab 9bb9 e90c 94bd 240c 5e3c c02a 4a3c
00000190: 449f 813c ca25 50bd e5b7 563d 834c d2b8
000001a0: a44e aabc 76c4 15bc d167 1ebc 86ee 52bd
000001b0: c35f c03c f24f df3c c90f 3f3d 26e3 4a3c
000001c0: 2464 fb3c 37b2 873d 46ec 8fbc 848f 333d
000001d0: 45d4 8f3d 140d f7bc 453d b9bb 62cf 233c
000001e0: 0b2f 25bd 1de9 9cbc f321 1e3d 0a06 a9bc
000001f0: 6668 8e3c 6a39 9f3c 1a5a d7bc 43ce a53c
00000200: 1ce6 7e3d c344 92bd fb60 c7ba 4863 c73b
00000210: 5e00 fa3c 2d3d f7bc 9284 ccbd db1c 323d
00000220: 5805 6e3c 5cfe e3bc 2714 903d 34e9 043c
00000230: 12ae a4bb 4c11 ee3b f140 afbd 390f 51bd
00000240: 5d82 f6bc 6a95 7cbc 2db7 a13c 00f7 d5bc
00000250: 2e3e 113d 892b b2bc 06a7 3c3d ddf2 c63b
00000260: 4e77 183d f89a 313d a93c 093c 435e 42bc
00000270: 5817 58bc 4cff 493c 5acc 623c d610 f2ba
00000280: edda aebd 3f06 be3c 822d 373b d0bc 7ebd
00000290: e9f8 5d3d 2e43 15bd 0582 fabc 3920 df3a
000002a0: acd9 89bd 1751 0ebc f9f0 783d 2e87 a83c
000002b0: 93ab 4bbc d09c 973d 86b2 90bd 6e7a c2bd
000002c0: 6412 163c 71b0 cd3d 2b5c 9dbb aed4 92bd
000002d0: ea7b aabb 285b 443d 9aed f0bc f19d a03c
000002e0: 837b c8bb c44c c9b9 cce5 19bd 0996 20bc
000002f0: 8e0e 12bb e3c9 44bd dede debd a577 eb3c
00000300: bff0 003d d0d3 0d3d 0228 793d d5a2 56bd
00000310: 38ae 44bd 334d 73bd 7ce0 7abd 427b 19bd
00000320: 05d0 f9bc 2561 493d 8c04 3e3c b6a4 89bd
00000330: ea42 cf3c b179 d13d d758 dd3d 6b90 04bd
00000340: 7eb3 4f3c cf85 d2bc ed88 71bd 416a 4ebd
00000350: ef25 97bd d1a2 24bd a408 e9bb 3f6c 633c
00000360: eacf 053d ef99 74bc 537c ac39 6147 57bb
00000370: f57e 213d e252 81bd 0e00 68bd 7a11 8f3b
00000380: d53d c9bb f7c2 2abd f8ed acbc 3c74 c43a
00000390: 1273 923d 0276 883c 4645 bebc 85b0 653d
000003a0: 4af5 953c 8573 0f3d 2e0d 6bbd 2c4d f43c
000003b0: f0a0 973c 9e80 bc3b 55fc 063d fbcf 0dbd
000003c0: e08f db3c f7d8 373d 076f 52bc 170a 1bbd
000003d0: 4697 7fbd 281a c5bd 0891 8dbc be2d 683c
000003e0: 5684 49bd 6aac 57bc f914 b63b 833d 4cbc
000003f0: bcae bfbc 3e1c 0e3d 7c08 573c 6317 813d

conv7.bias f4 [32]
-0.014819087 -0.019666772 -0.1390484 0.05174513 -0.007868909 0.12497623 0.08433301 0.036232937
-0.044088766 -0.10734422 -0.08903481 0.09786771 0.026606014 0.004206553 -0.09251597 0.031051463
0.13976933 -0.040139984 0.0363184 0.0103424145 -0.1353386 -0.12243505 -0.0997044 -0.07302662
0.17357159 -0.12202947 -0.016798444 0.052164577 -0.008789665 -0.09871724 -0.022799501 -0.0808315
00000000: c2cb 72bc 361c a1bc b462 0ebe b4f2 533d
00000010: 99ec 00bc 8af3 ff3d c9b6 ac3d fd68 143d
00000020: 6c96 34bd 49d7 dbbd e257 b6bd de6e c83d
00000030: dbf4 d93c 20d7 893b 0379 bdbd a35f fe3c
00000040: b11f 0f3e d369 24bd 9ac2 143d 3b73 293c
00000050: 3496 0abe 3abf fabd d231 ccbd fb8e 95bd
00000060: c0bc 313e 96ea f9bd e49c 89bc 86aa 553d
00000070: 8702 10bc 442c cabd 05c6 babc fc8a a5bd
