FedAvg_3_clients/cli3_model_parameters.pth (torch, 767010 bytes, 51 tensors)

conv1.weight f4 [32, 2, 3]
0	0xbe17a721	-0.14809848
1	0x3e197131	0.14984585
2	0x3cb1b545	0.021692881
3	0x3e0d04cc	0.13771361
4	0x3d120125	0.035645623
5	0x3e855681	0.2604256
6	0xbe3bbc1a	-0.18333474
7	0xbe16282d	-0.14663763
8	0xbe0f36c3	-0.13985734
9	0x3e22501c	0.15850872
10	0xbe12c011	-0.1433108
11	0x3dd56665	0.10419921
12	0xbe0d362c	-0.13790196
13	0xbe0535b5	-0.13008769
14	0x3e097e63	0.13427119
15	0xbe95a468	-0.29226995
16	0x3e2a25a1	0.16615917
17	0xbd30cbc3	-0.043163072
18	0xbdc89cad	-0.097955085
19	0xbd14f043	-0.036361944
20	0x3e120f73	0.14263706
21	0xbd2f139c	-0.04274331
22	0x3e90022e	0.28126663
23	0xbd50da25	-0.05098929
24	0xbdafd695	-0.0858585
25	0xbdd0bed3	-0.10192647
26	0x3dcf9f33	0.10137787
27	0xbe16025d	-0.14649339
28	0x3d962f23	0.07333209
29	0x3df620ab	0.1201795
30	0x3ea8e0c7	0.32983992
31	0xbe540ed9	-0.20708789
32	0x3e486312	0.19569042
33	0x3df6b3b8	0.120459974
34	0x3c15a32b	0.009133141
35	0xbd039e45	-0.03213336
36	0x3e4b9015	0.19879182
37	0xbe60480b	-0.21902482
38	0x3cee66c5	0.029101739
39	0x3e564007	0.20922862
40	0xbc3b7a20	-0.011442691
41	0x3d6f2553	0.058385205
42	0xbd326e72	-0.04356236
43	0x3e5c35dc	0.2150492
44	0xbd90786c	-0.07054219
45	0x3dd15070	0.1022042
46	0xbd9bdd8b	-0.07610615
47	0xbdfd81c7	-0.12378269
48	0x3e2407a4	0.1601854
49	0xbe1354f3	-0.14387874
50	0x3b85ce6e	0.004083446
51	0xbe2bfc95	-0.16795571
52	0x3dbaa8f7	0.09114259
53	0xbd51ddd0	-0.051236928
54	0x3e35d4d1	0.17756964
55	0x3decf359	0.115698524
56	0xbdb2007c	-0.08691499
57	0xbe6831e8	-0.22675288
58	0xbd1fc418	-0.03900537
59	0x3e1fecdb	0.15617697
60	0xbdd49130	-0.10379255
61	0xbe32aa6e	-0.17447826
62	0xbd1ba4f4	-0.03799911
63	0xbd6b1e6b	-0.057402056
64	0x3de40d99	0.11135406
65	0xbe939171	-0.288219
66	0x3e07df73	0.13268833
67	0xbe2d2c6c	-0.16911477
68	0xbe8d12f6	-0.2755353
69	0xbe98f901	-0.29877475
70	0x3dfffca8	0.12499362
71	0xbd66ca67	-0.05634537
72	0xbe06277e	-0.13101003
73	0x3e05bdb4	0.13060647
74	0x3b41e1d4	0.0029584067
75	0xbd8f4ce8	-0.069970906
76	0x3e276919	0.16348685
77	0x3e189682	0.14901164
78	0xbe16c64a	-0.14724079
79	0x3e9093dd	0.2823781
80	0xbe009b1e	-0.12559173
81	0x3e88c0a2	0.26709467
82	0x3dac4079	0.08410735
83	0xbdc8b295	-0.09799687
84	0xbe63e141	-0.22253896
85	0x3dcca11e	0.09991668
86	0xbd3e9924	-0.046532765
87	0xbc36903b	-0.011142786
88	0x3c4bf8d5	0.012449463
89	0xbdb62413	-0.08893599
90	0xbd85d5fc	-0.06534955
91	0xbe0bd733	-0.1365631
92	0x3e3dd6bd	0.18538947
93	0xbde20d91	-0.11037744
94	0x3d89f3c5	0.067359485
95	0x3e2ec7b9	0.17068376
96	0xbe252b87	-0.16129886
97	0xbe1f4bc8	-0.15556252
98	0xbdde46cd	-0.10853348
99	0x3deb1423	0.1147845
100	0x3e61befb	0.2204551
101	0xbc148ec0	-0.009067237
102	0x3e953527	0.29142115
103	0x3dea209b	0.11432
104	0x3ddc13e6	0.10745983
105	0x3dc9e1eb	0.098575436
106	0xbe2dc945	-0.1697131
107	0xbcd35968	-0.025799468
108	0xbdef3c81	-0.11681462
109	0x3dbd9e58	0.09258717
110	0x3c62e8aa	0.013849417
111	0xbe1fc9ce	-0.15604326
112	0xbd66314d	-0.05619936
113	0x3e0beae9	0.1366383
114	0xbe7615c9	-0.24031748
115	0xbdfc477c	-0.12318322
116	0x3dcde0e7	0.10052662
117	0x3e3dba35	0.18528064
118	0xbea10995	-0.31452623
119	0x3e2a91a3	0.16657118
120	0xbe31c9ce	-0.17362139
121	0x3d287747	0.041129377
122	0x3eada2e0	0.33913326
123	0xbc405c8b	-0.011740814
124	0xbe0ff8d6	-0.14059767
125	0xbdd18f8d	-0.10232458
126	0xbc94bb73	-0.018155789
127	0xbd43ec94	-0.04783304
128	0x3b4bc600	0.003109336
129	0xbdc92713	-0.09821906
130	0x3d480218	0.04883012
131	0xbc9c3e50	-0.019072682
132	0x3dc5883e	0.09645127
133	0x3e5d46af	0.21608995
134	0xbddf7f60	-0.10912967
135	0x3e0cc1a1	0.13745739
136	0xbdfc9efb	-0.123350106
137	0xbc2d2b80	-0.010569453
138	0x3e368f4b	0.178281
139	0xbde9cd40	-0.114161015
140	0xbd5db65a	-0.054128982
141	0x3c879460	0.016550243
142	0x3dbeb2f5	0.09311477
143	0xbcad92e0	-0.0211882
144	0xbd88560f	-0.066570394
145	0x3dbc5b9f	0.09197163
146	0x3df4d687	0.1195498
147	0xbc585820	-0.013204604
148	0x3de639e1	0.11241508
149	0xbe89030e	-0.26760143
150	0x3e02e2d7	0.12781845
151	0xbe007709	-0.12545408
152	0x3e0a2605	0.13491066
153	0xbd49be91	-0.049254004
154	0xbcbdcff3	-0.023170447
155	0xbe4a473b	-0.19753735
156	0xbd4af7b8	-0.04955265
157	0x3dbff465	0.093727864
158	0xbd4acc1b	-0.049511056
159	0x3c660a4b	0.01404054
160	0xbe19247d	-0.14955325
161	0x3e2b5e20	0.16735125
162	0xbe22f3c2	-0.15913299
163	0x3bd25302	0.0064185867
164	0x3e05b520	0.13057375
165	0x3d579d65	0.052640337
166	0xbdd01f45	-0.10162214
167	0xbe050cca	-0.1299316
168	0xbd6d0f38	-0.05787584
169	0x3d96c53d	0.07361839
170	0xbc7e54ed	-0.015523178
171	0x3e851dcf	0.25999305
172	0x3e56afcc	0.20965499
173	0xbc16b00b	-0.009197245
174	0xbdc9262d	-0.098217346
175	0xbde7344d	-0.112892725
176	0xbe7c7ffb	-0.24658196
177	0x3d913d4c	0.070917696
178	0x3dbb97eb	0.091598354
179	0x3dd17b7b	0.1022863
180	0xbd39fc2d	-0.04540651
181	0xbe14635d	-0.14491029
182	0x3e5d8e3e	0.21636292
183	0x3e6c8c4d	0.23100396
184	0xbc861750	-0.016368538
185	0xbe237d24	-0.15965706
186	0x3e66f7a8	0.22555411
187	0xbe828741	-0.25493816
188	0x3cd884aa	0.026430447
189	0x3d6c8490	0.05774361
190	0x3bbf2500	0.005833268
191	0x3b96fd40	0.0046078265

conv1.bias f4 [32]
0	0x3e15b123	0.14618354
1	0x3cc73475	0.024317006
2	0x3d060f05	0.032729167
3	0x3c884a95	0.016637126
4	0xbdac92b1	-0.08426417
5	0xbe5cd8d9	-0.21567096
6	0x3d101d3e	0.035184138
7	0xbd0ac73b	-0.033881407
8	0x3cb0e70b	0.021594545
9	0xbde3b283	-0.11118033
10	0x3de162eb	0.11005195
11	0xbdc6492f	-0.096819274
12	0x3e06f1ed	0.13178225
13	0xbccc4558	-0.02493541
14	0xbd67ec32	-0.056621738
15	0x3d20dc85	0.039272804
16	0xbe73e433	-0.2381752
17	0x3b67d2c3	0.0035373427
18	0x3b814d07	0.00394595
19	0xbd58d295	-0.0529352
20	0xbe0476eb	-0.12935989
21	0xbb7dfe95	-0.003875648
22	0xbe3872f7	-0.18012606
23	0x3ca56d08	0.020193592
24	0x3d7e35f4	0.062063172
25	0xbd2f1a9c	-0.042749986
26	0x3daa656c	0.08320126
27	0x3a08de78	0.00052211387
28	0xbe8d2691	-0.27568486
29	0xbe0ca671	-0.13735367
30	0x3c451033	0.012027788
31	0xbc6eda87	-0.014578468

conv2.weight f4 [32, 32, 3]
0	0x3d145c32	0.036220737
1	0xbdc64852	-0.09681763
2	0xbd46abee	-0.04850381
3	0xbd2fe70a	-0.042944945
4	0x3c8dae62	0.017295066
5	0xbc75094d	-0.014955831
6	0x3c8c0bde	0.017095502
7	0x3dddc5e6	0.10828762
8	0x3cc5ced8	0.024146482
9	0xbde938c9	-0.11387784
10	0xbd805ab5	-0.06267301
11	0xbb5e8ad9	-0.0033957271
12	0xbc20b124	-0.009807859
13	0x3d493422	0.049121983
14	0x3d537e04	0.05163385
15	0x3cff0e90	0.031134874
16	0xbd7b1ae0	-0.061304927
17	0xbd790d57	-0.060803737
18	0x3c073786	0.008252984
19	0xbd51d3c4	-0.051227346
20	0xbc92838c	-0.017884992
21	0x3d82a35e	0.06378816
22	0xbd43cc63	-0.04780234
23	0x3d685c03	0.056728374
24	0x3d511ba5	0.051051755
25	0x3cfda4ed	0.030962432
26	0xbc97d7a5	-0.018535445
27	0x3d61fde0	0.055173755
28	0x3ce56cef	0.028006045
29	0xbd97538b	-0.073889814
30	0x3d091b38	0.033473223
31	0x3d2cf897	0.04222926
32	0x3d695a80	0.056971073
33	0xbc6245ff	-0.013810634
34	0x3c75b5b1	0.014996932
35	0xbb99e96b	-0.004697015
36	0x3d87296e	0.06599699
37	0xbdbd5971	-0.09245575
38	0xbde11fa0	-0.1099236
39	0x3ce955eb	0.028483352
40	0x3c2fe52d	0.010735792
41	0x3d12ddce	0.03585606
42	0x3c39c5cb	0.011338661
43	0xba49fb65	-0.0007705002
44	0x3d95205a	0.07281561
45	0x3c01614e	0.007896734
46	0xbd7f9708	-0.062399894
47	0xbcab1842	-0.02088559
48	0xbb7fcb7c	-0.0039031198
49	0x3bc3d597	0.0059763896
50	0x3d7e308e	0.062058024
51	0xbc783377	-0.015148989
52	0x3d148ef9	0.03626916
53	0xbda1dec0	-0.07903814
54	0xbd1e3230	-0.03862208
55	0xbb6a93f8	-0.0035793763
56	0x3b9dbcb8	0.004813757
57	0xbd50ae96	-0.050947748
58	0xbc9f64a5	-0.01945717
59	0x3ba7fa89	0.0051263017
60	0x3cd3ad62	0.025839511
61	0xbd019b23	-0.03164209
62	0x3cd53f3d	0.02603113
63	0xbd7ebac3	-0.06218983
64	0x3c61c395	0.013779541
65	0xbdb42af7	-0.087972574
66	0x3c83511a	0.016029883
67	0x3c4cd829	0.0125027085
68	0xbb45eb30	-0.0030199997
69	0x3b3c24c5	0.002870844
70	0x3caf10a5	0.021370241
71	0xbd34be9f	-0.044127103
72	0x3d04875c	0.03235565
73	0xbd23018f	-0.03979641
74	0xbd3faa50	-0.046793282
75	0x3d080e81	0.033216957
76	0x3b9c85e7	0.0047767046
77	0x3cb30fd4	0.021858133
78	0xba52eee7	-0.00080464635
79	0xbc9f5599	-0.019449996
80	0x3ce5f16d	0.028069222
81	0xbdd9224c	-0.10602245
82	0xbc806dc0	-0.015677333
83	0x3c81d53b	0.015848747
84	0x3c87a54e	0.016558316
85	0x3beca4d5	0.007221798
86	0xbc9bbfc9	-0.019012349
87	0x3d0a44b0	0.03375691
88	0x3ccd63e9	0.025072055
89	0xbcf0fa71	-0.029416295
90	0xbceb73bc	-0.02874171
91	0xbc8ba618	-0.017046973
92	0xbd7fcd92	-0.062451907
93	0xbb3c808c	-0.0028763143
94	0xbd0d73f7	-0.03453442
95	0x3d1f6109	0.0389109
96	0x3ba3b3c2	0.004995794
97	0xbd0dd355	-0.03462537
98	0xbd583c6d	-0.052792
99	0x3c1ffd13	0.009764927
100	0x3c8485c6	0.01617707
101	0xbbd7a1a7	-0.0065805498
102	0x3be9406e	0.0071182763
103	0x3d8cfa6f	0.06883704
104	0x3d8424bb	0.06452318
105	0x3d7f9b8f	0.06240421
106	0x3c8e8148	0.01739563
107	0x3d13654c	0.035985276
108	0xbcfd54b4	-0.030924179
109	0xbd1b3a7a	-0.037897564
110	0xbd312d5e	-0.043256156
111	0x3d41d05d	0.04731785
112	0xbb126068	-0.0022335295
113	0xbd6f47cb	-0.058418076
114	0xbda08fe9	-0.07839949
115	0xbd0a6bde	-0.033794276
116	0xbd83528c	-0.06412229
117	0x3c5ac5bf	0.01335281
118	0xbd6403cf	-0.055667695
119	0x3b2540e7	0.0025215687
120	0xbdce077b	-0.100600205
121	0xbcf9693e	-0.030445691
122	0xbc772ba8	-0.015086092
123	0x3ccab9c2	0.02474678
124	0x3d15879a	0.036506273
125	0x3d1d8715	0.038458902
126	0x3d89deb2	0.06731929
127	0x3d8abbe8	0.067741215
128	0x3da3bdb1	0.07995165
129	0xbd4003f6	-0.046878777
130	0xbc64421d	-0.013931778
131	0xbd80cc9b	-0.062890254
132	0x3abfc4e4	0.0014630822
133	0xbca9c489	-0.020723598
134	0x3d450f0d	0.048110057
135	0x3c9cc47e	0.019136664
136	0x3d635e2d	0.055509735
137	0xbd2bade0	-0.041913867
138	0xbde386cc	-0.11109695
139	0xbd2e1018	-0.042495817
140	0xbcfd9928	-0.03095682
141	0xbcdc9675	-0.026927212
142	0x3cf19f00	0.029494762
143	0xbd430a0b	-0.047617
144	0x3d114f28	0.03547588
145	0x3d5bbbeb	0.05364601
146	0x3d9dc49a	0.077035144
147	0xbd1fe7c8	-0.039039403
148	0xbd4a0f41	-0.049330954
149	0xbd2309ed	-0.039804388
150	0x3d1883e5	0.03723516
151	0x3cd024da	0.025408197
152	0xbd5f4cf8	-0.054516762
153	0xbcd0a940	-0.02547133
154	0xbd272394	-0.040805414
155	0xbda021ff	-0.07818984
156	0xbd191aa4	-0.037378922
157	0xbd206d66	-0.03916683
158	0x3d7b77a9	0.061393414
159	0xbd12c498	-0.035832018
160	0xbd04f841	-0.032463316
161	0xbccfdbae	-0.025373306
162	0x3d45f611	0.04833037
163	0x3d5ee2f2	0.05441565
164	0x3b88b0f8	0.004171487
165	0xbda36bb0	-0.07979524
166	0xbda669b2	-0.081256285
167	0xbd6fad21	-0.058514718
168	0xbd684031	-0.056701843
169	0xbcdf0b72	-0.027227137
170	0xbd48f0cb	-0.049057763
171	0xbd54f9ab	-0.051995914
172	0xbc0f978b	-0.008764158
173	0xbcba2c6f	-0.022726266
174	0x3d22bb45	0.039729375
175	0xbdb0dc0a	-0.08635719
176	0x3cb08ec7	0.021552457
177	0xbcbe215e	-0.02320927
178	0xbc6b3722	-0.014356406
179	0xbba84831	-0.005135559
180	0xbd38e05f	-0.045135852
181	0xbd4d3678	-0.050100774
182	0x3b38f252	0.0028220606
183	0xbd35e079	-0.044403527
184	0x3cdcee4f	0.026969103
185	0x3c3c8afe	0.011507748
186	0xbca90f9e	-0.02063733
187	0xbd73a622	-0.05948461
188	0xbc83194b	-0.016003272
189	0xbadbeb5a	-0.0016778514
190	0xbccf1e46	-0.02528299
191	0xbc100ab5	-0.008791615
192	0xbc9f6a28	-0.019459799
193	0x3d1fb02b	0.038986366
194	0xbccf592b	-0.025311073
195	0xbb3b12f8	-0.0028545242
196	0xbcf4b90a	-0.02987339
197	0xbc5afce7	-0.013365961
198	0x3cfa5bc1	0.03056133
199	0x3d1ee1d7	0.038789596
200	0x3bef5c09	0.0073046726
201	0x3e045eaf	0.12926744
202	0x3d4f0e23	0.05055059
203	0xbdc879ad	-0.09788833
204	0x3d7e3936	0.06206628
205	0xbca6eaf8	-0.020375714
206	0x3d3eff4f	0.0466302
207	0x3d0eac6b	0.0348324
208	0x3d2d96f6	0.042380296
209	0x3cd41861	0.025890531
210	0x3ca586fc	0.020205967
211	0xbd9f7c74	-0.077874094
212	0x3d23fe24	0.04003729
213	0x3cdc97f9	0.026927935
214	0x3bb6afb2	0.0055751437
215	0xbb99861e	-0.0046851775
216	0xbcc4aba6	-0.02400763
217	0xbcf39fc2	-0.029739264
218	0xbd294a6b	-0.041330736
219	0xbd119d07	-0.035550144
220	0x3cd177ca	0.025569815
221	0x3ca14115	0.019684354
222	0x3d13b017	0.036056604
223	0x3c056825	0.008142506
224	0xbd24ca3d	-0.040231932
225	0x3d8a77c5	0.067611255
226	0x3d1b9e7c	0.03799294
227	0xbb9c02a1	-0.0047610556
228	0x3d8d9491	0.069131024
229	0x3d2278cf	0.039665993
230	0xbce958f8	-0.028484806
231	0xbd86838a	-0.06568058
232	0xbdbb211d	-0.09137175
233	0xbc7443fc	-0.014908787
234	0x3d222e67	0.039595034
235	0x3df24547	0.1182962
236	0x3dcd3fd3	0.10021939
237	0xbbcacb5f	-0.0061887945
238	0x3c06b85c	0.008222666
239	0xbd89915b	-0.067171775
240	0x3ba654f4	0.005076045
241	0xbd96019a	-0.07324524
242	0xbdeee048	-0.11663872
243	0x3d02e298	0.031954378
244	0x3c75f0f6	0.015011063
245	0x3b866bf6	0.0041022254
246	0xbc5a48c6	-0.013323015
247	0x3c375dee	0.011191828
248	0x3be7a99c	0.0070697796
249	0x3ccf8745	0.025333056
250	0x3d6e775b	0.058219295
251	0x3db65e37	0.08904689
252	0xbce2b106	-0.027672302
253	0xbb58f2ff	-0.0033103821
254	0xbcbe1f9f	-0.023208437
255	0x3d975ad0	0.07390368

conv2.bias f4 [32]
0	0x3d9a7027	0.075409226
1	0xbbb9d73b	-0.0056714094
2	0xbdd29575	-0.10282413
3	0xbba063b1	-0.0048946966
4	0x3d9fa536	0.07795183
5	0x3d8da8c1	0.06916953
6	0x3dba611f	0.09100556
7	0xbdafbdc7	-0.08581119
8	0x3d8bf662	0.06834103
9	0x3daa149e	0.08304714
10	0xbd1f0455	-0.03882249
11	0xbc2baaa3	-0.010477695
12	0xbcd67bfa	-0.026182164
13	0xbd608e7e	-0.05482339
14	0x3c8e6abe	0.017384883
15	0x3d246bb5	0.04014178
16	0xbdfbadb8	-0.122889936
17	0x3cebcc3e	0.028783914
18	0x3cf438ef	0.029812304
19	0x3c9dec1c	0.019277625
20	0x3d48f4b7	0.049061503
21	0xbd0b7bab	-0.034053486
22	0x3d72b3d4	0.05925353
23	0x3d9cb333	0.07651367
24	0x3e061e0a	0.13097396
25	0x3d55830a	0.05212692
26	0x3d61080d	0.05493932
27	0x3d225ca0	0.039639115
28	0x3d959182	0.07303144
29	0xbc72fe93	-0.014831203
30	0xbd8d1a82	-0.068898216
31	0x3de4a661	0.11164547

conv3.weight f4 [32, 32, 3]
0	0x3d103a38	0.03521177
1	0x3d13a3d5	0.036044914
2	0x3d20186b	0.039085787
3	0x3d5d0a32	0.0539648
4	0xbd72df78	-0.059295148
5	0xbc2a2274	-0.010384191
6	0x3cd6dafb	0.026227465
7	0x3dc4fdc4	0.096187145
8	0xbd4400cd	-0.047852326
9	0x3b6c7c97	0.0036085004
10	0xbcf79a26	-0.03022487
11	0xbd270b3b	-0.040782195
12	0x3ccec987	0.02524258
13	0x3cc25179	0.02372049
14	0x3d9f7ff1	0.07788075
15	0x3d213dcf	0.039365586
16	0xbc0b95a9	-0.0085195685
17	0xbc54ad37	-0.012980751
18	0x3d6886ce	0.056769185
19	0xbaa0a09a	-0.0012254894
20	0xbdd5e9ac	-0.1044496
21	0x3de13a43	0.10997441
22	0x3e12f20b	0.14350145
23	0x3bd6bbbe	0.0065531423
24	0x3d6568fe	0.05600833
25	0xbc9763bd	-0.018480176
26	0x3d04ad0a	0.032391585
27	0x3d2dfb39	0.042475913
28	0x3cb68c8e	0.022283819
29	0x3d45560d	0.048177768
30	0xbc5375f9	-0.012906545
31	0x3beb4953	0.007180372
32	0xbd43dfec	-0.04782097
33	0xbc8a7ca9	-0.016905146
34	0xbc997519	-0.018732594
35	0x3d30b7b8	0.043143958
36	0xb9f05d42	-0.0004584585
37	0x3d284d59	0.04108939
38	0x3cd187eb	0.025577506
39	0x3cbcd50e	0.023050811
40	0x3c64bf74	0.013961662
41	0xbd0078b6	-0.03136512
42	0x3c43acf5	0.011943092
43	0x3d0f98fa	0.035058
44	0x3be0ccb0	0.006860338
45	0xbcc26004	-0.023727424
46	0x3cc7740b	0.024347326
47	0x3d1c03d0	0.038089573
48	0xbcbc3408	-0.02297403
49	0x3cab69c1	0.02092445
50	0xbda2c592	-0.0794784
51	0x3cd47ae6	0.025937509
52	0x3befa2d3	0.0073131113
53	0xbdcd4a45	-0.100239314
54	0x3d07ffd9	0.03320298
55	0xbbb8f249	-0.005644117
56	0xbc7abd5f	-0.015303939
57	0x3d48216b	0.048859995
58	0x3c7529a1	0.014963538
59	0xbcb70d24	-0.022345133
60	0x3bdf898b	0.0068218163
61	0xbce6dce6	-0.028181504
62	0xbcaf5411	-0.02140239
63	0x3d5d9f69	0.054107103
64	0x3d3abd0e	0.045590453
65	0xbe082a82	-0.13297465
66	0x3ca04613	0.019564664
67	0x3cb4348e	0.021997716
68	0xbd852f79	-0.06503195
69	0xbd0034b0	-0.031300247
70	0xbc19e55d	-0.009393063
71	0xbc8ceebb	-0.01720368
72	0x3d8f8484	0.07007697
73	0x3d4c8588	0.049932033
74	0xbcbaeb4b	-0.022817275
75	0x3bd7b22e	0.00658252
76	0x3b151491	0.0022747854
77	0x3cc1c679	0.02365421
78	0x3d04e14f	0.032441434
79	0xbb8f5382	-0.0043739686
80	0xbc155a39	-0.009115749
81	0xbd3979f7	-0.04528233
82	0x3d25cf2a	0.04048077
83	0x3a795d71	0.000951252
84	0xbc502e8f	-0.012706413
85	0x3c11113d	0.008854208
86	0xbd01c07f	-0.03167772
87	0xbc918cdb	-0.01776736
88	0x3d3d75cf	0.04625493
89	0x3cce0464	0.025148578
90	0x3c898441	0.016786696
91	0xbc3830e3	-0.011242124
92	0xbd38962f	-0.0450651
93	0x3cbd50a1	0.023109736
94	0x3c6c422b	0.014420073
95	0x3c1234c1	0.00892371
96	0x3ba6e95d	0.005093737
97	0xbd882d31	-0.066492446
98	0x3aea9098	0.0017895875
99	0x3d0ef0d3	0.034897637
100	0x3c472f34	0.01215725
101	0x3bb46e26	0.005506295
102	0xbd5694ea	-0.05238811
103	0x35e1e0c0	1.6829217e-06
104	0x3d84c9ec	0.06483826
105	0x3d4d054b	0.050053876
106	0xbcbbc43b	-0.022920718
107	0xbbb18f00	-0.0054186583
108	0xbbd54ca4	-0.0065093804
109	0x3d026aec	0.03184025
110	0x3c56cd20	0.013110429
111	0xbd0a4ed3	-0.03376658
112	0xbcb10ab6	-0.021611553
113	0xbd6ecaca	-0.058298863
114	0xbcf3f513	-0.029779946
115	0xbb454828	-0.0030102823
116	0x3cac3842	0.02102292
117	0x3ba17821	0.0049276506
118	0xbd501ff9	-0.05081174
119	0xbe079911	-0.13241984
120	0xb7add13e	-2.0720643e-05
121	0xbab3993f	-0.0013702287
122	0xbc832add	-0.01601165
123	0xbcd64a1b	-0.026158383
124	0xbc1866ad	-0.009301824
125	0x3bfe8dd9	0.0077683744
126	0x3c1f7f37	0.00973492
127	0xbc958cc3	-0.018255597
128	0xbb30431e	-0.0026895474
129	0xbd4f41c2	-0.05059982
130	0xbcc9492d	-0.024571026
131	0x3d082f77	0.03324839
132	0xbd455b60	-0.048182845
133	0xbd8b59b7	-0.06804221
134	0x3d736d9c	0.059430704
135	0xba32cb6e	-0.00068204745
136	0x3d57f129	0.052720223
137	0x3c892cc1	0.016744973
138	0x3d64be91	0.0558458
139	0x3d19751b	0.037465196
140	0xbbc9730d	-0.0061477483
141	0xbcdce9a3	-0.026966875
142	0x3ca1bcbd	0.019743318
143	0xba0e718e	-0.0005433791
144	0x3b969f10	0.0045965984
145	0xbbdf5afb	-0.0068162656
146	0x3cc84dc4	0.024451144
147	0xbd99b7cf	-0.07505762
148	0xbcb65763	-0.022258466
149	0xbd023ffe	-0.03179931
150	0xbc7431e0	-0.014904469
151	0xbda3b098	-0.07992667
152	0x3d9407a8	0.07228023
153	0xbd54a958	-0.05191931
154	0x3b90eec9	0.0044229967
155	0xbd441d94	-0.04787977
156	0xbd87d451	-0.06632293
157	0xbcd505a2	-0.026003662
158	0x3c3a052e	0.011353774
159	0x3b056691	0.0020355324
160	0xbd5588a9	-0.052132282
161	0xbc463dc2	-0.012099685
162	0x3d00d53b	0.031453352
163	0x3d52b564	0.05144252
164	0x3d742aa3	0.059610974
165	0xbd0e2ce3	-0.034710776
166	0xbd8edb84	-0.06975463
167	0x3c705acd	0.014670086
168	0x3d0b1765	0.033957858
169	0x3d1a8490	0.037724078
170	0xbd7cc081	-0.061707024
171	0xbca8733b	-0.020562759
172	0xbd94ed10	-0.072717786
173	0xbb5cd277	-0.0033694783
174	0x3b3e1913	0.0029006645
175	0xbc82d6e8	-0.015971616
176	0x3c2a7100	0.010402918
177	0x3c8f7d9d	0.017515952
178	0x3d8e402c	0.069458336
179	0x3cd2ca74	0.025731303
180	0xbccb6d4a	-0.024832387
181	0x3b90dd45	0.0044209086
182	0xbcee1ec3	-0.029067403
183	0x3c954124	0.018219538
184	0xbd8c0623	-0.06837108
185	0xbcd359c7	-0.025799645
186	0xbcd92fb6	-0.026512008
187	0xbc551c49	-0.013007232
188	0x3db8fdb6	0.090327665
189	0xbca853e3	-0.020547813
190	0xbd0d0fc4	-0.034438863
191	0x3b064eb7	0.0020493695
192	0xbd1d86e2	-0.038458712
193	0xbd3e3d1e	-0.046445005
194	0x3b24095c	0.0025029993
195	0xbd8dbeeb	-0.0692118
196	0x3d1eda6b	0.03878252
197	0x3d748d4b	0.05970506
198	0xbb701c4c	-0.003663796
199	0x3d7ea78e	0.06217151
200	0xbdef4805	-0.116836585
201	0xbcf18b98	-0.029485509
202	0x3d267279	0.040636513
203	0xbd20e79f	-0.03928339
204	0x3be247ce	0.0069055324
205	0xbd0c5008	-0.03425601
206	0xbd9e162c	-0.07719073
207	0x3dac8e7a	0.08425613
208	0x3c138c75	0.009005656
209	0x3b894cc9	0.0041900617
210	0xbce12e71	-0.027487965
211	0xbcd76018	-0.026290938
212	0xbd6ce8ca	-0.057839192
213	0x3c48afc5	0.012248938
214	0x3cf175f5	0.029475192
215	0xbd3f35c4	-0.046682134
216	0x3ca5431a	0.020173598
217	0xbd17ab3c	-0.037028536
218	0xbc5be05c	-0.013420191
219	0x3d489503	0.048970234
220	0xbd93ee28	-0.07223159
221	0xbd9449ec	-0.07240662
222	0xbd962abd	-0.073323704
223	0xbd91f6d4	-0.07127157
224	0x3d51a891	0.051186148
225	0xbd5b4a94	-0.05353792
226	0x3de3e382	0.11127378
227	0x3d1990ce	0.037491612
228	0xbcd7d5d5	-0.02634708
229	0x3d89e8e9	0.06733877
230	0x3cb72aa6	0.022359204
231	0xbc20280c	-0.009775173
232	0x3d1aa8bb	0.03775857
233	0xbce3ab33	-0.027791595
234	0xbcc6dc94	-0.024275102
235	0xbc44fb6e	-0.012022836
236	0x3cfeb194	0.031090535
237	0x3d1106f4	0.03540702
238	0x3c150b80	0.00909698
239	0xbd781503	-0.060566913
240	0xbd20e37b	-0.039279442
241	0xbd2e031d	-0.042483438
242	0x3c0242e0	0.007950515
243	0x3b5e4249	0.003391402
244	0xbae80c45	-0.0017703852
245	0xbb280479	-0.0025637432
246	0xbd06e120	-0.03292954
247	0x3d5e63e6	0.05429449
248	0xbc3dc09a	-0.011581564
249	0x3d2a553a	0.041585185
250	0x3d09f9d8	0.033685535
251	0xbd46b74f	-0.04851466
252	0xbcb42203	-0.021988874
253	0xba37f7e3	-0.0007017834
254	0x3d1cbe4a	0.03826741
255	0x3d0f8d54	0.03504689

conv3.bias f4 [32]
0	0xbd8ef04d	-0.069794275
1	0xbde1d884	-0.11027625
2	0xbcea3220	-0.028588355
3	0xbd6280e3	-0.055298697
4	0xba816022	-0.0009870569
5	0xbdb60fa9	-0.08889706
6	0x3da1ced6	0.07900779
7	0xbd478d68	-0.04871884
8	0x3dac2aaa	0.08406575
9	0x3d477196	0.04869231
10	0xbd6b2a9f	-0.057413694
11	0xbd7beacf	-0.061503228
12	0x3cc935fd	0.024561876
13	0xbd59c076	-0.05316206
14	0xbd8364d2	-0.06415714
15	0xbc47ecbc	-0.012202438
16	0xbd81b6bd	-0.06333683
17	0xbd886486	-0.06659798
18	0xbd193cb3	-0.037411403
19	0x3dcf222e	0.10113941
20	0x3cbd51cb	0.023110291
21	0xbdd2aaf4	-0.10286513
22	0xbd96d4bb	-0.07364794
23	0xbde58344	-0.112066776
24	0xbb592af6	-0.003313718
25	0xbc93af1e	-0.018027838
26	0xbdb064f0	-0.08613002
27	0xbde9cccb	-0.11416014
28	0xbdbe937b	-0.093054734
29	0xbd70ed08	-0.0588198
30	0xbbb93d8a	-0.005653088
31	0xbd81cd05	-0.063379325

conv4.weight f4 [32, 32, 3]
0	0xbd334964	-0.043771163
1	0xbda0d745	-0.078535594
2	0xbc5d83ae	-0.013520164
3	0xbd7250af	-0.059158977
4	0x3d70b57d	0.05876683
5	0x3ccaef93	0.024772441
6	0xbd0461c8	-0.032319814
7	0x3cbaa735	0.022784809
8	0x3d3ed204	0.046587005
9	0xbdb8d637	-0.09025233
10	0x3b3eeea6	0.0029133945
11	0x3d506bd1	0.05088407
12	0xbd7c4da1	-0.06159747
13	0x3c04d7ba	0.008108074
14	0x3cd64b36	0.02615891
15	0x3d784a01	0.06061745
16	0x3a16d0de	0.00057531695
17	0x3ce499c8	0.02790536
18	0x3d2ed5aa	0.042684235
19	0x3cce0714	0.02514986
20	0x3cb30c99	0.021856593
21	0xbdabe2c8	-0.083928645
22	0xbd224e27	-0.039625313
23	0xbd1783d7	-0.036990967
24	0x3cc5f571	0.024164887
25	0xbc18e11d	-0.009331015
26	0xbc2df845	-0.010618274
27	0xbd1bab2d	-0.038005043
28	0x3cb9776b	0.02263995
29	0xbc785233	-0.015156317
30	0x3d033d47	0.03204086
31	0x3c94a894	0.01814679
32	0x3d076e70	0.033064306
33	0x3c2ed620	0.010671169
34	0xbd9312b8	-0.07181305
35	0x3d2afa49	0.041742597
36	0xbcdbf9c8	-0.026852503
37	0x3cfc6a73	0.030812478
38	0xbd3ea979	-0.04654834
39	0xbcff6755	-0.031177202
40	0x3d63adfd	0.05558585
41	0xbd767bed	-0.06017678
42	0xbd17a48a	-0.03702215
43	0x3c8355dd	0.016032154
44	0x3dc48c57	0.0959708
45	0xbade0928	-0.0016939985
46	0x3d0f4b5b	0.034983974
47	0x3d3bbad5	0.045832474
48	0xbbe659c7	-0.0070297453
49	0x3c858a41	0.016301276
50	0x3cb2e811	0.021839174
51	0x3beb23a8	0.0071758814
52	0xbc688836	-0.0141926315
53	0xbc95bc29	-0.018278198
54	0x3b82bcfd	0.0039898143
55	0xbb82b922	-0.0039893547
56	0xbc915164	-0.017739005
57	0xbcc65fbd	-0.024215573
58	0xbdfb20ac	-0.12262091
59	0x3d54e423	0.05197538
60	0x3c8b84f8	0.017031178
61	0xbbb73478	-0.0055909716
62	0x3c8c5be1	0.017133655
63	0x3d2cf0e8	0.042221934
64	0xbd4da7aa	-0.050208725
65	0x3c495a58	0.012289606
66	0xbdc10b38	-0.09425968
67	0xbc9b5fe1	-0.018966617
68	0xbd17da4a	-0.03707341
69	0x3ccc761d	0.024958665
70	0x3c2eb0ea	0.010662297
71	0xbd288cf9	-0.041150067
72	0x3c1a42ed	0.00941537
73	0x3c4a0db6	0.0123323705
74	0x3c3afef8	0.011413328
75	0xbd35d0ea	-0.04438869
76	0xbd79575f	-0.06087434
77	0x3ce22dce	0.027609732
78	0x3cd2659e	0.02568322
79	0xbe0e62b1	-0.13904835
80	0xbd8b487b	-0.06800934
81	0xbc3e85ab	-0.011628549
82	0x3cf05f25	0.029342243
83	0x3d298de2	0.041395076
84	0x3d47e6c4	0.04880406
85	0xbcb97fb7	-0.022643907
86	0x3c7df6d9	0.015500748
87	0xbccee4d3	-0.025255596
88	0xbdcb9173	-0.099398516
89	0x3d7cd301	0.061724667
90	0xbd209f93	-0.03921468
91	0x3c92bf33	0.017913437
92	0x3c81708c	0.015800737
93	0x3ce50611	0.027956994
94	0xbd6b4441	-0.05743814
95	0xbc00aec9	-0.007854172
96	0xbd49a6aa	-0.04923121
97	0x3da14fd4	0.07876554
98	0xbc7041e5	-0.014664148
99	0xbdb99f54	-0.090635926
100	0x3d187c26	0.037227772
101	0x3c871b21	0.016492428
102	0x3a07ccfd	0.0005180387
103	0xbb1d000a	-0.0023956322
104	0x3cb45f9f	0.022018252
105	0x3c5818ea	0.013189534
106	0x3d1a0b78	0.037608594
107	0xbd1eb638	-0.038747996
108	0x3cd42e71	0.025901051
109	0x3b102ef9	0.0022000654
110	0xbd0a862a	-0.033819355
111	0xbd574be7	-0.05256262
112	0x3c86e6c0	0.016467452
113	0xb9d41537	-0.00040451597
114	0x3c2d344a	0.010571549
115	0x3d04bd09	0.03240684
116	0xbd9be385	-0.07611755
117	0xbd56413b	-0.052308302
118	0xbc6bf559	-0.014401757
119	0x3c7f0600	0.015565395
120	0x3c706a0a	0.014673719
121	0xbc1725f6	-0.009225359
122	0xbd8bedf1	-0.06832493
123	0xbc8d0a49	-0.017216818
124	0x3d985471	0.07437981
125	0xbce3801e	-0.027771052
126	0x3c8f14a1	0.017465891
127	0x3d0ce3f7	0.03439709
128	0xbcfa933a	-0.030587781
129	0xbced8ca7	-0.028997732
130	0x3d2b8c5e	0.04188191
131	0xbcf8fb6e	-0.030393329
132	0xbd8b5e3e	-0.06805085
133	0x3d32fce7	0.043698218
134	0xbca1bfa8	-0.01974471
135	0xbd64e06f	-0.0558781
136	0x3d6b715a	0.057481147
137	0xbc8d4830	-0.017246336
138	0xbb9ec517	-0.0048452723
139	0xbc36feaf	-0.01116912
140	0xbd22a36c	-0.039706632
141	0x3c8c83a4	0.017152615
142	0x3c97a812	0.01851276
143	0xbc4f33b3	-0.012646603
144	0xbd0dbdc3	-0.0346048
145	0xbc67a9aa	-0.014139572
146	0x3c3c7a5f	0.011503785
147	0xbcdf8ada	-0.02728789
148	0xbc91f517	-0.017817063
149	0xbb70ce21	-0.0036743956
150	0xbd922614	-0.07136169
151	0xbc5e3611	-0.013562695
152	0x3d45ffd7	0.04833969
153	0x3d1afd09	0.03783897
154	0x3c866ecd	0.016410256
155	0x3ab847b1	0.0014059452
156	0x3cb8041a	0.022462893
157	0xbd66456e	-0.056218557
158	0xbc5c17e1	-0.013433428
159	0x3b10af16	0.0022077016
160	0x3d00f01a	0.03147898
161	0xbcee2a2a	-0.02907284
162	0xbc815d74	-0.015791632
163	0x3d41b78f	0.047294196
164	0x3d1b0d2e	0.037854366
165	0xbd8b1276	-0.067906305
166	0x3c4eee24	0.012630019
167	0x3c433107	0.0119135445
168	0x3a0ae073	0.0005297728
169	0x3c42a456	0.011880001
170	0xbce06a4d	-0.027394438
171	0xbc8da7c8	-0.017291918
172	0x3d4dc9a6	0.050241135
173	0xbc87eebf	-0.016593335
174	0x3d944723	0.07240131
175	0xbda8c08d	-0.08239851
176	0x3afeecec	0.001944927
177	0xbcd46e21	-0.02593142
178	0x3af43de5	0.0018634169
179	0x3d54d1fd	0.051958073
180	0xbd527035	-0.05137654
181	0x3c77e301	0.015129806
182	0xbb710d93	-0.0036781773
183	0x3cd8d5aa	0.02646907
184	0xbd975862	-0.073899046
185	0x3de7488b	0.11293133
186	0x3b7ae490	0.0038283207
187	0x3ca83c38	0.020536527
188	0xbae2eb21	-0.0017312506
189	0xbd75d4a1	-0.06001723
190	0xbcbd2b54	-0.02309195
191	0x3dc9d94e	0.09855901
192	0xbd4fc09a	-0.05072079
193	0xbd74fe08	-0.059812576
194	0x3a91988b	0.0011108083
195	0xbcf8c4d9	-0.030367302
196	0x3c97cf34	0.01853142
197	0x3b98b7c2	0.0046605775
198	0x3c14ce0f	0.009082331
199	0x3cbf6744	0.02336467
200	0x3d7149a8	0.058908135
201	0xbd0d11ed	-0.034440923
202	0x3ca6faa1	0.020383181
203	0xbd888d98	-0.06667632
204	0x3d8002c4	0.062505275
205	0x3c1517fc	0.009099957
206	0xb93860b8	-0.00017583638
207	0xbcf2f915	-0.029659787
208	0xbc20830d	-0.00979687
209	0xbc80c3c8	-0.015718356
210	0x3c6d1bfc	0.014472004
211	0x3d4324fd	0.047642697
212	0xbde0ed98	-0.109828174
213	0xbdd7be7f	-0.10534381
214	0x3c48696a	0.012232164
215	0x3cc75ef1	0.024337264
216	0x3c401e9f	0.011726051
217	0xbc961f5e	-0.018325504
218	0xbcd86894	-0.026417054
219	0x3c8865b1	0.016650053
220	0x3d0fe418	0.035129637
221	0xbd6912b8	-0.056902617
222	0x3c82fbf4	0.015989281
223	0x3d0851da	0.033281185
224	0xbb46a125	-0.0030308452
225	0x3dd68d9c	0.104762286
226	0x399a9995	0.00029487596
227	0x3c998fb4	0.01874528
228	0xbd00b784	-0.031425014
229	0xbb691764	-0.003556692
230	0xbd98bdc9	-0.07458074
231	0x3c47d5f6	0.012197008
232	0xbcade423	-0.021226948
233	0x3d570819	0.052497957
234	0x3c024cc0	0.007952869
235	0xbdaed368	-0.08536416
236	0xbb44843e	-0.002998605
237	0xbcc38cba	-0.023870815
238	0x3c9e6aae	0.019337978
239	0xbce24b94	-0.02762393
240	0x3c816bdc	0.015798502
241	0xbc47bfd9	-0.012191736
242	0xbbfd488f	-0.007729597
243	0xbd12c820	-0.035835385
244	0x3cd4001b	0.025878957
245	0xbba7bb66	-0.005118775
246	0x3ce21fab	0.027602991
247	0xbbaf6caf	-0.0053535323
248	0xbcec8ec4	-0.02887667
249	0x3d0dee58	0.03465113
250	0x3d31bf5c	0.043395385
251	0xbcd321d3	-0.025772965
252	0xbbe0a05d	-0.0068550543
253	0x3d173ec3	0.03692509
254	0xbd05ad07	-0.032635715
255	0xbcc6b641	-0.024256827

conv4.bias f4 [32]
0	0x3e156031	0.14587475
1	0xbcd57342	-0.026055936
2	0xbca15a65	-0.019696424
3	0x3cbae70e	0.022815254
4	0xbda5c0b8	-0.08093399
5	0xbd36b65b	-0.0446075
6	0xbda6c6c5	-0.08143381
7	0xbe0c36ec	-0.13692826
8	0xbd768573	-0.06018586
9	0xbdd90007	-0.10595708
10	0xbc9fb4cf	-0.019495396
11	0xbd4db6eb	-0.050223272
12	0xbc82c2b8	-0.01596199
13	0xbda62633	-0.08112755
14	0xbd0725eb	-0.032995146
15	0xbdf573f3	-0.11985006
16	0xbcbfcfd5	-0.023414532
17	0xbc1f6b1b	-0.009730126
18	0x3c65bf0e	0.014022602
19	0x3dbaad19	0.09115047
20	0xbdd2e466	-0.1029747
21	0x3ceead6d	0.02913543
22	0xbd8edebb	-0.06976076
23	0xbe01e534	-0.1268509
24	0x3d8e4517	0.069467716
25	0xbdd92562	-0.10602833
26	0xbdf60f69	-0.12014658
27	0xbd206e14	-0.03916748
28	0xbdaaf9c6	-0.08348422
29	0xbd9edf79	-0.07757468
30	0xbc8861ef	-0.01664826
31	0xbd452cba	-0.048138358

conv5.weight f4 [32, 32, 3]
0	0xbc337fa4	-0.010955725
1	0xbc46fcad	-0.012145204
2	0x3da0ada1	0.07845617
3	0xbb3c342a	-0.0028717616
4	0xbd17906b	-0.037002962
5	0xbd4769ee	-0.048685007
6	0xbc5df50f	-0.013547196
7	0xbc6d0135	-0.01446562
8	0xbd53646d	-0.051609445
9	0x3d2825f1	0.04105181
10	0x3d2da64c	0.04239492
11	0x3ceeb93a	0.029141057
12	0xbcf657d9	-0.030071186
13	0x3d404b99	0.046947096
14	0x3c72da27	0.014822519
15	0x3cb53022	0.022117678
16	0xbd6b1d32	-0.05740089
17	0x3c2389d1	0.009981588
18	0xbc4b70ba	-0.012417013
19	0xbd4b9243	-0.049700033
20	0x3a9dc532	0.0012036918
21	0xbdbc5458	-0.09195775
22	0xbd078c5c	-0.03309284
23	0xbc8a8a59	-0.016911672
24	0xbd33a36a	-0.043857016
25	0xbcddabb4	-0.027059413
26	0x3d29d82e	0.04146593
27	0x3c963693	0.01833657
28	0xbcc008e1	-0.023441734
29	0x3b9639da	0.004584533
30	0xbc74ce25	-0.014941727
31	0x3c967755	0.018367449
32	0x3d1e9b33	0.03872223
33	0xbb123b51	-0.0022313187
34	0xbc39a54d	-0.011330915
35	0x3c6f2dfb	0.014598365
36	0xbd3e1a05	-0.046411533
37	0xbd5df732	-0.054190822
38	0x3d1ae42e	0.037815265
39	0x3d92ea66	0.07173614
40	0x3d7454b0	0.059651077
41	0xbd3879ab	-0.045037907
42	0xbcdd3aec	-0.027005635
43	0x3bd7eaa7	0.006589252
44	0xbd644451	-0.055729214
45	0xbcd241c5	-0.025666127
46	0xbcdc3729	-0.026881771
47	0xbd04f638	-0.032461375
48	0xbc8ae01d	-0.016952569
49	0xbc6ca25d	-0.014443007
50	0xbd028df7	-0.03187367
51	0x3cb2a6dc	0.02180808
52	0x3d2e96c3	0.042624246
53	0x3d118ee4	0.03553666
54	0x3d13d4b5	0.036091525
55	0xb9f5deb3	-0.00046895965
56	0xbc8e3319	-0.01735835
57	0x3cb3b695	0.021937648
58	0x3ca2e281	0.019883396
59	0x3daea4a6	0.08527498
60	0x3cf0a785	0.029376755
61	0xbc705a19	-0.014669918
62	0xbd9e5b3b	-0.077322446
63	0x3d917196	0.07101743
64	0x3bea0b99	0.007142496
65	0x3d5f186f	0.05446666
66	0x3d6d0172	0.057862706
67	0x3cd21854	0.025646366
68	0xbc3ccbd0	-0.011523202
69	0xbdb4f2a3	-0.08835342
70	0x3c77bdeb	0.015120964
71	0x3d19b7a1	0.037528638
72	0x3d5765b1	0.052587215
73	0xbb85745e	-0.00407271
74	0xbc1c2bd9	-0.0095319385
75	0x3ca92759	0.020648645
76	0x3ca8bd27	0.020598007
77	0x3cf9ccb0	0.03049311
78	0xbba9a01c	-0.005176557
79	0xbd1af6a3	-0.037832867
80	0xbc711af5	-0.0147159
81	0x3d454067	0.048157122
82	0x3d431dd0	0.047635853
83	0xbcbd8740	-0.023135781
84	0x3d333cb5	0.043759067
85	0x3aef9b1d	0.001828048
86	0x3cfa80ca	0.03057899
87	0xbc986eaa	-0.018607456
88	0x3c81992e	0.015820112
89	0x3cb26997	0.021778865
90	0xbd7b2252	-0.061312027
91	0xbd034433	-0.03204746
92	0x3adeb602	0.0016991498
93	0xbdc1447e	-0.09436892
94	0x3c9c7e76	0.01910327
95	0xbdcaf724	-0.099104196
96	0x3d06fa98	0.03295383
97	0xbcc031e0	-0.023461282
98	0xbb768b60	-0.0037619695
99	0xbc5e1669	-0.013555148
100	0x3d0e3dc9	0.03472689
101	0x3d233e4d	0.039854337
102	0xbd116979	-0.035500977
103	0x3d1a1ed0	0.03762704
104	0xbc5e8c1a	-0.0135832075
105	0x3c6a91b7	0.014316968
106	0x3d150ce4	0.036389247
107	0x3cc48f2f	0.023994057
108	0x3bd07c8c	0.0063625034
109	0xbc6b7a0a	-0.014372358
110	0xbd79bbcd	-0.060970116
111	0xbcad800d	-0.021179223
112	0x3d5e142b	0.054218452
113	0xbcfbcc40	-0.030737042
114	0xbc9adcfb	-0.0189042
115	0xbcc82b59	-0.024434732
116	0x3cbc2217	0.022965474
117	0x3caa5a1c	0.02079492
118	0x3c39f82b	0.011350672
119	0x3d429acc	0.047510907
120	0xbd48acd2	-0.04899294
121	0x3cbd79be	0.02312934
122	0x3be5844a	0.0070042955
123	0x3d2bf852	0.041984864
124	0x3ca4cdee	0.020117726
125	0xbad618b4	-0.0016334266
126	0x3c411205	0.011784081
127	0xbc40618a	-0.011742005
128	0x3c389589	0.011266121
129	0xbbc83c51	-0.006110706
130	0xbcada31d	-0.021195943
131	0x3c9482da	0.018128801
132	0x3c4a60b9	0.012352162
133	0xbcdf3ee7	-0.027251674
134	0x3d374caa	0.044750847
135	0xbd1b0f10	-0.03785616
136	0x3d8942b2	0.06702174
137	0x3caa6342	0.020799283
138	0xbb5ee857	-0.0034012997
139	0xbcf3a6db	-0.029742649
140	0x3b696ccf	0.0035617833
141	0xbba79fef	-0.005115501
142	0x3d330b24	0.043711796
143	0xbce1e517	-0.027575059
144	0xbc092d09	-0.008372554
145	0x3ca460dc	0.020065717
146	0xbcaa3cd4	-0.020780958
147	0xbb8857a9	-0.0041608405
148	0xbae70072	-0.0017624034
149	0xbc02092f	-0.00793676
150	0xbd364feb	-0.04450981
151	0x3c2fec34	0.010737468
152	0x3d3dbdf1	0.04632372
153	0x3be34b27	0.006936449
154	0xbdbf4c32	-0.09340705
155	0xbda7fbf4	-0.08202353
156	0xbd4c24ae	-0.049839668
157	0x3d797c3e	0.060909502
158	0x3b4c28b5	0.0031152193
159	0xbd3aee99	-0.0456377
160	0xbcfb732d	-0.030694569
161	0xbd344428	-0.04401031
162	0xbd09f406	-0.033679985
163	0x3bf030bf	0.0073300297
164	0x3ac47ccd	0.0014990807
165	0xbd858ef4	-0.06521407
166	0x3d8b77a1	0.06809927
167	0x3d3fcd96	0.04682692
168	0xbcef72c9	-0.029229539
169	0xbc399d6a	-0.011329034
170	0x3caf4d10	0.021399051
171	0xbd524e52	-0.051344223
172	0xbcf6dd6f	-0.030134885
173	0xbd23a49e	-0.039951913
174	0xb9fde0cc	-0.00048423407
175	0x3d741109	0.05958656
176	0xbbb0a69e	-0.005390956
177	0xbdaa2c21	-0.08309198
178	0x3d23d2e8	0.039996058
179	0x3dcf772d	0.10130153
180	0xbb04c274	-0.0020257505
181	0x3cbeba88	0.023282304
182	0x3d911ab7	0.070851736
183	0xbb7585d7	-0.0037463808
184	0x3ba981bb	0.005172936
185	0x3c75cb8a	0.015002141
186	0x3c9b0e86	0.018927824
187	0x3d566a39	0.052347396
188	0x3cd06ba1	0.025441946
189	0xbc2fdbd1	-0.010733561
190	0xbd5fa7ee	-0.05460351
191	0xbddab0a3	-0.10678222
192	0xbc26f943	-0.010191265
193	0xbcdcd1a0	-0.026955426
194	0x3d0da6ae	0.034582786
195	0xbca706bd	-0.020388955
196	0x3b67001a	0.0035247863
197	0xbd925161	-0.07144428
198	0xbd1623ce	-0.03665524
199	0xbd848bf0	-0.064720035
200	0x3b4ea75f	0.0031532866
201	0xbb5f7254	-0.0034095244
202	0xbc33da73	-0.010977375
203	0x3a922316	0.0011149372
204	0x3c1ef8b0	0.009702846
205	0x3d4982be	0.04919695
206	0x3d838533	0.0642189
207	0x3d45417c	0.048158154
208	0xbc908993	-0.017643725
209	0xbd5bd3ac	-0.053668663
210	0x3c697ae3	0.01425049
211	0xbdde30a8	-0.10849124
212	0x3cf3b5fc	0.029749863
213	0xbda1e5b5	-0.07905141
214	0x3c3ed259	0.0116468305
215	0x3c01c8e2	0.007921429
216	0xbd79a07a	-0.060944058
217	0x3d1811d6	0.037126385
218	0x3bed0fcf	0.0072345505
219	0x3c38e39e	0.011284737
220	0xbbf83bed	-0.007575503
221	0xbd9380d1	-0.07202304
222	0xbcf7e6b0	-0.030261368
223	0x3d42b4e1	0.04753578
224	0x3d8e2f21	0.06942583
225	0x398fe327	0.00027444327
226	0xbccd91fe	-0.025094029
227	0x3cc115fb	0.023570051
228	0x3ca2e90b	0.019886514
229	0xbc1a5873	-0.009420502
230	0xbc39148b	-0.011296402
231	0x3cebd227	0.028786732
232	0xbd19a31a	-0.03750906
233	0xbdbc4881	-0.091935165
234	0x3d807524	0.06272343
235	0xbd9e09c9	-0.0771671
236	0xbcebc3a5	-0.028779814
237	0xbcd22b2f	-0.025655357
238	0x3d28393f	0.04107022
239	0xbd2145b8	-0.03937313
240	0xbc34b8ad	-0.011030358
241	0xbd7f8e99	-0.06239185
242	0x3ac73a71	0.0015199912
243	0xbd0ed170	-0.034867704
244	0x3c817704	0.015803821
245	0x3b6f1479	0.0036480709
246	0x3a455295	0.00075272593
247	0xbc811d2f	-0.015760986
248	0xbdb5d7e9	-0.08879072
249	0xbd36cfd0	-0.04463178
250	0xbc983bf6	-0.01858328
251	0xbc14c13e	-0.009079276
252	0xbcdabf17	-0.026702447
253	0x3d2d9049	0.04237393
254	0xbd187d98	-0.03722915
255	0x3c688c30	0.01419358

conv5.bias f4 [32]
0	0xbda3e85b	-0.08003303
1	0xbe0dbaeb	-0.13840835
2	0xbe637d51	-0.22215773
3	0x3abc32a4	0.0014358354
4	0xbd3df93b	-0.046380263
5	0xbca0f22f	-0.019646732
6	0xbe25a452	-0.16175964
7	0xbd5ab89d	-0.053398717
8	0xbd58c0ac	-0.05291812
9	0xbd8c3831	-0.06846655
10	0xbdfa5b38	-0.1222443
11	0xbd4603d1	-0.048343483
12	0x3e3627c8	0.17788613
13	0xbd31175e	-0.043235175
14	0xbd3196f3	-0.043356847
15	0xbde0facd	-0.109853365
16	0xbe154601	-0.14577486
17	0x3e06369d	0.13106771
18	0xbd561f7e	-0.052276127
19	0xbd5a9afe	-0.05337047
20	0xbe0440ba	-0.12915316
21	0xbd80785c	-0.06272957
22	0xbddbc5d1	-0.1073109
23	0xbcc0eeeb	-0.023551425
24	0xbdb4d97a	-0.08830543
25	0xbde02e92	-0.109463826
26	0xbdeeaced	-0.11654077
27	0xbdd43feb	-0.10363754
28	0x3ce90897	0.028446479
29	0xbd6a10ac	-0.057144806
30	0x3e31b744	0.17355067
31	0xbddedbc6	-0.10881762

conv6.weight f4 [32, 32, 3]
0	0xbd286013	-0.04110725
1	0xbdcd47e6	-0.10023479
2	0xbbc9d549	-0.006159459
3	0x3cdcf5e8	0.026972726
4	0x3d0f1a9e	0.034937494
5	0xbd25115c	-0.04029976
6	0xbccbe88b	-0.024891159
7	0x3bb57be7	0.005538452
8	0xbd45e828	-0.048317105
9	0x3be3207e	0.0069313636
10	0x3be450b5	0.006967629
11	0x3cb7db6c	0.022443496
12	0xbc8571ff	-0.01628971
13	0x3cbd9f41	0.023147227
14	0x3d049de1	0.032377128
15	0x3cf0ac47	0.029379023
16	0x3cc2e577	0.023791058
17	0x3cbeecec	0.023306333
18	0x3cc72759	0.024310755
19	0x3a8433a3	0.001008619
20	0x3d910ef8	0.07082933
21	0xbc3a85b1	-0.011384414
22	0xbcef665f	-0.029223619
23	0xbd8a3145	-0.06747679
24	0xbb8a26cf	-0.004216052
25	0xbd784e2d	-0.06062143
26	0xbab07771	-0.0013463331
27	0xbc64a445	-0.0139551805
28	0x3d08c3de	0.03338992
29	0x3cd6f1fa	0.02623843
30	0x3da0522e	0.078281745
31	0xbbc788f9	-0.0060893265
32	0xbcea4ea1	-0.028601946
33	0x3d03adf5	0.03214832
34	0xbc203a43	-0.009779516
35	0xbbdd277c	-0.0067490917
36	0xbc8568e2	-0.016285364
37	0xbc689aaf	-0.014197036
38	0x3de0adae	0.10970627
39	0xbd40402d	-0.046936203
40	0xbd333780	-0.0437541
41	0xbcbb6b10	-0.0228782
42	0xbcd15098	-0.025551125
43	0x3d31e96d	0.043435503
44	0x3bd96065	0.0066338056
45	0xbb277c70	-0.0025556348
46	0xbced83dd	-0.028993541
47	0xbd579bad	-0.0526387
48	0xbda9b94a	-0.08287294
49	0xbd87e9ce	-0.066363916
50	0xbd51b1fc	-0.05119513
51	0xbb75f0ef	-0.003752764
52	0x3d243998	0.04009399
53	0x3c9dd89b	0.019268325
54	0x3c735bab	0.014853398
55	0x3cba1cee	0.022718873
56	0xbdb20766	-0.086928174
57	0x3cb43faf	0.022003023
58	0xbd2a0c52	-0.041515656
59	0xbdbbc165	-0.091677465
60	0xbc79dd4d	-0.015250516
61	0xbce0514e	-0.02738252
62	0xbd31cfa0	-0.043410897
63	0x3d00eabf	0.03147387
64	0xbd38132d	-0.044940162
65	0xbc6f52e0	-0.014607161
66	0x3d2be668	0.04196778
67	0xbd23cd2a	-0.03999058
68	0xbda3b4c0	-0.0799346
69	0x3dc76d34	0.09737626
70	0xbd504782	-0.050849445
71	0xbdefa6a2	-0.117017046
72	0x3ba5a361	0.0050548767
73	0x3cca0fe8	0.024665788
74	0x3ce31485	0.027719745
75	0xbd705c5e	-0.05868184
76	0xbc8813f4	-0.016611077
77	0xbd513d2b	-0.051083725
78	0xbc0d5565	-0.008626317
79	0xbd359459	-0.04433093
80	0xbc2ca8ea	-0.010538319
81	0xbd616254	-0.055025414
82	0x3c00b296	0.007855078
83	0xbce7f347	-0.028314246
84	0xbd1a34ed	-0.03764813
85	0xbc5089cf	-0.012728169
86	0xbca57dec	-0.020201646
87	0xbd6b0091	-0.057373587
88	0xbcec5db4	-0.028853275
89	0xbcefed58	-0.029287979
90	0x3cedd012	0.02902988
91	0xbce95b20	-0.028485835
92	0xbc03d2ca	-0.0080458615
93	0x3d0fec8a	0.03513769
94	0xbc41af49	-0.011821576
95	0xbd48aa83	-0.048990738
96	0x3bc2fea8	0.0059507675
97	0xbbd5f5af	-0.006529532
98	0x3d46fafb	0.048579197
99	0x3cfdfda3	0.031004732
100	0x3cac14b8	0.021005973
101	0x3cadec04	0.021230705
102	0x3cc84cb1	0.024450632
103	0x3d466a4e	0.048441224
104	0x3c96f20c	0.018425964
105	0xbb46756f	-0.0030282398
106	0xbc3233e8	-0.010876633
107	0x3c2bf8e8	0.010496356
108	0x3bf63033	0.00751307
109	0x3bb3e541	0.0054899757
110	0x3d9bedd3	0.07613721
111	0xbc72869d	-0.014802602
112	0x3cc92ba3	0.02455694
113	0xbd06f0a1	-0.032944325
114	0xbc816dae	-0.01579937
115	0xbcd78993	-0.026310718
116	0xbc6a474f	-0.014299228
117	0xbd05d2b1	-0.032671634
118	0xbd184eff	-0.03718471
119	0x3c282606	0.010262972
120	0x3b8ad3ad	0.0042366595
121	0x3d55aa4c	0.05216436
122	0x3d6186c8	0.055060178
123	0xbba6d2da	-0.0050910534
124	0xbd8acad9	-0.06776971
125	0xbd02cefc	-0.031935677
126	0xbd321839	-0.04348013
127	0xbdab053b	-0.08350607
128	0xbc4e7f6e	-0.012603624
129	0xbd06d2cf	-0.032915886
130	0x3c49e070	0.0123215765
131	0x3d8febad	0.070273735
132	0x3d157934	0.03649254
133	0xbdb0ed3a	-0.086389974
134	0xbe3a9948	-0.18222535
135	0x3d1855c4	0.037191167
136	0x3d5a054b	0.053227704
137	0x3c98e0ec	0.018661939
138	0x3d56f358	0.052478164
139	0x3d04403b	0.032287817
140	0xbc433d97	-0.01191654
141	0x3c286ac6	0.010279363
142	0x3cc39bee	0.023878064
143	0x3bf5108a	0.0074787783
144	0xbd4f11c7	-0.050554063
145	0xbcfda220	-0.030961096
146	0x3c942937	0.018086059
147	0x3db7bf97	0.0897209
148	0x3ce6fd05	0.028196821
149	0xbd804d86	-0.062647864
150	0xbd0b996d	-0.034081865
151	0xbcbc104b	-0.022956988
152	0x3d3fc831	0.046821777
153	0x3c7fc845	0.015611713
154	0xbcbe1fcb	-0.02320852
155	0x3b57f79a	0.0032953979
156	0x3d31c4f5	0.043400723
157	0xbdae1c67	-0.08501511
158	0xbd3cb3d2	-0.046069928
159	0xbc56f7fb	-0.013120647
160	0x3c8acf57	0.01694457
161	0x3d39d3e0	0.045368075
162	0xbd3bf0f8	-0.045884103
163	0xbcfda92a	-0.030964453
164	0xbcf1f71e	-0.02953678
165	0x3d080f39	0.033217642
166	0x3c8705db	0.016482284
167	0x3cbab343	0.022790557
168	0x3d7389aa	0.05945746
169	0xbd18ab41	-0.037272695
170	0xbcbc14e5	-0.022959182
171	0xbc8e27ea	-0.017353017
172	0x3b6b1906	0.003587307
173	0x3d5f46f8	0.05451104
174	0xbd5edad5	-0.054407913
175	0x3cfb844d	0.030702734
176	0x3ba4b35f	0.0050262655
177	0xbb684a0c	-0.0035444526
178	0x3d3c43ac	0.045962974
179	0x3b46a1b6	0.003030879
180	0xbc464e34	-0.012103606
181	0xbd017032	-0.03160114
182	0x3d461927	0.04836383
183	0xbcd73783	-0.026271587
184	0xbcd7e0ef	-0.026352374
185	0xbbb1b68a	-0.0054233717
186	0xbcbd62c5	-0.023118386
187	0xbd7706b9	-0.060309146
188	0x3c2b841b	0.010468508
189	0xbd5fabc9	-0.054607186
190	0xbd9b08a8	-0.075700104
191	0x3aef2f0d	0.0018248275
192	0xbc88d8ff	-0.016705034
193	0x3d4fc8f1	0.050728742
194	0x3d021a3c	0.0317633
195	0xbcf1c875	-0.02951453
196	0xbd2a8796	-0.04163321
197	0xbc09779e	-0.008390335
198	0x3c78261b	0.015145804
199	0x3d291efc	0.041289315
200	0x3a2e39e6	0.0006646201
201	0x3b9ff36d	0.0048813135
202	0x3bb888bd	0.005631535
203	0x3bc9a866	0.006154108
204	0xbc7c5d00	-0.015403032
205	0x3d3121d2	0.043245144
206	0x3d944874	0.07240382
207	0x3c225161	0.009907098
208	0xbda3293b	-0.079668485
209	0xbd98685b	-0.07441779
210	0x3d564aae	0.052317314
211	0x3d5199d5	0.051172096
212	0xbcf1c457	-0.029512567
213	0xbd1c0bb8	-0.038097113
214	0x3be86c99	0.007093024
215	0xbb7b7fdc	-0.003837577
216	0x3cc1dd5b	0.02366512
217	0x3cfa629b	0.030564597
218	0x3c0dd954	0.008657772
219	0x3d0363e8	0.0320777
220	0xbd3ca089	-0.046051536
221	0xbd80ed4e	-0.06295262
222	0xbd15c811	-0.03656775
223	0xbd56b26e	-0.052416258
224	0xbbbc3f4f	-0.0057448517
225	0xbc9eb376	-0.019372683
226	0x3ca5297c	0.020161383
227	0x3cbdeb36	0.023183446
228	0xbd2636cf	-0.040579613
229	0xbddf1c77	-0.10894101
230	0xbe12d54c	-0.14339179
231	0x3d0269fb	0.031839352
232	0x3d3fb165	0.046800036
233	0x3d39f764	0.045401946
234	0x3cd0c93a	0.025486577
235	0xbc6c1c2e	-0.014411015
236	0xbdccc746	-0.09998946
237	0x3d0d3a1c	0.034479246
238	0x3d78b606	0.060720466
239	0x3daa7d98	0.08324736
240	0xbc6601db	-0.014038528
241	0xbc917a55	-0.017758528
242	0x3cc84e59	0.024451422
243	0x3c873b19	0.016507672
244	0x3d3d57e9	0.046226416
245	0x3da47c29	0.08031494
246	0xbdf0081d	-0.117202975
247	0xbd80379e	-0.06260608
248	0x3cbbcd6b	0.0229251
249	0xbd4f91f9	-0.05067632
250	0xbcbeb3c3	-0.023279076
251	0x3c7ad951	0.015310601
252	0xbc18f378	-0.009335391
253	0xbd8892cd	-0.06668625
254	0xbd17d5f8	-0.03706929
255	0x3cc766aa	0.024340946

conv6.bias f4 [32]
0	0xbd8a7a0d	-0.067615606
1	0xbe1c8f54	-0.1528905
2	0xbbff94bc	-0.007799713
3	0xbdd1fa3b	-0.10252806
4	0x3e2d2bef	0.1691129
5	0xbddbd7c5	-0.10734514
6	0xbcfc9287	-0.030831588
7	0xbddd2064	-0.10797194
8	0x3cdfb23a	0.027306665
9	0xbe0eb0e7	-0.1393467
10	0xbdfa7112	-0.12228598
11	0xbe098ea3	-0.13433318
12	0xbcf2876f	-0.029605595
13	0x3db7a7ef	0.08967578
14	0xbd1471de	-0.036241405
15	0xbe08fc0f	-0.13377403
16	0xbe40fa53	-0.18845491
17	0xbc6ad022	-0.014331849
18	0xbe458220	-0.1928792
19	0xbe0a9216	-0.1353229
20	0xbe084b7f	-0.1331005
21	0xbd68ca62	-0.056833632
22	0x3d293615	0.041311342
23	0xbe4a4359	-0.19752254
24	0xbd3e8fd3	-0.04652388
25	0x3d8958fb	0.06706425
26	0xbd1a96b6	-0.037741385
27	0xbcd5babf	-0.026090024
28	0xbe269a4d	-0.16269799
29	0xbcf9a930	-0.030476183
30	0xbd14a122	-0.03628648
31	0xbcc85439	-0.024454223
