FedAvg_3_clients/server_model_parameters.pth (torch, 767202 bytes, 51 tensors)

conv1.weight f4 [32, 2, 3]
00000000: 1bf3 17be 103d 193e c4fa ad3c cc04 0d3e
00000010: 2501 123d 8156 853e b0e6 37be 5d01 12be
00000020: cb82 0abe 1c50 223e 11c0 12be 6566 d53d
00000030: a0ed 0dbe 6936 07be 7797 063e 68a4 95be
00000040: a125 2a3e c3cb 30bd 816e c9bd 44db 17bd
00000050: 544e 113e 9c13 2fbd 2e02 903e 25da 50bd
00000060: 95d6 afbd d3be d0bd 339f cf3d 5d02 16be
00000070: 232f 963d ab20 f63d 8d5b aa3e 955d 4fbe
00000080: 97fd 4d3e b8b3 f63d 2ba3 153c 459e 03bd
00000090: c1a7 4a3e f5c2 60be d18a ec3c 0740 563e
000000a0: 207a 3bbc 5325 6f3d 1d0d 47bd 93cf 583e
000000b0: 7444 94bd 7050 d13d 8bdd 9bbd c781 fdbd
000000c0: 346e 223e b151 15be 0962 bc3a 95fc 2bbe
000000d0: f7a8 ba3d d0dd 51bd 3835 323e 2773 e43d
000000e0: 7b64 bdbd e831 68be 18c4 1fbd dbec 1f3e
000000f0: dc1e ccbd 5368 2ebe 67f7 0cbd 6b1e 6bbd
00000100: 990d e43d 7191 93be 73df 073e 6c2c 2dbe
00000110: f612 8dbe 01f9 98be a8fc ff3d 67ca 66bd
00000120: 870e 04be 8f6e 073e 1e0e 8a3b e84c 8fbd
00000130: 1969 273e 8296 183e 2fac 16be e078 8f3e
00000140: e187 ffbd a2c0 883e 7940 ac3d 95b2 c8bd
00000150: 41e1 63be 61e1 c23d ebcd 4cbd 3b90 36bc
00000160: d5f8 4b3c 1324 b6bd 214a 84bd 3341 0bbe
00000170: 2d9e 3e3e 910d e2bd c5f3 893d b9c7 2e3e
00000180: 872b 25be c84b 1fbe cd46 debd 2314 eb3d
00000190: fbbe 613e c08e 14bc e8bb 983e 8fa1 dd3d
000001a0: f0c3 c83d ebe1 c93d 45c9 2dbe 6859 d3bc
000001b0: 4f74 f5bd 6399 b43d 1504 013c cec9 1fbe
000001c0: 4d31 66bd e9ea 0b3e 012f 74be e8bf f4bd
000001d0: 33c1 d43d 35ba 3d3e 9509 a1be a391 2a3e
000001e0: 7806 38be 2bb1 0f3d 9cb2 aa3e 8b5c 40bc
000001f0: d6f8 0fbe 8d8f d1bd 73bb 94bc 94ec 43bd
00000200: 00c6 4b3b 1327 c9bd 1802 483d 503e 9cbc
00000210: f0e9 b73d 3887 563e 8b4a e9bd a1c1 0c3e
00000220: fb9e fcbd 802b 2dbc 2fff 363e 5bae e8bd
00000230: 3be3 5abd 6094 873c f5b2 be3d e092 adbc
00000240: 1fad 7ebd 1388 cb3d b1bb fe3d 2058 58bc
00000250: e139 e63d 0e03 89be f840 033e 20fb febd
00000260: 7881 0b3e 91be 49bd f3cf bdbc 3b47 4abe
00000270: c38a 4cbd f8b6 c13d 5caf 47bd 4b0a 663c
00000280: 7d24 19be 205e 2b3e 4afa 1fbe eddf 093c
00000290: d47b 073e 659d 573d 451f d0bd ca0c 05be
000002a0: 380f 6dbd 3dc5 963d ed54 7ebc cf1d 853e
000002b0: ccaf 563e 0bb0 16bc 2d26 c9bd 4d34 e7bd
000002c0: fb7f 7cbe 4c3d 913d eb97 bb3d 7b7b d13d
000002d0: 6176 1fbd 0c1a 0ebe 88e7 643e 4d8c 6c3e
000002e0: 5017 86bc 247d 23be 6835 633e 68b0 81be
000002f0: 18cd ea3c 9084 6c3d 0025 bf3b 40fd 963b
-0.14838831 0.149647 0.021237738 0.13771361 0.035645623 0.2604256 -0.17959094 -0.14258333
-0.13526456 0.15850872 -0.1433108 0.10419921 -0.13860178 -0.1320435 0.13143717 -0.29226995
0.16615917 -0.043163072 -0.0983553 -0.037074342 0.14190036 -0.04274331 0.28126663 -0.05098929
-0.0858585 -0.10192647 0.10137787 -0.14649339 0.07333209 0.1201795 0.33272973 -0.20250542
0.20116268 0.120459974 0.009133141 -0.03213336 0.19790556 -0.2194937 0.028874787 0.20922862
-0.011442691 0.058385205 -0.04859649 0.21172933 -0.07239619 0.1022042 -0.07610615 -0.12378269
0.15862352 -0.14581944 0.0014372478 -0.16795571 0.09114259 -0.051236928 0.17403114 0.11154776
-0.09247681 -0.22675288 -0.03900537 0.15617697 -0.099668235 -0.17031984 -0.03441563 -0.057402056
0.11135406 -0.288219 0.13268833 -0.16911477 -0.2755353 -0.29877475 0.12499362 -0.05634537
-0.12896167 0.13225769 0.0042131087 -0.069970906 0.16348685 0.14901164 -0.1471412 0.28021908
-0.12477089 0.26709467 0.08410735 -0.09799687 -0.22253896 0.09515644 -0.050001066 -0.011142786
0.012449463 -0.08893599 -0.064594515 -0.1359909 0.18615027 -0.11037744 0.067359485 0.17068376
-0.16129886 -0.15556252 -0.10853348 0.1147845 0.2204551 -0.009067237 0.2983086 0.108218305
0.09802997 0.098575436 -0.1697131 -0.025799468 -0.11985075 0.08818319 0.007874508 -0.15604326
-0.05619936 0.1366383 -0.23846056 -0.11950666 0.10388412 0.18528064 -0.31452623 0.16657118
-0.17971218 0.03508107 0.33339393 -0.011740814 -0.14059767 -0.10232458 -0.018155789 -0.04783304
0.003109336 -0.09821906 0.04883012 -0.019072682 0.08980167 0.2095002 -0.11391171 0.13745739
-0.123350106 -0.010569453 0.17870782 -0.11361381 -0.05343936 0.016550243 0.09311477 -0.0211882
-0.06217682 0.099380635 0.12438143 -0.013204604 0.11241508 -0.26760143 0.12817752 -0.12450242
0.13623607 -0.049254004 -0.023170447 -0.19753735 -0.04993702 0.09458727 -0.04875122 0.01404054
-0.14955325 0.16735125 -0.15622821 0.0084152045 0.1323083 0.052640337 -0.10162214 -0.1299316
-0.05787584 0.07361839 -0.015523178 0.25999305 0.20965499 -0.009197245 -0.098217346 -0.112892725
-0.24658196 0.070917696 0.091598354 0.1022863 -0.038931254 -0.13877124 0.22353947 0.23100396
-0.016368538 -0.15965706 0.22188342 -0.253299 0.02866225 0.05774361 0.005833268 0.0046078265

conv1.bias f4 [32]
00000000: 6fb7 093e c8cd cd3c e9dc 023d 24c0 be3c
00000010: b192 acbd 2892 59be 1e74 0e3d e36d 10bd
00000020: ef06 ab3c e0c6 eabd 7bf1 e93d 2f49 c6bd
00000030: 7bd5 fe3d 2ddf a4bc 75de 7abd 21db 0d3d
00000040: 33e4 73be c376 d23b 58fb 15ba 7479 4bbd
00000050: 4d9f 0bbe 95fe 7dbb db09 40be 8d5a a63c
00000060: 70b9 5c3d 05d9 2abd bbfe 8f3d c519 c03a
00000070: 9126 8dbe 71a6 0cbe b8ce c33c 0388 5abc
0.1344888 0.025122538 0.031948958 0.02328498 -0.08426417 -0.2124716 0.034778707 -0.035261046
0.02087733 -0.11463714 0.11423012 -0.096819274 0.12443062 -0.02012595 -0.061247308 0.034632806
-0.2381752 0.006422849 -0.0005721352 -0.049676374 -0.13634987 -0.003875648 -0.1875376 0.02030685
0.053887784 -0.041710872 0.07031008 0.0014656117 -0.27568486 -0.13735367 0.023902282 -0.013338092

conv2.weight f4 [32, 32, 3]
00000000: 087f 143d 83a7 d4bd 4d15 44bd e717 26bd
00000010: 2dd1 ba3c 5f24 34bc 3d24 843c d5b8 da3d
00000020: 958a da3c c524 e5bd a3f9 85bd 8320 7ebb
00000030: bd52 ccba 002e 6b3d ac77 753d fbed 123d
00000040: 605a 3fbd 4c95 3cbd f709 ab3b 28dc 48bd
00000050: 6dfa 85bc 6b36 7d3d 3582 51bd 23ee 613d
00000060: 5dbb 433d a01f fb3c 6768 9abc 111f 583d
00000070: 3301 013d 0d4b 7cbd 6d0a 133d e5ab 343d
00000080: 9867 753d 3567 b0bb 2346 c03c c386 773b
00000090: b5a1 8b3d 9085 d1bd a03a e1bd b930 263d
000000a0: 6fab 0c3c 8b24 363d e280 a13c 69c0 fa3b
000000b0: 5960 a63d a161 2a3c ffd7 82bd b075 c1bc
000000c0: a074 4abc fd78 25bb 335e 5b3d b4d6 92bc
000000d0: 3511 093d 7f9a a8bd c91d 14bd e7fc 53ba
000000e0: 933f 0d3c f05f 2ebd f8cb 34bc 49fa 5d3c
000000f0: 74cb 0e3d eb58 f7bc d3f9 ea3c 9f47 5cbd
00000100: 842b b63c 9cd8 a2bd 36a3 a23c 5377 003c
00000110: a585 4bba 540c 02ba e4f5 b53c cbba 33bd
00000120: 5bd1 f43c af0a 2fbd 4554 4cbd cd8e ec3c
00000130: cb62 6c3a aab4 9a3c b96c 64bb 7caa dcbc
00000140: 2b43 dc3c 1c93 b9bd ebd2 9ebc 043d 873c
00000150: b307 cd3c 2dee 803c 90f5 2bbc b829 2c3d
00000160: 41c7 083d 68cf acbc ceeb 00bd 97fc 97bc
00000170: 2c16 85bd 24af 623c f57f d4bc 7cbb eb3c
00000180: bf7f 27bc dd97 46bd 5697 8cbd adf9 a23c
00000190: 1088 e33c f436 983b 9906 19bb 2fd1 883d
000001a0: 4bbb 943d 2b26 453d 702c 4b3a 555b de3c
000001b0: d56e e1bc d565 0cbd bb58 22bd 8c73 3e3d
000001c0: 7ba5 34bb c428 7cbd bbb5 7bbd 1359 d3bc
000001d0: 959e 43bd 7080 953c 53e4 5ebd ccf4 673b
000001e0: 4b67 a1bd 191b 83bc 4d5d b5ba 9015 bd3c
000001f0: 2ba2 0e3d bfad 153d 190b 853d 950e a13d
00000200: b53d c23d d303 32bd f1a4 28bc 00b2 72bd
00000210: 0106 6abc f5b5 01bd 7be3 093d b38b a93c
00000220: fdd9 373d 2385 00bd bf7f dcbd ed38 1fbd
00000230: 6bb2 dfbc 6244 2abd 2f1f 013c 17fc 4fbd
00000240: bff0 023d 5b72 4c3d bb1f 963d d3e7 07bd
00000250: 00f5 6ebd f4be 69bd 1f66 693d 48e7 eb3c
00000260: 0d1b 25bd 907e b4bc 782a 18bd cba5 98bd
00000270: 17cf 24bd 9bea 39bd 39d9 573d 9d9c 04bd
00000280: 35d2 ebbc c8bd b1bc a76c 1c3d 2751 463d
00000290: c8da c7ba 5b65 84bd 5df0 8cbd 9f3e 43bd
000002a0: e1d7 73bd c8c7 26bd 7130 87bd c496 47bd
000002b0: db91 ebbb 2d4c ccbc d3e6 c73c 7800 aabd
000002c0: d9ca 843b 0931 8cbc 3c7d aebc ccab afbb
000002d0: efac 2abd e818 3ebd 5f65 d53b 1038 27bd
000002e0: ec0a fc3c 98c4 7a3c 916d 08bd 4049 a0bd
000002f0: 47a0 f2bc 858a ae3b f51c 92bc ad31 8cbb
00000300: d87d b2bc 6c6f 203d d38e b8bc c895 c83b
00000310: 7dc4 b9bc 5dd3 07bb 897f c23c a9b5 193d
00000320: 985d f83b 6b95 013e 8889 543d 3099 c4bd
00000330: ccec 8c3d 543b 4fbc e3a5 5e3d 2457 023d
00000340: 242c 2c3d 959a d23c 9f48 a33c 4df2 aabd
00000350: ff35 233d 6cfa b23c a92e db3a 85c4 b7bb
00000360: 685a d0bc a435 0abd a86e 34bd 85dc 1dbd
00000370: 0b7f d13c b497 a23c 710f 0f3d e8e5 bc3b
00000380: cb5c 23bd a333 983d f32f 3b3d 3013 413b
00000390: 551b 8e3d 4db0 2e3d 3bac c7bc 0d7b 74bd
000003a0: c9bb 92bd 587f e03b 18cf 3d3d 85fa 003e
000003b0: 6d1c dd3d 877a f1bb 8f5c 203c 7b65 82bd
000003c0: 25c4 d1ba e8c4 a5bd 77a3 febd e41c f03c
000003d0: bd27 483c 0d8d 103b bbe5 9dbc 6195 ba3c
000003e0: b31a c93c a138 033d 0304 873d d71d c63d
000003f0: 60e0 d5bc 258f 9bb9 353d cabc a316 a53d
0.03625396 -0.10383513 -0.047871877 -0.04055014 0.02280482 -0.010995 0.016130561 0.10679785
0.02667741 -0.11188654 -0.06541755 -0.0038776703 -0.0015588623 0.057416916 0.05992858 0.035871487
-0.046717048 -0.046040818 0.0052196938 -0.049038082 -0.016354764 0.061819475 -0.051149566 0.055158745
0.047786105 0.030654728 -0.018848611 0.052764002 0.031495284 -0.06159501 0.035898615 0.044109244
0.059913248 -0.005383397 0.023470944 0.0037769533 0.068179525 -0.10230553 -0.1099751 0.04057381
0.008585795 0.044468444 0.019714776 0.0076523316 0.081238456 0.010399253 -0.06388854 -0.023615688
-0.012356907 -0.0025249117 0.053556632 -0.017924644 0.033463676 -0.08232593 -0.036161218 -0.00080866966
0.008621114 -0.042571962 -0.011034958 0.013548442 0.034861997 -0.030193767 0.028683579 -0.05377924
0.022237547 -0.07951471 0.019853216 0.007840949 -0.000776375 -0.00049609435 0.022211976 -0.04387931
0.029884985 -0.042734798 -0.049885053 0.028876686 0.0009017407 0.018884975 -0.0034854843 -0.026936762
0.026887497 -0.09061262 -0.019387683 0.016508587 0.025028085 0.015738571 -0.010495558 0.042031974
0.03339315 -0.021094993 -0.03147488 -0.018553061 -0.064983696 0.013835702 -0.02593992 0.028775923
-0.010223328 -0.04848467 -0.068648025 0.019894445 0.02777484 0.004645223 -0.002334988 0.066805236
0.07262286 0.048132103 0.0007750457 0.02714316 -0.02751867 -0.034276802 -0.0396354 0.046496913
-0.0027564454 -0.061562315 -0.06145261 -0.02579931 -0.047758657 0.01824972 -0.054416966 0.0035393713
-0.0788103 -0.016004132 -0.001383701 0.02308157 0.034822624 0.03654265 0.06496257 0.078641094
0.09484426 -0.04346068 -0.010293231 -0.059251785 -0.014283658 -0.03166767 0.033664208 0.020696497
0.044885624 -0.03137697 -0.10766553 -0.038872648 -0.027306756 -0.04156912 0.00788097 -0.05077752
0.031967875 0.049913745 0.07330271 -0.03318007 -0.05833912 -0.057066873 0.056982156 0.028796807
-0.040309 -0.022033006 -0.037149876 -0.074534975 -0.04023656 -0.045389753 0.052697394 -0.03237592
-0.028786758 -0.02169694 0.038189556 0.048417237 -0.0015247697 -0.064646445 -0.06881783 -0.047667142
-0.05953205 -0.04071787 -0.06601036 -0.048727766 -0.007189018 -0.024938667 0.024402058 -0.08300871
0.0040525016 -0.017113226 -0.02129995 -0.005361056 -0.04166883 -0.04641047 0.0065123285 -0.04082495
0.030766927 0.015305661 -0.033307616 -0.07826471 -0.029617442 0.0053265714 -0.017836073 -0.0042783828
-0.021788523 0.03916876 -0.022529041 0.006121371 -0.0226767 -0.0020725348 0.023742454 0.03752676
0.0075795166 0.12654655 0.051888973 -0.09599531 0.06881103 -0.012648422 0.05435742 0.031821385
0.042034283 0.025708476 0.01993209 -0.083469965 0.039846417 0.021847926 0.001672228 -0.0056081438
-0.025433734 -0.033742562 -0.044050843 -0.038540382 0.025573274 0.019847728 0.034926835 0.0057647116
-0.039883416 0.07431724 0.045700025 0.00294609 0.06938807 0.042648602 -0.024374118 -0.059687663
-0.071647234 0.006851118 0.046340078 0.12595566 0.107964374 -0.0073693427 0.009787693 -0.06367012
-0.001600389 -0.080941975 -0.12433522 0.029310651 0.012216506 0.002205673 -0.019274583 0.022776308
0.024548864 0.032036427 0.06592562 0.0967366 -0.026107967 -0.00029670555 -0.024687389 0.08060958

conv2.bias f4 [32]
00000000: e884 883d 71b5 19bc 0d6f e2bd f45e dfbb
00000010: fe0a a63d efdd a13d 0131 d63d 1f9c c0bd
00000020: 95b7 6e3d 0737 aa3d 6508 30bd c7c8 c4bc
00000030: b3ec 2abd 8822 67bd 550a bd3b f342 1e3d
00000040: 04ce fcbd 8849 dd3c cbc7 ec3c 9dff d23c
00000050: 7405 333d 690b 40bd d599 433d 5be9 9e3d
00000060: 5c84 1a3e 3908 693d 74e7 693d 6751 4c3d
00000070: 7d91 8d3d b49a bcbc 835d 94bd 294b ea3d
0.06665975 -0.009381638 -0.110563375 -0.006816739 0.08107565 0.079036586 0.104585655 -0.09404778
0.058280546 0.08311277 -0.042976756 -0.02402152 -0.04172964 -0.056429416 0.005769054 0.038638067
-0.12343982 0.027012601 0.028903862 0.025756652 0.043706372 -0.04688588 0.047754128 0.07759353
0.15089554 0.056892607 0.057105497 0.04988232 0.06912515 -0.023022987 -0.072443984 0.11440117

conv3.weight f4 [32, 32, 3]
00000000: f972 023d 3bda 053d 7c26 133d 6bd5 573d
00000010: af1d 91bd da86 a7bc 5dd3 cd3c db2f c73d
00000020: 97f2 5cbd 09ff 383c 6d66 a2bc e521 18bd
00000030: 88be 003d c04b f73c acb1 aa3d b95d 1e3d
00000040: 06b0 a7bb b0f6 a5bc ddab 6b3d 78bc b33a
00000050: 711b cbbd 61cc e43d 63c7 0d3e f3ed 433c
00000060: cbdf 553d 83bb 84bc 3461 1e3d 9547 243d
00000070: 977b 923c f022 403d 90cc c4bb b74a 7d3c
00000080: 735e 22bd 8fde 9bbc 2fbf a7bc f593 2d3d
00000090: 8586 04bb d3c5 2c3d f0ad cc3c a9c4 153d
000000a0: dda6 683c a4f8 c1bc 19f2 483b 9f70 063d
000000b0: 3b7f a13b 43f4 afbc 35bd c43c 9821 0e3d
000000c0: db20 00bd 63ae fb3c 8d33 9dbd 132e 5b3c
000000d0: d2e6 17bc 2fdd bcbd 40c4 173d f553 c1ba
000000e0: dfad 8dbc 4d34 333d 2e7a 823c 15d2 93bc
000000f0: f74f d73b e5e7 e6bc 95a2 c4bc cd57 623d
00000100: 8e58 1d3d e87a e2bd d3b3 df3c 0951 0a3d
00000110: 83af 65bd 9d23 25bd 73fb 46bc eb79 28bc
00000120: b860 a53d a5ee 593d b57b abbc a922 953b
00000130: 94ee 733b 2dec cb3c 6bd2 fa3c 67aa 813b
00000140: dde5 ad3a 2906 32bd 118e 0e3d fb7e 3c3b
00000150: 1fdb 67bc ab1c 6439 a817 12bd 3bd0 99bc
00000160: 1886 443d 0688 073d dcd1 853c 2be1 afbb
00000170: 9b1a 21bd 9ca9 b83c 1d2b 943c 9536 1c3c
00000180: 5b9f 1a3c 996c 8abd 1dea 463a 2cd3 063d
00000190: 7483 313c 1900 963b 8d71 31bd 41d0 40bb
000001a0: a48a 8c3d b01a 523d 75e7 bdbc edbe f7bb
000001b0: af91 8f3b ad18 253d 99a3 8f3c 07c3 3bbd
000001c0: 506c c0bc 0b71 7bbd 47b9 c9bc 54df 74ba
000001d0: d136 5c3c 9c03 2c3c 6069 62bd 71d8 04be
000001e0: 408e ff37 a16d 9ebb 29ce a1bc 3977 9abc
000001f0: 484c aebb c0fc 8e3b d3b5 b23b d495 b0bc
00000200: f9ab 32bc b03e 42bd 3fde b8bc 3335 163d
00000210: ff74 07bd dca1 82bd b428 623d 636c 853b
00000220: 4f7f 543d 7d18 c43c 4c37 6c3d 1539 123d
00000230: df42 26bc 99c2 ddbc 6c85 b03c 87d1 a8bb
00000240: 2076 1a3c a268 1abc 03c6 c33c 2b38 8ebd
00000250: 07f6 b0bc 508a e1bc 11a5 94bb 1193 9abd
00000260: bb43 863d bfc3 3dbd 9bfb 943b 5388 31bd
00000270: 030e 6cbd 4cbf a5bc 2308 3a3c 9386 c9b9
00000280: 2335 60bd 2167 acbc 0d38 f93c d83e 633d
00000290: 21ea 523d 2b80 21bd efa7 92bd e7a5 c13c
000002a0: f327 1b3d 3583 1a3d c9d1 51bd e386 bdbc
000002b0: a57e b0bd f01a f3bb 1c09 a83b 3d78 26bc
000002c0: 15ff 853b 5a4e 073d 2dfb a43d b1ed f03c
000002d0: da15 aabc e441 123c 20cc e8bc c77a 8c3c
000002e0: b5a4 a1bd 340b b8bc a918 ccbc 98d9 08bc
000002f0: 058a bb3d 83c4 03bd 802c 55bd 03b7 b03a
00000300: f546 12bd 1793 25bd 87a0 86bb 657d 74bd
00000310: 517f 383d 7cda 7a3d d817 32bb e896 673d
00000320: 5bfa debd 5d24 03bd b9e6 003d b488 1abd
00000330: bb76 3d3c 31c9 c9bc 76a7 8bbd 8e7f a03d
00000340: 3d57 c53b 5153 813c dd7e a1bc f33d 94bc
00000350: 3066 57bd cf24 8c3c ad59 fb3c 814e ebbc
00000360: 7b4e 6b3c 9347 21bd dd1c 13bc 1d67 663d
00000370: 5fe5 84bd cc31 82bd d9f4 94bd b413 95bd
00000380: 08d2 333d f7bb 5abd d093 df3d b871 033d
00000390: 6d2e c9bc 2c61 813d e07c ce3c 6d20 cabb
000003a0: 13a5 323d 28ac 64bc 3f35 d3bc c875 abbc
000003b0: 4549 cb3c 9f8e 093d 2b63 8738 81a7 62bd
000003c0: a136 45bd 5159 63bd 5861 af3a ae9f a13b
000003d0: 9be6 803b 0523 3cb9 3c82 bcbc 2b2e 6b3d
000003e0: 4b72 f0bb c589 3c3d 44dc 043d 8d8d 28bd
000003f0: fcda a8bc efc3 86bb cee1 1b3d 2cc8 ff3c
0.031847928 0.032678824 0.035925373 0.052693766 -0.0708574 -0.020450044 0.0251252 0.097259246
-0.05394229 0.011291274 -0.019824231 -0.0371417 0.031431705 0.030187488 0.083346695 0.0386636
-0.005117419 -0.020259231 0.05753695 0.0013712784 -0.099173434 0.11171795 0.13845591 0.011958587
0.05221538 -0.016202694 0.03866692 0.04010733 0.017881198 0.04690832 -0.006005831 0.015459708
-0.039640855 -0.019027023 -0.020476906 0.04237743 -0.0020221781 0.042180847 0.024985284 0.036564503
0.01419994 -0.023678131 0.003066188 0.032822248 0.004928497 -0.021478778 0.024016002 0.034700006
-0.031281333 0.030722803 -0.07675848 0.013377684 -0.00927134 -0.09221875 0.037052393 -0.0014749753
-0.017294822 0.04375105 0.0159274 -0.01804451 0.006570812 -0.028186748 -0.024003306 0.055259515
0.03841453 -0.11058599 0.027307427 0.033768687 -0.056075584 -0.040317167 -0.012144911 -0.010282974
0.08075088 0.053206105 -0.020933012 0.004551251 0.003722106 0.02489289 0.030617913 0.003957081
0.0013267357 -0.043462906 0.034803454 0.002876221 -0.014151364 0.00021754454 -0.03566709 -0.01877605
0.047979444 0.033088706 0.01633542 -0.0053674183 -0.039332014 0.022541814 0.018086964 0.009534498
0.009437407 -0.067589946 0.0007587986 0.032916233 0.0108345635 0.0045776484 -0.04332118 -0.0029421004
0.06862381 0.051294982 -0.023181656 -0.007560602 0.0043813805 0.040306736 0.017534064 -0.04584029
-0.023489147 -0.061387103 -0.02462448 -0.000934114 0.013440804 0.010498907 -0.055276275 -0.12973191
3.046461e-05 -0.004834846 -0.019751625 -0.018855678 -0.005319152 0.0043636262 0.005453804 -0.021555819
-0.010905259 -0.047423065 -0.022566913 0.03667183 -0.03307056 -0.063785285 0.0552146 0.0040717586
0.051879223 0.023937458 0.057669923 0.03569897 -0.010147779 -0.02707033 0.021547996 -0.0051519307
0.009427577 -0.0094243605 0.02389813 -0.06944307 -0.02160169 -0.027531773 -0.004536279 -0.07547582
0.06555887 -0.046329256 0.0045465953 -0.0433429 -0.05763055 -0.020232819 0.011354479 -0.00038437973
-0.054738175 -0.02104527 0.030422235 0.055479854 0.051492814 -0.03942887 -0.07160937 0.023638679
0.037879895 0.037722785 -0.051225457 -0.023135608 -0.086179055 -0.0074189827 0.005128039 -0.010160503
0.004089246 0.033033706 0.080557205 0.029410215 -0.020762373 0.008926842 -0.028417647 0.017148389
-0.078927435 -0.02246628 -0.024914103 -0.00835266 0.091571845 -0.03216983 -0.05204439 0.0013482276
-0.0357122 -0.04042348 -0.004108492 -0.059689898 0.045043293 0.06124352 -0.0027174857 0.0565404
-0.10887595 -0.0320171 0.031470034 -0.037728027 0.011563952 -0.024632068 -0.0681905 0.07836829
0.0060223625 0.015786799 -0.019713813 -0.018095946 -0.052587688 0.017107395 0.03068241 -0.028723957
0.014361973 -0.0393749 -0.0089790495 0.05625068 -0.064890616 -0.06357154 -0.072732635 -0.07279149
0.043901473 -0.053401913 0.10916865 0.032090873 -0.02455827 0.06317362 0.02520603 -0.0061684162
0.04361446 -0.013957061 -0.025782226 -0.020930186 0.024815211 0.03358328 6.455773e-05 -0.055335525
-0.0481478 -0.0555051 0.0013380451 0.0049323654 0.0039337403 -0.00017942123 -0.02301132 0.057417076
-0.0073378435 0.046029825 0.032436624 -0.04115062 -0.020612232 -0.0041127126 0.03805714 0.03122338

conv3.bias f4 [32]
00000000: b8b8 a5bd 0ce8 d4bd 4810 16bd b900 1cbd
00000010: b06a eebb dbe5 afbd 2522 ad3d b2d9 1cbd
00000020: 2669 9a3d 7094 693d 14f6 5cbd 005c 74bd
00000030: 2719 dd3c 214f 1cbd fe45 83bd 2195 b3bc
00000040: bb23 6ebd 3cd1 68bd d372 1bbd f5b9 c63d
00000050: a98f f43b 8d3c a0bd ecd1 8cbd ba32 01be
00000060: 245a b5bb 9b16 eb3b fc13 c5bd a9b4 ffbd
00000070: f4ac acbd 5350 97bd e044 0cbc 1962 d2bd
-0.08091873 -0.10395822 -0.03663662 -0.038086627 -0.0072759017 -0.08588763 0.08453778 -0.038293548
0.07539587 0.057026327 -0.053945616 -0.05965805 0.026989533 -0.0381614 -0.06409834 -0.021921696
-0.058139544 -0.056840166 -0.0379513 0.09703437 0.0074634147 -0.07824049 -0.06875977 -0.12617007
-0.0055344272 0.0071743256 -0.09622952 -0.1248563 -0.08431426 -0.073883675 -0.008561343 -0.10272617

conv4.weight f4 [32, 32, 3]
00000000: e31c bbbc c5e7 92bd 5700 41bb 0941 54bd
00000010: 7bf2 7a3d fcd3 f33c 5b97 86bc f7ee b33c
00000020: 199b 6e3d 5d23 b8bd 3b4d 433c 9f52 693d
00000030: a523 6abd 6413 103c 4de5 db3c efc1 6b3d
00000040: 51fa c43b 686c bb3c a304 3c3d db00 2a3d
00000050: 4939 ef3c 2dc9 8fbd e578 14bd 1b25 d6bc
00000060: 48a1 f83c 909d e4bb c988 5abc dccb 1ebd
00000070: efd1 c63c b4c5 debb 58a3 e73c d099 c23c
00000080: 877a 053d 41b6 963c dd0a a2bd 53b5 ee3c
00000090: 7ddb fbbc 4028 c63c 636c 42bd 5757 2dbd
000000a0: a357 603d 0b85 99bd a2d6 08bd 3ffa dd3c
000000b0: 7bc3 d63d fcaf 4a3c c3a7 053d f910 413d
000000c0: dcef 59bc 6343 1d3c 8366 a63c 209c d73b
000000d0: a9d0 b9bb 8308 59bc 8c8f eebb 64a0 213c
000000e0: 7c5c afbc 9134 f7bc 6b47 f0bd 5725 3d3d
000000f0: 97a8 4c3c 4c58 ddbb 1808 8e3c 3872 413d
00000100: abcf 80bd 4005 9f3a 8566 d5bd 14aa aebc
00000110: 53dc f4bc 4b79 a53c df46 153c b1fe 27bd
00000120: c87c 1d3c cfcd 0d3c c0aa 233a a076 e0bc
00000130: 15df 89bd b3d7 ce3c 8c09 253d 9739 0cbe
00000140: 644c 85bd fc06 04bc 85b9 dc3c 93d0 2d3d
00000150: 4307 2e3d e33d c4bc 45e8 1d3c 6540 edbc
00000160: 3363 ccbd 0be7 6d3d 3060 1ebd 28e5 a63c
00000170: 773e e83c a509 943c 91be 78bd c090 01b9
00000180: 4519 1cbd 3f54 9d3d 050d 5dba e3a3 b4bd
00000190: d28a 1a3d 3046 3e3c c34a 6f3c 5f7f e3ba
000001a0: b16a 973c 0bb5 4f3c 69a0 1f3d c051 e2bc
000001b0: 043a 043d 9fdf 8d3a 916d 0bbd 6304 75bd
000001c0: e5cf 4b3c d993 b43b 2be8 af3b 3bd6 de3c
000001d0: 594c afbd 0870 49bd 532a 79bc 8989 063c
000001e0: fd73 9a3b 4317 993a 386e 9bbd 5451 c6bc
000001f0: 8366 733d ef7a 42bc c481 543c 0d88 1a3d
00000200: 3904 99bc 8deb c1bc 83ba 593d 20b6 a4bc
00000210: df3a 70bd dd40 193d 9c06 d0bb d0de 79bd
00000220: 3bca 3c3d 2535 d5bc 31d3 fdba 7e4c 8abb
00000230: 7ca1 45bd b511 e03b 2384 8f3c 65f2 25bc
00000240: cd42 0fbd 3b9c 76bc 7d0c 8b3c 0037 20bd
00000250: 8775 87bc bc57 ec3b 95ad 91bd 9df3 60bc
00000260: 25ec 2e3d 4ba7 253d 0134 e03c f4a3 ffbb
00000270: 486b b53c db50 4abd 5182 29bc 0b06 88ba
00000280: 0001 5c3d 10bd b3bc 43f0 63bc 95f8 2e3d
00000290: f980 263d 6597 6dbd 28ce 39bb f7ca fd3c
000002a0: 8838 07bb 2d75 483c 930a 10bd ff67 2fbc
000002b0: b80e 5e3d 0b61 de3a 67f1 933d 7c9f 96bd
000002c0: a490 5f3c 0b0a 2dbd 1963 8e3a dbeb 433d
000002d0: 0587 60bd cdd7 f93b 3762 a53b 8d54 533c
000002e0: 9f46 96bd e406 d73d 1888 ddbb 6d1f ab3c
000002f0: b3ce 5e3c 1939 8abd 131c 06bc c757 b63d
00000300: 53f4 4ebd abaf 7ebd 0471 b83b fc89 dfbc
00000310: 4c95 143c 1273 a6bb d8f6 313c d9a2 ea3c
00000320: 9ba8 653d 0425 0dbd abce 873c c482 8bbd
00000330: c056 8d3d 485c b83c 1588 773a b1fd 18bd
00000340: 66ba 8abc edc7 bfbc c52a 1d3c 21e1 0e3d
00000350: 5fab cebd f0d5 dcbd 75d8 623c 2d81 ee3c
00000360: 73d5 42bc 6d69 dcbc 9b30 e9bc 1cd7 7f3c
00000370: e986 bb3c 8c00 52bd 067d a43c 6314 e93c
00000380: b173 2dba 58d9 c43d f86d e33b 6107 ef3b
00000390: 751c f8bc 6906 99bc 13c5 81bd 0f62 5d3c
000003a0: 9fb1 afbb 1962 163d c3b9 3c3c 93e3 b2bd
000003b0: de3b 0b3c 1f8c 24bd 48ad 293c 1940 10bd
000003c0: cdd4 b03c 3138 08bc 0507 1ebc 0771 b2bc
000003d0: fc4f db3c 1563 b83b 7f3a f93c bf83 cdbb
000003e0: 7224 29bd c4d4 073d 0bc3 1c3d ef94 a6bc
000003f0: c37a 5ebc 5328 343d f31e bfbc d430 debc
-0.022840923 -0.07173113 -0.0029449665 -0.051819835 0.061266404 0.029764168 -0.016429594 0.021964533
0.05825338 -0.0899112 0.011920269 0.05696356 -0.0571629 0.008793686 0.026842738 0.057557996
0.0060112854 0.02287884 0.04590286 0.041504722 0.02920212 -0.07020793 -0.036248107 -0.02614074
0.030350342 -0.0069767907 -0.013338276 -0.038768634 0.024270026 -0.0067984704 0.02827613 0.023754984
0.032587554 0.018397452 -0.07912228 0.029139197 -0.030744309 0.024189115 -0.047466647 -0.042319622
0.054771077 -0.07496079 -0.033407815 0.027096866 0.10486504 0.0123710595 0.032630693 0.047135327
-0.013301816 0.009598586 0.020312553 0.006579891 -0.005670626 -0.013246658 -0.0072802957 0.0098649
-0.021406405 -0.030176433 -0.11732372 0.04617819 0.012491367 -0.0067549106 0.017337844 0.047228068
-0.062896095 0.0012132302 -0.10419945 -0.021321334 -0.029890215 0.020199439 0.009111135 -0.041014377
0.00961227 0.008655026 0.00062434 -0.027400315 -0.06732003 0.025249338 0.040292308 -0.13693844
-0.06508711 -0.008058306 0.026943931 0.04243524 0.042487394 -0.023955291 0.009637897 -0.02896137
-0.09979858 0.058081668 -0.03866595 0.020372942 0.028350098 0.018071005 -0.060728613 -0.00012356322
-0.038110036 0.07682084 -0.0008432421 -0.088203214 0.037730046 0.011613414 0.014605227 -0.0017356685
0.018483492 0.012677441 0.03897134 -0.027626872 0.03228189 0.001082409 -0.034040038 -0.059818637
0.012439703 0.005510789 0.0053682528 0.027201762 -0.08559484 -0.049179107 -0.015207845 0.008211502
0.004713534 0.0011679906 -0.07589382 -0.024208702 0.059423935 -0.01187013 0.012970392 0.037727404
-0.018678771 -0.02367189 0.053156387 -0.020106375 -0.058649894 0.037415374 -0.006348444 -0.061003506
0.0460913 -0.026026318 -0.0019365308 -0.0042205444 -0.048249707 0.0068380483 0.017519062 -0.010128592
-0.034975816 -0.015051897 0.016973728 -0.039114952 -0.016535534 0.007212607 -0.07113186 -0.013729957
0.042705674 0.040442746 0.027368547 -0.007801527 0.022145882 -0.049393516 -0.010346011 -0.0010377778
0.05371189 -0.021940738 -0.013912263 0.042717535 0.04065034 -0.05800571 -0.0028351638 0.03098057
-0.002063306 0.012234968 -0.035166334 -0.010705947 0.054213256 0.0016966177 0.07223778 -0.07354638
0.013645325 -0.042245906 0.0010863274 0.04783235 -0.054816265 0.0076246024 0.0050471085 0.012898576
-0.07337689 0.10499361 -0.0067606084 0.020889008 0.013599086 -0.06749172 -0.008185404 0.08903461
-0.050525974 -0.06217925 0.005628707 -0.027287476 0.009068798 -0.0050796354 0.010862075 0.028642105
0.056068998 -0.03445913 0.01657804 -0.06812051 0.06901312 0.02250494 0.000944258 -0.037351314
-0.016934585 -0.023410762 0.009592717 0.03488267 -0.1009128 -0.10782993 0.013845553 0.02911433
-0.011891711 -0.02690574 -0.02846556 0.015615251 0.022891479 -0.051270053 0.020079147 0.028452104
-0.00066166656 0.096117675 0.0069405995 0.007294581 -0.030287007 -0.018679814 -0.06336417 0.0135121485
-0.0053617503 0.036714647 0.011518898 -0.087348126 0.00849816 -0.040172692 0.010356255 -0.03521738
0.021585846 -0.008314178 -0.009645228 -0.021782411 0.026771538 0.005627046 0.0304234 -0.006271809
-0.041294523 0.033161893 0.038271945 -0.020334689 -0.013579073 0.04398377 -0.023330187 -0.027122892

conv4.bias f4 [32]
00000000: c0ef 0e3e f1a1 d5bc bc40 acbc d359 e23c
00000010: 0b4c 90bd 2d64 eabc 1584 acbd 5de9 febd
00000020: b7c9 52bd eff7 c9bd 50e1 7ebc b869 5cbd
00000030: 932e 983b 099b aebd 9516 21bd 1b1d dabd
00000040: c5ec f3bc 0d65 eabb a88e 69bc ac8e bf3d
00000050: 6d10 abbd 48d3 223d f87e b9bd 2398 febd
00000060: 9834 983d 0b6c e2bd 5465 cdbd abb7 f8bc
00000070: a155 9dbd 05dc 86bd 9481 96bc 4b51 59bd
0.13958645 -0.026078196 -0.021026962 0.027630722 -0.07045754 -0.02861222 -0.0842363 -0.12446854
-0.0514619 -0.09861743 -0.015556648 -0.05381176 0.004644224 -0.08525664 -0.039328177 -0.10650083
-0.029775986 -0.0071531595 -0.014255203 0.093533844 -0.08352742 0.039752275 -0.090574205 -0.124313615
0.074319065 -0.11055764 -0.100290924 -0.030361017 -0.07682348 -0.06584934 -0.018372335 -0.053056043

conv5.weight f4 [32, 32, 3]
00000000: cdab 1abc 6467 44bc e89e 9a3d 5859 64ba
00000010: 8511 74bc 9143 14bd bd98 0dbc 0f43 adbc
00000020: 2803 7abd 547e 2e3d b597 213d 4532 173d
00000030: af29 ddbc 4905 213d a24f 8a3c 072c 263c
00000040: dbd2 51bd 5c18 563c b5f9 84bc d980 72bd
00000050: 0def 21bc 9458 b5bd e7a2 74bd fc63 7bbc
00000060: b005 3fbd 993d c2bc 1b05 2f3d c0c6 6eba
00000070: 8987 13bd 4f0f a43b d5c6 92bc adf9 8d3c
00000080: 5880 8b3c 6117 b83c a980 afbc e89b 9f3c
00000090: d322 31bd d0a2 3ebd 173a 163d 5bd1 6c3d
000000a0: 3309 803d 53f0 36bd e05d d0bc 2c19 81bb
000000b0: c51d 37bd a507 03bd 3974 27bd 4da9 22bd
000000c0: 1026 37bc 5029 70bc c856 c4bc 20b2 433c
000000d0: 1438 243d 17ef 023d 8b46 c53c 657c 073c
000000e0: 61ea 8abc abe0 f63c 749d d43c 11e2 9c3d
000000f0: 995f bb3c 90cd 61bc 1d9b 98bd d0da 7c3d
00000100: 58c8 5a3b 30e4 5f3d ef48 2f3d 5186 173d
00000110: 69a7 1abc 549b bdbd 1d35 8a3c 4348 483d
00000120: 3384 5e3d 7aa2 8dbc 253f 7fbc eb64 893c
00000130: 8ca4 343c 4809 ae3c c897 2cbc 7c2a 58bd
00000140: e90d bdbc 54dc 253d 086c 323d c5d3 01bd
00000150: 770f 293d dfad 71bc a816 0e3d 1061 b5bc
00000160: 8b76 a53b 4566 1c3d e7c0 81bd d9fb 50bd
00000170: 5edf a63a 8985 d0bd b82e b13c 4160 a3bd
00000180: 3936 213d 1bf3 0dbd 4827 963b 682b ffbb
00000190: fdf8 8b3c 714d 133d e7a5 17bd 6dbf 213d
000001a0: f004 e3bb e8cf 373c 7359 2a3d df76 de3c
000001b0: 9791 e73c dd2a 48bc bb5b 68bd c786 e0bc
000001c0: 8c7f 763d 71aa 87bc 1527 56bc 94eb 08bd
000001d0: 1cc1 133d 294c 213d b819 7dbc 3d69 4f3d
000001e0: 2360 31bd 9c44 ad3c c833 ddba 9aec 103d
000001f0: 4ee2 8d3c 9177 c93b 812c a83c 61cb 97bc
00000200: bb44 bd3c dd64 e33b 63d5 abbc 7399 173c
00000210: 9fe9 203c 7b62 3ebc b04c 4e3d f8ee 05bd
00000220: 7143 8e3d 4b7e 823c 3bd8 1f3b 3578 11bd
00000230: 5476 50bc 9e29 01bb b949 333d 10ab b2bc
00000240: 01e4 a5bb 940d b03c 9909 08bd 719a 31bc
00000250: 947c 30bb 17af 1abc f123 09bd 1523 383c
00000260: 2042 1c3d 30fd bb3c 257b 93bd cfb8 a3bd
00000270: 088e 6bbd 5dd4 6e3d cf24 5b3b c7e7 29bd
00000280: e93c 9ebc f0d0 5ebd ef8f 25bd 8c87 3d3c
00000290: 9b76 57bb 1ef8 84bd bde3 6b3d f599 443d
000002a0: cf52 d6bb df1b 8abb ece7 9c3c 9b37 7ebd
000002b0: d617 99bc bb34 49bd 5903 9f3c 7f16 4b3d
000002c0: fcc6 d5bc 7d59 a1bd d308 fb3c 6147 b53d
000002d0: 6940 8cbc 31da 813c c35a 8a3d f5d1 22bb
000002e0: 0d35 743b 1459 4b3c 909f ba3c 744a 613d
000002f0: e035 063d 6895 11bd e353 2ebd e8e5 bdbd
00000300: 348b 62bc c777 18bd 0553 073d e383 31bc
00000310: a1b6 ee3a b48a 8cbd 61fb 16bd 8439 61bd
00000320: a776 b0bb f486 4abc 8eab 86bc 3b7b 6d3b
00000330: 812c c43a 7090 2b3d e3e0 843d b93b 643d
00000340: ebfd 3cbc e05a 34bd e71a b83c f189 01be
00000350: d3ee f13c 7d32 48bd fd2a 2d3c 7d99 8c3c
00000360: f89f 59bd cfdf b83c fd10 14bc 4204 1e3c
00000370: af78 83bc 7039 81bd 83d0 f4bc 1157 2f3d
00000380: d71a 853d 7e8b 1f3c bfbe 0abd 835b cb3c
00000390: 2901 e43c f85b c0bc 7300 e1bc d32c 1c3d
000003a0: b385 eabc 419b cabd 7c57 7a3d f0e1 a0bd
000003b0: ad8c 0cbd 1989 d4bc 7876 243d cbac 0bbd
000003c0: 5dde 08bc 17c5 99bd e4c4 83bc 6168 0cbd
000003d0: 56c3 873c 28dd c73b e14d d7bb 5917 cdbb
000003e0: 909a c2bd f51d 09bd e754 63bc 275e c9ba
000003f0: 17d3 84bc 3195 423d f896 f6bc fd2e 643c
-0.009440375 -0.011987541 0.0754984 -0.0008710823 -0.014896755 -0.03619725 -0.008642373 -0.02115014
-0.061038166 0.042600945 0.03945132 0.036913175 -0.026997415 0.03931168 0.016883675 0.010142333
-0.051226478 0.013067331 -0.01623235 -0.05920491 -0.009883654 -0.088547856 -0.05972567 -0.015343662
-0.046636283 -0.023711013 0.04272948 -0.00091085956 -0.03601793 0.0050067077 -0.017917076 0.017330969
0.017028973 0.022472085 -0.021423655 0.019483522 -0.0432461 -0.04654199 0.036676493 0.057816844
0.062517546 -0.044662785 -0.025435388 -0.0039397683 -0.044706125 -0.031989712 -0.040882323 -0.03971224
-0.011178508 -0.014658287 -0.023967162 0.011944324 0.040092543 0.031966295 0.02408149 0.008269404
-0.016957464 0.030136427 0.025953986 0.07660306 0.022872733 -0.01378192 -0.074514605 0.061732113
0.0033383574 0.054660976 0.042794164 0.03699333 -0.009439328 -0.09258142 0.01687103 0.04889704
0.054325294 -0.017289389 -0.01557902 0.016771754 0.011025559 0.02124466 -0.010534234 -0.05277489
-0.023077922 0.040493324 0.043560058 -0.0316961 0.041274514 -0.014750927 0.034689575 -0.02214101
0.005049532 0.03818347 -0.06335621 -0.05102143 0.0012731364 -0.1018172 0.021628723 -0.07977343
0.03935835 -0.03465567 0.0045823194 -0.007787157 0.0170865 0.035962526 -0.03702345 0.0394892
-0.006928079 0.011219002 0.04158921 0.027156292 0.028267665 -0.012217251 -0.056728106 -0.027408017
0.060180232 -0.016560765 -0.013070841 -0.03342779 0.036072835 0.039379273 -0.015448026 0.050637472
-0.043304574 0.02115088 -0.0016876394 0.03538189 0.017319825 0.0061482866 0.020529034 -0.018529596
0.023104062 0.006939514 -0.020975774 0.009252894 0.009821325 -0.011620159 0.050366104 -0.0326986
0.06946457 0.015929362 0.0024390358 -0.03551503 -0.012723524 -0.0019708644 0.04377148 -0.021810085
-0.0050625806 0.02149085 -0.033212278 -0.010840044 -0.0026929723 -0.009441159 -0.033481542 0.011238833
0.038149 0.022947878 -0.07201222 -0.07994234 -0.0575085 0.058307994 0.0033438688 -0.041480806
-0.019316154 -0.054398477 -0.04042047 0.011567961 -0.003287709 -0.06492637 0.057590235 0.047998387
-0.0065406333 -0.0042147483 0.019153558 -0.06206475 -0.018688124 -0.049122553 0.019410776 0.049582
-0.02609586 -0.07878397 0.030643856 0.08851505 -0.017120557 0.015851112 0.06755593 -0.0024844382
0.0037263066 0.012411375 0.022781163 0.055002645 0.032766223 -0.035542876 -0.04256047 -0.09272367
-0.013827134 -0.037223604 0.033038158 -0.010834667 0.0018212387 -0.06862393 -0.036860827 -0.05498649
-0.005385238 -0.012361277 -0.016439226 0.003623678 0.0014966876 0.041885793 0.06488206 0.05572102
-0.011535148 -0.044031978 0.022473766 -0.12650277 0.029532826 -0.048876274 0.010569331 0.017163033
-0.053131074 0.022567658 -0.009037253 0.00964457 -0.016048757 -0.063097835 -0.029884582 0.042807642
0.0649926 0.009737847 -0.033873316 0.02482391 0.027832584 -0.023481354 -0.027466035 0.038128685
-0.028628206 -0.098928936 0.061118588 -0.07855594 -0.034313846 -0.02594428 0.040152043 -0.034100335
-0.008353797 -0.07508295 -0.016085096 -0.03427923 0.016572636 0.006099362 -0.006570563 -0.006258887
-0.09502137 -0.033475835 -0.013875223 -0.0015363143 -0.016213937 0.04750556 -0.030101284 0.0139272185

conv5.bias f4 [32]
00000000: 09a3 8abd 63e0 04be 9cef 53be 9094 133c
00000010: b877 88bd fb02 94bc 3123 29be 784b 85bd
00000020: 0101 7dbd 18bf 49bd 977a c7bd 3843 18bd
00000030: ff21 2c3e 5c41 15bd e7cb 71bd e327 d2bd
00000040: 1f98 12be e4a8 083e 409e 63bd 6c3d 9bbd
00000050: d05e 12be 3565 37bd 286e e5bd 68e4 1dbd
00000060: dd6f d1bd 1889 dcbd ad5b dcbd c318 bbbd
00000070: 5926 893c 659c 50bd 5691 243e d87a c9bd
-0.06769378 -0.12976222 -0.20696872 0.009007588 -0.066634595 -0.018067827 -0.1651733 -0.06508535
-0.061768536 -0.049254507 -0.09740179 -0.03717348 0.16809843 -0.036439285 -0.059032347 -0.10261514
-0.14315842 0.13345677 -0.05557084 -0.07580075 -0.1429398 -0.044774253 -0.11202651 -0.038547903
-0.10226414 -0.10768336 -0.10759673 -0.09135582 0.016741918 -0.0509304 0.16071066 -0.09837884

conv6.weight f4 [32, 32, 3]
00000000: 3ddc 5abd d8d7 adbd ce1f 1e3b 2139 1b3d
00000010: 85b0 a43c 533b 87bc 2952 cbbc db8f 38ba
00000020: 7c9e 29bd 1bdd 2b3b 8bed dd3b ed3a ef3c
00000030: 05ce febc 87fc 183c f9e2 c53c a4e2 d83c
00000040: 638f 893c 7071 413c 4d59 8b3c 631b 98ba
00000050: 9c45 433d 0ca0 87bc a5ad f7bc 8040 7cbd
00000060: 20bc b63b 2b83 5abd 3ec4 0dbc 2afd 0bbc
00000070: 1de3 aa3c 61d3 b03c 9a88 923d 1b87 8cbc
00000080: 1ca9 32bd 3371 f73c 5797 8ebb 4847 88bc
00000090: 4f96 a1bc 8989 50bc b3ea d03d 37dc 2abd
000000a0: 8fdb 27bd 058c dcbb 6d3b 18bd 5730 2b3d
000000b0: 99ea 1a3c 4459 70bc 85c2 dfbc e3c5 44bd
000000c0: 1532 96bd eaab 81bd e50b e9bc 2592 14bc
000000d0: 657e 373d d98e cf3c 8397 f63c c87b d13c
000000e0: a3bc b5bd 7f40 033c 15be 58bd 2df9 b1bd
000000f0: 7a80 8fbc a965 0bbd 486f 2dbd 8b95 543d
00000100: 1708 62bd d5f9 7bb9 eff2 3f3d b847 e5bc
00000110: 3285 91bd e0f8 ce3d 9be5 43bd 8bfe f0bd
00000120: 9274 1f3c db90 c63c 230f ce3c ec9b 1cbd
00000130: 5e3c 09bd e488 6dbd a481 32bc 2be8 26bd
00000140: d37c 31bb 8df5 2fbd e06a dfbb 38e3 1bbd
00000150: 4496 3abd e592 bfbc 17b1 bbbc e549 6ebd
00000160: 9c34 d9bc 550a c1bc b09d 403d 6f71 eabc
00000170: 1cfb a2bc 0737 1d3d 04ad 0dbc 83e6 3fbd
00000180: e75b 953c 99ce 253c 297c 443d bc02 bb3c
00000190: 176a a93b 89ec d63c 9ba7 7c3c a7c3 873c
000001a0: d472 7e3c 9969 b1bb d481 d8bc 9148 0e3c
000001b0: 07c5 a3bb 6f6f 3a3c 3826 aa3d 312f 04bd
000001c0: ff96 423c 9bde 22bd ab39 09bd 4783 91bd
000001d0: 9738 47bc a515 f9bc f9b0 2bbd 504f d53b
000001e0: f93a 3b3c b10c 153d 20f1 3f3d 61ae 20bc
000001f0: 3858 82bd fd6d 9ebc 438d f3bc 7099 d0bd
00000200: 0505 27bd ed92 e7bc e5d4 8d3c eb07 683d
00000210: 6022 353d cf2b 9abd 56ee 21be f177 043d
00000220: 7301 803d eb59 5f3c 9026 003d 00b8 be3c
00000230: f7c6 32bc 59bf d83c 57ec 283d d8ad ac3b
00000240: 370c f3bc 67cc cabc 738f 043b 64a4 cf3d
00000250: db8f 113d 3d5a a5bd 0388 f7bc 5835 46bd
00000260: e3b1 dc3c 518e 573c 075c 10bc 107e f8b9
00000270: 9bc0 083d 5b6a a6bd d275 20bd 0690 0abd
00000280: 9350 8a3b e44b 303d 4bfd 5dbd 4074 06bd
00000290: 15c9 39bd 3d58 ea3c 606f 763b 1c6d 573c
000002a0: 1570 643d 11b0 05bd 0b9a 01bd 4883 c6bc
000002b0: 25d7 3dbb bdfb 553d 4fe2 3ebd 139f ba3c
000002c0: 7d74 273c d8e0 f0bc 10f7 3f3d b9bd e3bb
000002d0: f0ff 9c3a 0121 acbc 413d 613d 376c 1bbd
000002e0: e797 04bd 5703 75bc 8c62 a4bc c0e5 a5bd
000002f0: 11ab 353c 300f 27bd e08a cabd 13c4 b4bc
00000300: c1d5 6fbc 8472 6c3d 355d 2b3d 93b4 01bd
00000310: bcf1 f5bc 74f5 27bc 3594 f4bb 7b9d 243d
00000320: b344 693b 897e 9dbb b7b4 443c 9dcd 8f3b
00000330: 61b1 0cbc 9d49 2f3d b4be 863d 7f00 1b3c
00000340: 1b05 90bd 19ba 8bbd 2833 583d 716a 523d
00000350: f3bc 4fbc 2535 10bd 8179 613c 80f7 92ba
00000360: 951f 553c 4bcb ac3c d5b2 c73b 07cb c23c
00000370: 2b73 19bd 43cb a1bd 2843 d7bc 550d 6fbd
00000380: 752e 62bb 4d5f dcbc 5528 763c ebbd aa3c
00000390: 935b 35bd 9b33 cabd e748 03be 4cbc 1b3d
000003a0: d331 583d 4381 2e3d 93b8 af3c b567 06ba
000003b0: dd22 e6bd 4eb8 1b3d 8c45 933d 3058 9d3d
000003c0: a795 62bc ede9 d9bc 4d55 243c 18ab 573c
000003d0: 58ad 483d 406d 903d d1ed dfbd db60 61bd
000003e0: 9996 843c ddcc 64bd efd7 17bd 153f 6c3c
000003f0: 6938 5abc c829 b0bd 4f22 efbc 7254 9f3c
-0.05343269 -0.084884346 0.0024127844 0.03789628 0.020103702 -0.01650778 -0.02481945 -0.0007040479
-0.041410908 0.0026224318 0.006772702 0.029202903 -0.031104097 0.009337551 0.02415608 0.026475258
0.016792005 0.011806831 0.017010355 -0.0011604842 0.047673807 -0.016555808 -0.030234167 -0.06158495
0.0055766255 -0.053347748 -0.008652745 -0.008544246 0.02086025 0.021585168 0.07154961 -0.017154267
-0.043618307 0.030205345 -0.004351537 -0.016635552 -0.019724993 -0.012728103 0.10201015 -0.04171392
-0.04098087 -0.006730559 -0.037166048 0.041794147 0.0094553465 -0.01466972 -0.027314434 -0.048040282
-0.07333771 -0.06331618 -0.028448055 -0.009068047 0.044798274 0.02533667 0.030101543 0.025571719
-0.0887387 0.008010983 -0.05291565 -0.08690105 -0.017517317 -0.034032498 -0.042342454 0.051900428
-0.055183496 -0.00024030295 0.04686254 -0.0279883 -0.07105483 0.10106063 -0.04782639 -0.117673
0.009732382 0.024238994 0.025153702 -0.038234636 -0.033504836 -0.057991877 -0.010895167 -0.040748756
-0.0027082458 -0.042958785 -0.0068181604 -0.03805849 -0.04555346 -0.023385474 -0.022911591 -0.05817594
-0.026514344 -0.023564497 0.047025383 -0.028618542 -0.019895129 0.038382556 -0.008647207 -0.046850692
0.018232299 0.0101200575 0.04796997 0.022828452 0.0051701176 0.026235836 0.01542082 0.016572786
0.015530307 -0.0054141995 -0.026429094 0.008684293 -0.0049978527 0.011379107 0.08308071 -0.032271568
0.011876821 -0.039763074 -0.033502262 -0.07105117 -0.012159488 -0.030405829 -0.04191682 0.006509699
0.011427634 0.036389057 0.046860814 -0.0098072 -0.06364483 -0.019339556 -0.029730445 -0.10185516
-0.04077627 -0.028268302 0.01731343 0.056648176 0.044222236 -0.07527887 -0.15813574 0.032340948
0.062502764 0.013632278 0.031286776 0.023281097 -0.010911695 0.02645843 0.041241016 0.005269747
-0.02966891 -0.02475567 0.0020227104 0.10138777 0.035537582 -0.08073852 -0.030216223 -0.048390716
0.026940292 0.0131564895 -0.0088110035 -0.0004739617 0.033386808 -0.081257544 -0.039174862 -0.033828758
0.004221031 0.043041125 -0.054196637 -0.03282571 -0.045357782 0.028606528 0.0037603006 0.013148572
0.055770952 -0.032638613 -0.031641047 -0.024232522 -0.0028967347 0.05224203 -0.046602543 0.02278093
0.010220644 -0.029404089 0.046866477 -0.006950107 0.0011978131 -0.021011831 0.054990057 -0.037945
-0.032371428 -0.01495441 -0.020066522 -0.08100462 0.011088149 -0.04078597 -0.098897696 -0.022066152
-0.014638365 0.057726398 0.041836936 -0.03166635 -0.030022494 -0.010251392 -0.0074639567 0.040189248
0.0035593926 -0.004806344 0.012005976 0.0043885247 -0.008587212 0.042794812 0.065793425 0.0094605675
-0.07032224 -0.06822605 0.05278316 0.05137104 -0.012679326 -0.035206933 0.013761879 -0.0011212677
0.013008018 0.021093031 0.0060943165 0.023778452 -0.03746335 -0.07900097 -0.02627714 -0.058362324
-0.0034512554 -0.026900912 0.015024264 0.020842513 -0.044276785 -0.09873124 -0.12820779 0.03802137
0.05278189 0.042603742 0.021450317 -0.0005127148 -0.112371184 0.038017564 0.071909994 0.07682836
-0.013829625 -0.026600802 0.010030103 0.0131633505 0.04899344 0.07052088 -0.10934032 -0.05502401
0.016185092 -0.055859435 -0.037071165 0.014419337 -0.013319113 -0.08601719 -0.029191164 0.019449446

conv6.bias f4 [32]
00000000: 45cc 87bd eff8 f8bd a0ee c7bb a99b bbbd
00000010: 8421 2d3e b4de d4bd 71a0 a1bc 0fc2 edbd
00000020: 3beb 2d3d fb41 0ebe 838e f4bd e3d2 0bbe
00000030: 28c3 02bd 1b67 ea3d b89f cabc 9db2 13be
00000040: 884d 34be 236d d2bb 87f4 45be e3e6 09be
00000050: 9709 10be dd46 90bd e5bc 443d f0bd 53be
00000060: 797e 7ebd 651e 593d a09a 65bd 002d 47bd
00000070: e5b6 1bbe 985f 07bd c3a0 2abd 9b22 26bd
-0.06630758 -0.12156855 -0.0061014444 -0.09160549 0.16907316 -0.1039404 -0.019729825 -0.11609279
0.04246066 -0.13892357 -0.119412445 -0.13654666 -0.031924397 0.11445447 -0.024734363 -0.14423604
-0.17607701 -0.0064217015 -0.19331561 -0.13466983 -0.14066158 -0.07044766 0.048031706 -0.20677924
-0.062132332 0.053007502 -0.056055665 -0.0486269 -0.15206487 -0.03305015 -0.04165722 -0.040560346

conv7.weight f4 [32, 32, 3]
00000000: f0a0 c3bc 5521 383c dfb9 48bc 0bda b73c
00000010: fb3b 63bb 5b5f 463c dbd0 5f3d 80ff 77bd
00000020: 8849 0bbd 7526 10bd 0047 d73d 701d 343d
00000030: e989 92bd e64e 16bd 63a6 05bc af61 28bd
00000040: c1ad bcbd 8f1d aabc bb47 703c 0537 e8bc
00000050: e075 d3bd dc2f aebc b35b 3fbd c7f6 02bd
00000060: 0e4d 2a3d eb37 9cbc e4a2 8bbd 5bbd 953c
00000070: 7ce7 283c 0c6b a33c 1971 193c abd4 cebd
00000080: d8b3 b5bc cc16 efbc 055e 80bc cfd4 d4bc
00000090: beec 25bb d958 16bc 9192 2cbd 4365 6abc
000000a0: 844d 2ebc 6b2e 0dbc 6ff1 203d af57 9b3d
000000b0: 7aa5 953d d56c 293d 2078 8c39 0f46 65bb
000000c0: 786c 1ebd 4bb7 eebc e8df b43b 9d1e 1abd
000000d0: 086b 5d3c 747c 813d 3130 933d 50a2 35bc
000000e0: cd0a 76bd e3e4 9c3b 030e 883b f737 cebc
000000f0: a52f 3d3d 5dff d0bc 45e9 bcbb 0ee2 86bd
00000100: d911 ccbc 58a9 26bd b05f ce3c b73b 8ebc
00000110: ec6e 8cbd 1885 463d 7b3a 3f3d 95d1 8d3c
00000120: e11b 09bd 74d1 31bc 9729 473a 80ee de3c
00000130: 8d67 61bd aff2 a3bd 5b57 5f3c fd28 5b3d
00000140: 59d2 143d 486c 88bc 7dff eebc 4dba 2dbb
00000150: f53e 8c3d 77ed b73d 85c4 2bbb 354e bfbc
00000160: e193 61bc 15a1 233c 4913 083d dc0a e33c
00000170: 3379 e9bc 65be 563d 74d2 7fbd 30af 50ba
00000180: 7144 b3bc 11c4 8abd 275d 2c3c a740 773c
00000190: e856 4d3c eb13 c0bc 53dd 573d eb06 8139
000001a0: 315f 293c a1b1 5bbc 461d 86bc 4b89 39bd
000001b0: e032 203d 707d 113d c065 4a3d 53d7 c53c
000001c0: 144f 073d 839d 4f3d adbe 00bc d9e8 0f3d
000001d0: 5366 6f3d 88a2 b2bc cb39 27bc 241b 583c
000001e0: 532c 86bc e723 c5bc 05e3 1b3d af5b 36bc
000001f0: 54ee 7d3c 0fd1 a93b d0a0 f3bc bc83 0f3d
00000200: a4c1 7b3d f364 b1bd fdbd e43b c9ed 45bb
00000210: cde9 e13c 474d 4abc 153b bcbd b7af 453d
00000220: 0a63 a93c 438f 54bc 73a7 5a3d 450f 063b
00000230: e6f1 07bb bb0e b93b afae a1bd 20d9 77bd
00000240: 63aa 19bd 077b 25bc 3d9f 613c 5c51 2e3b
00000250: 2519 253d 4fe8 1fbd 0ba0 353d 606f cd3b
00000260: fb15 a33c e505 363d 0760 893c 6786 d4bb
00000270: d37e 04bc 73f6 393b 0406 39bb db23 93ba
00000280: 68e0 72bd 58fd 0b3d 610a 16bc 8b3f 94bd
00000290: 488c 393d 63b2 2ebd 7b5f 52bd 605c bebb
000002a0: 8504 c0bd d504 40bc c066 683d ab60 af3c
000002b0: cb93 d0bc 1c0b 7f3d a57f 97bd e181 aebd
000002c0: 40f7 3839 9c8c eb3d 9359 f73b a356 7bbd
000002d0: b80b d1bb 9067 1b3d bcc5 3dbd a828 c53c
000002e0: 6b2f f2bb 2d0b 103c 0890 3cbd 0fb3 4ebc
000002f0: 0099 ab3a 8d66 23bd 496f a2bd 68f6 dd3c
00000300: e009 033d 373d 0c3d b92d 703d ada5 7fbd
00000310: dd7e 47bd 0d71 5fbd b058 1abd ffe8 4fbd
00000320: d8a3 b5bc 44f1 6b3d 31c2 0f3c 0588 53bd
00000330: e478 8e3c 4891 d93d 2430 c33d ef16 d7bc
00000340: 5bb1 9e3a 18bf dabc 842c 9bbd 48dc 41bd
00000350: 309c c1bd 0ecf 04bd 139b c4bb 05ca a2ba
00000360: 6baf 233d 2b53 adbc e0ab bfbc 98c3 65bc
00000370: e78c cd3c 4424 7dbd d105 72bd 7189 9abb
00000380: 8071 cbbb 48bf 16bd 53d5 d6bc d438 63bb
00000390: 3c89 623d c40d 1e3b abd0 82bc 98f2 293d
000003a0: f7cd 693c fdc6 033d b310 03bd 6bb6 b23c
000003b0: 4051 c43c 5d97 e4bb cf55 b73c 5902 02bd
000003c0: b712 dd3c 9436 083d c0ee 40bc db13 1abd
000003d0: 18c0 8dbd 0924 bbbd 4187 10bd e766 48bc
000003e0: 2738 78bd 156b c4ba 73c9 08bd d995 93bc
000003f0: 21b9 03bd 740b cb3c c527 a73b a992 8f3d
-0.023880452 0.011238416 -0.012251346 0.022442838 -0.0034673202 0.012107695 0.05464254 -0.0605464
-0.03400567 -0.035192925 0.10511589 0.043973386 -0.071552105 -0.036696337 -0.0081573455 -0.041108783
-0.092128284 -0.020766048 0.014665539 -0.028346548 -0.10325217 -0.021263056 -0.04671831 -0.031973626
0.04157739 -0.019069633 -0.06818178 0.018278768 0.010309096 0.019948505 0.0093653435 -0.10099157
-0.022180483 -0.029185675 -0.015669832 -0.025980381 -0.0025318111 -0.009176456 -0.042131964 -0.014306369
-0.010638598 -0.008617024 0.03929275 0.07585084 0.07306953 0.041363556 0.0002679238 -0.0034984385
-0.038677663 -0.029140135 0.005519856 -0.03762685 0.013514288 0.06322566 0.07186926 -0.011086062
-0.060068894 0.0047880276 0.004152061 -0.02517317 0.046188015 -0.025512392 -0.0057651126 -0.06586085
-0.024910854 -0.040688843 0.025192112 -0.017362459 -0.06857094 0.04846677 0.04668663 0.01731185
-0.033473853 -0.01085316 0.0007597445 0.027213335 -0.055030394 -0.080052726 0.013631667 0.053505886
0.036333416 -0.016653195 -0.02917456 -0.002650875 0.068479456 0.0898084 -0.0026209664 -0.023352722
-0.013768167 0.009987135 0.033221517 0.02771514 -0.028500175 0.052427668 -0.062456563 -0.0007960675
-0.021883221 -0.06775678 0.010520256 0.015091098 0.012532927 -0.023446998 0.052701306 0.00024609952
0.010337637 -0.013409049 -0.01637138 -0.04529695 0.03911102 0.035520017 0.049413443 0.024150526
0.0330344 0.050687324 -0.007857961 0.03513417 0.058447193 -0.021806017 -0.01020665 0.013190065
-0.016378557 -0.024064971 0.0380583 -0.0111302575 0.015498716 0.0051823924 -0.029739767 0.03503774
0.061463967 -0.08661833 0.006980656 -0.0030201545 0.027577305 -0.012347526 -0.091909565 0.048263278
0.020677108 -0.012973609 0.05338235 0.0020455879 -0.0020743548 0.005647508 -0.078946464 -0.0605098
-0.03751601 -0.010100133 0.0137708755 0.0026598787 0.040307183 -0.039039906 0.044342082 0.0062693805
0.019907942 0.044439215 0.016769422 -0.0064857486 -0.008086878 0.0028375655 -0.0028232345 -0.0011225896
-0.05929604 0.034177154 -0.009157748 -0.07238682 0.0452998 -0.04265059 -0.05136059 -0.005809352
-0.09375862 -0.011719902 0.056738615 0.0214084 -0.025461098 0.062266454 -0.07397393 -0.08520866
0.00017639715 0.115014285 0.00754852 -0.06136192 -0.006379571 0.03794056 -0.046331152 0.024067238
-0.0073909066 0.008791727 -0.046035796 -0.012615933 0.0013091862 -0.039892722 -0.07931382 0.027095035
0.03199184 0.034238067 0.058637355 -0.06241386 -0.04870497 -0.054551173 -0.037682235 -0.05075931
-0.022172853 0.057603136 0.008774326 -0.05164339 0.01739163 0.10623413 0.095306665 -0.026256053
0.0012107299 -0.026702449 -0.0757685 -0.047329217 -0.094536185 -0.032424025 -0.0059999316 -0.0012419826
0.039962213 -0.021157822 -0.023397386 -0.014023684 0.025091602 -0.061802164 -0.05908758 -0.0047160913
-0.0062085986 -0.036803514 -0.026224768 -0.0034671323 0.05530666 0.0024117092 -0.015968641 0.04149112
0.014270297 0.032172192 -0.031998347 0.0218155 0.023964524 -0.0069760517 0.022379784 -0.03174052
0.026986463 0.033255175 -0.011775672 -0.037616592 -0.069214046 -0.091377325 -0.03528524 -0.012231565
-0.060600426 -0.0014985526 -0.033395242 -0.018015789 -0.032158975 0.024785735 0.0051011764 0.07010395

conv7.bias f4 [32]
00000000: cb4d 5cbc 98fa 40bc 09c1 f2bd 4b93 d93c
00000010: 4037 043a c9a7 003e e599 b33d a3a5 c03c
00000020: 9f1e 67bd add2 f6bd ed80 9bbd 21b7 ab3d
00000030: 4b65 133d 3030 743c 9c3d bebd c55f 6e3d
00000040: 178e 123e e7dd 3abd 85f8 163d 281a c33c
00000050: 2c33 e7bd b8d8 08be 4876 e7bd 6bbc 56bd
00000060: 6fd7 303e 50d5 11be e127 b5bc 17ee 1b3d
00000070: 3492 25bd b068 dabd 6d8f 79bc 50ed 80bd
-0.013446282 -0.011778496 -0.11853225 0.026559493 0.0005043633 0.12564005 0.087695874 0.023516482
-0.056425687 -0.12051902 -0.0759295 0.083845384 0.035985272 0.014904067 -0.09289095 0.0581968
0.14312015 -0.04562178 0.0368581 0.023816183 -0.11289057 -0.13363922 -0.11301857 -0.052425783
0.17269681 -0.14241529 -0.022113742 0.038068857 -0.040422633 -0.10664499 -0.015231949 -0.06295264
